Models/LSTM/agentDQN-LSTM_2018-2020_lstm_v4_300_EPS_0.pth (torch, 256291 bytes, 8 tensors)

fc1.weight f4 [128, 104]
-0.02217552 -0.13740447 -0.06832857 0.12835194 0.1113649 -0.013856386 -0.018604942 -0.013688196
-0.072450124 -0.013185341 0.08780899 -0.02058805 -0.00051697437 0.066048644 0.05787374 0.08182367
0.05027885 0.08371409 -0.043810237 0.12591161 -0.010732078 0.016035434 0.07496523 -0.039484344
0.04057917 0.005227981 -0.25195736 -0.07474796 0.14509952 0.02042889 -0.06261628 0.075536415
0.1196094 0.10133914 -0.02863508 0.17617974 0.045072082 -0.093420774 0.018006444 -0.030476522
0.004929258 -0.10740632 -0.111966595 0.066894785 -0.081159994 0.064417504 -0.055017438 -0.0009468562
0.17870755 -0.028329877 0.1687875 0.005893485 0.10121246 -0.026064135 -0.21244885 0.014279621
0.08643548 0.090858005 0.12265865 -0.073434986 -0.03822688 0.07785916 -0.003975885 0.065985
0.11656614 0.055571415 -0.014257234 0.116886266 0.051021136 0.0025376428 0.10027175 0.13040565
0.0013725752 0.010263677 0.1392231 0.012588853 0.14705938 -0.03414544 -0.010201487 0.08957413
0.024657024 0.024252435 0.04667867 0.09196057 0.01906619 0.124425 -0.053821485 0.08583039
-0.034539513 0.016630093 0.12275152 0.048167687 0.11070522 0.010254766 0.0882582 0.030515885
0.04177579 -0.103217766 0.085052714 0.031155271 0.07719165 -0.047821086 0.18353637 0.008458762
-0.078688115 -0.013887934 0.056804948 0.056437112 0.06110213 0.07667256 -0.08750935 -0.074636534
0.0011204556 0.04705625 -0.081876166 0.0068344027 0.018381774 -0.073785186 0.06703957 -0.02441033
-0.07858999 -0.08687466 0.0031657293 0.009901732 -0.086824864 0.03156952 -0.010351658 -0.08483758
-0.04885921 0.028896518 0.016666457 -0.07736803 -0.085220255 -0.027946718 -0.023137212 -0.04888255
0.085789405 -0.035096295 0.042447455 0.09243985 -0.08870897 0.071487375 0.025520228 -0.08919605
0.011232726 0.061976172 -0.003710784 0.081622936 -0.058422532 0.024681978 -0.0508127 -0.017969824
-0.06607112 -0.06443252 -0.09537608 0.09523957 -0.087996215 -0.09224977 -0.08834055 0.09357148
-0.06667352 -0.035839837 0.07493954 0.02996733 -0.04177305 0.0320865 -0.07116583 0.06635142
0.036558025 -0.017450467 0.07933175 -0.08570706 -0.05849656 -0.015736409 -0.037241995 0.023160845
0.0735453 -0.0719281 -0.060441542 0.09069642 0.023303196 -0.08737719 -0.09331083 0.06368304
0.016415648 -0.069297224 0.0022760704 -0.08485727 0.013055682 -0.08395957 0.00762365 -0.018338583
0.061137 0.019176394 -0.021300927 -0.07006839 0.066550784 -0.017912395 -0.03577512 -0.051927943
-0.02447214 0.015275717 -0.0076419413 -0.0678374 0.09774899 -0.09550397 0.040359713 0.025566474
-0.26749688 -0.0113578485 -0.11046729 -0.06575685 -0.13048097 -0.15363973 -0.14893067 -0.08321277
-0.22178812 -0.06394696 -0.23535073 -0.18853948 -0.1996622 -0.07197367 -0.12958838 -0.16056964
-0.17769371 -0.010923966 -0.03480893 -0.10547815 -0.16114342 -0.15992425 0.0042232475 0.016219122
-0.14574672 -0.0941155 0.12452159 0.14706033 0.03986922 0.034976434 -0.052888967 -0.10725684
0.035257682 -0.2598553 0.08336528 0.024848258 0.017384356 -0.06609641 0.105617434 0.24694414
0.10204663 0.014188769 0.1068882 0.044303775 -0.029386768 -0.08704334 -0.13938358 -0.21418162
00000000: 70a9 b5bc c2b3 0cbe d9ef 8bbd b16e 033e
00000010: 4813 e43d e505 63bc 6469 98bc 7544 60bc
00000020: bb60 94bd 5407 58bc 33d5 b33d 45a8 a8bc
00000030: 9085 07ba 8344 873d 040d 6d3d 2b93 a73d
00000040: 32f1 4d3d 4b72 ab3d 5d72 33bd f9ee 003e
00000050: 99d5 2fbc be5c 833c 5f87 993d 56ba 21bd
00000060: 5836 263d 7c4f ab3b 8e00 81be 7515 99bd
00000070: f894 143e 7d5a a73c f73c 80bd d6b2 9a3d
00000080: c6f5 f43d e58a cf3d 1e94 eabc 7668 343e
00000090: 819d 383d 6453 bfbd 4082 933c e6a9 f9bc
000000a0: 9d85 a13b d8f7 dbbd be4e e5bd 2200 893d
000000b0: 3637 a6bd 53ed 833d f759 61bd 7236 78ba
000000c0: 1dff 363e 0f14 e8bc a1d6 2c3e 231e c13b
000000d0: 7a48 cf3d 7484 d5bc 318c 59be 12f5 693c
000000e0: 1605 b13d c313 ba3d 7534 fb3d 1565 96bd
000000f0: ca93 1cbd a074 9f3d 2448 82bb 2523 873d
00000100: 3aba ee3d da9e 633d 2c97 69bc 1162 ef3d
00000110: 8afb 503d 954e 263b 465b cd3d 0f89 053e
00000120: fbe7 b33a fb28 283c 8090 0e3e 7a41 4e3c
00000130: bc96 163e 17dc 0bbd 2324 27bc a472 b73d
00000140: 87fd c93c 0bad c63c 2232 3f3d d355 bc3d
00000150: b330 9c3c 89d2 fe3d eb73 5cbd d8c7 af3d
00000160: 4e79 0dbd d53b 883c 2665 fb3d 7b4b 453d
00000170: 6bb9 e23d 9b03 283c b7c0 b43d 73fc f93c
00000180: 171d 2b3d d663 d3bd 1e30 ae3d 5739 ff3c
00000190: a816 9e3d 0be0 43bd f5f0 3b3e 9f96 0a3c
000001a0: 3c27 a1bd 388a 63bc 4eac 683d 9a2a 673d
000001b0: 3a46 7a3d 8106 9d3d 1a38 b3bd 0adb 98bd
000001c0: 40dc 923a 0ebe 403d b1ae a7bd 20f3 df3b
000001d0: 6095 963c b01c 97bd 0b4c 893d 2cf8 c7bc
000001e0: caf3 a0bd 57eb b1bd 2078 4f3b e03a 223c
000001f0: 3cd1 b1bd 0a4f 013d 009a 29bc 53bf adbd
00000200: 9820 48bd 64b8 ec3c 1888 883c 2173 9ebd
00000210: f587 aebd 84f0 e4bc 408a bdbc 1239 48bd
00000220: 5bb2 af3d 22c1 0fbd 62dd 2d3d 1b51 bd3d
00000230: 0cad b5bd f967 923d cc0f d13c 6bac b6bd
00000240: 7809 383c bada 7d3d a030 73bb ed29 a73d
00000250: 774c 6fbd dc31 ca3c fa20 50bd 7435 93bc
00000260: 4c50 87bd 32f5 83bd 8954 c3bd f70c c33d
00000270: 5c37 b4bd 73ed bcbd e4eb b4bd 67a2 bf3d
00000280: 208c 88bd cbcc 12bd e779 993d 0c7e f53c
00000290: 381a 2bbd 226d 033d 64bf 91bd 41e3 873d
000002a0: debd 153d 48f4 8ebc af78 a23d 2f87 afbd
000002b0: 179a 6fbd a4e9 80bc 108b 18bd d0bb bd3c
000002c0: eb9e 963d 0a4f 93bd 8d91 77bd 0bbf b93d
000002d0: 58e6 be3c d0f2 b2bd c019 bfbd 416c 823d
000002e0: 1c7a 863c b4eb 8dbd 202a 153b a6c9 adbd
000002f0: 80e7 553c fff2 abbd d0cf f93b cc3a 96bc
00000300: ca6a 7a3d d017 9d3c 487f aebc 0480 8fbd
00000310: c74b 883d 04bd 92bc ef88 12bd 65b2 54bd
00000320: cc79 c8bc 0047 7a3c 4069 fabb 56ee 8abd
00000330: 9f30 c83d 9697 c3bd 3a50 253d c870 d13c
00000340: 5af5 88be 4516 3abc ad3c e2bd 87ab 86bd
00000350: ce9c 05be bc53 1dbe 4881 18be 756b aabd
00000360: 6d1c 63be a0f6 82bd c8ff 70be 7e10 41be
00000370: 3f74 4cbe ee66 93bd d1b2 04be 5e6c 24be
00000380: 57f5 35be 6ffa 32bc cf93 0ebd ee04 d8bd
00000390: c802 25be 2fc3 23be 2b63 8a3b f7dd 843c
000003a0: a13e 15be a1bf c0bd 2d05 ff3d fc96 163e
000003b0: e84d 233d 7343 0f3d 1aa2 58bd 79a9 dbbd
000003c0: 5c6a 103d c10b 85be 6abb aa3d 938e cb3c
000003d0: a369 8e3c 8e5d 87bd f44d d83d edde 7c3e
000003e0: d3fd d03d 0378 683c 33e8 da3d e077 353d
000003f0: 85bc f0bc c743 b2bd 92ba 0ebe 6d52 5bbe

fc1.bias f4 [128]
0.06521235 0.03971722 -0.23665097 -0.020282311 -0.02341213 0.13109565 -0.14248249 -0.12759838
-0.12049343 -0.11453902 -0.21850415 0.09174146 -0.047928512 -0.042262655 0.06519809 -0.084438875
-0.14880843 -0.20985606 -0.17647251 0.265591 -0.00906906 0.44956547 0.32357523 -0.09655274
-0.15834041 -0.12086295 -0.21674539 0.079621926 -0.238125 -0.078853406 -0.09677337 -0.024176914
0.23686029 -0.029683264 -0.22016996 -0.09042529 -0.042233765 0.13864778 -0.20113055 0.26779673
-0.06497021 -0.04057085 -0.040227406 -0.120404094 -0.086670086 -0.12945381 0.055994704 -0.022011654
-0.08217644 -0.15546067 -0.20710133 0.24712892 -0.092668176 -0.21272974 0.02625389 -0.15082318
-0.11563723 -0.11358126 0.04111061 0.20628826 -0.03459149 -0.082110405 0.013999947 -0.0070649865
-0.07801031 -0.027495546 0.16548261 0.20848827 -0.088910505 0.27749673 0.35665387 -0.03787718
0.026603218 0.0237499 0.017530028 0.06783195 -0.068461314 0.16184488 0.054573443 -0.014552176
-0.09482298 -0.06945582 -0.015271793 -0.1164658 0.08781249 -0.03685391 0.048176475 -0.26735997
-0.013938821 -0.044470917 -0.1657325 -0.07263379 -0.0429511 -0.061685573 -0.10843267 0.014809714
0.36325434 -0.15218122 -0.1539086 -0.116290696 -0.23648149 -0.20237106 -0.07864901 -0.16963187
-0.06532913 -0.07830291 -0.07204922 -0.087093554 -0.033901345 -0.07604417 -0.043144863 -0.058026507
0.0004016612 -0.118509345 -0.19650127 -0.032839157 -0.17905504 -0.06543885 -0.23928306 0.1010212
0.17479783 -0.13095368 0.3152824 0.15738827 -0.15567467 -0.018328244 -0.10289637 0.08435765
00000000: 0d8e 853d 86ae 223d a254 72be 1727 a6bc
00000010: ccca bfbc f03d 063e eee6 11be 26a9 02be
00000020: 42c5 f6bd 6f93 eabd 8dbf 5fbe f2e2 bb3d
00000030: b050 44bd 9b1b 2dbd 9486 853d 4aee acbd
00000040: 3d61 18be 82e4 56be 36b5 34be 8bfb 873e
00000050: 6596 14bc 722d e63e a7ab a53e 71bd c5bd
00000060: fd23 22be ff86 f7bd 81f2 5dbe d210 a33d
00000070: 0ad7 73be e57d a1bd 1e31 c6bd aa0e c6bc
00000080: 818b 723e 512a f3bc 3c74 61be e530 b9bd
00000090: 50fd 2cbd aff9 0d3e 2bf5 4dbe a71c 893e
000000a0: 1a0f 85bd 9f2d 26bd 7ec5 24bd 6c96 f6bd
000000b0: 1680 b1bd 8a8f 04be b45a 653d c951 b4bc
000000c0: 1f4c a8bd 1531 1fbe 5f12 54be 5d0f 7d3e
000000d0: d0c8 bdbd d3d5 59be 6612 d73c 6471 1abe
000000e0: 36d3 ecbd 4b9d e8bd 9963 283d 3b3d 533e
000000f0: ceaf 0dbd 8029 a8bd 0960 653c 6781 e7bb
00000100: dfc3 9fbd 573e e1bc 4674 293e f37d 553e
00000110: b616 b6bd 0d14 8e3e 569b b63e 1a25 1bbd
00000120: feee d93c 268f c23c 229b 8f3c 7aeb 8a3d
00000130: 7235 8cbd aaba 253e 6788 5f3d 406c 6ebc
00000140: 8d32 c2bd da3e 8ebd 8b36 7abc 9f85 eebd
00000150: 09d7 b33d 20f4 16bd b254 453d 68e3 88be
00000160: a75f 64bc 2327 36bd c8b5 29be 06c1 94bd
00000170: 7eed 2fbd 03aa 7cbd f311 debd 71a4 723c
00000180: 79fc b93e 65d5 1bbe 379a 1dbe d129 eebd
00000190: 3428 72be 5c3a 4fbe bb12 a1bd fab3 2dbe
000001a0: 47cb 85bd 475d a0bd 8b8e 93bd 1b5e b2bd
000001b0: 23dc 0abd 0cbd 9bbd abb8 30bd 34ad 6dbd
000001c0: 0e96 d239 07b5 f2bd a137 49be 5a82 06bd
000001d0: 345a 37be ce04 86bd 9e06 75be 34e4 ce3d
000001e0: 34fe 323e b918 06be b26c a13e 642a 213e
000001f0: 2e69 1fbe 1d25 96bc 55bb d2bd b4c3 ac3d

fc2.weight_ih_l0 f4 [256, 128]
0.04441753 0.027981594 0.16690183 -0.08829178 0.09427993 0.031674076 0.08477822 0.14015314
0.05079277 0.1192213 0.021596653 0.11717813 0.10611983 -0.0055717975 0.08077963 -0.014320314
0.0863336 -0.026661053 0.024145817 0.13741006 -0.12089659 0.083050035 0.032234203 0.12041606
-0.008167673 0.08814618 -0.06277726 0.01286325 -0.024331182 -0.083083704 -0.036086515 -0.04006545
-0.015385497 -0.017766377 0.12589772 -0.07364967 0.015961392 0.13434435 -0.097079396 0.06008612
-0.06826159 -0.08424203 -0.013044964 0.028909862 0.08601129 0.014021173 -0.007302627 0.022351746
-0.046270326 -0.05044642 0.09738721 -0.026649542 -0.019974157 0.16547504 0.022135595 0.09329902
-0.044735614 0.051866762 0.029398859 0.11209186 0.124624535 -0.11610572 -0.07008943 -0.0771282
0.10257469 0.08688006 0.00023230043 -0.038932443 -0.11943659 0.008233949 -0.015420237 0.116586834
0.044793308 0.085720226 -0.03231379 0.16427287 0.032367907 0.12765776 -0.08973619 -0.016735613
-0.071765155 0.07296769 0.05318564 0.093758985 0.15118381 0.0123467045 -0.032700468 -0.03416419
-0.0042467117 0.13218893 -0.028755061 -0.09318179 -0.05510502 -0.028185459 0.053385153 0.07507324
0.029656827 0.16065456 0.107445195 0.023287872 -0.030950643 0.08613256 0.11431389 0.13577464
-0.10487588 -0.037271783 -0.0054174527 0.019789409 0.011319116 0.12689973 0.10749689 -0.103826776
0.11726817 0.09458858 0.0638765 0.06892247 -0.124638304 -0.052674044 -0.0583879 -0.06202902
0.021438649 -0.07073293 0.11247339 -0.03906564 0.10152032 -0.09257342 0.12256637 0.08711376
0.035811305 -0.01958014 0.117843345 -0.0028702456 0.06848515 0.20597196 -0.07682851 0.13840273
0.15415193 0.07114822 -0.008148546 -0.08111246 0.0155538125 -0.008208377 -0.12441486 0.021332262
0.11226546 0.02400694 0.12118442 0.014807389 -0.0688812 0.13223487 0.08581493 -0.05149292
0.108750746 -0.093268834 0.12032642 0.10129171 -0.069117464 -0.025054187 0.052039225 -0.082021035
0.17525083 0.05079137 0.030473303 0.053330824 0.050597206 -0.012546805 0.048617452 0.084303804
-0.046647243 0.07900609 0.08546249 -0.045602407 0.047991607 0.010491298 0.014674634 0.05900179
0.050624356 -0.07819922 0.05510236 0.042325728 0.026571184 -0.045497816 0.116752215 0.09768641
-0.041950006 -0.10897643 0.021876488 0.1560049 -0.036159348 0.0649634 -0.01681329 0.0073041585
-0.11010055 -0.056791894 0.10462218 -0.07520071 0.09114001 0.119499415 -0.01628433 -0.059440415
-0.055904925 -0.09158865 0.14613792 0.025959719 0.08076293 0.057043903 0.040563367 0.06637411
0.10821809 0.028382676 -0.08000522 -0.115481794 0.15604645 0.03753059 0.07972062 0.14333206
-0.052339535 -0.053826783 -0.025784362 -0.06745731 -0.015575055 -0.050794095 -0.027142968 0.11746629
0.07449606 -0.009065722 0.07983571 0.064446285 0.08640963 0.040119432 0.03642857 0.1401256
-0.02622129 0.10978009 -0.037854057 0.03981173 0.03643176 -0.06124021 0.03187874 0.072319254
-0.045046046 0.05982748 0.04372621 -0.052593283 -0.12481648 0.16300374 -0.03600079 0.059954576
0.11641012 0.11049107 -0.033113804 0.12292287 -0.08699682 0.047754273 0.016933233 0.122827366
00000000: 28ef 353d a839 e53c 50e8 2a3e 52d2 b4bd
00000010: d615 c13d adbc 013d 34a0 ad3d 4e84 0f3e
00000020: 140c 503d 4c2a f43d 77eb b03c 16fb ef3d
00000030: 5a55 d93d a093 b6bb ca6f a53d c09f 6abc
00000040: accf b03d 4868 dabc 73cd c53c 39b5 0c3e
00000050: a298 f7bd 2316 aa3d 0308 043d b29c f63d
00000060: b4d1 05bc fc85 b43d 5d91 80bd 62c0 523c
00000070: 3052 c7bc ca27 aabd 74cf 13bd ab1b 24bd
00000080: 7413 7cbc cb8a 91bc 55eb 003e a3d5 96bd
00000090: 77c1 823c 9191 093e 90d1 c6bd dd1c 763d
000000a0: bccc 8bbd 1687 acbd 8bba 55bc 60d4 ec3c
000000b0: b026 b03d 10b9 653c e04a efbb 021b b73c
000000c0: f485 3dbd e8a0 4ebd f272 c73d 2450 dabc
000000d0: d8a0 a3bc 4a72 293e b555 b53c 8e13 bf3d
000000e0: b13c 37bd 3e72 543d e0d5 f03c 6b90 e53d
000000f0: 263b ff3d d6c8 edbd 0c8b 8fbd 64f5 9dbd
00000100: ae12 d23d 2cee b13d ac95 7339 a077 1fbd
00000110: 2c9b f4bd afe7 063c 29a5 7cbc 14c5 ee3d
00000120: 3079 373d 168e af3d 775b 04bd 2637 283e
00000130: 3694 043d b7b8 023e 9cc7 b7bd 2019 89bc
00000140: 9cf9 92bd 1670 953d 30d9 593d b604 c03d
00000150: eecf 1a3e d549 4a3c edf0 05bd c0ef 0bbd
00000160: 0028 8bbb 895c 073e bc8f ebbc 18d6 bebd
00000170: cdb5 61bd 31e5 e6bc 64aa 5a3d 00c0 993d
00000180: e0f2 f23c a182 243e 3a0c dc3d 35c6 be3c
00000190: 348c fdbc 4566 b03d 671d ea3d 8208 0b3e
000001a0: 2ac9 d6bd 4caa 18bd e384 b1bb 661d a23c
000001b0: d073 393c 01f2 013e 5427 dc3d 22a3 d4bd
000001c0: 4b2a f03d a8b7 c13d afd1 823d 3927 8d3d
000001d0: 5e42 ffbd bdc0 57bd 2728 6fbd 2412 7ebd
000001e0: 1ba0 af3c 6ddc 90bd 7358 e63d 4b03 20bd
000001f0: e3e9 cf3d 2297 bdbd 1404 fb3d b368 b23d
00000200: e0ae 123d 8866 a0bc da57 f13d bb1a 3cbb
00000210: f141 8c3d 50ea 523e 4458 9dbd 72b9 0d3e
00000220: 01da 1d3e 28b6 913d 7b81 05bc 4a1e a6bd
00000230: 6bd5 7e3c 6e7c 06bc 38cd febd ffc0 ae3c
00000240: 6feb e53d 34aa c43c 8a2f f83d b19a 723c
00000250: 9611 8dbd 9468 073e bdbf af3d 3dea 52bd
00000260: b6b8 de3d bb03 bfbd b36d f63d 0772 cf3d
00000270: 758d 8dbd 703e cdbc 1527 553d a5fa a7bd
00000280: f474 333e 9d0a 503d 26a3 f93c 6c71 5a3d
00000290: 043f 4f3d 1d91 4dbc 1823 473d 79a7 ac3d
000002a0: 2e11 3fbd f2cd a13d f506 af3d 97c9 3abd
000002b0: d992 443d b1e3 2b3c e06d 703c dcab 713d
000002c0: 7c5b 4f3d ea26 a0bd 03b3 613d be5d 2d3d
000002d0: d0ab d93c eb5b 3abd c91b ef3d d00f c83d
000002e0: c5d3 2bbd 092f dfbd 5236 b33c c0bf 1f3e
000002f0: d31b 14bd 880b 853d 06bc 89bc b957 ef3b
00000300: 667c e1bd 9e9e 68bd 2744 d63d d402 9abd
00000310: 9da7 ba3d 1cbc f43d b766 85bc cb77 73bd
00000320: 90fc 64bd d592 bbbd 2ea5 153e 7aa9 d43c
00000330: 0967 a53d dea6 693d c625 263d 26ef 873d
00000340: 72a1 dd3d c982 e83c c7d9 a3bd b881 ecbd
00000350: a4ca 1f3e adb9 193d 9044 a33d a4c5 123e
00000360: fb61 56bd 7979 5cbd ba39 d3bc 0f27 8abd
00000370: 842e 7fbc 780d 50bd ee5a debc 2b92 f03d
00000380: 6491 983d 6588 14bc e880 a33d 6afc 833d
00000390: 88f7 b03d 4654 243d 2036 153d 167d 0f3e
000003a0: 08ce d6bc 62d4 e03d db0c 1bbd a011 233d
000003b0: 7839 153d 04d7 7abd 4893 023d 1e1c 943d
000003c0: 3482 38bd a90d 753d 411a 333d 0e6c 57bd
000003d0: c89f ffbd 74ea 263e 9075 13bd ee92 753d
000003e0: 6e68 ee3d 2449 e23d 57a2 07bd fcbe fb3d
000003f0: 642b b2bd fc99 433d 90b7 8a3c ea8c fb3d

fc2.weight_hh_l0 f4 [256, 64]
-0.113729 -0.055413485 -0.020867273 0.08749898 -0.032557786 0.09878656 -0.111927584 0.07791263
-0.1014891 -0.059019595 -0.007294923 -0.024415985 -0.1058473 -0.11524725 -0.042742044 -0.033191144
-0.0051716417 -0.008478567 0.12391321 0.023659855 0.054080665 -0.052122533 -0.12064633 0.08866534
-0.06769514 -0.124477506 0.070025206 0.10170773 0.10283311 0.021576867 0.018816918 -0.07302594
0.045449093 0.0641284 -0.016273156 -0.11236462 0.05016412 -0.010331422 0.0338268 -0.080839336
-0.11676423 0.09698662 0.032066748 -0.10464007 0.09640016 -0.12482923 0.119592056 -0.0101094395
-0.11958034 0.10914938 0.083191425 -0.032470673 -0.061878204 0.06767212 -0.10521923 0.0076939464
-0.005501747 0.123719916 -0.11824365 -0.014851093 -0.05809146 0.038782135 -0.070069656 -0.00222826
0.027842253 0.024540052 0.120353326 -0.06161344 0.008451864 0.03540705 -0.060586408 -0.025134861
0.11351484 0.055489004 0.075004235 -0.024167344 -0.0059117824 0.08232513 -0.017096192 -0.017972365
0.0061193854 -0.051770493 -0.052544475 0.06995514 -0.019184992 -0.021827027 0.05680169 0.053279415
0.045868263 -0.08500844 -0.057976767 0.026851684 -0.052951828 0.059803605 0.08542502 0.008095503
-0.11884977 0.0024808198 0.06335792 0.065405905 -0.004252583 0.04073 0.0713131 0.0440865
0.120122 0.048176423 -0.017241701 -0.09579912 -0.050115347 0.09060675 -0.0041671842 0.0512764
0.11065328 0.037277162 0.051890925 -0.046789408 -0.049732715 -0.0053406805 -0.071270555 0.007992536
0.115676686 0.00054869056 -0.123943165 -0.112824485 0.12356481 -0.007828787 0.08155003 -0.054555237
-0.052997023 -0.0065981 0.04466732 -0.10725345 -0.09993394 0.060687155 0.036456436 0.04794188
0.12369268 0.062135503 0.01563625 0.086797744 0.02827762 0.10484137 0.07602465 0.12052767
-0.095672995 0.021255508 0.07537204 0.026198521 -0.0133897215 -0.0644463 0.05249895 0.0064700395
-0.10184306 0.027546465 0.041358963 -0.12107718 -0.037384838 0.01985909 -0.06905748 -0.10422425
0.034178928 -0.10559185 -0.04888679 -0.03073974 0.04304962 0.10652417 0.029809251 0.033844516
0.027381629 0.11704944 0.10005286 0.06842969 -0.08046067 0.03489515 0.0074656904 -0.10760142
0.09519631 0.12381163 -0.035902426 -0.08245675 -0.077517405 -0.0028304309 -0.036171913 -0.083538696
0.010059163 -0.021791428 -0.06429148 0.0687502 -0.016915217 0.09604645 -0.12229729 -0.11852838
0.123699576 -0.06606971 0.12366171 -0.03689596 -0.017319292 0.076318175 -0.0324713 -0.046635702
-0.11806399 -0.09786162 0.073465884 -0.07441422 -0.09900576 -0.06239167 -0.08285162 -0.009780958
0.1046755 -0.07681997 0.11091332 0.10620682 -0.04136786 -0.12103495 0.11696686 0.07331103
0.11846548 0.06737697 0.037277043 -0.10004905 -0.10030155 0.045444787 -0.0070817024 0.115302995
-0.040301383 -0.11193286 0.06283657 0.016138062 -0.06309827 -0.085794285 0.07623842 -0.10548961
-0.05021204 -0.016707227 0.009673387 0.07327297 0.010688201 0.034727797 -0.11962879 0.006599769
0.0810059 -0.053538024 0.08759552 0.12347381 -0.11886117 0.059042588 0.0736316 -0.043200955
0.033119887 -0.010191038 -0.046913043 0.12441501 -0.08430925 0.011278853 0.10605006 0.04424949
00000000: c0ea e8bd 40f9 62bd d8f1 aabc aa32 b33d
00000010: 505b 05bd 9c50 ca3d 4a3a e5bd a890 9f3d
00000020: 84d9 cfbd 88be 71bd 400a efbb 0804 c8bc
00000030: 78c6 d8bd c006 ecbd 4812 2fbd 70f3 07bd
00000040: e076 a9bb b0e9 0abc 36c6 fd3d 50d2 c13c
00000050: b083 5d3d 707e 55bd 6c15 f7bd 2c96 b53d
00000060: c0a3 8abd 10ee febd 6069 8f3d 244c d03d
00000070: 2a9a d23d f8c1 b03c f025 9a3c a08e 95bd
00000080: d428 3a3d c055 833d 484f 85bc 6c1f e6bd
00000090: e478 4d3d 2045 29bc f88d 0a3d 188f a5bd
000000a0: 1622 efbd eca0 c63d 6c58 033d 884d d6bd
000000b0: 726d c53d 78a6 ffbd aeec f43d 10a2 25bc
000000c0: 8ae6 f4bd b689 df3d 4460 aa3d f8ff 04bd
000000d0: 0074 7dbd ae97 8a3d 2e7d d7bd 801d fc3b
000000e0: 0048 b4bb de60 fd3d ba29 f2bd 0052 73bc
000000f0: 50f1 6dbd 04da 1e3d ae80 8fbd 0008 12bb
00000100: 7015 e43c 3808 c93c ce7b f63d 605e 7cbd
00000110: b079 0a3c fc06 113d 7429 78bd a0e7 cdbc
00000120: 787a e83d 7048 633d d29b 993d 98fa c5bc
00000130: a0b7 c1bb 149a a83d 500d 8cbc c83a 93bc
00000140: 2085 c83b 4c0d 54bd e038 57bd a444 8f3d
00000150: d829 9dbc 98ce b2bc e4a8 683d 843b 5a3d
00000160: 5ce0 3b3d e818 aebd 0c79 6dbd 10f8 db3c
00000170: 04e4 58bd a0f4 743d 50f3 ae3d 00a3 043c
00000180: 8267 f3bd 4095 223b ccc1 813d 88f3 853d
00000190: 4059 8bbb 80d4 263d 9a0c 923d 0c94 343d
000001a0: 8602 f63d a454 453d 783e 8dbc 5432 c4bd
000001b0: c045 4dbd 0890 b93d e08c 88bb 3407 523d
000001c0: 309e e23d f0af 183d 948b 543d 40a6 3fbd
000001d0: 88b4 4bbd e000 afbb 4cf6 91bd 20f3 023c
000001e0: e6e7 ec3d 00d6 0f3a ead5 fdbd 8610 e7bd
000001f0: 8c0f fd3d 5044 00bc b403 a73d 5075 5fbd
00000200: 6813 59bd e034 d8bb 14f5 363d b2a7 dbbd
00000210: 2aaa ccbd 1893 783d 5853 153d b45e 443d
00000220: 9652 fd3d cc81 7e3d 9817 803c 04c3 b13d
00000230: 78a6 e73c 12b7 d63d d0b2 9b3d 36d7 f63d
00000240: 34f0 c3bd 0820 ae3c a85c 9a3d 489e d63c
00000250: 9060 5bbc 6cfc 83bd 2409 573d a002 d43b
00000260: 1893 d0bd 20a9 e13c 0468 293d 50f7 f7bd
00000270: d820 19bd 88af a23c 026e 8dbd 8673 d5bd
00000280: 34ff 0b3d 8a40 d8bd 843d 48bd e8d1 fbbc
00000290: cc54 303d 5829 da3d 8832 f43c 8ca0 0a3d
000002a0: 704f e03c 9eb7 ef3d 84e8 cc3d de24 8c3d
000002b0: 90c8 a4bd 38ee 0e3d c0a2 f43b 225e dcbd
000002c0: 48f6 c23d f490 fd3d 6c0e 13bd 16df a8bd
000002d0: 72c1 9ebd c07e 39bb 0029 14bd 5616 abbd
000002e0: 30cf 243c f083 b2bc 40ab 83bd e8cc 8c3d
000002f0: c891 8abc 00b4 c43d 0077 fabd 02bf f2bd
00000300: 3456 fd3d 8e4f 87bd 5a42 fd3d 3820 17bd
00000310: 30e1 8dbc b44c 9c3d a000 05bd 1405 3fbd
00000320: 88cb f1bd ac6b c8bd 4875 963d 7c66 98bd
00000330: 88c3 cabd 688e 7fbd 1cae a9bd 5040 20bc
00000340: 1c60 d63d ca53 9dbd 8626 e33d f682 d93d
00000350: 5871 29bd 2ce1 f7bd 528c ef3d 1824 963d
00000360: 089e f23d f0fc 893d d0af 183d 84e6 ccbd
00000370: e66a cdbd 5024 3a3d a00d e8bb fa23 ec3d
00000380: 1013 25bd 0e3d e5bd 76b0 803d f833 843c
00000390: aa39 81bd eab4 afbd e422 9c3d f00a d8bd
000003a0: 24ab 4dbd 98dd 88bc 207d 1e3c 2410 963d
000003b0: 901d 2f3c bc3e 0e3d f0ff f4bd e042 d83b
000003c0: 6ce6 a53d b04a 5bbd 4865 b33d d6df fc3d
000003d0: 7c6d f3bd a4d6 713d 2acc 963d 7cf3 30bd
000003e0: b8a8 073d 50f8 26bc e427 40bd 4ccd fe3d
000003f0: 54aa acbd f0ca 383c c630 d93d f43e 353d

fc2.bias_ih_l0 f4 [256]
0.024745606 -0.029235566 -0.0912206 0.09774954 -0.064974114 -0.016700348 0.08813219 0.06504747
0.035056125 0.009147936 0.112766474 -0.024684737 -0.03406989 -0.08212847 -0.030068025 -0.0102842
0.10839659 -0.16563448 0.009397683 0.054632485 -0.097629964 0.006325053 0.017303763 0.06191866
-0.058382723 -0.10662449 -0.083877616 -0.03954561 -0.021282736 -0.01965941 0.11259736 -0.096477285
-0.083690375 -0.01628237 -0.057128 -0.038179263 -0.044376373 0.027824616 -0.10265544 -0.0011965022
-0.05350336 0.082545 0.022622785 -0.065607786 -0.057455048 0.058075517 -0.17807494 0.02302204
-0.026647894 -0.04584569 -0.11458634 -0.06384882 0.06879558 -0.078835785 -0.09503238 0.10067442
0.013365419 0.1325127 0.01956003 0.050856538 -0.010051032 0.048614357 0.05752249 0.12782343
0.09072858 0.10440852 0.03355418 -0.08584167 -0.0941453 0.1061444 0.12151323 -0.07235454
-0.001374349 0.08458324 0.040102914 0.086316824 0.05608253 0.08588876 0.015873149 0.11591829
0.12208326 -0.02887696 -0.062146977 0.0014001727 0.016243115 -0.11298469 0.11590831 0.10268986
0.07589412 0.10054566 -0.06358777 -0.09801149 0.077252805 -0.06789835 -0.05980082 -0.0930547
0.041106716 0.07803854 0.032967255 -0.0238522 0.011965647 0.10787812 0.12287529 -0.0987407
-0.115100816 0.009073928 -0.072932005 -0.010221764 0.04120572 -0.07047491 -0.06443147 -0.06668231
-0.08078374 0.09797557 0.06696749 -0.100858316 0.043847546 0.09201452 -0.04113947 0.100224495
-0.07405445 -0.012839705 -0.026406854 -0.051752836 -0.012439176 -0.116441846 -0.12267013 -0.07331033
-0.06035974 0.10406234 0.08918223 0.0009826532 -0.07228164 -0.023376197 -0.064476326 0.07603243
-0.060945496 0.03233539 0.081811994 0.06900208 -0.100314096 0.01056907 -0.07861534 -0.1391031
0.056215763 0.103542134 0.03347173 0.007312551 -0.04570754 0.12521371 -0.07763985 0.07008062
0.022099823 -0.051232748 -0.10738732 0.01832597 0.0029752254 -0.07692466 0.04066485 -0.0433283
0.07615653 -0.0015467554 0.09848197 0.072548606 -0.08942104 -0.08511764 -0.0448129 -0.025700403
0.020941019 -0.0031226873 -0.054136246 0.058643892 -0.07332508 0.06395367 -0.060321372 0.040196016
-0.09837768 0.0120517 0.07362832 0.026445376 0.03538482 0.09531875 -0.091675326 0.0042692004
-0.011702493 -0.06135505 0.08206549 -0.13107589 -0.04059656 -0.090980545 0.06943484 -0.018065287
-0.15877226 0.03508794 0.016286869 0.090082176 0.07219842 -0.08376779 0.098230556 -0.11208791
-0.06412104 0.07494737 -0.13427804 0.095507674 -0.093569964 -0.013596705 0.10698125 0.16999914
0.0458111 -0.057476904 0.02882662 -0.09274222 0.12052668 -0.067901924 -0.017734097 0.060842026
0.13709117 0.036730703 -0.07561245 0.087569326 0.07658079 -0.06386825 -0.13000888 -0.10126221
0.12309989 0.08041136 -0.11523861 -0.094850376 0.110256195 -0.072659545 0.05095354 -0.036451977
-0.032350373 0.049061526 0.02585657 -0.09607757 -0.11531375 0.03784013 0.055470195 -0.07350981
0.021061242 0.14595194 0.11284375 0.07322056 -0.026422009 -0.02285609 -0.06977396 0.09168255
0.0027410453 0.015533162 0.08885357 0.11604949 0.106180504 0.047826797 -0.080604956 -0.0064149997
00000000: 4cb7 ca3c 6d7f efbc ded1 babd e930 c83d
00000010: 2611 85bd 2bcf 88bc a67e b43d 9c37 853d
00000020: 0397 0f3d 39e1 153c 1cf2 e63d a537 cabc
00000030: de8c 0bbd f932 a8bd 3851 f6bc 107f 28bc
00000040: 08ff dd3d 169c 29be bdf8 193c 50c6 5f3d
00000050: 38f2 c7bd 6442 cf3b 9fc0 8d3c 6c9e 7d3d
00000060: b922 6fbd f15d dabd 07c8 abbd 94fa 21bd
00000070: 2259 aebc c50c a1bc 7299 e63d e295 c5bd
00000080: dc65 abbd 9b62 85bc 0dff 69bd dc61 1cbd
00000090: 00c4 35bd 73f0 e33c 043d d2bd f4d3 9cba
000000a0: 5726 5bbd 5a0d a93d 6b53 b93c 605d 86bd
000000b0: fc55 6bbd 98e0 6d3d 4759 36be b898 bc3c
000000c0: af4c dabc b1c8 3bbd 3eac eabd 2cc3 82bd
000000d0: b2e4 8c3d a874 a1bd 56a0 c2bd 642e ce3d
000000e0: a1fa 5a3c 69b1 073e 5b3c a03c f24e 503d
000000f0: 15ad 24bc d91f 473d b49c 6b3d 25e4 023e
00000100: e8cf b93d 22d4 d53d 1c70 093d c2cd afbd
00000110: 40cf c0bd 3c62 d93d eedb f83d 9e2e 94bd
00000120: 8023 b4ba fa39 ad3d f442 243d e0c6 b03d
00000130: ccb6 653d 72e6 af3d 6808 823c 9266 ed3d
00000140: ca06 fa3d 608f ecbc d48d 7ebd 0086 b73a
00000150: 4810 853c 8464 e7bd 5661 ed3d 104f d23d
00000160: 606e 9b3d e2ea cd3d 4e3a 82bd 40ba c8bd
00000170: b836 9e3d 4a0e 8bbd b4f1 74bd 7693 bebd
00000180: 845f 283d acd2 9f3d ac08 073d b065 c3bc
00000190: 900b 443c 34ef dc3d 0aa6 fb3d 9038 cabd
000001a0: fab9 ebbd d0aa 143c 605d 95bd 3079 27bc
000001b0: 54c7 283d 2655 90bd a6f4 83bd bc90 88bd
000001c0: f271 a5bd 6aa7 c83d 4026 893d ce8e cebd
000001d0: 7c99 333d 1c72 bc3d dc81 28bd 8042 cd3d
000001e0: dca9 97bd a05d 52bc 3053 d8bc c8fa 53bd
000001f0: b0cd 4bbc 1079 eebd 7a3a fbbd ba23 96bd
00000200: c63b 77bd a31e d53d 2ca5 b63d 5fcc 803a
00000210: 6508 94bd 707f bfbc 2a0c 84bd e4b6 9b3d
00000220: fca1 79bd 1d72 043d 0c8d a73d f650 8d3d
00000230: 7a71 cdbd e429 2d3c 1401 a1bd 0b71 0ebe
00000240: 8042 663d e60d d43d a719 093d 209e ef3b
00000250: d437 3bbd 0638 003e a401 9fbd 6e86 8f3d
00000260: b00a b53c 6ed9 51bd e2ed dbbd 5820 963c
00000270: 00fc 423b ad8a 9dbd 3090 263d 0479 31bd
00000280: f4f7 9b3d 80bc caba eab0 c93d 5d94 943d
00000290: 6122 b7bd 2852 aebd bb8d 37bd a789 d2bc
000002a0: 808c ab3c 00a6 4cbb f8bd 5dbd 9434 703d
000002b0: 762b 96bd 24fa 823d 8b13 77bd 94a4 243d
000002c0: 3d7a c9bd 7e74 453c 72ca 963d f9a3 d83c
000002d0: acef 103d 7a36 c33d 46c0 bbbd a6e4 8b3b
000002e0: d0bb 3fbc 6f4f 7bbd f411 a83d c238 06be
000002f0: 9448 26bd 0254 babd da33 8e3d a7fd 93bc
00000300: 3295 22be 5fb8 0f3d 0a6c 853c 017d b83d
00000310: c4dc 933d 728e abbd 1a2d c93d 598e e5bd
00000320: e451 83bd 027e 993d 2f80 09be 8799 c33d
00000330: 9ca1 bfbd b7c4 5ebc fc18 db3d 4114 2e3e
00000340: 6ca4 3b3d e76c 6bbd ce25 ec3c a2ef bdbd
00000350: b1d6 f63d 2a10 8bbd 1947 91bc 7d35 793d
00000360: a161 0c3e ef72 163d b3da 9abd 8c57 b33d
00000370: 64d6 9c3d 5bcd 82bd 0c21 05be 9062 cfbd
00000380: cc1b fc3d b6ae a43d 3802 ecbd ea40 c2bd
00000390: 00ce e13d 87ce 94bd a9b4 503d ab4e 15bd
000003a0: d381 04bd bdf4 483d 28d1 d33c 51c4 c4bd
000003b0: 9e29 ecbd 41fe 1a3d b734 633d 508c 96bd
000003c0: a088 ac3c 6d74 153e a01a e73d a9f4 953d
000003d0: f872 d8bc b23c bbbc a6e5 8ebd 10c4 bb3d
000003e0: 1ca3 333b ce7e 7e3c dcf8 b53d 5bab ed3d
000003f0: 2a75 d93d 08e6 433d 3614 a5bd eb34 d2bb

fc2.bias_hh_l0 f4 [256]
0.12650836 0.09886627 -0.10809478 -0.016413629 0.04593969 -0.0056788223 -0.04755743 0.080255434
0.12660404 0.11146452 0.059258014 -0.096508205 -0.026584566 0.08569098 0.11738269 -0.10784537
0.05035766 -0.09013389 -0.10234274 -0.041048333 -0.06916035 0.06520753 0.0029768704 0.10467765
0.022130853 -0.09040076 0.03250607 0.025265265 -0.0013625639 0.13475175 -0.09617393 -0.12799104
-0.021087453 -0.056583147 -0.064751685 -0.13841447 -0.0032149008 0.041311942 0.073284104 -0.11505652
-0.015750049 -0.08662705 -0.06478704 0.030022487 0.10770349 0.12366393 -0.16539015 0.073077336
-0.12200825 0.10300489 0.0242762 -0.09858182 -0.12989567 0.05913605 -0.11457655 0.10648444
0.0550283 0.060723096 -0.070528425 0.049934305 0.04836167 -0.010556162 0.018247118 0.06386413
-0.04819627 0.042465508 -0.036945254 -0.101059094 -0.08120772 0.02835077 -0.06115122 -0.08484633
0.038067162 -0.004628271 -0.052383795 0.031881854 -0.11608496 -0.08875348 -0.052570626 -0.121537596
0.03475195 0.09463507 -0.014415517 0.09482993 -0.10985619 -0.03952442 0.029241845 0.07653697
0.048303872 -0.0577603 0.06052296 -0.010548353 -0.1146207 0.021620214 0.111687735 -0.027096123
0.108106986 -0.0012973994 -0.108199656 0.12199941 0.06958921 0.02865234 -0.12464501 0.0028133392
-0.017752647 0.0718347 -0.039543852 -0.023845017 -0.040586606 -0.093971 0.009627625 -0.05031714
-0.10461457 0.10633008 0.10300453 -0.119340226 -0.020453095 -0.018385544 0.014702022 0.12486406
-0.0055283606 0.011229798 0.047027007 -0.048875704 0.06296641 0.10771556 0.076698855 -0.10688253
-0.14032698 0.018568946 0.076337665 -0.092750706 0.0063951653 -0.054892823 0.09713665 -0.010647535
-0.055578098 0.06520722 -0.11113192 0.00062832236 -0.13028146 -0.099412516 0.053714603 0.027150186
0.10790561 0.08308114 -0.022686187 0.014497995 -0.017658427 0.08326914 -0.0062315613 0.037248865
-0.09959223 0.03155327 0.057888284 0.02743198 -0.0111202 -0.0040831342 -0.12270507 -0.14355813
-0.12474713 0.027538389 0.09666383 0.06674787 0.0038862082 0.11102456 -0.1214498 -0.06551647
0.11298078 0.055017367 -0.10964395 0.018657744 0.040665925 -0.0011229217 -0.15162277 -0.083279446
-0.13060702 -0.0125033595 0.0043557137 -0.05820537 -0.09483513 -0.08910391 -0.09722188 0.120888755
-0.0052951477 -0.058688097 -0.02968721 -0.10181647 -0.07723051 -0.042085137 -0.008551016 -0.006431379
-0.12515457 0.04331038 -0.027477626 0.058805007 0.14937466 -0.10672453 0.0067970306 -0.06566065
0.124583825 0.07875746 -0.014936078 -0.034128442 0.07645039 0.072163165 -0.03850983 0.049916036
-0.052372515 -0.022997873 0.014734551 -0.1131061 -0.01920034 0.020727664 -0.065892085 0.073055655
0.06942354 0.13903223 -0.15543766 0.03728658 -0.050343253 0.10772926 0.07876524 -0.076334104
0.0675814 0.108110934 -0.0007345127 0.0621451 0.09114349 -0.1836325 0.16204007 0.06061237
-0.0033136066 0.025560731 -0.07118271 -0.10789775 0.047230434 0.033242602 0.1312501 -0.023369357
-0.084864706 0.1261891 0.06372924 -0.0699461 -0.09130822 -0.034271043 0.1073415 0.05344546
-0.09639915 0.13384004 0.020877242 0.03981647 0.03081803 0.07181417 0.039512247 0.14350757
00000000: 688b 013e 667a ca3d cc60 ddbd e075 86bc
00000010: 422b 3c3d 6a15 babb 94cb 42bd f65c a43d
00000020: 7da4 013e 8347 e43d 88b8 723d 18a6 c5bd
00000030: e0c7 d9bc c17e af3d 5666 f03d 09de dcbd
00000040: d543 4e3d 1e98 b8bd 1299 d1bd 4c22 28bd
00000050: f1a3 8dbd 878b 853d 9917 433b 3c61 d63d
00000060: c34b b53c 0924 b9bd 1625 053d 1af9 ce3c
00000070: 0f98 b2ba 5dfc 093e d6f6 c4bd 1510 03be
00000080: 98bf acbc bbc3 67bd 889c 84bd 86bc 0dbe
00000090: 16b1 52bb b636 293d fa15 963d c1a2 ebbd
000000a0: 3f06 81bc 8669 b1bd 11af 84bd b8f1 f53c
000000b0: a693 dc3d 8443 fd3d 095c 29be 92a9 953d
000000c0: 76df f9bd 3af4 d23d e2de c63c 44e5 c9bd
000000d0: 5f03 05be a538 723d 1ca7 eabd 8414 da3d
000000e0: 5b65 613d c8b8 783d 3571 90bd ea87 4c3d
000000f0: e316 463d c1f3 2cbc fb7a 953c 32cb 823d
00000100: 7469 45bd 50f0 2d3d e853 17bd 12f8 cebd
00000110: 3c50 a6bd e03f e83c b479 7abd eac3 adbd
00000120: 50ec 1b3d c0a8 97bb 6490 56bd 8c96 023d
00000130: f4bd edbd 62c4 b5bd 4c54 57bd b4e8 f8bd
00000140: 1058 0e3d 08d0 c13d 102f 6cbc 3236 c23d
00000150: 48fc e0bd 5ce4 21bd 988c ef3c 6abf 9c3d
00000160: 48da 453d 1096 6cbd ece6 773d 00d3 2cbc
00000170: 42be eabd e01c b13c 8abc e43d b0f8 ddbc
00000180: 3267 dd3d 800d aaba c897 ddbd d4da f93d
00000190: ca84 8e3d 50b8 ea3c e245 ffbd 0060 383b
000001a0: 006e 91bc 121e 933d bcf8 21bd a056 c3bc
000001b0: 243e 26bd de73 c0bd 30bd 1d3c 5819 4ebd
000001c0: 2a40 d6bd 96c3 d93d 0af4 d23d a668 f4bd
000001d0: 408d a7bc 489d 96bc c0e0 703c bab8 ff3d
000001e0: 4027 b5bb 30fd 373c 649f 403d e431 48bd
000001f0: 88f4 803d fa99 dc3d 4a14 9d3d 3ae5 dabd
00000200: e0b1 0fbe e71d 983c ec56 9c3d 15f4 bdbd
00000210: 898e d13b 4cd7 60bd 94ef c63d 0073 2ebc
00000220: dca5 63bd 5d8b 853d 2299 e3bd 00b6 243a
00000230: 8168 05be ca98 cbbd d803 5c3d 116a de3c
00000240: 9efd dc3d 7226 aa3d 62d8 b9bc 0089 6d3c
00000250: 68a8 90bc 0389 aa3d 2032 ccbb 4492 183d
00000260: 03f7 cbbd 003e 013d 441c 6d3d 08b9 e03c
00000270: 8031 36bc d0cb 85bb cc4c fbbd e700 13be
00000280: 6c7b ffbd 3098 e13c b0f7 c53d 1bb3 883d
00000290: c1af 7e3b d860 e33d acba f8bd 802d 86bd
000002a0: 7862 e73d e459 613d 028d e0bd 20d8 983c
000002b0: 5091 263d 002f 93ba 0043 1bbe 6a8e aabd
000002c0: d9bd 05be e4da 4cbc 60ba 8e3b c168 6ebd
000002d0: ec38 c2bd 1c7c b6bd 441c c7bd 8694 f73d
000002e0: eb82 adbb ee62 70bd 9832 f3bc 2785 d0bd
000002f0: 082b 9ebd 7761 2cbd 9019 0cbc 51be d2bb
00000300: 8528 00be 3a66 313d c218 e1bc 85dd 703d
00000310: acf5 183e 6492 dabd a0b9 de3b 1779 86bd
00000320: ce25 ff3d 974b a13d 74b6 74bc 44ca 0bbd
00000330: 0692 9c3d 48ca 933d 7cbc 1dbd c274 4c3d
00000340: 9084 56bd 0966 bcbc 3069 713c 2ca4 e7bd
00000350: 084a 9dbc 10cd a93c 6ef2 86bd 349e 953d
00000360: ee2d 8e3d 775e 0e3e 0d2b 1fbe d0b9 183d
00000370: ba34 4ebd 29a1 dc3d ac4f a13d 0e55 9cbd
00000380: 1e68 8a3d 4469 dd3d 508c 40ba dc8b 7e3d
00000390: 70a9 ba3d 280a 3cbe d5ed 253e ad44 783d
000003a0: 1829 59bb bd64 d13c 3ec8 91bd 7ff9 dcbd
000003b0: b374 413d 6529 083d 6d66 063e 1871 bfbc
000003c0: 8ccd adbd b737 013e 7a84 823d e73f 8fbd
000003d0: ceff babd cb5f 0cbd dcd5 db3d a0e9 5a3d
000003e0: eb6c c5bd 5d0d 093e c006 ab3c 9816 233d
000003f0: 1876 fc3c 4f13 933d 98d7 213d a6f3 123e

fc3.weight f4 [3, 64]
-0.63045734 0.9145632 -0.08492456 -5.451828 4.3347206 -0.009899959 -0.08265565 -0.10782726
-5.4444103 0.18210505 0.12377168 -0.5489517 0.27106044 -5.7342386 0.047170877 -2.9676254
-0.103130005 -0.077319376 5.5920267 0.050838143 0.048815385 0.018054089 0.09702392 0.0030712485
-0.37346828 -1.2839323 0.13090865 -0.06570995 0.10964172 -4.0562353 -0.05514081 0.056927428
-0.09933774 0.010581214 -0.0009250045 0.025920074 -1.1799406 -0.15532294 -5.0344195 0.0051779994
-0.058132205 0.01077193 -0.06281324 -0.10033257 0.05747782 0.064444944 -0.8038024 0.049376905
0.027363054 5.4046803 0.017642006 -5.4092035 -0.073921114 -0.039817173 -0.0075952113 1.949134
-0.02349573 3.7011375 0.07945219 -5.2406864 0.07128639 0.34164596 -0.075426966 5.3270254
-0.19946194 1.2584207 -0.1402703 -5.655445 4.561761 0.11479619 -0.08152822 0.07944846
-5.586261 -0.07674249 0.15119341 -0.0014229028 0.016241718 -5.6851034 -0.0657261 -3.5011108
0.042665534 0.019289112 5.7897253 -0.03146863 0.007824525 0.022039618 -0.036129944 -0.04459524
-0.28783205 -0.5674141 0.045420587 0.07777825 -0.10937973 -3.6316235 -0.027488023 0.06440844
0.09617585 -0.066039465 -0.07828319 -0.025884742 -0.8550692 -0.051217683 -5.4824195 0.10117683
0.1058558 -0.06142217 0.050752286 -0.11610781 -0.09672021 -0.050382435 -1.0062008 -0.044624984
-0.028027847 5.59361 0.11954905 -5.238324 -0.03875999 -0.0323312 0.04940796 4.24873
-0.05008616 3.3872874 -0.06992902 -5.343994 0.10590636 -0.20825368 -0.015700977 5.319702
0.5614463 9.8695135 -0.108369105 -5.2354527 5.119442 0.061830934 -0.032349914 0.08380059
-5.1446037 -0.109930724 -0.14522664 0.0032472431 -0.053805895 -5.174364 0.099553525 -4.594771
-0.04285937 -0.08205205 5.3747053 0.070785284 -0.055446964 0.09021582 -0.025796998 0.09931077
0.26505917 -3.0069149 -0.08564037 -0.11555331 0.08625298 -2.3182304 0.0031413531 -0.0662387
0.012463113 0.068850845 -0.038492534 -0.011355789 -0.27791658 -0.3631202 -5.299387 0.027279083
-0.0032708037 0.020286571 0.021703819 0.028351586 0.07842398 -0.004005195 -0.94562 -0.06719126
-0.36310977 4.8798227 -0.002445471 -4.3736267 0.024788171 -0.033100106 -0.06408666 2.7233076
-0.056884483 2.265261 0.09672713 -4.5505915 0.0033741046 -1.6762426 0.26334843 4.0950212
00000000: a765 21bf d020 6a3f edec adbd 6075 aec0
00000010: 08b6 8a40 7033 22bc 5e47 a9bd 8ad4 dcbd
00000020: 9c38 aec0 bf79 3a3e 027c fd3d 1988 0cbf
00000030: 6fc8 8a3e e27e b7c0 4036 413d 93ed 3dc0
00000040: d335 d3bd 9f59 9ebd e2f1 b240 a83b 503d
00000050: a4f2 473d 2be6 933c 7ab4 c63d 0047 493b
00000060: 3c37 bfbe e557 a4bf eb0c 063e f092 86bd
00000070: d78b e03d aecc 81c0 54db 61bd bc2c 693d
00000080: 9671 cbbd d45c 2d3c 007c 72ba 5656 d43c
00000090: 4b08 97bf fa0c 1fbe f719 a1c0 35ac a93b
000000a0: 091c 6ebd c07c 303c 3aa4 80bd 2a7b cdbd
000000b0: dd6d 6b3d b6fb 833d fec5 4dbf 703f 4a3d
000000c0: 7c28 e03c 24f3 ac40 f885 903c 3218 adc0
000000d0: f463 97bd 5517 23bd 40e1 f8bb 397d f93f
000000e0: 1e7a c0bc 70df 6c40 d4b7 a23d b4b3 a7c0
000000f0: 99fe 913d 38ec ae3e 7479 9abd fe76 aa40
00000100: c03f 4cbe ee13 a13f 04a3 0fbe 68f9 b4c0
00000110: f2f9 9140 441a eb3d 44f8 a6bd e0b5 a23d
00000120: a6c2 b2c0 2b2b 9dbd 72d2 1a3e b280 baba
00000130: 5a0d 853c 5eec b5c0 689b 86bd 3312 60c0
00000140: 0ec2 2e3d 3304 9e3c 6e45 b940 40e5 00bd
00000150: 7032 003c 6e8c b43c fefc 13bd 80a9 36bd
00000160: b95e 93be 0d42 11bf f00a 3a3d 344a 9f3d
00000170: 7b02 e0bd 856c 68c0 902e e1bc 92e8 833d
00000180: d8f7 c43d b33f 87bd f052 a0bd 3d0c d4bc
00000190: d1e5 5abf a2c9 51bd fb6f afc0 cc35 cf3d
000001a0: edca d83d d095 7bbd a1e1 4f3d eec9 edbd
000001b0: 3f15 c6bd d05d 4ebd 30cb 80bf b0c8 36bd
000001c0: a89a e5bc dafe b240 22d6 f43d 5aa0 a7c0
000001d0: ccc2 1ebd b86d 04bd 0060 4a3d 99f5 8740
000001e0: 2527 4dbd 51c9 5840 f236 8fbd 0002 abc0
000001f0: 6fe5 d83d 7440 55be 569f 80bc 003b aa40
00000200: f2ba 0f3f 87e9 1d41 9ff0 ddbd d488 a7c0
00000210: 78d2 a340 6f42 7d3d 5881 04bd a59f ab3d
00000220: 98a0 a4c0 5c23 e1bd 4bb6 14be b3cf 543b
00000230: 9263 5cbd 6494 a5c0 b8e2 cb3d 5d08 93c0
00000240: 4f8d 2fbd e80a a8bd 96fd ab40 e0f7 903d
00000250: 5b1c 63bd 12c3 b83d 3a54 d3bc 7263 cb3d
00000260: d6b5 873e 4b71 40c0 3864 afbd 37a7 ecbd
00000270: 67a5 b03d e35d 14c0 29df 4d3b 28a8 87bd
00000280: 1632 4c3c ac01 8d3d 59aa 1dbd a20d 3abc
00000290: 154b 8ebe e4ea b9be 9494 a9c0 6278 df3c
000002a0: fb5a 56bb 0630 a63c 35cc b13c 9641 e83c
000002b0: c09c a03d 033e 83bb 2714 72bf 929b 89bd
000002c0: 86e9 b9be 8227 9c40 3244 20bb c0f4 8bc0
000002d0: 9010 cb3c fa93 07bd de3f 83bd ac4a 2e40
000002e0: b4ff 68bd 09fa 1040 e018 c63d 729e 91c0
000002f0: 1520 5d3b 1e8f d6bf 9bd5 863e 6a0a 8340

fc3.bias f4 [3]
5.56512 5.7587724 5.37685
00000000: 7715 b240 dd47 b840 280f ac40
