Models/LSTM/agentDQN-LSTM_2020-2022_lstm_v3_300_EPS_5.pth (torch, 256291 bytes, 8 tensors)

fc1.weight f4 [128, 104]
0.019509688 -0.026955806 -0.18544981 -0.0076728254 -0.13663255 -0.11537232 -0.1253673 -0.07723301
-0.17227402 -0.05867717 -0.070919886 -0.053521402 -0.10304506 -0.1326571 -0.18862961 -0.019668594
-0.10820706 -0.071153276 -0.0986547 -0.16804273 -0.16111566 -0.14534082 -0.032389995 -0.068058856
0.0077402373 0.028306209 0.06649687 0.09928717 0.059036173 -0.084443554 -0.063473634 -0.003945778
-0.06804402 0.10559415 0.1704705 0.04978748 -0.07284198 0.068942636 0.06169969 0.04993613
-0.014726991 0.011645993 0.088894874 0.07771451 0.04727783 0.0006165638 0.004985347 -0.19620496
-0.021592682 0.0008258316 -0.1706728 -0.13213482 -0.14695956 0.008460809 0.063345 -0.016946267
-0.05376888 0.028348777 -0.101423785 -0.15913287 0.041188076 -0.18410563 0.022255545 0.12831116
-0.010754635 0.07951843 -0.06115608 -0.18915652 -0.07000552 -0.0074788113 -0.075685985 0.0001665495
-0.050296187 -0.056810703 -0.01246613 -0.19513877 -0.04334588 -0.15764906 -0.072108276 -0.03851066
-0.10526942 -0.11447103 -0.19055763 -0.16202237 -0.08654874 -0.032403268 -0.089455806 -0.06566892
-0.1879704 -0.1911839 -0.17066015 -0.10704431 -0.16341968 -0.17700197 0.011664842 0.05325133
0.021814967 0.043137446 -0.1214642 -0.09885996 0.0026291013 -0.19152461 0.043364458 -0.05971193
-0.059518985 -0.049172636 -0.17813154 -0.15499859 -0.10977218 -0.23558073 -0.139857 -0.16846089
-0.1619624 -0.1235219 -0.123935044 -0.050413016 -0.045665912 -0.1578939 -0.14978805 -0.1603255
-0.14593095 -0.17855507 -0.0573096 -0.1866047 -0.037435517 -0.03130666 -0.054318223 -0.013569822
-0.14378062 -0.13962425 0.0063098874 -0.053481344 0.11153038 -0.008500746 -0.04887116 0.037501603
-0.05247168 -0.18026277 -0.055682197 0.06857508 0.1591704 -0.018294258 -0.01781465 -0.10512236
0.032602742 0.02295712 -0.033783194 -0.05637943 -0.07054822 -0.13706745 -0.20962147 -0.14745054
0.10410668 -0.1417771 -0.04485235 -0.22247769 -0.16982841 0.037676908 -0.06288454 -0.18243659
-0.19193603 -0.13564056 -0.098636754 0.060904223 -0.018992145 -0.09879415 -0.10848193 -0.073761895
-0.14275022 0.09656409 -0.0959258 -0.107724406 -0.05879165 -0.21744086 -0.04486498 -0.18292718
-0.19638917 -0.037542254 -0.19306675 -0.03450094 -0.09811052 -0.049204487 -0.046769317 -0.13276146
-0.16605866 -0.11264141 -0.08812145 -0.16787504 -0.12829848 -0.18441841 -0.04321328 -0.17950223
-0.10061962 -0.11512899 -0.035380628 -0.055642672 -0.11574082 -0.18751934 -0.04635717 -0.053170685
-0.058962688 -0.049424812 -0.008190373 -0.15509509 0.08963645 -0.18779816 -0.02185563 -0.07086583
0.0082970485 -0.046453174 -0.1864534 0.021732023 -0.140206 -0.14269823 -0.061369497 0.022536274
-0.15836571 -0.09057787 -0.014636995 0.029792491 -0.040335335 -0.14830376 -0.1523216 0.0010767912
-0.17780496 -0.08323264 -0.14277235 -0.03896229 -0.14262682 -0.07747016 -0.060345005 0.0062320535
-0.13597068 -0.10780978 -0.20705599 -0.12675352 0.3061109 0.22533067 0.07057254 -0.06639373
-0.0653843 0.048834816 -0.23163024 -0.10207963 -0.065884024 -0.12507884 -0.07408908 -0.21136755
-0.12868956 -0.25239426 -0.27081072 -0.11559312 -0.100040585 -0.17744228 -0.21366817 -0.06144237
00000000: c8d2 9f3c 6cd2 dcbc 8ee6 3dbe 536c fbbb
00000010: 67e9 0bbe 5348 ecbd 4960 00be 572c 9ebd
00000020: 9a68 30be 7957 70bd 723e 91bd 4239 5bbd
00000030: 4a09 d3bd 43d7 07be 1f28 41be 0820 a1bc
00000040: aa9b ddbd cfb8 91bd 7a0b cabd 6513 2cbe
00000050: 81fb 24be 39d4 14be 5fab 04bd 7162 8bbd
00000060: d1a1 fd3b 6ce2 e73c 832f 883d 1257 cb3d
00000070: eacf 713d bef0 acbd 77fe 81bd 964b 81bb
00000080: aa5a 8bbd bf41 d83d d28f 2e3e f5ed 4b3d
00000090: 2d2e 95bd cc31 8d3d d0b8 7c3d d489 4c3d
000000a0: 7a49 71bc d6ce 3e3c 840e b63d c928 9f3d
000000b0: 66a6 413d e5a0 213a 1f5c a33b f4e9 48be
000000c0: 23e3 b0bc 9f7c 583a dac4 2ebe 5a4e 07be
000000d0: 917c 16be 349f 0a3c 06bb 813d e6d2 8abc
000000e0: c23c 5cbd b23b e83c 46b7 cfbd baf3 22be
000000f0: d4b4 283d 3086 3cbe 4351 b63c 0064 033e
00000100: 3534 30bc 8fda a23d cc7e 7abd 3fb2 41be
00000110: 0e5f 8fbd d110 f5bb 4101 9bbd caa3 2e39
00000120: 6003 4ebd 57b2 68bd bd3e 4cbc 75d2 47be
00000130: 738b 31bd c16e 21be 81ad 93bd 5bbd 1dbd
00000140: 7e97 d7bd ca6f eabd 8a21 43be 31e9 25be
00000150: 7740 b1bd 4ab9 04bd 9b34 b7bd 6d7d 86bd
00000160: 507b 40be b6c5 43be 89c1 2ebe 0c3a dbbd
00000170: 7d57 27be 0140 35be e51d 3f3c 111e 5a3d
00000180: 4db5 b23c e4b0 303d 39c2 f8bd 1777 cabd
00000190: 004d 2c3b 071f 44be ee9e 313d 7f94 74bd
000001a0: 2eca 73bd 3f69 49bd 1d68 36be f3b7 1ebe
000001b0: 3dd0 e0bd 133c 71be ac36 0fbe 0381 2cbe
000001c0: 79d9 25be 0df9 fcbd a8d1 fdbd e17d 4ebd
000001d0: 2e0c 3bbd f0ae 21be 0a62 19be 5e2c 24be
000001e0: ec6e 15be 24d7 36be 79bd 6abd 4d15 3fbe
000001f0: fc55 19bd 6a3b 00bd c97c 5ebd f553 5ebc
00000200: 3a3b 13be a9f9 0ebe 2cc3 ce3b 410f 5bbd
00000210: 0a6a e43d b746 0bbc 202d 48bd 489b 193d
00000220: 8bec 56bd ce96 38be 0413 64bd 1771 8c3d
00000230: 91fd 223e d7dd 95bc 07f0 91bc 644a d7bd
00000240: 748a 053d 9210 bc3c 3f60 0abd 1eee 66bd
00000250: 967b 90bd 695b 0cbe 03a7 56be 46fd 16be
00000260: e235 d53d 042e 11be 19b7 37bd 31d1 63be
00000270: 80e7 2dbe 1a53 1a3d 9cc9 80bd a8d0 3abe
00000280: e18a 44be 5ce5 0abe 1102 cabd b576 793d
00000290: 6a95 9bbc 9654 cabd c62b debd 7a10 97bd
000002a0: 1d2d 12be 65c3 c53d bf74 c4bd 9d9e dcbd
000002b0: 83cf 70bd d1a8 5ebe 57c4 37bd 4351 3bbe
000002c0: 3e1a 49be e8c5 19bd 4ab3 45be dc50 0dbd
000002d0: 2bee c8bd a58a 49bd 2f91 3fbd 9ff2 07be
000002e0: 480b 2abe 8ab0 e6bd 0579 b4bd 6fe7 2bbe
000002f0: ad60 03be 2ed8 3cbe 6900 31bd 6fcf 37be
00000300: a911 cebd bfc8 ebbd 47eb 10bd 92e9 63bd
00000310: 8609 edbd 1205 40be 04e1 3dbd 81c9 59bd
00000320: dc82 71bd ac71 4abd ea30 06bc 3fd1 1ebe
00000330: 5193 b73d 294e 40be 940a b3bc 1b22 91bd
00000340: 58f0 073c af45 3ebd a4ed 3ebe 5b07 b23c
00000350: 2992 0fbe 7c1f 12be 955e 7bbd fe9d b83c
00000360: 9f2a 22be e480 b9bd 02d0 6fbc 620f f43c
00000370: aa36 25bd f1dc 17be 32fa 1bbe 1e23 8d3a
00000380: 8112 36be e075 aabd ea32 12be ec96 1fbd
00000390: c40c 12be ada8 9ebd 532c 77bd 4136 cc3b
000003a0: e63b 0bbe 60cb dcbd 7c06 54be adcb 01be
000003b0: 91ba 9c3e 15bd 663e 5688 903d 70f9 87bd
000003c0: 34e8 85bd 0407 483d 7a30 6dbe 200f d1bd
000003d0: 34ee 86bd ab14 00be 04bc 97bd bc70 58be
000003e0: 32c7 03be d239 81be b4a7 8abe 16bc ecbd
000003f0: 14e2 ccbd 6eb3 35be d4cb 5abe ffaa 7bbd

fc1.bias f4 [128]
-0.16788267 -0.22089534 -0.07655233 -0.088115245 0.36268747 -0.17473607 -0.16522765 0.1904463
0.022741325 0.0127162505 0.23575047 0.02987469 -0.031690028 -0.0854556 0.5388406 -0.09997097
0.072635785 -0.07331558 0.17459634 0.101377055 -0.12283495 -0.06447322 0.001257559 -0.07309307
-0.05606684 -0.070494555 -0.0431644 -0.05013377 -0.11178404 -0.10157717 -0.038767643 -0.11161874
-0.13083434 0.014122129 0.027705545 0.29002443 0.21083872 -0.17861252 -0.06973112 -0.06758926
0.29942897 0.036646012 0.59811896 0.004487401 0.04518999 -0.025114663 -0.019514117 -0.20834666
0.22805059 -0.0077778585 -0.06067129 0.02957459 -0.07313214 0.09940432 -0.036587123 -0.12896805
-0.00093532173 -0.10937232 0.050351642 -0.16451983 0.193159 0.106911756 -0.044097427 0.19027993
0.053965636 -0.004238211 -0.1112796 -0.03229813 0.11408529 -0.15767488 -0.18591976 -0.14138731
0.071090534 -0.1587034 0.026683193 -0.15658155 -0.10662358 0.072556235 0.46448943 0.21652916
0.026994437 0.010507899 -0.07755043 -0.061359793 -0.014300199 -0.053765573 -0.047793943 0.035156935
-0.13289146 0.36896494 0.044605535 0.2844769 -0.09608827 0.029790731 0.009279945 0.018890373
0.010157802 -0.01583189 -0.16415343 -0.016683167 -0.0021299813 0.005797895 0.1839028 -0.11512843
0.02364812 -0.029175738 -0.083463155 -0.12233142 -0.00026169897 -0.14870334 -0.09678288 -0.11623342
-0.05341174 0.076030724 0.039278004 -0.11048684 -0.12619515 -0.003519013 0.010996977 -0.0019484153
-0.052667677 -0.0030297476 -0.041310627 0.03943012 0.15313104 0.033436287 0.087999426 -0.10547496
00000000: 6fe9 2bbe 6332 62be 78c7 9cbd c475 b4bd
00000010: 2cb2 b93e 03ee 32be 7031 29be 5b04 433e
00000020: 044c ba3c d257 503c 9268 713e c4bb f43c
00000030: 67cd 01bd 5803 afbd 75f1 093f 94bd ccbd
00000040: 12c2 943d 7b26 96bd 62c9 323e c69e cf3d
00000050: e490 fbbd 890a 84bd aed4 a43a d2b1 95bd
00000060: 58a6 65bd 735f 90bd 27cd 30bd 1159 4dbd
00000070: 08ef e4bd b107 d0bd d2ca 1ebd 5e98 e4bd
00000080: 70f9 05be 8160 673c bdf6 e23c 157e 943e
00000090: 1be6 573e 33e6 36be 30cf 8ebd 3d6c 8abd
000000a0: c14e 993e 211a 163d 531e 193f 0c0b 933b
000000b0: 2419 393d 44bd cdbc 12dc 9fbc d458 55be
000000c0: 1886 693e 68dd febb 7582 78bd 6946 f23c
000000d0: 4ec6 95bd 7e94 cb3d 61dc 15bd 3310 04be
000000e0: 6130 75ba 98fe dfbd 863d 4e3d e377 28be
000000f0: 79cb 453e 8df4 da3d 819f 34bd bed8 423e
00000100: 120b 5d3d b1e0 8abb 8fe6 e3bd 0b4b 04bd
00000110: 8ca5 e93d 8675 21be c061 3ebe d6c7 10be
00000120: ea97 913d 2583 22be b696 da3c ea56 20be
00000130: 775d dabd 5d98 943d 8fd1 ed3e d2b9 5d3e
00000140: 7023 dd3c 5329 2c3c c3d2 9ebd 6854 7bbd
00000150: 624b 6abc 4a39 5cbd 95c3 43bd b800 103d
00000160: b314 08be f9e8 bc3e 4bb4 363d f5a6 913e
00000170: edc9 c4bd b10b f43c e90a 183c fcbf 9a3c
00000180: e96c 263c e1b1 81bc d617 28be 23ab 88bc
00000190: 2897 0bbb 45fc bd3b 0451 3c3e 74c8 ebbd
000001a0: b4b9 c13c f501 efbc bbee aabd e588 fabd
000001b0: a434 89b9 b045 18be 1a36 c6bd ca0b eebd
000001c0: 45c6 5abd ffb5 9b3d f9e1 203d ed46 e2bd
000001d0: 4d39 01be 3e9f 66bb aa2c 343c f861 ffba
000001e0: 10ba 57bd bb8e 46bb 5535 29bd 7a81 213d
000001f0: 62ce 1c3e 7df4 083d 0b39 b43d 4103 d8bd

fc2.weight_ih_l0 f4 [256, 128]
0.059070956 0.11077258 -0.10292199 -0.060439155 0.10285464 -0.064398244 -0.04878272 0.068351805
0.061581314 0.026760623 -0.09071567 0.095973685 -0.07990575 0.074496835 -0.13574088 -0.058364138
0.010391727 -0.027985435 -0.11820936 -0.09962231 -0.063712604 0.1220528 0.098555624 -0.075930744
0.005172983 0.10012628 -0.11561742 -0.0009415545 0.07122557 -0.09423183 0.017075077 -0.026733786
-0.015316034 0.0069326013 -0.11739358 -0.016780838 -0.06223838 -0.075849205 -0.002377361 0.08877319
-0.018982552 0.0009909123 -0.069893174 -0.078740075 -0.097719096 0.05492319 -0.036861047 0.0443026
-0.06878938 0.12140833 -0.005159095 0.028714038 0.001019001 0.07426063 -0.049910516 -0.058753118
-0.0041919947 0.059004556 0.030738601 -0.07836694 -0.051691845 0.048746362 0.10920361 -0.030236995
-0.038672507 0.033238262 -0.01730463 0.066324785 -0.07948566 0.11743535 -0.010563403 -0.056466177
0.07231231 -0.00032535195 0.09112589 0.038337365 5.2271566e-06 -0.04711604 0.009112877 -0.110619836
-0.08105083 -0.059558406 -0.08299643 -0.025761088 0.064870164 -0.027772779 -0.08203045 -0.09325312
0.09603419 -0.123082176 -0.10789071 -0.14385965 0.05127056 -0.056453753 -0.11927152 -0.1214713
-0.049013842 -0.095945925 -0.041646183 -0.06997108 0.07568917 0.09751712 -0.119412035 0.004764393
0.04340145 -0.13365166 -0.017651066 0.014947996 0.08948612 -0.12861612 -0.04256977 -0.08567807
0.01014024 -0.029906407 0.066420056 -0.083381176 -0.023211008 0.09672603 -0.008462369 0.011636078
-0.04084915 0.060631167 0.0048124264 -0.07801654 -0.023988187 0.06743243 0.09431726 0.08353236
-0.05874127 -0.08417492 -0.023667123 0.010484202 0.072012 -0.13131787 -0.04842505 0.061646886
0.0729006 0.07720557 0.042557124 -0.04177472 -0.09631926 0.083403975 0.12022158 -0.032998353
0.10451916 -0.11282747 -0.034425095 -0.0143709 -0.060392033 -0.07532793 0.11679524 0.10544123
-0.053410433 -0.032075226 -0.1056426 -0.033134006 0.12138446 -0.045961592 0.019525303 0.074470386
0.07112834 -0.12792818 -0.11741559 0.1252322 0.1197796 -0.019280318 0.013327028 -0.047521725
-0.03277433 0.12034674 0.064520516 0.046227857 0.009416381 -0.071382195 -0.0087209195 0.022603687
0.064502686 -0.108938664 0.044878498 -0.049215216 -0.08342936 -0.056466598 0.094948076 -0.047447696
0.10076389 -0.0038290906 -0.023429677 -0.01709811 0.1303029 0.11543448 -0.043077275 -0.054473937
-0.04973286 -0.09955062 0.07093212 -0.018171145 0.13903287 0.07993582 0.08550649 -0.06549396
0.07698788 0.118639335 -0.035913616 -0.09537478 -0.007880958 -0.067074895 -0.011074623 0.02588752
0.038709145 -0.12248318 -0.027865 -0.09211194 0.021437969 -0.027365582 -0.12895219 0.012093739
-0.06182292 0.06108246 0.11106366 -0.027500395 0.07741859 -0.11048121 0.11749954 0.108385436
0.0234827 0.1105348 -0.12476825 0.10841148 -0.07246539 0.0027958006 0.09951884 -0.050170757
-0.12017396 -0.033444077 -0.031731285 0.09786169 -0.060164765 0.08579207 -0.033949412 -0.112681195
-0.005171883 0.09295273 -0.10566964 -0.084366806 0.0041352417 -0.052829653 -0.05920767 0.07068878
0.024545236 0.08917122 0.1216674 0.122509025 -0.012186363 -0.08718611 0.05206797 -0.010279564
00000000: 63f4 713d bcdc e23d c4c8 d2bd 0c8f 77bd
00000010: 74a5 d23d 3ae3 83bd 64d0 47bd 08fc 8b3d
00000020: b03c 7c3d 1839 db3c 23c9 b9bd da8d c43d
00000030: a0a5 a3bd cc91 983d a8ff 0abe 3c0f 6fbd
00000040: 1042 2a3c b641 e5bc c017 f2bd c806 ccbd
00000050: c17b 82bd d2f6 f93d 88d7 c93d 9481 9bbd
00000060: 2082 a93b 020f cd3d d3c8 ecbd a7d2 76ba
00000070: b6de 913d 9efc c0bd 08e1 8b3c d000 dbbc
00000080: 1af0 7abc e02a e33b 0c6c f0bd f877 89bc
00000090: aced 7ebd d456 9bbd 80cd 1bbb b8ce b53d
000000a0: 4c81 9bbc 80e1 813a 2724 8fbd 7a42 a1bd
000000b0: f320 c8bd 24f7 603d 9cfb 16bd a576 353d
000000c0: 72e1 8cbd eea4 f83d a00d a9bb b439 eb3c
000000d0: 0090 853a f515 983d f86e 4cbd 1ca7 70bd
000000e0: 005d 89bb c3ae 713d 85cf fb3c d97e a0bd
000000f0: d4ba 53bd 44aa 473d 24a6 df3d 93b3 f7bc
00000100: 1067 1ebd d824 083d 70c2 8dbc 4ad5 873d
00000110: 61c9 a2bd f281 f03d 2012 2dbc 1449 67bd
00000120: 7a18 943d 0094 aab9 36a0 ba3d a407 1d3d
00000130: ef64 af36 c0fc 40bd 2d4e 153c a78c e2bd
00000140: fafd a5bd 84f3 73bd 08fa a9bd eb08 d3bc
00000150: a6da 843d bd83 e3bc 95ff a7bd 7efb bebd
00000160: 93ad c43d 8212 fcbd cef5 dcbd f24f 13be
00000170: 1401 523d 0d3c 67bd a044 f4bd f2c5 f8bd
00000180: bdc2 48bd 4c7f c4bd 3095 2abd ff4c 8fbd
00000190: ec02 9b3d 0eb7 c73d 4c8e f4bd a01e 9c3b
000001a0: b8c5 313d fbdb 08be f898 90bc 70e8 743c
000001b0: 8044 b73d f2b3 03be a45d 2ebd fc77 afbd
000001c0: 4023 263c 48fe f4bc 3d07 883d c0c3 aabd
000001d0: 0325 bebc 4c18 c63d c0a5 0abc 40a5 3e3c
000001e0: 7051 27bd 6358 783d 8fb1 9d3b 23c7 9fbd
000001f0: e082 c4bc 041a 8a3d 6829 c13d 0413 ab3d
00000200: b09a 70bd e763 acbd 8ee1 c1bc eec5 2b3c
00000210: 077b 933d 3178 06be 5859 46bd 7281 7c3d
00000220: e94c 953d f41d 9e3d 6150 2e3d f81b 2bbd
00000230: 0843 c5bd b4cf aa3d bb36 f63d 4829 07bd
00000240: 240e d63d 1712 e7bd 5401 0dbd ec73 6bbc
00000250: a35d 77bd 8845 9abd 5832 ef3d 92f1 d73d
00000260: e6c4 5abd 5061 03bd 265b d8bd 86b7 07bd
00000270: 6a98 f83d 3942 3cbd 87f3 9f3c ee83 983d
00000280: bcab 913d 9bff 02be 9677 f0bd df3c 003e
00000290: 024f f53d c2f1 9dbc 9b59 5a3c 24a6 42bd
000002a0: 603e 06bd 5a78 f63d 5523 843d 6c59 3d3d
000002b0: 2a47 1a3c d430 92bd 30e2 0ebc 5e2b b93c
000002c0: fc19 843d 3c1b dfbd 84d2 373d e595 49bd
000002d0: 03dd aabd 8549 67bd 2374 c23d 8458 42bd
000002e0: 4c5d ce3d 7bf1 7abb 98ef bfbc 5611 8cbc
000002f0: 206e 053e ea68 ec3d cc71 30bd 1020 5fbd
00000300: afb4 4bbd 32e1 cbbd dc44 913d a7db 94bc
00000310: a25e 0e3e 64b5 a33d 071e af3d b321 86bd
00000320: d2ab 9d3d 2ef9 f23d 281a 13bd da53 c3bd
00000330: 221f 01bc 905e 89bd 5672 35bc 1012 d43c
00000340: 7b8d 1e3d 76d8 fabd 2445 e4bc 2fa5 bcbd
00000350: ae9e af3c c92d e0bc 0b0c 04be d124 463c
00000360: 083a 7dbd 9a31 7a3d 5875 e33d 8248 e1bc
00000370: a38d 9e3d f943 e2bd 99a3 f03d 2ff9 dd3d
00000380: cb5e c03c 1260 e23d 7f86 ffbd d706 de3d
00000390: bc68 94bd c039 373b 89d0 cb3d da7f 4dbd
000003a0: c41d f6bd a8fc 08bd aaf8 01bd b66b c83d
000003b0: 546f 76bd c1b3 af3d 8a0e 0bbd 66c5 e6bd
000003c0: e678 a9bb 005e be3d 5369 d8bd 81c8 acbd
000003d0: ec80 873b e863 58bd be83 72bd 47c5 903d
000003e0: 1713 c93c 679f b63d c22c f93d 03e6 fa3d
000003f0: 50a9 47bc a28e b2bd 3945 553d 9e6b 28bc

fc2.weight_hh_l0 f4 [256, 64]
-0.041924953 0.11299235 0.08514741 0.10727489 0.12410179 0.04657255 0.053674757 0.0428672
-0.116610795 -0.009225935 0.10982698 -0.11717068 -0.0786867 -0.042551965 -0.028684288 0.12349175
0.017831057 -0.03933455 -0.123132005 -0.014690965 -0.055033237 -0.0132882595 -0.09987457 0.115040615
-0.044890553 -0.08666593 0.064313695 0.06735645 -0.12012419 -0.089357555 -0.019162714 0.089698315
0.06679346 0.07847421 0.030120373 0.055135697 0.011829749 -0.076553494 -0.108973846 -0.063774556
0.0999448 -0.094285056 -0.042879462 0.027337268 0.0020890236 0.06364535 0.095781356 0.042904094
-0.0517717 0.056537762 0.024876252 -0.06823687 0.08334528 0.018499866 -0.0003028363 -0.0681559
0.013869584 -0.0072095245 0.022538945 -0.0699089 0.028713524 -0.10929176 0.06189239 -0.03367728
-0.04434909 -0.0009583831 0.06087415 -0.037946 -0.053749487 -0.11573428 -0.08288844 0.018653184
0.010110751 -0.014471859 0.025034204 -0.056812376 -0.055733457 -0.0063085556 0.07883707 -0.102112725
-0.07872103 0.038393527 -0.044875547 -0.06753078 0.08610527 -0.08463624 0.08132771 -0.016837731
0.075493306 -0.10782844 -0.11346896 -0.04053341 -0.058777764 0.062785745 0.019323394 -0.11518143
-0.062733024 -0.030056357 0.055516675 -0.022347271 -0.057400703 0.01852341 -0.10322717 0.08486733
0.00052163005 -0.09795269 0.018826097 0.007947192 -0.059274137 0.006672278 -0.07248224 -0.039300516
0.045798123 0.042144865 0.08286671 0.08337127 -0.10436815 -0.080276296 -0.043989047 -0.101815134
-0.05488114 0.006540954 -0.063426 -0.032175586 0.07658428 -0.012134835 -0.06458004 -0.09375548
0.0834654 0.02595289 -0.03922662 0.059188902 0.061514705 -0.09892933 -0.05181414 0.09194271
-0.09446469 -0.06345406 -0.0052945763 0.09721765 -0.03938286 -0.012871191 0.02721925 -0.085967466
0.0019349456 0.04703082 -0.030798763 -0.020464778 -0.04895176 -0.019753203 -0.07327376 0.03304422
-0.08483985 -0.120917246 0.12031229 -0.01779762 0.109910175 0.023192838 -0.12075451 -0.017399177
0.070554644 -0.101840556 -0.0192042 0.019915923 0.09601101 0.09651196 0.031863496 -0.01376836
0.10505055 0.11992887 -0.101733625 0.011620119 0.042666003 -0.093096554 -0.10702737 -0.01996003
-0.07693951 0.06725657 0.09979141 0.124839514 -0.057171643 -0.004551396 -0.08692783 0.059103414
0.045627892 -0.105788544 -0.11908814 0.06283878 0.04587774 0.06286061 -0.03488721 0.06808667
-0.0097967535 0.091056824 0.06346245 0.036049426 -0.047655076 0.01316455 0.026219875 0.045582682
0.0141810775 0.06810236 -0.04318413 0.0933944 0.009486154 -0.07768498 0.0045363903 0.08965324
-0.014183596 0.028383598 -0.008658737 0.043736383 -0.043379486 0.09917398 -0.040998995 -0.1239095
-0.011522189 -0.05101432 -0.0033160746 -0.036560163 -0.10294749 0.090088114 -0.0041897446 0.03444542
0.10788268 -0.035741583 0.044154942 -0.04237035 0.12496695 0.022623822 -0.04983121 0.042186767
0.117022336 0.08718932 -0.05457297 -0.12380034 0.106951326 0.030134127 -0.081361204 -0.06314337
0.122019425 0.06764707 -0.035862908 0.06264487 0.0043696463 -0.06928903 0.0046878755 0.095459044
-0.022871956 -0.05556366 -0.11927603 -0.11183517 0.010957614 -0.0447295 -0.10205299 0.10845195
00000000: 80b9 2bbd 8868 e73d c461 ae3d f0b2 db3d
00000010: 1429 fe3d dcc2 3e3d 10da 5b3d 8495 2f3d
00000020: a4d1 eebd 6028 17bc f8ec e03d 2ef7 efbd
00000030: 7e26 a1bd f84a 2ebd 50fb eabc 3ee9 fc3d
00000040: 7012 923c 441d 21bd a22c fcbd 60b2 70bc
00000050: 886a 61bd 00b7 59bc 0a8b ccbd 6a9a eb3d
00000060: 28df 37bd e87d b1bd e6b6 833d 2ef2 893d
00000070: ac03 f6bd 1801 b7bd 20fb 9cbc c0b3 b73d
00000080: 02cb 883d 16b7 a03d 00bf f63c f8d5 613d
00000090: 90d1 413c 14c8 9cbd ae2d dfbd 3c9c 82bd
000000a0: dcaf cc3d 8618 c1bd 60a2 2fbd 68f2 df3c
000000b0: 00e8 083b 7e58 823d 0429 c43d 34bc 2f3d
000000c0: 900e 54bd 2494 673d 48c9 cb3c c6bf 8bbd
000000d0: eeb0 aa3d 088d 973c 00c6 9eb9 5295 8bbd
000000e0: 403d 633c e03d ecbb 98a3 b83c 662c 8fbd
000000f0: a038 eb3c 5cd4 dfbd e082 7d3d 30f1 09bd
00000100: 64a7 35bd 003c 7bba 2c57 793d 446d 1bbd
00000110: 6c28 5cbd 1806 edbd 6ac1 a9bd 90ce 983c
00000120: 90a7 253c 601b 6dbc 8814 cd3c 18b4 68bd
00000130: c448 64bd 00b8 cebb 5475 a13d 7a20 d1bd
00000140: 7e38 a1bd 8842 1d3d 6ccf 37bd 944d 8abd
00000150: f657 b03d c455 adbd 248f a63d 48ef 89bc
00000160: 3c9c 9a3d 28d5 dcbd 6a62 e8bd 5c06 26bd
00000170: f4c0 70bd d095 803d 184c 9e3c 3ee4 ebbd
00000180: 2c7a 80bd c038 f6bc 7465 633d a011 b7bc
00000190: 001d 6bbd 68be 973c c468 d3bd ecce ad3d
000001a0: 00be 083a 6c9b c8bd 3039 9a3c f034 023c
000001b0: 70c9 72bd 20a3 da3b 9271 94bd 94f9 20bd
000001c0: d096 3b3d 18a0 2c3d 06b6 a93d 8ebe aa3d
000001d0: f8be d5bd e667 a4bd dc2d 34bd 7484 d0bd
000001e0: 0ccb 60bd 8055 d63b 7ee5 81bd 8cca 03bd
000001f0: 38d8 9c3d 30d1 46bc 8a42 84bd e002 c0bd
00000200: e8ef aa3d 289b d43c 18ac 20bd 1070 723d
00000210: d8f6 7b3d 769b cabd 103b 54bd 764c bc3d
00000220: b476 c1bd 34f4 81bd 207e adbb 0c1a c73d
00000230: ec4f 21bd b0e1 52bc e8fa de3c b60f b0bd
00000240: 009e fd3a 64a3 403d b04d fcbc c0a5 a7bc
00000250: a481 48bd 78d1 a1bc 8e10 96bd 6059 073d
00000260: 84c0 adbd 76a3 f7bd 4a66 f63d 50cc 91bc
00000270: 9618 e13d e8fe bd3c 244e f7bd b888 8ebc
00000280: f47e 903d c891 d0bd 2052 9dbc b826 a33c
00000290: 6ca1 c43d 10a8 c53d 4c83 023d b094 61bc
000002a0: be24 d73d 449d f53d b859 d0bd 5062 3e3c
000002b0: 8cc2 2e3d 68a9 bebd 2a31 dbbd 3883 a3bc
000002c0: 7692 9dbd d0bd 893d 705f cc3d dcab ff3d
000002d0: d02c 6abd e023 95bb 3807 b2bd 6c16 723d
000002e0: 50e4 3a3d aaa7 d8bd 7ce4 f3bd 9eb1 803d
000002f0: 4cea 3b3d 10bd 803d e4e5 0ebd 0671 8b3d
00000300: 9082 20bc 007c ba3d 9af8 813d 90a8 133d
00000310: f831 43bd 20b0 573c 10cb d63c e8b4 3a3d
00000320: c057 683c 4079 8b3d d8e1 30bd 9045 bf3d
00000330: d06b 1b3c 4e19 9fbd 00a6 943b 1e9c b73d
00000340: 5062 68bc b884 e83c 60dd 0dbc ec24 333d
00000350: b0ae 31bd ba1b cb3d 90ee 27bd 44c4 fdbd
00000360: 90c7 3cbc 64f4 50bd 8052 59bb 1cc0 15bd
00000370: 22d6 d2bd 1e80 b83d 204a 89bb a416 0d3d
00000380: 98f1 dc3d c465 12bd d0db 343d 888c 2dbd
00000390: acee ff3d 9855 b93c d01b 4cbd 08cc 2c3d
000003a0: 68a9 ef3d 5090 b23d e887 5fbd 088b fdbd
000003b0: 4c09 db3d d8db f63c b4a0 a6bd 5051 81bd
000003c0: 52e5 f93d 8c8a 8a3d fce4 12bd f44b 803d
000003d0: 402f 8f3b 68e7 8dbd c09c 993b 0880 c33d
000003e0: f85d bbbc b896 63bd fe46 f4bd d609 e5bd
000003f0: 9087 333c 4836 37bd 2801 d1bd 0e1c de3d

fc2.bias_ih_l0 f4 [256]
0.118465975 0.060984183 -0.02199663 -0.08561844 0.0690176 -0.043999683 -0.03659504 -0.06307425
0.055907138 -0.14770925 -0.006043621 -0.03661843 0.06328701 0.031467404 -0.08495244 -0.020500496
0.018478453 0.023527905 -0.07132591 0.12499069 -0.05831699 0.0608208 -0.02064138 0.11378868
-0.06208363 0.10425544 0.046870295 -0.11281052 0.037621208 -0.027429806 -0.118308425 0.04116115
0.03389584 0.11139068 -0.069998175 -0.10800712 -0.02887578 0.05317743 0.0016215977 -0.12799145
0.053191237 -0.025591433 -0.099071614 0.04594612 -0.08348946 -0.047276635 -0.074573524 0.09682137
-0.10527 0.052846476 0.014320948 0.118867025 0.025855094 0.012729817 -0.07625577 0.009886875
-0.03165833 0.10984023 0.007213288 -0.0041389763 0.064588204 0.019759983 0.0106951445 -0.065184906
-0.11934605 0.07521108 0.019275352 0.050126 -0.05863762 0.1042563 -0.040960938 -0.024880394
-0.0051945597 0.058077157 -0.036756843 -0.0016485155 -0.077746734 -0.013192758 -0.12313937 0.08448359
-0.025509506 0.07291712 -0.024495348 0.024629489 0.06782703 0.021349639 0.038858563 -0.11340818
-0.07488848 -0.084260404 -0.06061831 0.08919951 -0.02070038 0.05112931 -0.04335247 0.08409992
-0.063497856 0.048714593 0.087667555 -0.09663463 -0.05547309 -0.10863146 -0.10958812 0.022856042
-0.043934926 -0.08022559 0.007641688 -0.016922548 0.10272482 -0.12348923 -0.07738769 0.118122846
-0.016346306 0.07469827 -0.0938922 0.07165876 -0.0102623105 0.017844215 -0.019297063 -0.0053099245
-0.06002733 0.06197597 0.0051930696 -0.08451377 0.10857923 -0.0813832 0.038726106 -0.0408732
0.09673159 0.06589203 0.01755948 0.042645693 -0.0007824451 -0.038505495 0.038903825 0.090262175
0.09946191 0.04237297 0.08624319 0.05139987 0.07451279 0.08634125 -0.10494854 0.091973975
-0.088998154 -0.0022187233 0.033780027 0.07662244 0.098892 0.17017396 0.015318576 0.10926249
-0.03858184 -0.08253616 -0.03160909 -0.092947006 -0.053884283 0.06720056 -0.0857041 0.020392075
-0.0744114 -0.029759921 -0.09957056 -0.040784627 -0.09458941 0.11297541 0.049240742 -0.07712919
-0.07311347 0.06724536 -0.059550866 -0.042020097 -0.011248559 0.11696467 -0.0569918 -0.04523751
-0.05150616 0.042072523 0.02196687 -0.042718083 -0.10339009 0.004734183 -0.049461007 0.01321055
-0.040437356 -0.039075628 0.1276526 -0.029648751 0.122187644 0.039807055 -0.06350758 0.09577975
0.027379049 0.01597838 0.058435466 -0.09402606 -0.10737761 0.11086051 0.06598758 0.038146254
-0.003674063 -0.06563822 0.10747506 0.02717693 -0.02229241 0.017825857 0.05021227 0.07461746
-0.058282312 -0.0328525 0.040527984 0.08422521 -0.066779435 -0.069168314 0.013609269 0.09218528
-0.061775543 -0.09280645 0.05140848 0.027678862 -0.03792343 -0.05574688 -0.07698521 -0.038187493
-0.03039456 0.123266056 0.03736917 -0.014820633 -0.12315665 -0.030882578 0.02704254 0.112312734
-0.12295257 -0.05010882 0.04944803 0.085279614 0.05633542 0.051426183 -0.0913344 -0.072405495
-0.11840983 0.041116215 -0.049635917 -0.01251528 -0.12981793 -0.008018815 0.026485309 -0.07920502
0.078656375 -0.021110192 0.046363994 0.07092326 0.09752886 0.027078386 0.013934612 0.0964362
00000000: 4a9e f23d 8dca 793d 4732 b4bc b858 afbd
00000010: 1959 8d3d 0339 34bd aee4 15bd 132d 81bd
00000020: e2fe 643d 1841 17be 9109 c6bb 35fd 15bd
00000030: 9f9c 813d f7e3 003d 8bfb adbd a8f0 a7bc
00000040: 2060 973c 98bd c03c 5213 92bd 1efb ff3d
00000050: ccdd 6ebd 3b1f 793d 1d18 a9bc 0a0a e93d
00000060: 684b 7ebd e083 d53d 11fb 3f3d 3409 e7bd
00000070: b218 1a3d 79b4 e0bc b04b f2bd 9898 283d
00000080: 5dd6 0a3d cc20 e43d 345b 8fbd d632 ddbd
00000090: e68c ecbc 94d0 593d ca8b d43a 3110 03be
000000a0: 0edf 593d 20a5 d1bc 0fe6 cabd 0032 3c3d
000000b0: 86fc aabd 25a5 41bd 01ba 98bd 484a c63d
000000c0: cc97 d7bd 8c75 583d 69a2 6a3c 8e70 f33d
000000d0: 10ce d33c b990 503c fc2b 9cbd 8ffc 213c
000000e0: 2aac 01bd eaf3 e03d 725d ec3b 40a0 87bb
000000f0: d246 843d b0df a13c b03a 2f3c aa7f 85bd
00000100: b46b f4bd 4408 9a3d 58e7 9d3c ec50 4d3d
00000110: 002e 70bd 5484 d53d a8c6 27bd f8d1 cbbc
00000120: 2037 aabb 50e2 6d3d 588e 16bd 0013 d8ba
00000130: ae39 9fbd 7026 58bc 7e30 fcbd bc05 ad3d
00000140: 50f9 d0bc 9255 953d 78aa c8bc c8c3 c93c
00000150: e6e8 8a3d 70e5 ae3c 282a 1f3d 8c42 e8bd
00000160: 225f 99bd b890 acbd e84a 78bd 3cae b63d
00000170: d893 a9bc f86c 513d 5c92 31bd 943c ac3d
00000180: 2a0b 82bd f488 473d 0c8b b33d 60e8 c5bd
00000190: c037 63bd 2c7a debd bc6f e0bd 983c bb3c
000001a0: 1cf5 33bd 504d a4bd 2067 fa3b 28a1 8abc
000001b0: 6461 d23d ece7 fcbd 707d 9ebd 64ea f13d
000001c0: b0e8 85bc 68fb 983d 8e4a c0bd d4c1 923d
000001d0: 4023 28bc 082e 923c e014 9ebc e0fe adbb
000001e0: 38df 75bd 84da 7d3d a02a aa3b 8e15 adbd
000001f0: ca5e de3d 3cac a6bd 449f 1e3d a86a 27bd
00000200: 361b c63d 67f2 863d e6d8 8f3c 40ad 2e3d
00000210: 001d 4dba f0b7 1dbd 9e59 1f3d 60db b83d
00000220: b0b2 cb3d 488f 2d3d 45a0 b03d ac88 523d
00000230: 299a 983d aed3 b03d 43ef d6bd da5c bc3d
00000240: aa44 b6bd 0068 11bb ed5c 0a3d 3aec 9c3d
00000250: e487 ca3d 1542 2e3e c4fa 7a3c 03c5 df3d
00000260: fe07 1ebd b808 a9bd 8878 01bd 005b bebd
00000270: c4b5 5cbd 72a0 893d a285 afbd 480d a73c
00000280: 0165 98bd 14cb f3bc a6eb cbbd c80d 27bd
00000290: 18b8 c1bd a75f e73d a9b0 493d e9f5 9dbd
000002a0: 84bc 95bd efb7 893d 9ceb 73bd 441d 2cbd
000002b0: e04b 38bc 2c8b ef3d 3c70 69bd f84a 39bd
000002c0: 20f8 52bd 3d54 2c3d def3 b33c 28f9 2ebd
000002d0: 2fbe d3bd 3521 9b3b a097 4abd 1071 583c
000002e0: a4a1 25bd c40d 20bd 5db7 023e f0e1 f2bc
000002f0: 843d fa3d b90c 233d 4310 82bd 2c28 c43d
00000300: 074a e03c 17e5 823c 075a 6f3d bc90 c0bd
00000310: cbe8 dbbd d60a e33d 7f24 873d 3f3f 1c3d
00000320: 8cc8 70bb 556d 86bd e21b dc3d 27a2 de3c
00000330: 929e b6bc 8807 923c 62ab 4d3d 0ad1 983d
00000340: 6fb9 6ebd 5890 06bd ac00 263d 447e ac3d
00000350: a8c3 88bd 1ea8 8dbd 69f9 5e3c a3cb bc3d
00000360: 5a08 7dbd 4f11 bebd b391 523d c8be e23c
00000370: 9955 1bbd d756 64bd 6caa 9dbd 7d6a 1cbd
00000380: 03fe f8bc ea72 fc3d 6a10 193d 3ed2 72bc
00000390: 8e39 fcbd 76fd fcbc 5188 dd3c 3804 e63d
000003a0: 8fce fbbd e83e 4dbd 048a 4a3d 14a7 ae3d
000003b0: f8bf 663d 43a4 523d 880d bbbd 5549 94bd
000003c0: da80 f2bd 7a69 283d 084f 4bbd e40c 4dbc
000003d0: feee 04be 5961 03bc b8f7 d83c 3e36 a2bd
000003e0: 9816 a13d 48ef acbc 2ce8 3d3d 3740 913d
000003f0: 36bd c73d 7ed3 dd3c 004e 643c 5880 c53d

fc2.bias_hh_l0 f4 [256]
-0.011547253 0.08594663 -0.1267533 0.073980644 -0.08724692 0.017497756 -0.087600626 -0.073312946
-0.0715392 0.03746519 0.14649168 0.14854865 0.0009307832 -0.10983382 0.066589065 -0.11908093
0.06690249 -0.01757006 -0.08742997 0.022650497 -0.09948546 0.027284412 0.00797005 -0.009506695
0.056946635 0.0053043216 -0.05494116 -0.07907669 0.062035047 0.08254542 -0.04928559 -0.10510355
-0.06256544 0.06835402 0.07319039 0.03553201 0.0009410631 0.018528705 -0.017636094 0.042811718
0.08547289 -0.081053406 -0.084136434 -0.034859136 -0.061251473 0.04818885 -0.022802804 0.10871756
0.07750158 0.16041616 0.0010548335 0.019556 0.011367455 0.11670502 -0.12394356 0.032997996
-0.09992903 -0.011376128 -0.051956337 0.087034866 0.07649049 0.08891475 0.104802586 0.07466313
-0.099086106 -0.025258735 -0.021677136 -0.011468455 -0.00388363 0.011058062 -0.013475135 -0.07477093
0.055766985 -0.08630215 -0.058428496 0.008299738 -0.11719431 0.045816973 0.108361125 0.1125022
0.03793636 0.051191315 -0.09146097 0.11969882 0.08400631 0.03503366 0.108826876 -0.021402255
0.05023378 0.06258963 -0.020383477 -0.013982207 0.02748695 -0.10234961 -0.10720605 0.12404233
0.061594114 0.1245368 -0.11636831 0.08896729 0.062801495 -0.009329498 0.069976 0.10406698
0.082052365 0.092511564 -0.012554392 -0.03625013 0.025866836 0.094725475 0.030119628 0.060253084
0.0057614744 -0.07325807 -0.120434806 -0.052210286 0.05950439 -0.032494754 -0.10115814 -0.04447283
0.0374669 0.08421774 -0.12038329 -0.03956926 0.090985134 0.06941849 -0.033770025 0.1134118
0.09353785 -0.077661715 0.04987991 -0.037529975 0.016738907 -0.07567935 0.022035971 0.0025858134
0.08584513 0.034834847 -0.061991185 -0.06285369 -0.0050013 0.044655964 -0.030504819 -0.050201163
-0.035219103 0.055646524 -0.060066193 0.06650728 -0.0495784 0.17175676 0.10547873 0.035526693
-0.0008646979 0.086089 0.10287489 -0.034600362 0.03796104 0.087279975 -0.083342955 -0.06537722
0.049817286 0.085291676 0.038351115 0.08656941 -0.011893854 -0.005927247 0.013015919 0.06925231
0.0722322 0.12071194 0.026398182 -0.0019030571 0.07791814 0.00078223646 0.085797474 -0.034367576
0.04669875 0.0064401766 -0.10916436 -0.07390165 0.031113228 -0.11025673 0.03698951 -0.110918656
-0.05766669 0.10558821 0.039286166 -0.0939199 -0.06526071 0.002320956 0.0037740406 -0.048948452
-0.05739367 -0.04817435 -0.09304646 0.08057584 -0.100128956 -0.04339674 0.08203569 0.06592169
-0.0035910187 -0.0071764826 0.027110921 0.14361595 -0.074900866 0.11649767 -0.029007293 0.063624695
-0.053272855 -0.08011974 0.15778764 0.028581638 0.0082381675 0.05866729 0.08945255 -0.0068658506
-0.1234331 -0.019677687 0.06983837 -0.11726278 0.023377499 0.036257382 -0.032350644 -0.08142957
-0.09087513 0.104965016 -0.029920608 -0.14196226 0.0856853 0.015903484 0.052091766 0.06743857
0.04977759 0.1488801 0.0008058995 -0.10468477 -0.028619412 0.13420065 -0.06203883 -0.14747252
0.02893041 0.05682867 0.039707456 0.003738112 -0.0835755 0.054811098 -0.08116427 0.013155494
0.05812174 -0.022946164 0.10889965 -0.09971445 -0.055563927 -0.17122442 0.13475415 -0.029117325
00000000: b030 3dbc c904 b03d 9ecb 01be 2a83 973d
00000010: 83ae b2bd 7457 8f3c f567 b3bd 1925 96bd
00000020: 2583 92bd 1975 193d ea01 163e 231d 183e
00000030: ceff 733a 8ef0 e0bd d95f 883d b4e0 f3bd
00000040: 2c04 893d 16ef 8fbc 7c0e b3bd 898d b93c
00000050: 08bf cbbd 8f83 df3c d094 023c f8c1 1bbc
00000060: e040 693d e0cf ad3b fb09 61bd f6f2 a1bd
00000070: 7618 7e3d 930d a93d b0df 49bd 8840 d7bd
00000080: 4f22 80bd 31fd 8b3d d8e4 953d 038a 113d
00000090: adb1 763a 83c9 973c 9279 90bc 575b 2f3d
000000a0: 690c af3d 54ff a5bd b94f acbd 74c8 0ebd
000000b0: d3e2 7abd ac61 453d f2cc babc 50a7 de3d
000000c0: 26b9 9e3d 2244 243e 5742 8a3a e833 a03c
000000d0: 903e 3a3c 0b03 ef3d 1fd6 fdbd e828 073d
000000e0: 97a7 ccbd f062 3abc 2bd0 54bd 563f b23d
000000f0: 0ca7 9c3d f018 b63d bda2 d63d fce8 983d
00000100: a8ed cabd 68eb cebc 4094 b1bc 30e6 3bbc
00000110: 8084 7ebb e02c 353c d0c6 5cbc 8021 99bd
00000120: ec6b 643d 2ebf b0bd b852 6fbd a0fb 073c
00000130: 9203 f0bd 94aa 3b3d 70ec dd3d 8e67 e63d
00000140: 2863 1b3d fcad 513d e44f bbbd a824 f53d
00000150: 800b ac3d 747f 0f3d a0e0 de3d c853 afbc
00000160: f0c1 4d3d fe2e 803d 40fb a6bc a015 65bc
00000170: 502c e13c ac9c d1bd d88e dbbd e809 fe3d
00000180: 1c4a 7c3d 260d ff3d 8252 eebd 7c34 b63d
00000190: 129e 803d c0da 18bc 944f 8f3d 1221 d53d
000001a0: 120b a83d b476 bd3d f0b0 4dbc 047b 14bd
000001b0: b0e6 d33c 6eff c13d 70bd f63c f0cb 763d
000001c0: c0ca bc3b 5408 96bd 86a6 f6bd 74da 55bd
000001d0: e0ba 733d 3819 05bd 002c cfbd 2429 36bd
000001e0: e476 193d 5a7a ac3d 848b f6bd 6013 22bd
000001f0: 6a56 ba3d 482b 8e3d 7052 0abd 7244 e83d
00000200: c690 bf3d 1b0d 9fbd e04e 4c3d 08b9 19bd
00000210: 0820 893c c6fd 9abd c884 b43c c076 293b
00000220: 92cf af3d fcae 0e3d 78ea 7dbd 6fb9 80bd
00000230: f2e1 a3bb 2ce9 363d 3ee5 f9bc bc9f 4dbd
00000240: e841 10bd 9ced 633d f807 76bd f834 883d
00000250: b812 4bbd 01e1 2f3e 3b05 d83d 7084 113d
00000260: e5ac 62ba 6e4f b03d 12b0 d23d 1cb9 0dbd
00000270: 097d 1b3d d8bf b23d b6af aabd 7ee4 85bd
00000280: 360d 4c3d 67ad ae3d 0f16 1d3d 4e4b b13d
00000290: 70de 42bc 5a39 c2bb b940 553c 28d4 8d3d
000002a0: 7aee 933d d237 f73d 0041 d83c 0070 f9ba
000002b0: 8c93 9f3d 000f 4d3a 96b6 af3d 04c5 0cbd
000002c0: 3047 3f3d 1e08 d33b 9091 dfbd c059 97bd
000002d0: 2be1 fe3c 48ce e1bd 5082 173d 5229 e3bd
000002e0: e833 6cbd a23e d83d 88ea 203d 1459 c0bd
000002f0: 68a7 85bd 2e1b 183b e555 773b 2c7e 48bd
00000300: a015 6bbd 7852 45bd 248f bebd f204 a53d
00000310: 6910 cdbd c8c0 31bd 5402 a83d f301 873d
00000320: 4c57 6bbb b328 ebbb b917 de3c 0f10 133e
00000330: a065 99bd 5596 ee3d b4a0 edbc aa4d 823d
00000340: a334 5abd d115 a4bd 1593 213e 0a24 ea3c
00000350: 61f9 063c 1d4d 703d e632 b73d eefa e0bb
00000360: 7eca fcbd 1a33 a1bc 6b07 8f3d 7827 f0bd
00000370: 2b82 bf3c 9f82 143d 1c82 04bd 8cc4 a6bd
00000380: bd1c babd e6f7 d63d 101c f5bc 8e5e 11be
00000390: c67b af3d 0648 823c 2d5e 553d 3c1d 8a3d
000003a0: 96e3 4b3d 0674 183e 0043 533a f864 d6bd
000003b0: 4273 eabc e56b 093e 6e1c 7ebd 0903 17be
000003c0: 78ff ec3c 2ec5 683d 49a4 223d 1dfb 743b
000003d0: a229 abbd 9a81 603d 7439 a6bd 248a 573c
000003e0: 1011 6e3d 98f9 bbbc c806 df3d 1737 ccbd
000003f0: 0097 63bd 7455 2fbe fefc 093e 7587 eebc

fc3.weight f4 [3, 64]
-0.08238972 -5.2635307 -0.115918584 0.09019099 0.12740576 0.09291017 0.0026740872 0.070128255
-0.15069644 -0.12840293 6.6167383 -6.5621567 6.664384 -0.053134438 -0.2870211 0.13614683
-0.11144225 -0.019853402 6.774645 -6.693493 -0.0832989 5.2970686 -0.04803351 2.9665058
0.016516816 0.111914426 -6.73479 0.0962048 3.6598756 -0.091403514 0.031176642 -0.08613481
6.7061863 6.7597637 -0.08329027 -0.11544021 0.07055515 6.069765 -0.048636988 -0.17433175
-0.16091219 6.1991215 0.045831606 0.10075438 6.8242826 0.13503855 -0.093962 0.019909307
0.06259067 -5.4084816 -6.7339735 0.11731103 -0.124835506 -0.076820225 0.016768709 0.079358004
-0.06894951 0.06078431 -0.5043778 -0.11444344 0.061948135 0.07090417 5.662301 0.04729032
0.01733137 -4.1901813 0.08924811 0.017720014 0.015906544 0.00658149 -0.05159668 -0.008231566
-0.0526804 -0.10726836 5.9422455 -5.958047 5.8556976 0.040971506 -0.78666747 -0.12231065
-0.09613037 -0.10395658 6.0331783 -5.8170757 -0.1079212 4.1057034 -0.34250546 2.6246037
0.013483957 0.020928875 -5.9570465 -0.023764461 2.7056017 -0.13567692 0.09355576 -0.045437336
5.9264708 5.974262 -0.10244336 -0.025474876 0.0383323 4.3750777 -0.21039093 -0.33815807
-0.08486165 5.2450485 0.022926688 -0.09422693 6.18416 0.09441871 0.012049079 0.08300854
0.04296395 -4.73254 -5.697688 0.045782506 -0.04887094 0.109202385 0.035335943 0.061288435
-0.08428496 0.0827001 -0.8149881 -0.08530727 -0.121179044 0.034907803 5.084896 0.11796575
0.005940061 -6.7850847 0.14263155 -0.09639689 -0.004041693 0.042857293 0.05833432 0.014741529
-0.37022105 0.06346582 11.237557 -10.946021 10.735587 -0.23707351 -2.2166753 0.30309
0.06363943 -0.19273971 11.183917 -10.950349 -0.044777233 5.707711 -0.88003576 3.6785116
-0.009636218 0.014147348 -11.425813 0.027880145 2.4848084 0.008747581 -0.035961017 -0.02941833
10.843226 11.177934 -0.14850694 -0.20130813 0.057961192 7.5250053 -0.27036485 -0.78942204
-0.10052766 9.479129 -0.04693214 0.10176928 11.240596 0.14619964 -0.09118854 0.060388513
0.0788457 -6.4847 -11.113814 0.1176288 -0.024928862 -0.17648928 -0.074583784 0.26846963
0.05555709 -0.068566844 -1.440801 -0.13333575 -0.008458601 0.05252289 8.925605 -0.0401246
00000000: f1bb a8bd d86e a8c0 b966 edbd 0eb6 b83d
00000010: a876 023e b047 be3d bd3f 2f3b 679f 8f3d
00000020: 2b50 1abe 0f7c 03be 52bc d340 30fd d1c0
00000030: a242 d540 7fa3 59bd 6ef4 92be 136a 0b3e
00000040: d63b e4bd 9aa3 a2bc e4c9 d840 1831 d6c0
00000050: 9d98 aabd 9681 a940 c9be 44bd 3bdb 3d40
00000060: 464e 873c 6433 e53d 6683 d7c0 0607 c53d
00000070: 673b 6a40 c431 bbbd 2866 ff3c 7267 b0bd
00000080: 1499 d640 fc4f d840 1794 aabd eb6b ecbd
00000090: 387f 903d 843b c240 9437 47bd 0684 32be
000000a0: 2ac6 24be 345f c640 ecb9 3b3d 5058 ce3d
000000b0: 8660 da40 8c47 0a3e 266f c0bd d818 a33c
000000c0: 8a2f 803d 4812 adc0 b67c d7c0 c440 f03d
000000d0: c2a9 ffbd ec53 9dbd 885e 893c 7386 a23d
000000e0: 6735 8dbd f8f8 783d e71e 01bf 5361 eabd
000000f0: 54bd 7d3d 3536 913d 9231 b540 7fb3 413d
00000100: 84fa 8d3c f715 86c0 b7c7 b63d 9029 913c
00000110: 714e 823c 8aa9 d73b 0a57 53bd b1dd 06bc
00000120: 67c7 57bd 84af dbbd e026 be40 52a8 bec0
00000130: e061 bb40 bdd1 273d 0a63 49bf 027e fabd
00000140: 00e0 c4bd 30e7 d4bd cc0f c140 7c25 bac0
00000150: ca05 ddbd ec61 8340 e05c afbe 82f9 2740
00000160: d1eb 5c3c 0873 ab3c 20a0 bec0 b0ad c2bc
00000170: 9428 2d40 e4ee 0abe 2a9a bf3d 801c 3abd
00000180: a6a5 bd40 282d bf40 d3cd d1bd b0b0 d0bc
00000190: 5402 1d3d a300 8c40 b870 57be 0e23 adbe
000001a0: f2cb adbd 70d7 a740 c0d0 bb3c 0cfa c0bd
000001b0: a4e4 c540 995e c13d 8069 453c 6200 aa3d
000001c0: f8fa 2f3d f870 97c0 7653 b6c0 7086 3b3d
000001d0: e52c 48bd 80a5 df3d 6cbc 103d 9509 7b3d
000001e0: 989d acbd ac5e a93d 0fa3 50bf 94b5 aebd
000001f0: b82c f8bd 7cfb 0e3d 78b7 a240 0798 f13d
00000200: d8a4 c23b 6a1f d9c0 010e 123e bc6b c5bd
00000210: 2e70 84bb 218b 2f3d f8ef 6e3d 7486 713c
00000220: 9d8d bdbe 5efa 813d 09cd 3341 e722 2fc1
00000230: f7c4 2b41 66c3 72be 02de 0dc0 9d2e 9b3e
00000240: 6455 823d 8f5d 45be 53f1 3241 a134 2fc1
00000250: 5568 37bd 92a5 b640 064a 61bf bc6c 6b40
00000260: 3ae1 1dbc 47ca 673c 21d0 36c1 e764 e43c
00000270: 1a07 1f40 0452 0f3c dc4b 13bd b6fe f0bc
00000280: db7d 2d41 d1d8 3241 3412 18be b823 4ebe
00000290: b768 6d3d d8cc f040 436d 8abe 9017 4abf
000002a0: 72e1 cdbd 83aa 1741 ea3b 40bd 6a6c d03d
000002b0: 7bd9 3341 5cb5 153e 0fc1 babd f259 773d
000002c0: db79 a13d aa82 cfc0 2fd2 31c1 5ee7 f03d
000002d0: 9d37 ccbc 9bb9 34be 62bf 98bd da74 893e
000002e0: d58f 633d c66c 8cbd 2b6c b8bf 2b89 08be
000002f0: f295 0abc 3e22 573d 47cf 0e41 b159 24bd

fc3.bias f4 [3]
6.720725 6.0870376 11.226064
00000000: 2e10 d740 03c9 c240 f59d 3341
