Models/LSTM/agentDQN-LSTM_2008-2009_lstm_v1_400_EPS_0.pth (torch, 516131 bytes, 8 tensors)

fc1.weight_ih_l0 f4 [512, 104]
000000 00 e6 28 bd c1 eb 23 bc 09 fc 8c bd 0b 72 2c be
       -0.04123497 -0.010004939 -0.068840094 -0.16840379
000010 2b 45 d2 bd 3b fe 49 bd c4 6b 9b 3c 27 6c e4 bd
       -0.10267099 -0.04931472 0.018972285 -0.11153441
000020 4e b5 a7 bd 50 a5 e2 bd 4e b9 be bd 60 8a 23 be
       -0.08188878 -0.11066687 -0.09312688 -0.15970755
000030 12 1e 6a bd ed 61 e6 bd 09 0e c1 bd 2f cd 0a be
       -0.057157584 -0.112491466 -0.09426505 -0.13554834
000040 49 97 0d be 7e 5e 95 bd f2 a2 72 bd 51 d5 32 bd
       -0.13827242 -0.072934136 -0.059237428 -0.043660466
000050 52 d1 7c bd 87 24 ca bd 65 a6 60 bd f9 c1 f2 bc
       -0.06172306 -0.09870248 -0.054846186 -0.029633509
000060 4e c6 06 be c9 92 06 be 11 7a e0 3d b7 04 a7 bd
       -0.13161585 -0.13141932 0.10960782 -0.08155196
000070 b5 72 f4 bc b3 58 97 bd 8a c7 ae 3c 87 c1 19 3e
       -0.029839853 -0.07389965 0.021335382 0.15015231
000080 2b 56 0d bd 54 9e 62 3d e6 4e a4 bd ef 2f 09 be
       -0.034506004 0.055326775 -0.08022861 -0.13397191
000090 7d 4e 01 be 56 1f 41 bc 18 5b cd bd c7 60 19 be
       -0.12627597 -0.011787256 -0.100271404 -0.14978324
0000a0 92 d2 b2 bd fa e1 fe bd 93 2e 64 3d 7e 78 1a bd
       -0.08731569 -0.12445445 0.05570848 -0.037712567
0000b0 e1 17 1a 3d 33 f8 e4 bd 22 79 9a bd af b9 2b be
       0.03762043 -0.11180153 -0.075426355 -0.16770051
0000c0 7a a4 ce bc 1e c2 ad 3d 10 0e 9a bd 9b d7 57 3b
       -0.025224913 0.084842905 -0.075222135 0.0032934907
0000d0 67 da 03 3c 15 3c 87 3d f8 c8 07 be af ee 0a be
       0.008047677 0.066032566 -0.13260257 -0.13567613
0000e0 af 32 08 be e4 c2 3a bd 41 94 19 be 02 f7 29 3d
       -0.13300584 -0.04559602 -0.1499796 0.04149533
0000f0 82 6e 8a bd d8 2c 05 be be 98 3e 3d df e5 be bd
       -0.06759359 -0.13005388 0.046532385 -0.09321188
000100 c3 61 95 bc b1 09 b1 3d 37 bb 3a bd 3e f4 6e bd
       -0.018235093 0.086444266 -0.0455887 -0.058338396
000110 40 42 67 bc b2 48 b6 bd a7 2f 05 be f7 18 9d bd
       -0.014114916 -0.08900584 -0.13006459 -0.07670777
000120 cb 59 09 be 84 f5 1b be 0d 21 d3 bd e2 2a 86 bd
       -0.1341316 -0.15230376 -0.10309038 -0.06551148
000130 41 93 ae bc 6f 9f 80 bd 15 79 34 be 77 97 0c be
       -0.02131045 -0.062804095 -0.17624314 -0.13729654
000140 50 30 36 bd 46 76 33 be bc d3 a9 bd 72 3e 27 be
       -0.04447967 -0.17525586 -0.08292338 -0.16332415
000150 dc 50 fa bd 48 fe ec bd ab 30 9e bd 12 fb a6 bd
       -0.12222454 -0.11571938 -0.077241264 -0.081533566
000160 00 38 ee bd 37 2e ae bc 57 fd 30 be 80 47 ca bd
       -0.11631775 -0.021262271 -0.17284141 -0.09876919
000170 25 89 5a bd 2c 58 f8 bd a5 8c c2 bc 47 79 c2 bc
       -0.053353447 -0.121261925 -0.023748705 -0.02373947
000180 d5 e6 63 bd bc cd 81 3c 26 e3 1c bd 2b dd 1d be
       -0.05564006 0.015845172 -0.038302563 -0.154164
000190 b1 00 7b bd de 5e f9 bc b1 66 fe bd 17 57 29 be
       -0.061279956 -0.030440744 -0.124219306 -0.16537128
0001a0 fc 2d 9f 3d 6b ba ec 3c 41 46 99 3d cc e6 e9 3d
       0.07772443 0.028897485 0.07484103 0.11420974
0001b0 0f 81 92 3d a8 81 a6 3d 90 6f f7 3d 6c 23 36 3e
       0.07153522 0.08130199 0.12081826 0.1778695
0001c0 7e 4b 43 3e e1 88 b6 3d c5 05 2e 3e 54 ac a6 3d
       0.19071767 0.08912826 0.16994388 0.08138338
0001d0 97 f7 5f 3e c8 3e 51 3e fb 3a 5f 3e b4 9e 9c 3d
       0.21871792 0.20434105 0.21799843 0.07647458
0001e0 2c 1d ba 3d ea 60 9b 3d d2 f4 c0 3d b5 69 3a 3e
       0.09087595 0.07586844 0.09421696 0.18204387
0001f0 5b 3d f8 3d 13 c8 64 3e 25 ab 39 3e 8d 15 fc bc
       0.121210776 0.22341947 0.18131693 -0.030771995
000200 d8 7b 0c 3e 9a 2d 1e 3e bf 88 d4 3c a7 9d b3 bd
       0.13719118 0.15447083 0.025944112 -0.08770304
000210 b7 e5 14 3e 30 53 20 bd 07 41 a1 bd 9c a6 67 bd
       0.14540754 -0.039141834 -0.07873731 -0.056555375
000220 16 c1 7c 3c 5a 59 04 bd ea 45 ee 3c 91 13 0e 3e
       0.015426895 -0.032311775 0.029086072 0.13874651
000230 65 46 07 bd 65 d5 1f bd a4 8d 1b bd b8 20 8d bb
       -0.033026118 -0.03902187 -0.037976876 -0.004306879
000240 d2 e2 41 bd 55 1d 01 3d 12 86 22 3b 9f 31 e4 bd
       -0.047335453 0.031522114 0.002479915 -0.11142277
000250 b1 99 eb 3b ee d1 5c 3e d5 76 30 3e 1a 61 4b 3e
       0.0071899523 0.21564457 0.17232831 0.1986126
000260 7c 3a 2d be 94 1d 98 bd 46 c4 55 3d d2 f8 09 3d
       -0.16916841 -0.074275166 0.052189134 0.03368456
000270 23 50 25 3e e6 0b 2e bd d5 26 d7 3d ef 92 1a 3e
       0.16143851 -0.042491816 0.105054535 0.15095113
000280 de 4c 1d 3e 05 e1 00 3e 92 5d 65 3d 5e 38 a0 bd
       0.15361354 0.12585838 0.05599744 -0.07823251
000290 3c 54 bb 3d 9a d9 35 3e 8e 92 93 3c d3 da fa 3d
       0.09146926 0.1775879 0.018014219 0.12248769
0002a0 ae e9 7c 3e 26 13 7d bd 9a 28 59 3d 59 20 82 3d
       0.24698517 -0.06178584 0.053017236 0.06353826
0002b0 1b cc 7e 3d a2 42 39 3e 7d e3 66 3e ea fd 39 3e
       0.06220637 0.18091825 0.22547717 0.18163267
0002c0 c8 44 67 3e f7 3e 95 3d e6 72 18 3e 90 b2 48 3e
       0.22584832 0.072874 0.1488758 0.19599366
0002d0 99 cf fc 3d 52 f0 48 3e d7 87 5a 3e ae 0f 09 3e
       0.123442836 0.19622925 0.21340881 0.13384888
0002e0 15 19 26 3e 36 3a 4c 3e dc 3f 01 3e 7c cd ea 3d
       0.16220506 0.1994408 0.12622017 0.11464974
0002f0 b1 82 48 3e 67 cd 30 3e 13 26 de 3d 06 45 1a 3e
       0.19581105 0.17265855 0.10847106 0.15065393
000300 ec bf 60 3e 23 c1 55 3e 74 ce 5c 3e 2a 9c c9 3d
       0.21948212 0.20874457 0.2156313 0.09844239
000310 6a 8e fb 3d 4c 3a 15 3e 2f 7f 42 bd b5 2d 9b 3d
       0.12283023 0.1457302 -0.047484573 0.07577077
000320 29 60 18 3e 4d a5 8d 3d 7e 71 0c 3e 5d fb 26 bd
       0.14880432 0.06916294 0.13715169 -0.040767062
000330 1a 48 85 3d 62 25 e5 3d a8 38 e5 3d e2 40 18 3e
       0.06507893 0.11188771 0.11192447 0.14868501
000340 74 ae c0 bd 49 0c 77 bc 43 75 a5 3c 7e cd b0 bd
       -0.09408274 -0.015078613 0.020197516 -0.086329445
000350 93 05 5a bc 6e 45 c5 bb 3f 4c d9 bb f7 e2 05 bd
       -0.013306993 -0.0060202396 -0.0066314037 -0.032687154
000360 10 3b fa bd 5e b3 d2 bd 38 16 c1 bd ad 98 a8 3c
       -0.122182965 -0.10288118 -0.09428066 0.020580614
000370 ed c0 20 bd 44 bf b7 bd ae c5 14 3a 04 cd 74 bd
       -0.03924649 -0.08972028 0.00056752085 -0.05976583
000380 75 48 f5 bd 87 dc e1 bd 96 51 48 3d 7d c7 bd bc
       -0.11976711 -0.110283904 0.04890593 -0.023166412
000390 36 72 42 bd 80 0b 6a bc 8d 68 be 3c 17 b0 1b 3d
       -0.0474722 -0.014284968 0.023243213 0.03800973
0003a0 3b c4 a4 bd d3 f0 92 bc 76 d6 a8 bd 94 2a 17 3d
       -0.080452405 -0.0179371 -0.0824403 0.03690584
0003b0 d3 f0 c3 3c 0a b8 26 3d 12 94 e9 bb fd ce 1d 3d
       0.023918545 0.040702857 -0.007128247 0.038527478
0003c0 ee 90 41 bd 62 21 10 3c f6 5b 3b 3d 31 f8 55 3d
       -0.047257356 0.008797022 0.045741998 0.052238647
0003d0 5f 94 09 3d 72 02 46 bd 7b f3 93 bd c5 84 42 3d
       0.033588763 -0.048342176 -0.072241746 0.0474899
0003e0 e0 79 d2 bd 41 4a 52 bd df b2 3b bd e5 70 a4 bd
       -0.10277152 -0.051340345 -0.04582488 -0.080293454
0003f0 3e 6b 53 3d 53 a4 76 3c ca 01 f6 3d 28 f3 99 bc
       0.051615946 0.015053826 0.1201206 -0.018792704

fc1.weight_hh_l0 f4 [512, 128]
000000 5b 60 95 bd 92 ca 54 3d 8a 45 57 3d c9 dc 4c bd
       -0.07293769 0.051951 0.052556552 -0.050015245
000010 ac 29 8b 3c f0 9f a4 3c f0 44 8f bd 60 99 b1 3b
       0.016987644 0.020095795 -0.06995571 0.005419895
000020 f8 b2 18 3c 10 3c f4 bb 79 33 9e bd 44 50 72 bd
       0.009320013 -0.007453449 -0.077246614 -0.05915858
000030 6c 3b 81 bd cf 39 80 3d 80 32 84 3a 60 b8 aa bd
       -0.06310162 0.06261026 0.0010085851 -0.08335948
000040 6a e5 41 3d d1 5a 80 bd 41 5a a7 3d 89 46 15 bd
       0.047337927 -0.06267322 0.081715114 -0.03644422
000050 80 1c ff 3a 43 3a 58 bd 81 02 a3 bd 40 9a bc ba
       0.001946345 -0.052789938 -0.07959462 -0.0014389232
000060 23 83 8b 3d e8 4a cb 3c 93 0d 89 3d f0 2c 6b 3c
       0.06812122 0.024815992 0.06692042 0.014353976
000070 6c 40 8a bd 06 7a 2b 3d 7b a9 1a bd 90 4e f6 3b
       -0.06750569 0.041864417 -0.037759285 0.0075166896
000080 f4 6c c0 3c d1 a9 35 bd c0 67 76 3c 47 e4 ad 3d
       0.023489453 -0.044351403 0.015039384 0.08490806
000090 1b 0d 80 3d d8 5d 4c bc 68 01 06 3c b0 4e f4 bb
       0.062525 -0.012473546 0.008179046 -0.0074556693
0000a0 30 64 b1 bc a0 dd a5 3c bc 9a d5 3c bf 18 7d bd
       -0.021654218 0.02024728 0.02607476 -0.061791178
0000b0 f8 69 9a bd a0 09 1e bb 48 76 88 3c 50 16 cb bc
       -0.07539743 -0.0024114624 0.016657963 -0.024790913
0000c0 7e ce 3a 3d 5b 28 3e bd f2 12 7d bd b8 48 57 bd
       0.045607083 -0.046425205 -0.061785646 -0.052559584
0000d0 a0 16 87 3c ce 88 32 3d f0 d6 0a bc b8 10 af 3c
       0.01649028 0.0435875 -0.008474097 0.021370277
0000e0 44 fa ec 3c 8f 72 51 bd a0 4f fc 3b 24 da 37 bd
       0.02892793 -0.051134642 0.0076999217 -0.04488577
0000f0 fb a1 66 bd 72 10 68 3d a8 2c 98 3c 9b 40 58 bd
       -0.05630682 0.05665631 0.018575981 -0.052795988
000100 c0 4b 29 3b 3c 2c 01 3d 0f 54 98 3d 38 3a 1c bc
       0.0025832504 0.031536326 0.07437908 -0.009535365
000110 76 9c 8c bd 3c 78 0e 3d c0 56 6b 3b b8 f3 a2 bd
       -0.0686578 0.034782633 0.0035909861 -0.07956642
000120 a0 35 7c bb eb 02 81 bd b4 77 75 bd 65 d5 96 3d
       -0.0038484111 -0.06299385 -0.05992861 0.073649205
000130 48 b1 31 bc ba 27 7e 3d 16 fc 0a 3d 8a d0 6e bd
       -0.01084549 0.062049605 0.033931814 -0.058304347
000140 e2 60 3b 3d 10 3d 60 3c ce 25 63 3d 73 3c 2e bd
       0.04574669 0.013686433 0.055455975 -0.042538118
000150 d2 c0 35 bd cc 83 b0 bc 40 50 5c bc 60 2d a3 3c
       -0.04437334 -0.02154722 -0.0134468675 0.019919097
000160 80 31 09 3a fc 0f a0 bd 76 47 47 3d e7 d1 a9 3d
       0.00052335113 -0.07815549 0.048652135 0.08291989
000170 d2 ae 7e 3d b5 90 83 3d 57 26 41 bd fc 87 0f 3d
       0.06217844 0.06424085 -0.047155704 0.035041794
000180 6e eb 48 3d c6 aa 71 3d 43 99 81 bd 99 ae 8d 3d
       0.04905265 0.059000753 -0.063280605 0.069180675
000190 00 27 38 3c 1c a4 86 bd 8f 62 b3 bd b2 4f fe bc
       0.011239767 -0.0657427 -0.08759033 -0.031043861
0001a0 28 14 ef bc e8 f1 9d 3c 78 ba 77 3c 78 0d 79 3c
       -0.029184416 0.019280389 0.015120141 0.015200965
0001b0 7e 89 b3 bd e8 85 df bc 02 60 5a 3d 76 bf 44 3d
       -0.08766459 -0.027285531 0.053314216 0.048034154
0001c0 e2 28 5d 3d 2c 49 82 3c 20 06 50 3c 00 9f a9 bb
       0.053994067 0.015904032 0.012696773 -0.005176425
0001d0 18 68 04 bc 81 c7 33 bd 20 df 46 3c 08 93 6c bc
       -0.0080814585 -0.043891434 0.012138158 -0.014439352
0001e0 de 9a 3a 3d 82 de 18 3d 7e 74 64 3d 6a 47 63 3d
       0.04555785 0.037321575 0.055775158 0.055488028
0001f0 c0 82 1d 3c 82 09 49 3d 03 ac 84 3d be 4b a0 bd
       0.009613693 0.049081333 0.06478121 -0.07826947
000200 c0 07 a9 3c 28 0e ea 3c f4 3f 01 3d e7 75 96 bd
       0.020633578 0.028571203 0.03155513 -0.07346707
000210 a0 81 41 bb 50 4b df bb ae 5f 7a bd c0 6b b4 3a
       -0.0029526725 -0.006814398 -0.061126404 0.0013765022
000220 c9 34 87 3d f9 c3 3a bd 55 45 88 3d b6 80 a9 bd
       0.06601865 -0.04559705 0.06653849 -0.08276503
000230 61 fb 7e bd ac 28 17 bd 61 02 87 bd 7e 30 90 bd
       -0.062251452 -0.036904022 -0.065922506 -0.07040499
000240 be 39 4e bd 33 f6 83 3d fb 69 87 3d 5e 8b 52 3d
       -0.050348036 0.06443443 0.06612011 0.051402442
000250 0e 10 26 bd 6c fa ad 3c e5 cb a2 bd c0 09 f7 3b
       -0.040542655 0.021237575 -0.07949046 0.007539004
000260 63 79 b2 3d 50 aa a5 3c a4 06 f1 3c 79 99 89 3d
       0.08714559 0.020222813 0.029422112 0.06718726
000270 9c 96 b9 bc a4 b9 1d bd 9e cb 88 bd 0e 8c 84 bd
       -0.022654824 -0.03850712 -0.06679462 -0.06472026
000280 c9 4b 6d bd 7c c1 d2 3c 2d a5 4e bd 80 c9 37 3b
       -0.057933602 0.025727026 -0.050450493 0.0028043687
000290 9b 21 9d 3d fb 3a 82 bd dd e2 9c bd ee 4f 5d 3d
       0.07672425 -0.06358906 -0.07660458 0.054031305
0002a0 b9 71 9f 3d d4 fd 93 bd 16 0c 5d bd c8 a3 13 3d
       0.07785363 -0.07226148 -0.053966604 0.036044866
0002b0 8c ed ff 3c 8e 4d 6c 3d c6 c8 39 3d 7a 53 9b bd
       0.0312412 0.05769115 0.045357488 -0.07584281
0002c0 5d ed 9c 3d 27 fa 8d 3d 46 14 21 3d 1e ea 5f bd
       0.07662461 0.069324784 0.039325975 -0.05466663
0002d0 60 21 c1 bb 40 10 82 bd c0 eb 7d 3b 41 54 af bd
       -0.005893871 -0.06350756 0.0038745254 -0.08560992
0002e0 b8 10 45 bd 26 f7 49 bd 40 28 ee 3b a5 75 9a 3d
       -0.048111647 -0.049307965 0.007267982 0.0754197
0002f0 d7 7c a5 3d da 55 35 3d d2 1f 1f 3d f4 98 7b bd
       0.08080452 0.044271328 0.038848706 -0.061425164
000300 d0 12 3c bd 93 d4 91 bd 00 c9 f9 3a 6c 7a fc 3c
       -0.04591638 -0.071206234 0.0019057095 0.030820094
000310 60 0d 7b bc 0a 0f 0c 3d 0e 9a 51 3d 68 e1 bf bc
       -0.015323013 0.03419403 0.05117231 -0.023422912
000320 99 98 9f 3d 29 fd 8f bd 27 6b 5c bd 2e 77 78 bd
       0.077927776 -0.07030708 -0.053813126 -0.060660534
000330 db 5b a9 3d 7a 05 b1 bd b1 1c b3 bd e5 52 95 3d
       0.08269473 -0.08643623 -0.08745707 0.072912015
000340 80 87 5d 3c f0 01 55 bc d0 80 1a bd c3 b7 8a 3d
       0.013521075 -0.01300095 -0.0377205 0.06773331
000350 76 46 26 3d 50 84 ff bb ea 41 6d 3d eb 57 8a 3d
       0.04059454 -0.0077977553 0.05792419 0.0675505
000360 e9 ec a4 bd 64 fd 97 3c 90 2b 31 bd 8f d0 0c bd
       -0.080529995 0.018553443 -0.043254435 -0.034378584
000370 e5 9f 26 bd 0d 1d 80 3d 48 a8 dd bc e6 84 d5 bc
       -0.04067983 0.06255541 -0.027057782 -0.026064347
000380 3a 24 78 3d ae aa 61 3d 1e 9d af bd 15 6a 82 3d
       0.060581423 0.055094413 -0.085748896 0.0636789
000390 1e 86 47 3d f8 0e d9 3c 8a dc 11 bd ee 36 18 bd
       0.04871189 0.026496395 -0.035610713 -0.03716176
0003a0 ae fa 6b 3d 4d db 9a bd f4 ae 05 3d 67 3a 84 3d
       0.057612114 -0.075613596 0.03263755 0.06456452
0003b0 e4 ee 87 bc ad e0 a9 3d 5f 71 9e 3d 77 15 35 bd
       -0.016593404 0.08294807 0.077364676 -0.044209924
0003c0 a8 3c 54 bc a8 55 13 bc c8 20 5c 3c 20 0d 59 3b
       -0.012953915 -0.00899259 0.01343555 0.0033119395
0003d0 fc 4b 7a bd 7a 92 5c 3d 06 75 2a 3d 44 02 9f bc
       -0.06110762 0.05385063 0.04161551 -0.01941026
0003e0 99 f0 92 3d b8 5e c4 bc d6 bc 63 3d 24 1d ec 3c
       0.071747966 -0.023970947 0.05560001 0.02882249
0003f0 b1 10 82 bd 64 ec bb 3c 77 c2 86 3d 23 33 0c bd
       -0.0635084 0.022939868 0.0658006 -0.034228455

fc1.bias_ih_l0 f4 [512]
000000 56 17 08 be b6 3a 82 3d ec 56 ef bc 25 86 6f bd
       -0.13290152 0.063588545 -0.029216252 -0.05847754
000010 5a b5 41 3d 20 fe 8d bd 95 c4 55 bd 68 9d 22 3d
       0.04729209 -0.06933236 -0.05218943 0.039700896
000020 67 5c 23 bd 0f 58 ac be cc 91 14 3e db f3 ba bd
       -0.039883044 -0.33660933 0.14508742 -0.09128543
000030 2b f2 46 bd 44 b6 55 bd 24 d3 a7 3c 3b 78 3d bd
       -0.048570793 -0.052175775 0.020486422 -0.04625724
000040 a9 35 35 bd 76 02 6d bd 93 4f 45 3e 71 32 bf 3d
       -0.044240627 -0.057863675 0.19268636 0.09335793
000050 f4 18 de 3c f6 75 31 bc 22 26 89 bb f8 a6 63 3d
       0.027111508 -0.010831347 -0.004185454 0.055579156
000060 0f c8 79 be 7e 0f 6b bd 3a d3 2b be 62 f5 8f 3d
       -0.24392723 -0.05738782 -0.16779795 0.07029225
000070 fd 05 81 3d c5 29 a7 bd e2 ba a7 bd ef 75 07 3e
       0.0629997 -0.08162264 -0.08189942 0.13228582
000080 25 aa 87 3d 43 d8 99 3d 24 7e a1 be 38 49 0d 3d
       0.06624249 0.07511952 -0.3154155 0.034493655
000090 f2 0b 53 bd 3c 99 02 bd cb b4 d9 3b ed a2 5a 3d
       -0.051525064 -0.031884417 0.0066438667 0.053378034
0000a0 f0 27 ed 3c cc e4 0f 3d 07 61 e3 3d 9a e5 03 be
       0.028949708 0.035130307 0.11102491 -0.12880555
0000b0 89 27 be bc 95 c5 58 3d b2 e4 a1 bd eb 28 a4 3d
       -0.023212211 0.052922804 -0.07904948 0.08015617
0000c0 50 29 4c bc 71 8f be 3d 0d 13 08 be f0 5e ad bd
       -0.012461022 0.09304703 -0.13288517 -0.084653735
0000d0 0c 2f b9 3d be cd 8d 3d ac d2 8f bd be 25 49 be
       0.090421766 0.06924008 -0.07022604 -0.19643304
0000e0 71 c0 86 3d 6f 1f ec 3d 8c e7 7d be fe 88 55 bc
       0.06579674 0.11529433 -0.2479536 -0.01303315
0000f0 5f c9 ba 3d 5c 5b aa bc 2b d6 6f 3c 02 3c 88 3d
       0.0912044 -0.020795517 0.014638464 0.066520706
000100 2d ce ae 3d 83 8f ac bc 12 48 12 3e 86 6c 05 be
       0.08535419 -0.021064525 0.14285305 -0.1302968
000110 cf f3 83 3d ae e6 00 3d 26 eb 2c 3d 50 9e 22 bd
       0.06442987 0.031469993 0.042216443 -0.03970176
000120 00 d4 21 bb 7c c7 d3 3c fb 9d a3 3d 16 95 17 3d
       -0.0024693012 0.025851957 0.07989117 0.037007414
000130 10 0c 51 bd b9 09 f1 bc 30 5b 0c be 96 7f 13 bd
       -0.051036894 -0.029423581 -0.1370666 -0.036010347
000140 01 d1 6c bd 98 84 6a 39 f7 c4 23 bd 1a 07 d0 bd
       -0.05781651 0.00022365374 -0.039982762 -0.101576045
000150 c1 16 a9 3d 2a 29 59 bd 34 13 f3 3c dc 54 cb 3d
       0.08256293 -0.053017773 0.029672243 0.09928295
000160 c0 9c be bc 83 df 58 3e 6a e2 dd bd 99 68 98 bd
       -0.023268104 0.21179013 -0.10834201 -0.074418254
000170 a6 1a c6 bc 3c 6c 20 3c d9 03 5c bd 74 87 b0 bc
       -0.024182629 0.00979143 -0.053714607 -0.021548964
000180 2e 79 41 3d 1a ee 88 be ae f6 2a bd 1b b9 c4 bc
       0.047234707 -0.26744157 -0.04173916 -0.024014046
000190 43 24 80 be ae c8 ab bc ec a2 7d bd 7a a5 5f 3d
       -0.25027665 -0.020969715 -0.061922953 0.05460117
0001a0 61 1a 99 3d 2c dc 2b bd d9 66 aa 3b fc be 56 3e
       0.074757345 -0.04195802 0.0052002487 0.20971292
0001b0 07 87 8f 3d bc 07 b8 bd d9 f4 30 bb 44 43 56 bd
       0.07008176 -0.0898585 -0.002700141 -0.052310243
0001c0 87 33 98 3d 93 b4 67 3d d2 e3 41 3d 93 73 01 bc
       0.07431703 0.056568693 0.047336407 -0.00790109
0001d0 f6 e7 4e 3d 28 92 7a 3d d5 2b f7 bc d3 a1 e7 bc
       0.050514184 0.06117454 -0.030172268 -0.028275406
0001e0 dd 15 f6 bd 1a 7d 59 3d 00 e7 1f 3c 16 50 47 bc
       -0.12015889 0.05309782 0.009759665 -0.01216509
0001f0 c6 fc 43 be 0e 8e a2 3e 97 b9 8f bc 48 53 9f be
       -0.19139394 0.31749004 -0.01754455 -0.31118226
000200 f3 0d 8f 3d 46 91 41 3d e0 1f a0 3b 48 d9 56 3c
       0.069850825 0.047257684 0.0048866123 0.013113327
000210 b0 b9 54 3c 5a 4d 6c bd 0e 41 56 3d 6f db 97 3d
       0.0129837245 -0.057690956 0.052308135 0.074149005
000220 74 46 b0 bd e1 15 8a 3d 58 55 0b 3c 68 f0 8f bd
       -0.08607188 0.06742454 0.008504234 -0.07028276
000230 c6 73 3b 3d 54 57 a2 bd 60 2c b0 bc 72 a8 67 3d
       0.045764707 -0.07926813 -0.021505535 0.056557126
000240 ea ea 80 bd 18 a8 36 3c a0 41 15 bc c0 c6 4c 3b
       -0.06294806 0.011148475 -0.0091098845 0.0031246394
000250 2a 24 ad bd e8 9f e9 bc 58 c2 54 3c e0 92 db 3c
       -0.08454163 -0.028518632 0.012985788 0.026803434
000260 a3 68 55 bd ba 5a 99 bd b0 a7 38 3c ef c8 21 bd
       -0.052101742 -0.07488008 0.011270449 -0.039498266
000270 df a7 b0 bd 40 bb 40 3b 33 fb 86 3d 5c 78 4f bd
       -0.08625769 0.0029408485 0.06590881 -0.050651893
000280 a6 30 ad bd f4 25 06 3d c6 e0 af bd 9c f2 89 bd
       -0.084565446 0.03275104 -0.08587794 -0.06735727
000290 c0 0b cf bb 7a 73 77 3d 64 49 a5 bd a4 fb ad bc
       -0.0063185394 0.06041286 -0.08070639 -0.021238156
0002a0 b0 a1 d7 3b 05 94 96 3d f1 39 65 bd ae 8e 3f 3d
       0.006580554 0.07352451 -0.05596346 0.04676693
0002b0 96 f2 7b 3d 6c 7b 72 bd cb 19 a6 bd 45 81 b1 3d
       0.061510645 -0.059199736 -0.08110388 0.08667234
0002c0 16 86 24 3d 42 a2 72 bd 89 66 25 bd 20 bb c5 3b
       0.040166937 -0.059236772 -0.04038099 0.00603427
0002d0 08 2e 25 bc 60 be 44 bc 76 49 33 bd e0 d0 d8 bb
       -0.0100817755 -0.01200828 -0.04377123 -0.0066166967
0002e0 96 e3 75 3d 79 06 16 bd 40 d0 ef 3b 39 3a 84 bd
       0.060031496 -0.036627267 0.0073185265 -0.064564176
0002f0 21 9b ab bd c8 53 28 bc 44 00 ca 3c e3 bb ae 3d
       -0.08379198 -0.010273881 0.02465833 0.0853193
000300 2a c8 7b bd 91 cd b4 3d 62 4b ad bd 40 32 e6 ba
       -0.06147019 0.08828271 -0.08461644 -0.0017562583
000310 32 2c 7c 3d fe 7e 41 3d 42 7c ee bc 49 b3 4a bd
       0.061565585 0.04724025 -0.029111985 -0.049487386
000320 32 38 61 3d ee 4f 34 bd cd dc ae 3d 73 3e b1 3d
       0.054985233 -0.04402154 0.08538208 0.08654489
000330 c8 c4 15 bc dd a8 8f 3d 3f 89 90 3d 3d 3a 89 3d
       -0.009141155 0.0701463 0.070574276 0.06700561
000340 ca 15 66 3d ab fb 9a bd 20 83 cb bc 16 64 73 3d
       0.056173123 -0.07567533 -0.024842799 0.05942162
000350 da e9 a3 bd be 3f 6e 3d 00 9f 3f ba 85 33 b3 bd
       -0.08003588 0.058166258 -0.00073097646 -0.08750061
000360 40 7e 35 3c b0 e3 55 3c e7 fb b4 bd 94 43 80 3c
       0.011077464 0.013054773 -0.08837109 0.015657224
000370 27 5a 9b 3d 0b 8f 8e 3d 0c 49 a0 3c 9a 6e 4e 3d
       0.075855546 0.06960877 0.019566081 0.050398447
000380 66 f7 76 bd 62 30 22 bd 14 11 f8 3c 0e 6a 4a 3d
       -0.06029453 -0.039596923 0.030281581 0.049417548
000390 6b 18 8a 3d 18 10 d4 3c 9f fd 96 3d db 30 09 bd
       0.067429386 0.02588658 0.07372593 -0.033493858
0003a0 49 d2 8e 3d 00 92 d0 3c b0 67 42 bc 43 05 80 3d
       0.069737025 0.025460243 -0.011865541 0.062510036
0003b0 59 fb 43 bd e2 4b 7c 3d 4b f6 9f bd 86 d3 73 3d
       -0.047847126 0.061595805 -0.078106485 0.059527896
0003c0 f1 45 10 bd a0 b6 b2 bb 5e 78 22 3d b0 18 de 3b
       -0.03522295 -0.0054538995 0.039665572 0.0067778453
0003d0 33 8e a1 bd e0 c8 a9 bd 00 d4 7b 39 aa 96 e2 bc
       -0.078884505 -0.08290267 0.00024016201 -0.027659733
0003e0 92 14 8f bd 4a 32 91 bd 88 22 75 bd 08 10 39 3c
       -0.06986345 -0.0708967 -0.059847385 0.011295326
0003f0 c6 5a 62 3d 40 7e fe 3a d2 ec 55 3d 6e be 03 3d
       0.05526235 0.0019416288 0.052227803 0.03216403

fc1.bias_hh_l0 f4 [512]
000000 40 a5 5a bd ed f2 f5 3d 99 2e bc 3b a3 74 f8 bd
       -0.05338025 0.12009225 0.0057428596 -0.12131622
000010 dc 29 ff 3c c1 13 a0 3d c4 a1 d8 bd 9a cf 78 3c
       0.03114789 0.07816268 -0.10577729 0.015186215
000020 d6 3e 41 bd 53 bd 94 be 1d 97 dd 3c 30 ff 2c be
       -0.047179066 -0.29050693 0.027049595 -0.16894221
000030 2d 5b 9b 3d 45 93 1c bc b0 68 e0 bc c1 5b 03 be
       0.0758575 -0.009556596 -0.027393669 -0.1282797
000040 be 36 24 3d 41 dd d1 bc d7 20 0f 3e a5 bb f1 3d
       0.04009127 -0.025618197 0.13977371 0.118033685
000050 7a 10 89 3d 2e 13 7f bd fd 8c 72 bd bc de 0d 3d
       0.06692596 -0.06227415 -0.05921649 0.034636244
000060 cf ab 02 be d2 98 fa bd fc e1 2c bd 17 99 a6 bd
       -0.12760852 -0.122361794 -0.042207703 -0.08134668
000070 bd be 2d 3e 44 d9 da 3b 03 1a 8a bd 09 92 e0 3d
       0.16967292 0.006678732 -0.067432426 0.10965354
000080 a8 9a 54 bc 1b f9 24 3e 42 1d 5c be 12 cf 6b 3d
       -0.012976326 0.16110651 -0.21495536 0.057570525
000090 d9 f7 f8 bc ed 90 fe 3d 48 a6 8e bc bb 01 85 bd
       -0.03039162 0.12429986 -0.017413273 -0.06494471
0000a0 90 0a f5 3c 4e 83 e3 bc 11 a8 e3 3d dc 70 62 bd
       0.029912263 -0.027772572 0.111160405 -0.055283412
0000b0 ac 72 92 bc e9 87 86 bd 4b d9 cd bb ac 92 80 3d
       -0.017876945 -0.065688916 -0.006282007 0.062779754
0000c0 d2 f6 1e 3d 01 88 02 bc ee 71 4d bd 6d 7a 85 3d
       0.038809605 -0.007966996 -0.05015748 0.065174915
0000d0 6f aa 34 bc 37 69 09 3d 00 a1 b4 3c 5e e6 18 be
       -0.011026963 0.033547606 0.022049427 -0.14931628
0000e0 05 51 37 bd cc f6 0a 3e 49 6f b2 be b2 83 b6 bd
       -0.044755 0.13570708 -0.3485053 -0.08911838
0000f0 99 1e 9a bc 67 44 1a bd 26 5c 02 bc 7c d5 25 bb
       -0.018813418 -0.03766289 -0.00795654 -0.0025304249
000100 b0 bf b6 bb 36 53 a4 3d 5a a8 96 bc 82 03 db bd
       -0.00557705 0.08023684 -0.018390823 -0.106940284
000110 8e b4 9d bd e9 16 7f 3d 22 87 31 bd ac c8 91 bd
       -0.07700454 0.06227771 -0.043341763 -0.07118353
000120 12 c4 d7 b9 cd 53 d0 bc f8 d9 86 bc d0 49 53 bc
       -0.0004115408 -0.025430584 -0.016461357 -0.012896016
000130 fe 2f d7 bc 6a ad ea 3d f1 ee c9 bd 4f cf 5c 3d
       -0.026268002 0.11458857 -0.098600276 0.053908642
000140 ce 0b 04 3d 23 29 e3 bd c2 0a de bc 91 6c 21 be
       0.03223782 -0.110918306 -0.02710474 -0.15764071
000150 7c 48 bd 3c c4 5e 2c be 59 c2 91 3d 08 43 91 3d
       0.023105852 -0.16833025 0.07117147 0.07092863
000160 70 a9 a6 3b 39 d5 d7 3d 50 8e f3 bd 73 87 62 bd
       0.0050861165 0.10538716 -0.11892378 -0.055304956
000170 7f 70 03 3d 12 5d f5 3d cb bd a4 bd 2d 85 a2 bd
       0.032089707 0.119806424 -0.08044013 -0.079355575
000180 60 b7 73 3d 44 de 4a be 03 dc 17 3c 71 83 5e 3d
       0.059501052 -0.1981135 0.0092687635 0.05432457
000190 16 77 98 be 04 e5 43 3d 18 97 07 3d 43 3c cc bb
       -0.29778355 0.04782583 0.03310308 -0.0062327697
0001a0 3c 7b 90 bd 01 99 b6 3d af c6 be 3c a4 90 01 3e
       -0.07054755 0.08915902 0.0232881 0.12652832
0001b0 4a 80 be 3c 3c b6 ad bc 88 fe 1e 3c de 0f 3b bd
       0.023254532 -0.02120506 0.00970424 -0.04566943
0001c0 49 60 48 3d 44 06 99 ba bf cf a0 3d 87 23 b3 bd
       0.04891995 -0.0011674841 0.078521244 -0.08747011
0001d0 e5 4d 7a bd 85 d1 e2 3d 9d dd c8 3c ce c8 ad 3c
       -0.061109442 0.11075119 0.024519736 0.021213915
0001e0 c7 0a 8f bb da f8 13 3e a8 78 6a bc b6 59 11 3d
       -0.0043652984 0.14450398 -0.014310993 0.035485946
0001f0 62 d8 18 bd d2 39 a2 3e 10 e5 b7 bd 12 69 85 be
       -0.037315734 0.31684738 -0.08979237 -0.26056725
000200 7c 35 bf 3c 13 45 9b bd 0a 93 5d 3d 1c 98 87 3c
       0.023340933 -0.07581534 0.054095306 0.016552024
000210 20 c6 3d 3b b4 dc 44 bd fa eb 27 3d 33 e9 a1 3d
       0.0028957203 -0.04806204 0.04099653 0.07905807
000220 f0 f6 98 bc d4 b2 8f 3c a5 2d 8f 3d 01 13 8e 3d
       -0.018672436 0.017541327 0.06991128 0.069372185
000230 8e b6 1b 3d f0 5d c1 bc c8 28 b2 bc 2b b7 12 bd
       0.038015895 -0.023604363 -0.021747962 -0.035819214
000240 51 c4 9f bd b6 71 5f bd a3 27 0a bd fe 85 09 3d
       -0.07801116 -0.054551803 -0.033729207 0.03357505
000250 f7 ca a3 3d a0 4d b7 bb a8 f2 e7 3c 6c 1a 8c 3c
       0.07997697 -0.0055939704 0.02831395 0.017102443
000260 76 f6 73 3d 60 f5 b2 bb 50 2f 15 3d 52 84 73 3d
       0.059561215 -0.00546138 0.036422074 0.059452362
000270 0e 21 89 bd 59 4a b3 3d d9 59 b2 3d 81 13 1b bd
       -0.06695758 0.08754415 0.08708543 -0.037860397
000280 ef 73 94 3d 30 db 02 bc 40 81 89 3a 2b a4 55 bd
       0.07248675 -0.007986829 0.001049079 -0.052158516
000290 c8 3f 72 bd 64 5c 9b bd 1c 8f bd bc 63 47 91 bd
       -0.059142858 -0.075859815 -0.023139529 -0.07093694
0002a0 d5 38 05 bd ce dd 3c bd 33 38 95 3d 50 07 15 3c
       -0.032524902 -0.046109967 0.0728611 0.009095982
0002b0 89 a2 99 3d 1e e6 76 bd 48 5f 93 3c 33 7b 94 bd
       0.07501704 -0.06027805 0.01798977 -0.07250061
0002c0 cc d0 83 bd f0 9a 08 bd a3 31 88 3d 30 10 e5 3b
       -0.06436309 -0.033350885 0.066500925 0.006990455
0002d0 26 28 44 bd 52 b1 5b 3d 40 bb a4 bd 9a 08 a0 bd
       -0.04788985 0.053635903 -0.080435276 -0.078141406
0002e0 98 75 80 3c 14 69 b8 3c fa 64 66 3d ac 33 f3 3c
       0.015681073 0.022511043 0.056248643 0.029687725
0002f0 20 ce c8 bc 65 a1 9a 3d ea 22 2d 3d 10 ef 65 3c
       -0.02451235 0.07550315 0.042269625 0.014034048
000300 c8 1f 09 3c ca 14 1c 3d ae f2 66 3d ca 71 5f bd
       0.008369394 0.038105763 0.05638378 -0.054551877
000310 2e 50 a2 bd 90 2e 9f bb a4 4f ff 3c e2 66 b3 bd
       -0.07925449 -0.0048578456 0.031165905 -0.08759858
000320 a9 79 34 bd db cd 0d bd 42 17 08 3d 76 c7 15 bd
       -0.044061337 -0.034620147 0.033225305 -0.036567174
000330 c8 02 bd 3c c6 f1 4b 3d 6a 75 36 3d 15 ff 86 bd
       0.023072615 0.04979112 0.04454557 -0.06591622
000340 4a 37 78 3d 9e ec 13 3d 33 bd 56 bd d7 01 25 bd
       0.060599603 0.036114328 -0.05242653 -0.040284958
000350 00 a5 29 bc 2d 31 9c 3d 08 be 56 bc 5a 83 42 3d
       -0.0103542805 0.07626567 -0.01310683 0.047488548
000360 e8 28 13 3d fc fd 8b bc 80 45 ff ba 04 cb b7 3c
       0.035927683 -0.017088883 -0.0019475669 0.022435673
000370 f1 98 b3 3d 4e 90 25 3d 32 df 48 3d 8f 1d 6d bd
       0.08769406 0.040420823 0.04904098 -0.057889517
000380 3a 07 64 3d 1a 98 92 bd 00 3a d1 bb e0 a2 f5 3c
       0.055670954 -0.07157917 -0.006385088 0.029984891
000390 02 b7 33 3d e0 33 8d bc e8 49 ba 3c b4 38 58 bd
       0.0438757 -0.01723665 0.02274032 -0.05278845
0003a0 f6 4d 43 3d 48 fa 9c bd 20 33 18 bb 80 f1 ea 3a
       0.04768177 -0.07664925 -0.0023223832 0.0017924756
0003b0 e6 6f b3 bd 2c a7 82 bd 02 7d 69 3d aa de ad bd
       -0.08761577 -0.06379542 0.057003982 -0.084897354
0003c0 b7 e8 92 3d 24 d5 e0 bc d9 0a 80 3d 02 53 42 3d
       0.07173293 -0.027445383 0.06252069 0.047442444
0003d0 02 61 55 3d 48 12 83 bd 10 08 d3 bc 4e 63 16 3d
       0.052094467 -0.06399971 -0.02576068 0.036715798
0003e0 4e 07 77 3d d7 55 96 3d 00 bd f8 3b 84 a0 a3 bc
       0.0603097 0.073405914 0.00759089 -0.019974
0003f0 b6 ac 1d 3d 54 f2 bc bc 93 9a a7 bd 98 a6 78 bd
       0.038494788 -0.02306477 -0.081837796 -0.06070575

fc2.weight f4 [64, 128]
000000 d2 97 c0 bd e2 e7 a7 bf 91 6e 99 3c 82 76 ba 3d
       -0.094039574 -1.311764 0.01872948 0.09104635
000010 2e 99 aa bd 8c 48 86 bd b7 dd e5 3d 70 4a 0e bd
       -0.08329998 -0.06556806 0.112239294 -0.034738958
000020 9e dc 93 be 95 16 af c0 56 cc 4b bf 6a bd d2 bf
       -0.28879255 -5.4715066 -0.79608667 -1.6464055
000030 ac f5 9b 3e 77 12 b8 bd 6a 07 18 3e 3c 91 1f be
       0.3046087 -0.08987897 0.14846578 -0.15582746
000040 cc 72 a3 3d 1a 71 54 bd 71 96 14 bf 74 c6 dc 3f
       0.0798088 -0.051865675 -0.58042055 1.7248063
000050 ba b5 d9 bd 9c d4 8e 3d 5c b3 be bc 62 dd e5 bf
       -0.10630365 0.06974146 -0.023278885 -1.7958186
000060 b5 79 eb bf 67 83 dd bd dd 4b 1b c0 04 32 d7 3d
       -1.8396517 -0.10816079 -2.4265053 0.105075866
000070 57 3a 74 40 ee 0d 3a bd 2d 40 b9 bd 35 e7 22 c0
       3.8160608 -0.04542344 -0.09045444 -2.5453618
000080 8f e0 ab bd 6a 5d cb 3f b7 10 d3 3f fa 9a 62 3d
       -0.083924405 1.5887883 1.6489476 0.05532358
000090 7f 91 ad 3d e6 7a b8 bf 36 19 69 3d db 5a 37 bd
       0.08475017 -1.4412506 0.05690881 -0.04476438
0000a0 d7 13 54 3d 54 45 91 3f 40 e5 92 bf 4d b4 cd 3e
       0.051776733 1.1349282 -1.1476212 0.4017662
0000b0 8f 41 c7 bf 00 4e 74 39 d4 b5 fd bf 53 ee 8b c0
       -1.5566882 0.0002329871 -1.9821115 -4.3728423
0000c0 e7 74 8b bd 0d ad f6 3e 15 14 02 3d 84 fd 3e bd
       -0.06809407 0.48178902 0.031757433 -0.04662849
0000d0 bd 16 6a be 93 26 3f 40 c5 6a 8e 3d 6a 3b 64 bd
       -0.22860236 2.9867294 0.069539584 -0.055720724
0000e0 0e 59 23 3e 18 2a dd 3f ed 94 32 c0 fc 35 b2 be
       0.1595194 1.7278471 -2.7903397 -0.34806812
0000f0 d8 9a d8 3c 88 56 3a 3d 7c 3b 3b bd 82 af 3f 3d
       0.026441023 0.04549268 -0.045711026 0.046798237
000100 ec b8 cd 3c 85 fa 9b bf 0d 25 08 40 b8 3c 34 3f
       0.025112592 -1.2185827 2.1272614 0.7040515
000110 b0 a3 7a bd fc a2 68 bd 8c bc a2 bc 7e 9a 00 bd
       -0.06119126 -0.05679606 -0.019865297 -0.031397335
000120 4b f4 58 3c 8e 53 ee 3d 22 db 43 bd c4 1d be 3c
       0.013241838 0.116370305 -0.047816403 0.023207553
000130 9f 8f b1 3d 3f 26 ca 40 3e 17 ed bc 4c 82 a1 3f
       0.08669972 6.3171687 -0.028941747 1.2617888
000140 8d aa 32 bd ea 9f 79 3d f9 6c c5 3d d7 a6 30 3f
       -0.04361968 0.06094352 0.096399255 0.6900458
000150 73 fd 17 c0 7e c8 05 3f 37 1f 96 3d 55 d1 23 40
       -2.3748443 0.5225905 0.073301725 2.5596516
000160 37 59 42 3d fd b7 3c 3f ba c6 1e be 23 8a 81 3d
       0.047448363 0.73718244 -0.15505496 0.063251756
000170 d5 c8 ee be dc 8e b5 3e eb 2d 26 c0 ee ce bd 3b
       -0.46637598 0.35460556 -2.5965526 0.00579249
000180 c6 d0 bb 3d 9c 58 af 3f d6 11 26 bd e3 25 4d bf
       0.0917068 1.3698916 -0.040544353 -0.80135936
000190 15 a2 0e 40 22 c4 bd 3f bd d8 8b bd a4 45 02 bd
       2.2286427 1.482548 -0.06828449 -0.031804696
0001a0 d4 07 3b bc dd 79 ce 3f 9b 9d b8 bd 18 29 94 3f
       -0.011415441 1.613094 -0.09014436 1.1575041
0001b0 e0 97 6c bd 59 5f 41 bc 4d 33 97 40 b5 6d a7 3d
       -0.057762027 -0.011802518 4.7250123 0.08175222
0001c0 7f 52 23 bf 34 72 d7 40 e0 cf f2 3b c8 87 01 bd
       -0.63797754 6.732691 0.0074100345 -0.03162363
0001d0 ef e0 00 3c 4d da 2b c0 1e d7 61 bd 48 72 3b 40
       0.007866128 -2.685199 -0.055136792 2.9288502
0001e0 0f 90 bc bd 52 50 90 3d cd 73 9b 3d e8 9b ed bd
       -0.092071645 0.0704657 0.075904466 -0.116020024
0001f0 04 c1 68 bd 07 c2 19 40 1b 1a 37 3e 1a f3 87 3e
       -0.0568247 2.4024675 0.17881052 0.2655266
000200 c8 67 04 3e c7 99 7f 3d d9 d8 53 bb df f1 5b 3d
       0.12930214 0.062402513 -0.0032325296 0.053697463
000210 40 62 ce bd e0 0a 9c 3b 45 50 af 3d 2b 48 b4 3d
       -0.100773335 0.0047620386 0.08560232 0.088028274
000220 00 cd 37 bb 06 3a 3d bc 98 84 3d 3c 5e 3b 76 3c
       -0.0028045774 -0.011549478 0.011567257 0.015028803
000230 3c 1f a7 3b bd b1 ff bc 29 20 3a b9 4b ab 69 3d
       0.005100159 -0.031212682 -0.00017750323 0.057048123
000240 ad fe f0 bc ca 62 04 be d2 c6 39 bd 64 de aa 3c
       -0.029418314 -0.1292831 -0.045355625 0.020857997
000250 6c b6 20 bd 56 fb e9 3d 02 66 8e 3d a7 76 33 3d
       -0.03923647 0.11424892 0.0695305 0.043814328
000260 25 c7 b2 bc 90 02 8b 3d ff 6f 91 bd 23 3b 08 3e
       -0.021823475 0.06787598 -0.0710144 0.13303809
000270 d1 46 a3 bd 06 34 2b bd 60 60 c2 bc 95 dd db 3d
       -0.079724915 -0.04179766 -0.023727596 0.10735623
000280 f2 8b ec 3b 68 ba 4c bd a6 ff d1 3d 94 11 bf 3c
       0.007218831 -0.04998246 0.10253839 0.023323812
000290 bf da a2 3c b1 1a 4a bd ce 66 4c 3d cf 07 68 3c
       0.019879697 -0.04934186 0.04990273 0.014162018
0002a0 41 4b 94 3c 05 19 4a bd 8f 34 60 bd 24 a8 a7 3c
       0.01810229 -0.049340267 -0.054737624 0.020465918
0002b0 bf 98 9c 3d 40 25 45 bb 73 c7 5c bd d3 b5 61 be
       0.076463215 -0.0030082017 -0.053901147 -0.22042017
0002c0 43 29 94 3d 8a d4 39 bd 61 4d 1b bd f0 33 60 bd
       0.072344325 -0.04536871 -0.03791559 -0.05473703
0002d0 21 2e a7 3d b9 f2 3b bd 8b 30 a1 bd 9f eb f9 bc
       0.08163095 -0.045885775 -0.07870587 -0.03050786
0002e0 82 25 d7 3c d3 80 fa bc 75 ac 59 bd 04 13 84 3a
       0.026263002 -0.030579006 -0.053142983 0.0010076468
0002f0 17 cb 1e bc ff ae 07 3c d7 16 51 3d 2e 59 57 3d
       -0.009691975 0.008281468 0.051047172 0.052575283
000300 48 8d a0 bd 0a c8 1c 3e 7b 78 9e bc c8 13 39 bc
       -0.07839447 0.15310684 -0.019344559 -0.01129622
000310 05 76 4e bd 5a c9 11 3d de 1b 84 bd f0 d6 15 3c
       -0.05040552 0.035592414 -0.06450628 0.009145483
000320 65 91 80 3a b5 06 55 3d df 2f 91 3d 7a c0 ae bd
       0.0009808956 0.05200835 0.07089209 -0.08532806
000330 1f 8c 84 bd 4c 0e 49 bd 3a ec 9c bc 37 1a f4 3c
       -0.064720385 -0.0490859 -0.01915561 0.029797656
000340 ec 0a df 3c 76 74 79 bc 8a 66 6f 3d 27 06 5d bd
       0.027226888 -0.01522552 0.0584474 -0.053960945
000350 1a d6 3c bc 6c 3e 80 3d f0 99 b0 bb b5 de 2d 3d
       -0.011525655 0.06261906 -0.0053894445 0.042448718
000360 d5 d4 e2 3c db 00 83 3c 96 35 0a bd c0 f9 a3 3b
       0.027689377 0.015991619 -0.03374251 0.0050041378
000370 c3 94 29 bd 28 2d c1 bd ef 47 92 bd b6 5d 48 bd
       -0.041401636 -0.09432441 -0.071426265 -0.048917495
000380 f2 dd b5 3c 7e cb 94 bd 8a a3 89 bd 09 8f 3f 3d
       0.022200558 -0.072653756 -0.06720646 0.04676727
000390 fb 9f 0d ba 04 da e3 bd 8c 1e 35 bd d1 71 c0 bd
       -0.0005402562 -0.111255676 -0.044218585 -0.09396709
0003a0 6e c7 f7 3c ea 64 4a bc 2a 5b fd bb 2a d3 11 bc
       0.030246463 -0.012353161 -0.007731815 -0.008900443
0003b0 16 7b d4 bb 99 6b 23 3d 2a 91 e7 bb 99 36 a9 3d
       -0.0064843995 0.039897535 -0.0070668655 0.08262367
0003c0 e8 11 09 be fc f0 e4 bd ba a2 29 3d 66 4e f7 bc
       -0.13385737 -0.111787766 0.041414954 -0.03018875
0003d0 b6 a5 49 bd 1e d3 a0 3d c0 9f 4b bd 80 9e de bd
       -0.0492303 0.078527674 -0.049712896 -0.10870075
0003e0 44 b0 2b 3d a3 1a 10 3d e9 3e 4a bd 9c 1a 03 bd
       0.041916147 0.035181653 -0.049376402 -0.0320078
0003f0 5f 8f 61 bd 7d 6c 33 be cf 0a 90 bd 74 1c 33 3d
       -0.05506837 -0.17521854 -0.070333116 0.043728307

fc2.bias f4 [64]
000000 be 7d d8 3f 34 2c 25 be 68 b9 c5 3f 48 b3 1b be
       1.6913373 -0.16130143 1.5447206 -0.15205109
000010 85 31 cc bd 4d 41 f3 3f 2c df da 3f cd 1f 8f be
       -0.099703826 1.9004303 1.7099357 -0.2795395
000020 3a 94 f0 3f 05 f4 42 be a0 d9 e1 3f 7b 6d d9 3f
       1.8795235 -0.19038399 1.7644539 1.6986536
000030 5d 5a d1 3f d7 14 0a be 6b ea a4 bd ce 0a 48 be
       1.6355702 -0.13484512 -0.08052524 -0.19535372
000040 87 c0 ce 3f 6f d6 7f 3f 1f 2e dd 3f dd d8 ef bc
       1.6152505 0.99936575 1.72797 -0.029278213
000050 54 51 e4 3f d2 3b eb 3f 6c 07 d0 3f 2c 20 ab 3f
       1.7837319 1.8377631 1.6252265 1.3369193
000060 f3 29 e3 3f f7 ef aa 3e 4c 62 d7 3f 03 67 1a 3e
       1.7747177 0.33386204 1.6826873 0.15078358
000070 23 a5 d5 3f da 38 1d be 21 61 ea bd f4 24 f0 3f
       1.6691021 -0.15353718 -0.11444307 1.8761277
000080 3c 3d d0 3f 4a a8 d8 3f 8d 85 de 3f d0 ff da 3f
       1.6268687 1.6926358 1.7384506 1.7109318
000090 80 44 be 3e 39 65 de 3f 5b 0e e8 3e a8 42 d2 bd
       0.37161636 1.7374641 0.45323452 -0.1026662
0000a0 67 b8 cd 3f 9d e3 10 be fd c8 de 3f 5d 9e f0 bd
       1.60719 -0.14149328 1.7405087 -0.117489554
0000b0 35 06 e4 3f 9d 8f 8a 3d f2 17 d4 3f 51 d9 0b be
       1.7814394 0.06765673 1.6569808 -0.13657118
0000c0 43 f4 33 be 4a 16 d4 3f 64 05 ee 3f a8 a5 e0 3f
       -0.17573647 1.6569302 1.8595395 1.7550554
0000d0 e0 94 80 bd c6 e4 9b 3f 7e 79 ea 3f 00 6b ea 3f
       -0.06278396 1.2179191 1.8318326 1.8313904
0000e0 88 7b e4 3f 88 7b e2 3f 8c 0b 69 3e 6e 8b cd 3f
       1.7850199 1.7693949 0.22758311 1.6058176
0000f0 b0 d4 ae bd 5d 80 28 bd 93 34 00 be d5 72 ee 3e
       -0.08536661 -0.04113804 -0.12520055 0.46571985

fc3.weight f4 [3, 64]
000000 90 43 a5 40 4b 1a a1 3c dd 53 a0 40 d1 ef 95 3d
       5.1644974 0.019665858 5.010237 0.07321132
000010 99 7d aa 3b fa 0c 61 40 6a cd 87 40 ce 03 2e 3e
       0.0052029607 3.516417 4.243825 0.16993639
000020 9c 21 9b 40 a1 ab 58 3f aa cc a6 40 6e ab a5 40
       4.8478527 0.84636885 5.2124834 5.1771765
000030 19 ce a6 40 81 6c 80 bd a3 be c5 3a dc 16 72 3e
       5.2126584 -0.062706955 0.0015086721 0.23641533
000040 2f 42 a2 40 34 05 88 40 bc 93 9d 40 8e 35 5b 3d
       5.070579 4.250635 4.924284 0.05351787
000050 ba 8d 9a 40 33 b3 95 40 63 38 a3 40 dc 92 8b 3f
       4.8298006 4.678125 5.100633 1.0904193
000060 2e 74 a4 40 f3 38 41 bf 96 d0 a3 40 66 df 7a bf
       5.139182 -0.7547752 5.119212 -0.9799713
000070 64 f9 a5 40 ce 87 b0 3c 61 5e a7 3c 48 66 99 40
       5.186693 0.021549132 0.020430746 4.7937355
000080 19 50 a4 40 ce e7 a6 40 00 59 a5 40 eb 13 a4 40
       5.1347775 5.2157965 5.1671143 5.1274314
000090 4f 63 1b bf d4 e9 9d 40 f8 55 59 bf a6 5c 29 3d
       -0.6069841 4.9347935 -0.848968 0.041348122
0000a0 25 a5 a9 40 65 d6 05 3f 99 1e a6 40 0b 3c ec 3a
       5.3014092 0.52280265 5.191235 0.0018023265
0000b0 86 60 a6 40 91 0e 2c bf 4c 86 a6 40 47 e5 8d bc
       5.1992826 -0.67209727 5.2038937 -0.017321242
0000c0 f2 0b bb 3c 60 e4 a4 40 9f ea 9b 40 68 82 a4 40
       0.022832844 5.152878 4.8723903 5.1409187
0000d0 8b 72 05 3f 73 e5 ac 3f 0f 6b a8 40 c5 a4 a2 40
       0.52127904 1.3507522 5.2630687 5.0826135
0000e0 9d 5d a6 40 b6 23 a6 40 7c 95 1b bf bc d3 a4 40
       5.1989274 5.1918592 -0.6077497 5.1508465
0000f0 e9 2b a9 3c c6 93 8c 3d da be 9d 3c 21 44 5d bf
       0.02065082 0.06864123 0.019256044 -0.8643208
000100 3b 54 b3 40 05 95 53 bb 3f d2 9b 40 f0 48 81 bc
       5.604032 -0.0032284867 4.869415 -0.01578185
000110 8f 95 43 3d 52 a4 73 40 de 8e b2 40 fd 01 00 c0
       0.047750052 3.8069043 5.57994 -2.0001214
000120 e9 ea b7 40 d3 b0 18 c0 3c e8 ae 40 58 1a b2 40
       5.7474256 -2.3857925 5.465849 5.565716
000130 a4 19 a9 40 a2 a6 f9 bc 02 4d 9d 3c 0d 4e 00 c0
       5.28438 -0.030474965 0.01920176 -2.0047638
000140 c8 8a a0 40 ec 59 8c 40 56 5d a8 40 e4 83 83 bd
       5.016941 4.385977 5.2613935 -0.064216405
000150 b7 59 b1 40 2c 28 b6 40 92 bb 9f 40 f0 ed 56 40
       5.5422015 5.692404 4.991647 3.3582726
000160 a0 23 ba 40 0b 68 c4 bf df ae b8 40 e1 0d ed bf
       5.8168488 -1.5344251 5.7713466 -1.851986
000170 3d 96 b4 40 2b ad 91 bc 87 47 18 bd d3 01 b4 40
       5.6433396 -0.017782768 -0.03717759 5.6252227
000180 89 60 a9 40 7b 77 b7 40 4a 25 b7 40 2a cf b3 40
       5.293034 5.733335 5.723302 5.6190386
000190 0d ed d3 bf 73 b8 b5 40 cb 4f b4 bf e3 8c cd 3c
       -1.6556717 5.678766 -1.4086851 0.025091594
0001a0 08 17 af 40 95 9b 1c bd 2e 77 b1 40 75 22 40 bc
       5.4715614 -0.038234312 5.5457983 -0.011726965
0001b0 2f 5d b4 40 6c 30 ea bf 41 54 b2 40 99 5b cc bd
       5.636375 -1.8296027 5.572785 -0.09978408
0001c0 bb c9 0a bd 8f 7e ba 40 73 fa b1 40 21 86 b1 40
       -0.03388379 5.827949 5.5618224 5.547623
0001d0 ab 0f 9a 3e e4 6c 5f 40 73 53 ae 40 c8 f6 b7 40
       0.3009008 3.4910212 5.4476867 5.7488747
0001e0 b1 c3 b1 40 38 17 b5 40 20 7f f7 bf c9 1f b1 40
       5.555138 5.6590843 -1.933567 5.53513
0001f0 d7 2b e5 3c f4 97 82 bb 1a 5c 9e 3c 27 cd ca bf
       0.027975006 -0.0039853994 0.019331027 -1.5843858
000200 c3 ed a2 40 6a 1b 9a bd 12 a4 a0 40 4a 03 87 3c
       5.0915236 -0.0752476 5.020028 0.01648106
000210 29 4c fd 3c 1e cf 61 40 ab c0 87 40 5b f4 ba bd
       0.030920105 3.5282664 4.242269 -0.09128638
000220 70 a9 9d 40 ee c7 fd 3e 39 a6 a5 40 14 47 a6 40
       4.9269333 0.49566597 5.176541 5.1961765
000230 7d 86 99 40 ae 00 8e bd d7 a1 93 bd a3 06 75 be
       4.797667 -0.069337234 -0.07208603 -0.23928313
000240 e9 20 99 40 80 f3 8f 40 25 41 9b 40 e6 49 d9 3c
       4.7852674 4.498474 4.851702 0.026524495
000250 2b b9 99 40 da 60 94 40 dc 60 a1 40 d7 e5 61 3f
       4.8038535 4.6368227 5.0430737 0.8824133
000260 28 bb 9f 40 22 18 c4 be 5b 2e a1 40 d3 4b 57 bf
       4.991596 -0.38299662 5.0369086 -0.84100074
000270 a7 ef a5 40 43 52 8c bc 40 a9 7c bd c0 93 95 40
       5.1855044 -0.01712907 -0.061684847 4.674286
000280 31 f7 9e 40 9c af a3 40 6a d3 a0 40 13 04 a1 40
       4.9676747 5.1151867 5.0258074 5.0317473
000290 9b d0 c7 be fd db 99 40 ed 23 19 bf 25 2c 9a ba
       -0.3902634 4.808104 -0.59820443 -0.0011762424
0002a0 a2 22 a2 40 0d 79 01 3f 6d 6a a0 40 22 ce 4f 3d
       5.0667276 0.50575334 5.0129914 0.050733693
0002b0 01 11 a1 40 bb 08 c2 be 5f 33 a6 40 21 06 2d 3d
       5.0333257 -0.37897286 5.193771 0.042242173
0002c0 c3 8b a0 3d 2a f6 a5 40 6e 89 97 40 9f 8e a4 40
       0.078391574 5.1862993 4.735526 5.14241
0002d0 36 76 e5 3e 43 b1 2f 3f f7 96 a2 40 ab 27 a4 40
       0.4481675 0.68629855 5.0809283 5.1298423
0002e0 1c 02 a7 40 20 79 a6 40 38 24 46 bf f8 d2 a5 40
       5.2190075 5.202286 -0.77399015 5.182003
0002f0 e5 cc f2 bc 32 59 8f 3d c5 ee d2 bd d5 31 33 bf
       -0.029638717 0.069994345 -0.10299448 -0.6999791

fc3.bias f4 [3]
000000 09 19 b4 3f 08 86 24 40 c8 30 84 3f
       1.407014 2.5706806 1.0327387
