Models/LSTM/agentDQN-LSTM_2018-2020_lstm_v4_300_EPS_3.pth (torch, 256291 bytes, 8 tensors)

fc1.weight f4 [128, 104]
000000 6f e9 91 3c 0a 22 09 bc 58 a2 54 be 7b 7b df bd
       0.017811505 -0.008369932 -0.20765054 -0.10912224
000010 e6 92 00 be 69 7d 86 bd 7b 98 0e be 83 79 4e be
       -0.12556037 -0.06566889 -0.13925354 -0.2016354
000020 d6 41 2b bd 53 91 27 bd d1 27 85 bd 70 06 b4 bd
       -0.041810833 -0.040910076 -0.06501735 -0.0879029
000030 22 60 9d bd 93 0a f5 bd e7 b3 3e be 23 86 f8 bc
       -0.076843515 -0.119649075 -0.18623315 -0.030337399
000040 65 a3 c3 bd 79 9b ab bd d7 bb 04 be 47 7a 16 be
       -0.095526494 -0.083792634 -0.1296228 -0.14695083
000050 dc d4 69 bd ea ae e0 bd 71 b5 f2 bd 8f 3f b7 bd
       -0.057087764 -0.10970862 -0.118510135 -0.0894767
000060 0c 59 f8 bd 4a 36 2a bd e8 7d b7 bd 12 69 28 be
       -0.12126359 -0.04155568 -0.089595616 -0.16446331
000070 b8 85 8b 3d 87 30 d0 bd 9a 89 a6 bd 86 f2 fa bc
       0.06812614 -0.10165506 -0.08131714 -0.030633222
000080 31 7e 07 be 58 57 7e be 98 94 4d bd 0b 18 3a bd
       -0.13231732 -0.24838006 -0.05019054 -0.045433085
000090 60 e1 e3 bd a3 25 9f bd 39 42 ff 3b a5 3a 03 bd
       -0.11126971 -0.077708505 0.007789877 -0.03203835
0000a0 72 f2 61 bd 35 7f db 3d 39 aa 6b be 28 69 20 3c
       -0.055162854 0.10717622 -0.23014154 0.009790696
0000b0 79 fc a1 bd 30 48 36 be 2d 8d 94 3d c6 ac b2 bd
       -0.079094835 -0.17800975 0.0725349 -0.0872436
0000c0 9c 00 f7 3d 03 41 b7 bd 6d 9b c0 bd 4a 58 18 3e
       0.12060663 -0.08947947 -0.09404645 0.1487743
0000d0 31 2d 11 be 79 1b ac 3d 8a 9b 82 bd 05 2a df bd
       -0.14177395 0.084036775 -0.06377323 -0.108966865
0000e0 8f 12 fe bc b0 02 05 be 48 d0 05 bd 0c 31 81 bd
       -0.031014709 -0.12989306 -0.032669336 -0.06308183
0000f0 99 47 52 bd 50 65 c6 bd 83 8f 19 be 3a 6a e2 3c
       -0.051337812 -0.096872926 -0.14996152 0.027638543
000100 d5 ab 8b 3b 12 38 8b 3d f3 ac 6f bd 59 a9 03 be
       0.0042624273 0.06797804 -0.058514547 -0.1285757
000110 39 05 6c bd 9a ee 6a bd 7d e3 e3 bd 50 8d fb bd
       -0.05762217 -0.057356454 -0.11127374 -0.122828126
000120 72 5a 41 be 0a 1d 86 bd 25 11 5d bd f6 8b de bc
       -0.18882158 -0.065485075 -0.05397143 -0.027166348
000130 36 89 bf bc 1f 17 31 bc 11 49 86 bc 07 5b f5 bd
       -0.023380857 -0.010808735 -0.016392263 -0.11980253
000140 26 99 01 be d5 42 8f bd 28 3b d5 bd bc cd 1b bd
       -0.12656078 -0.06995169 -0.10411674 -0.038038
000150 ed da aa bd 59 7c 0f be 94 0c 77 bd 28 c3 98 bd
       -0.08342538 -0.14012279 -0.06031473 -0.07459098
000160 61 d1 9b bd 2d 57 05 be b3 21 b7 bd f0 41 ba bd
       -0.07608295 -0.13021536 -0.089419745 -0.09094608
000170 9f 1b 50 be d8 1c b4 bc 2b 6e 0a be 55 89 45 be
       -0.20323037 -0.02198641 -0.13518588 -0.1929067
000180 bd 28 94 3d 45 99 00 be c2 71 3a be 56 9f c4 bb
       0.07234333 -0.12558468 -0.18207458 -0.0060004396
000190 42 f0 93 3b 8f 44 c4 bc e7 88 8f bd 3c 4e 30 be
       0.004514725 -0.023958473 -0.07008534 -0.17217344
0001a0 36 c6 65 bd 21 34 00 bc 99 5b 05 be 44 24 40 3d
       -0.05609723 -0.0078249285 -0.13023223 0.046909586
0001b0 02 2c 18 be ff 01 9a bd c3 52 1d be 69 b9 f3 bd
       -0.14860538 -0.07519912 -0.15363602 -0.119005986
0001c0 e3 4b 6e bc 2f e8 ea bd a9 55 46 bd ff c4 b2 bd
       -0.01454446 -0.11470067 -0.048421536 -0.0872898
0001d0 a7 e2 05 3c 8a a6 a7 bd d0 43 24 3d 27 2c 09 be
       0.008171714 -0.08186062 0.040103734 -0.13395749
0001e0 43 35 1f be 0c 6c 16 bc f4 6f ef bd 9d 9e 01 be
       -0.15547661 -0.009181034 -0.11691275 -0.12658162
0001f0 f3 6e c8 3c cf 46 56 bd 02 dd f2 bc d2 10 66 3e
       0.024466967 -0.052313622 -0.0296464 0.22467354
000200 c7 e2 74 bd 0b 8f 14 be 34 43 c2 3c 12 a5 93 bd
       -0.059786584 -0.14507692 0.023713686 -0.07209219
000210 aa 06 37 3e ae 7d d0 bd 3e 7a 6c bd 1d 5c a9 bd
       0.17873636 -0.101802215 -0.057733767 -0.08269522
000220 e1 6d 1e 3e 71 f4 81 3e cc f0 0c 3e 26 01 b1 3d
       0.15471603 0.25381806 0.13763732 0.08642797
000230 34 60 01 be c3 98 08 3d f5 77 96 bd 61 4a ac 3d
       -0.12634355 0.03334881 -0.07347099 0.08412624
000240 32 48 e0 bd bf da f0 bc 21 76 af 3c 66 ce c0 3d
       -0.1095127 -0.029401181 0.021418633 0.094143674
000250 78 06 9a 3c ff 3f a4 3b e0 4d 58 bd 26 62 83 bd
       0.018801913 0.0050125117 -0.052808642 -0.06415205
000260 4b 8d 59 3e a8 67 e0 3d 5f 06 2e bc 2f 16 dd 3d
       0.21245305 0.10957271 -0.010621636 0.10795247
000270 c3 3f 21 be ce ce 01 3d 3b b2 85 be c3 01 26 be
       -0.1574698 0.031691365 -0.26112542 -0.1621161
000280 ca 5c fe bd 9d b8 0b bd 5e 5d 2e be 42 a5 51 be
       -0.12420042 -0.034111608 -0.17027804 -0.20473197
000290 7a 08 ee bc 24 95 26 be d7 13 75 bd 4b 4f 66 3d
       -0.029056776 -0.1626783 -0.059833374 0.056227963
0002a0 6a 35 c0 3d 09 a2 05 3e f3 8d 11 be 75 74 1c be
       0.09385188 0.13050093 -0.14214306 -0.152788
0002b0 9f 68 61 bc b5 0d 09 bb 1e d0 aa bc d6 8a d5 bd
       -0.013757854 -0.002091271 -0.020851191 -0.104268715
0002c0 12 61 1d be 6b 86 83 bd b8 60 22 be 5b e5 0a be
       -0.1536906 -0.064221226 -0.15857208 -0.13564055
0002d0 cf fe 99 bd 1d a0 06 bd 5f 9b 18 be a3 05 3f 3c
       -0.07519304 -0.03286754 -0.1490302 0.011659059
0002e0 8f 01 b8 3c f0 f6 76 bd 40 1f e0 bd 2c 21 00 3c
       0.02246168 -0.06029409 -0.109434605 0.007820409
0002f0 90 14 4e bd 5f f2 b3 3c 75 bc 5f 3c 9c 34 0e be
       -0.05031258 0.021966157 0.0136557715 -0.13887256
000300 b3 0c 15 be 03 c6 19 be 1a 23 42 bd 57 40 cf bd
       -0.14555626 -0.15016942 -0.047396757 -0.10119694
000310 7b 24 d2 bd 3e 20 ef bc 65 13 53 be a0 ec 0d bc
       -0.10260864 -0.029190179 -0.20612867 -0.008662373
000320 2a 3c ad bc 8f ec 03 be 25 fa b6 bd c2 e6 51 bd
       -0.021146853 -0.12883209 -0.0893443 -0.05124546
000330 95 ee d3 bd 6a 5c dc 3d 50 e1 f5 bc 02 ef e9 bc
       -0.1034824 0.10759814 -0.030014664 -0.02855635
000340 97 bb 67 3d aa 0b f8 bd 00 cf a3 bd bb ab e2 bd
       0.056575384 -0.121116 -0.079984665 -0.11067911
000350 fd d0 b0 bd b0 da f3 bd ef 89 ee bd fb 17 0a be
       -0.08633611 -0.11906946 -0.116474025 -0.1348571
000360 ef 72 97 bd e6 ab 1c be af cf cc bc 75 7c 84 bd
       -0.07394969 -0.15299949 -0.025001375 -0.06469051
000370 2f 29 05 3b 32 a5 d3 bd 9c a8 2c be db f8 c2 bd
       0.0020318737 -0.10334243 -0.16861194 -0.09520122
000380 65 e9 19 3d f9 91 c4 bd e9 fa bb bd ef 8d e0 3c
       0.037576098 -0.095981546 -0.09178717 0.02741143
000390 a9 3e f8 bd 77 47 c2 3b 5a 09 04 be c7 d1 63 3d
       -0.121213265 0.0059289294 -0.12894192 0.05561998
0003a0 9f 83 21 be a3 fd d4 3c 64 98 92 bc 97 39 b5 bc
       -0.15772866 0.02599985 -0.017894931 -0.022122188
0003b0 e7 24 54 be 69 64 11 be 17 9d 50 be 70 20 98 3d
       -0.20717202 -0.1419846 -0.20372425 0.07428062
0003c0 36 85 f7 3d bb fe 15 3e eb e2 88 be 10 89 00 bd
       0.12085955 0.14647953 -0.26735625 -0.031380713
0003d0 7c 1f 0e be 0a 6a 33 bc 9d bf 29 be 69 45 fc 3c
       -0.13879198 -0.010950575 -0.16577001 0.030794816
0003e0 fa c6 6c 3c 0d 6d 5e be e6 e5 c5 bd 21 54 f4 bb
       0.014451737 -0.21721287 -0.0966299 -0.007456318
0003f0 c4 0b 67 3a e9 3c 15 bd 18 4f 60 3d 61 58 61 3d
       0.0008813704 -0.03643504 0.05476293 0.055015925

fc1.bias f4 [128]
000000 00 f2 e8 bd 06 84 0e bd 0c fc d8 bd df 32 18 3e
       -0.11374283 -0.034793876 -0.10594949 0.14863156
000010 24 8e 7a bd ff 14 40 be 4f e5 23 be 0b c2 aa 3c
       -0.061170712 -0.1875801 -0.16005443 0.02084448
000020 06 b8 a6 bd b7 e5 6e 3e f6 8a 10 bc a9 38 25 be
       -0.081405684 0.23329817 -0.008822193 -0.16134895
000030 44 10 6f 3e 5c f9 a0 3e 60 bc ee bd 39 72 04 be
       0.23346049 0.31440246 -0.116570234 -0.12934197
000040 ed 16 89 bd 6a 2d cb 3c d6 74 91 bc 71 fd 11 bd
       -0.06693826 0.024801929 -0.017755907 -0.03564209
000050 ac 6b f4 3e bf 5c 70 bb 3c f2 47 be eb a3 7a bd
       0.47738397 -0.0036676375 -0.19525999 -0.06119148
000060 66 70 54 be d7 ea af 3d 44 9d 90 bd 9d 87 4c bd
       -0.20746002 0.08589714 -0.07061246 -0.04993402
000070 89 7e 16 3e 53 9c 67 bd 29 a6 34 be 22 65 dc bd
       0.14696707 -0.056545567 -0.1764151 -0.10761477
000080 0a f5 3d be 5d d1 83 bb 56 a6 c5 bd d6 79 91 bd
       -0.18550506 -0.004022761 -0.09650867 -0.071033165
000090 23 5c c4 bd 0c e7 c2 3d b3 71 c1 3e 23 47 60 3d
       -0.09587886 0.09516725 0.37782058 0.05475534
0000a0 13 64 0e be 31 20 25 3e 59 b6 53 3e e1 e6 ba bd
       -0.13905363 0.16125561 0.20675029 -0.09126068
0000b0 04 74 6e bd 24 ae e9 bd 99 ea e4 bd 53 88 4e bb
       -0.05821611 -0.11410168 -0.111775585 -0.003151436
0000c0 ff 84 c4 3d b1 2c 7c 3d 8e 44 26 be 09 e4 5c 3d
       0.095956795 0.06156606 -0.16237089 0.05392841
0000d0 3b 6e f1 bd 9d 7e 2f 3e 8b 76 56 bd e7 59 85 3d
       -0.11788603 0.17138143 -0.052359145 0.06511288
0000e0 29 48 f1 bd 81 1b 19 bc fd 66 94 bd 02 16 b4 bd
       -0.117813416 -0.009344936 -0.07246206 -0.0879326
0000f0 6f af 4a bc 9f 30 4b be 03 55 b5 bc 90 aa e7 3c
       -0.012370928 -0.19842766 -0.022135263 0.028279573
000100 bb 07 28 be 76 e6 52 bd 8a 0d 46 3e 8e 1d c5 bc
       -0.16409199 -0.051489316 0.19341102 -0.024061944
000110 02 37 c5 3e f8 1d 0f 3e cf b2 9c bd 8d 74 36 3e
       0.3851853 0.13976276 -0.076512925 0.17817898
000120 45 0f b5 bd 71 5e 19 bd 35 4c a9 bd a1 0f b4 3e
       -0.08840803 -0.037443582 -0.082664885 0.35168174
000130 7e e7 cf bd 0d da c5 bd c8 15 2b 3e 5a ad 76 3d
       -0.101515755 -0.096607305 0.16707528 0.060223915
000140 d5 e6 33 bd d0 8f c3 bd 33 22 07 3e 17 c2 2e be
       -0.04392131 -0.095489144 0.1319664 -0.17066227
000150 e4 b4 34 3e 56 b2 0c bd 6c 44 24 be 1a 28 b7 bd
       0.1764713 -0.034349762 -0.16041726 -0.08943196
000160 58 91 5d 3e 08 ef bb 3b 95 fe 2c bd 4f fd 2f bd
       0.21637475 0.005735282 -0.042234976 -0.042966183
000170 85 88 9a 3e 83 72 19 bd ab 76 10 3c a3 19 53 3d
       0.3018228 -0.037462723 0.008817355 0.05153812
000180 b4 cd 21 bd 75 f3 f7 bd 3c d7 48 3e 7a 2c c5 bd
       -0.039502814 -0.121069826 0.19613355 -0.09627624
000190 ef 48 4f 3c 5f e0 17 3e 5f d3 97 bd 77 f7 e3 bd
       0.012651666 0.14831685 -0.07413363 -0.111311845
0001a0 bd 25 f8 bc 71 54 01 be 63 1c 83 bc a4 0c 14 bc
       -0.030291433 -0.12629868 -0.016004747 -0.009036217
0001b0 83 cf 34 3e 8b 4f 43 3d d8 25 ea 3d 60 68 d3 bd
       0.17657284 0.04768328 0.11432999 -0.10322642
0001c0 94 2f 16 be 62 88 e0 bd 23 06 86 3d 9c 9d b6 bd
       -0.14666587 -0.10963513 0.06544139 -0.0891678
0001d0 9b 92 33 be 93 b3 94 3d d2 96 b0 bd 92 bb 4a be
       -0.17536394 0.072608136 -0.08622517 -0.19798115
0001e0 d2 1b ba 3e 60 d7 04 be 6f d4 e2 bc ea 9d 8d 3c
       0.3634935 -0.12972784 -0.027689187 0.017287213
0001f0 d2 f7 2d bd 82 df 50 3e bd db cd bd a9 0e 96 bd
       -0.042472668 0.20397761 -0.100516774 -0.07327015

fc2.weight_ih_l0 f4 [256, 128]
000000 5e df d4 3a 82 6b 15 3e 1e c5 b6 3d fa 2a 87 3d
       0.0016240885 0.14591792 0.08924316 0.06599994
000010 27 7c 52 3d c0 b9 25 bb 98 9f c6 bc 38 09 b7 3d
       0.051387932 -0.0025287718 -0.024246022 0.08937305
000020 e0 96 d8 3d 46 67 97 3d e0 52 bf bb 6c be 67 3d
       0.10575652 0.07392745 -0.005838737 0.056578085
000030 3c d9 db 3d 02 ee e4 3c 6e 04 c0 3d 56 b3 82 3d
       0.107347935 0.027945522 0.09375845 0.06381862
000040 0d 98 ce 3d e4 ea c3 3d 1c 4f 77 bd 90 6d e3 bc
       0.10087595 0.09566286 -0.06037818 -0.027762204
000050 9b 58 fe 3c 70 81 22 bc 7e 65 0c 3d e0 4d 32 3c
       0.03104811 -0.009918556 0.034276478 0.010882825
000060 42 07 7b 3d 80 86 39 bc a6 00 e0 3d 30 42 db 3d
       0.06128622 -0.011323571 0.10937624 0.10705984
000070 30 79 a7 bc b7 6c aa bd 39 42 af 3d ca 73 a1 3d
       -0.020443529 -0.08321517 0.08557553 0.07883413
000080 b6 6d 9a bd 94 1c 75 bd 50 77 d0 3c c2 75 bf bd
       -0.07540457 -0.059841707 0.025447518 -0.093486324
000090 a0 c4 9b bd dc 01 b9 3d 90 64 5e 3c 5a 1b 1a 3e
       -0.076058626 0.09033558 0.013573781 0.15049496
0000a0 4e a3 7e bd 2a be 86 bd 46 dc f1 3d 4e 45 0c 3e
       -0.06216746 -0.0657924 0.11809592 0.13698313
0000b0 70 73 84 bc 34 51 1c 3e b0 3a 16 bc 04 ac 2f 3d
       -0.016168326 0.15265352 -0.009169266 0.042888656
0000c0 d5 f0 67 3c e1 01 88 3d a6 10 89 3d fe 5e a3 bd
       0.01415654 0.066409834 0.066926286 -0.07977103
0000d0 82 80 e4 bd ae 24 fe 3d 1d bc 94 bd 61 dc ef 3c
       -0.111573234 0.1240934 -0.07262442 0.02927989
0000e0 00 0f ca bb 18 23 b9 3d f3 0f 83 bd b0 f3 a0 bd
       -0.006166339 0.09039897 -0.063995264 -0.0785898
0000f0 42 69 8f 3d 8a 14 fe 3d 26 d6 34 bd d0 0d 65 bd
       0.07002498 0.12406261 -0.04414954 -0.055921376
000100 1a 80 c2 bd 00 4c f5 3d 32 37 62 bd ec a9 43 3d
       -0.0949709 0.119773865 -0.05522842 0.047769472
000110 6c bd 3c 3d d4 2f 42 bd c0 1f e4 bb c8 af f5 3d
       0.046079084 -0.047408894 -0.0069617927 0.11996418
000120 dc 64 4d bd 80 1e 54 3d f6 8e f5 bd 69 fc ff 3d
       -0.050145015 0.0517869 -0.11990158 0.12499315
000130 d8 5a b4 3c 80 fd d7 3b e7 66 a2 bd 7a 8c d7 3d
       0.022015974 0.006591499 -0.07929783 0.10524841
000140 1b 83 58 bc 18 64 f7 bd cc f6 cd bd 00 c0 ae b9
       -0.013214852 -0.12079638 -0.100568384 -0.00033330917
000150 b2 b5 bc bd 2c 3c 68 3d 2c 4f 2c bd fe b4 9f 3d
       -0.09214343 0.05669801 -0.04206769 0.077981934
000160 1c 2a ac bc 8b 23 d7 3d 2a 4c a6 bc 40 db 9d bb
       -0.021016173 0.10504826 -0.02029999 -0.0048173964
000170 1c d9 df 3d b0 43 0a 3d 82 15 16 3e 58 1a ef bd
       0.10930082 0.033755958 0.14656642 -0.116749465
000180 0f 64 ed 3d 24 ef 32 3d 38 99 03 3a 85 ed 33 bd
       0.1159135 0.043685094 0.0005020085 -0.04392769
000190 dc 1b 8d bd ce d7 e7 3d 25 19 af 3c 38 d4 64 3d
       -0.068900794 0.11320458 0.021374295 0.05586645
0001a0 fc 33 e5 3d f8 32 aa 3d b2 4e 78 3d ec df 20 3d
       0.11191556 0.08310503 0.060621925 0.03927605
0001b0 ee 97 dd bd 3e 3f 84 3d f0 99 76 bc 95 17 3f bd
       -0.10819994 0.06457375 -0.01505135 -0.04665335
0001c0 90 d2 05 3c ac 11 26 bd c0 ac 3a bd 48 32 81 3d
       0.008167878 -0.040544197 -0.045574903 0.063084185
0001d0 00 4c 24 bd 67 17 af 3d 64 9c 11 3d 90 03 d3 bc
       -0.04011154 0.085493855 0.035549536 -0.025758535
0001e0 3f 23 7f 3d b4 1c 9c bd 50 11 67 3c 18 d2 b9 bd
       0.062289473 -0.07622662 0.014103249 -0.09073275
0001f0 57 75 84 3d a5 0c 5c bd a0 2e 7b bc 38 10 17 3e
       0.06467693 -0.053722996 -0.0153309405 0.1475228
000200 b0 47 99 bc 00 28 df 38 10 b9 14 3d 96 ff c1 3d
       -0.018710941 0.00010640919 0.0363093 0.09472577
000210 68 f3 d2 3c b8 f7 95 bc 10 d2 ba bc 00 92 53 bc
       0.02575083 -0.018306598 -0.022805244 -0.012913227
000220 00 6d da 3b 80 b4 cc 3a d8 e4 df 3d e0 43 a7 3b
       0.006665826 0.0015617758 0.1093232 0.005104527
000230 ec 2a a9 bd b8 bc ae 3c da a3 ac bd 6c 58 2b 3d
       -0.0826014 0.021330222 -0.0842969 0.041832373
000240 00 53 ca 3a 80 73 e2 bb e0 52 f7 bb ba 25 da 3d
       0.0015436113 -0.0069107413 -0.0075477213 0.10651727
000250 9c 16 ea 3d 3c 69 91 3d 50 8c 78 bd 56 e3 d0 3d
       0.11430094 0.0710015 -0.060680687 0.10199611
000260 a0 ed 93 bb f0 3a 3c bd 78 b1 94 bd b4 80 3d 3d
       -0.004514411 -0.045954645 -0.07260412 0.04626532
000270 b2 9e 9e bd 98 ab b1 3c 0c ff f2 3d 9c 4e db bd
       -0.077451125 0.021688268 0.118650526 -0.10708353
000280 dc 50 a3 bd 1c 95 e2 3d fa dc 97 bd 6a 67 a9 bd
       -0.07974407 0.110635966 -0.07415195 -0.08271678
000290 a0 d0 1c bd f0 c9 4a 3d d6 52 c7 3d c4 24 b3 3d
       -0.038284898 0.04950899 0.097325966 0.08747247
0002a0 ba ed bd bd e0 09 62 bc 50 55 bd bd e0 10 82 3d
       -0.09273858 -0.0137963 -0.09244788 0.06350875
0002b0 80 2f 70 bc 54 29 fd 3d d0 48 e9 bd d0 59 d4 bd
       -0.014659762 0.12361398 -0.11390841 -0.10368693
0002c0 00 6a 3d 3c 5a 1a ff bd 88 3d 0f 3d ac 21 66 3d
       0.011560917 -0.12456198 0.03497079 0.056184456
0002d0 2c 89 69 bd a4 37 19 3d 88 8d 9b bc 40 b8 53 3d
       -0.057015583 0.03740658 -0.018988386 0.051689386
0002e0 b0 c3 a0 3c 4c 98 88 bd ec 4b 7c bd b4 95 2c bd
       0.019624561 -0.06669673 -0.061595842 -0.042134956
0002f0 ea bd d6 3d 58 2c b6 3c e0 f0 a3 3d b6 40 97 3d
       0.10485442 0.022237942 0.08004928 0.073853895
000300 70 9b 9b bc 00 ee 82 ba 78 0e c4 bd 00 00 30 bc
       -0.018995017 -0.0009989142 -0.09573072 -0.0107421875
000310 ce 10 f9 3d fe 07 cb bd 5e 01 d9 bd 2e fa df 3d
       0.12161408 -0.09913634 -0.10595964 0.1093639
000320 f4 51 a4 bd 3e 1f 86 3d 44 c1 b3 bd bc d9 d0 3d
       -0.08023444 0.06548928 -0.08777097 0.101977795
000330 10 a3 b1 bd 58 82 df 3c 90 c1 0f 3c e8 38 b7 bc
       -0.0867368 0.027283832 0.008774176 -0.022366002
000340 d8 81 a3 3d 78 4b 7a 3d 94 e7 2f bd 3a 3a e1 bd
       0.0798375 0.06110713 -0.04294546 -0.10997434
000350 84 19 f9 bd f0 55 3c bd 6c d1 3a 3d b8 f2 3d bd
       -0.1216307 -0.045980394 0.045609877 -0.046374053
000360 3e de b6 bd 00 5b f5 bb 54 6d 5b 3d 10 02 54 3c
       -0.08929108 -0.0074876547 0.05357106 0.012939945
000370 48 be bc bd 40 eb 5c 3c 70 8a 3d 3c 44 0f b2 bd
       -0.09215981 0.013483822 0.011568651 -0.08694318
000380 d6 69 d9 3d 4e 83 c1 bd 44 1e 4b 3d 50 d4 5a 3d
       0.1061589 -0.094488725 0.04958941 0.053425133
000390 88 20 eb 3c d8 02 e8 bc 80 aa c4 3c 40 10 84 bc
       0.028702036 -0.028321669 0.024007082 -0.01612103
0003a0 78 1f ea bc 30 0e c4 3d 80 64 80 3a 28 6a 8a 3d
       -0.028579459 0.095730186 0.0009795576 0.06758529
0003b0 22 f3 ce bd 90 d0 ae bc 40 8a 84 bc 08 80 ba 3c
       -0.10104968 -0.021339685 -0.016179204 0.022766128
0003c0 60 d0 cf 3b 98 bb 6a bd ca f6 87 bd b4 5a 0c bd
       0.006341979 -0.05730781 -0.06638868 -0.03426619
0003d0 0c 56 d6 bd 8c 02 10 3d 96 be e5 bd 40 2b c6 bb
       -0.10465631 0.03515868 -0.11217992 -0.0060476363
0003e0 d0 68 63 3c c4 77 d4 bd 7a f1 ac 3d 5c f1 0f 3d
       0.01387997 -0.10374406 0.084444955 0.035142288
0003f0 88 0f e9 3c c2 d3 cf 3d 04 a2 be bd ac 93 ce bd
       0.028449789 0.101478115 -0.09308246 -0.1008676

fc2.weight_hh_l0 f4 [256, 64]
000000 68 58 da bd 00 1d 77 bb 26 87 fd 3d 00 31 a6 3c
       -0.106613934 -0.0037706494 0.12379293 0.020287037
000010 84 b7 24 bd 94 8a c7 3d 80 77 ce bc 40 df 4b 3b
       -0.040214077 0.097432286 -0.025203466 0.003110841
000020 c8 86 ed 3c 84 ee 3e bd 00 02 0e bc a8 49 87 bc
       0.028994933 -0.046614185 -0.008667469 -0.016514614
000030 0e 71 cb bd 18 3b a7 3d 10 c9 59 3c e0 c1 da bb
       -0.09933673 0.08165568 0.013292566 -0.0066759437
000040 30 fd f9 3c 9c 4a bb 3d 1c 57 18 bd 10 33 8e bd
       0.030516237 0.0914509 -0.03719245 -0.06943333
000050 d0 9d a8 bc 20 c6 31 3d 06 31 ad bd 70 ad 60 bd
       -0.020583063 0.043401837 -0.08456616 -0.054852903
000060 2a 4c 9a 3d 10 8a ef bd 7a 93 92 bd 20 27 73 bc
       0.075340584 -0.11696255 -0.07157035 -0.014840871
000070 80 09 f1 3a f0 43 81 bc 00 1a 47 3a 6c 90 ae bd
       0.0018389672 -0.015779465 0.0007595122 -0.0852364
000080 84 08 e7 bd ac bc 76 bd dc 3d cd 3d 30 e7 f5 bc
       -0.11280921 -0.060238525 0.10021564 -0.030017465
000090 c0 48 20 bd 10 92 d8 bd c0 b8 99 3d 48 56 95 bc
       -0.03913188 -0.10574734 0.075059414 -0.018229619
0000a0 04 8f 53 bd 26 d7 f5 3d 48 97 01 bd f0 c6 48 3c
       -0.051650062 0.12003927 -0.031638414 0.012254462
0000b0 ca f9 e1 3d 14 c4 99 3d 4c f2 1d 3d 28 0d c2 bd
       0.110339716 0.07508102 0.03856115 -0.094751656
0000c0 00 58 f9 bb e8 0f c8 bd ca e9 fe bd 30 2d c0 bc
       -0.0076093674 -0.09768659 -0.124469355 -0.023459047
0000d0 9c be a0 3d 50 71 a9 3d 68 48 ce 3d 44 70 fa bd
       0.07848856 0.08273566 0.10072404 -0.12228444
0000e0 d0 84 3b 3c a8 21 c8 3c 3c 46 44 bd 9a 7e a2 bd
       0.011445239 0.024430111 -0.047918543 -0.079343036
0000f0 d0 4b 4f bc d8 0a b1 3d 60 c2 43 3d fa 80 cb 3d
       -0.012652352 0.086446464 0.047792792 0.0993671
000100 50 68 86 3d a0 9f 33 bc ec 76 fc 3d 58 95 38 bd
       0.06562865 -0.010963351 0.1232737 -0.0450643
000110 c8 2c e4 3d 00 d9 0e bc c0 47 b7 bb 88 70 ae bd
       0.11141354 -0.008718729 -0.00559327 -0.085175574
000120 ba 15 bd bd 32 43 c2 3d d6 91 80 3d 28 df 9a 3d
       -0.0923266 0.09485473 0.06277816 0.07562095
000130 e2 e6 cf bd 06 28 da bd 22 c0 f8 3d b8 ad 4b bd
       -0.10151459 -0.10652165 0.121460214 -0.049726218
000140 58 b9 bc bd 7a e6 94 bd e8 c5 33 bd 56 d3 98 3d
       -0.09215039 -0.072705224 -0.04388991 0.07462184
000150 00 15 3b 3d 90 fe f3 3c 00 a8 29 b9 e0 4b 36 bc
       0.045674324 0.02978447 -0.00016179681 -0.011126488
000160 3a f8 b5 bd 4a fa 98 3d 98 a0 df bd 58 b4 40 3d
       -0.08885236 0.07469614 -0.10919303 0.04704699
000170 04 96 1c bd 50 b7 d0 3d 44 46 89 bd e8 68 1c 3d
       -0.038229004 0.10191214 -0.06702855 0.038185984
000180 68 40 10 3d 40 36 2b 3c f8 ae 79 bd fc 99 a1 bd
       0.035217673 0.010449946 -0.06095788 -0.07890698
000190 b8 75 b0 3c d4 51 b8 3d 18 64 d2 3c 10 03 24 3d
       0.021540508 0.089999825 0.025682494 0.040041983
0001a0 ac 9c 82 bd 08 2b f0 bc b0 15 51 3c 80 60 9d bc
       -0.06377539 -0.029317394 0.012761518 -0.019211054
0001b0 60 44 6b bd 9c 53 2e bd 70 68 6d 3d 80 96 48 3d
       -0.057438254 -0.042560205 0.057960927 0.048971653
0001c0 66 5c d4 bd c0 d4 ad bd 68 12 df bc 30 86 07 3c
       -0.10369186 -0.084878445 -0.027230456 0.008271739
0001d0 8a d3 e1 bd 42 1a 9d bd 06 e7 e5 3d 2c a2 75 bd
       -0.11026676 -0.07671024 0.11225705 -0.059969112
0001e0 8c 4d 9a 3d 76 48 c9 3d b6 51 e5 3d 78 88 8a 3d
       0.07534322 0.09828274 0.11197226 0.067643106
0001f0 80 ae d1 bd f2 0d 9c bd 9c a3 21 bd 50 c0 0a bd
       -0.10238361 -0.07619847 -0.03946267 -0.03387481
000200 00 4a 48 3a 60 6f 3b bc f0 15 86 3c 64 a1 1c bd
       0.00076404214 -0.011440128 0.016367882 -0.03823985
000210 0a 4b cd 3d f8 2d c4 3d c0 7c 2b 3b 14 3e 38 bd
       0.10024078 0.0957908 0.0026166886 -0.044981077
000220 20 8d b6 3c 60 84 31 3d 4e dd a8 3d ae bb a7 bd
       0.02228409 0.043339133 0.082453355 -0.08190094
000230 4c ea 19 bd c2 f1 b1 bd b0 44 ec bc 02 55 db bd
       -0.03757696 -0.0868869 -0.028841347 -0.10709573
000240 46 f7 ea bd 70 d6 73 3c 30 2a 87 3d 12 88 d2 3d
       -0.11472945 0.014882669 0.065998435 0.102798596
000250 e8 72 0f 3d a4 03 0c bd 30 9b cf bc 7a 31 bc bd
       0.035021693 -0.03418316 -0.025342554 -0.091891244
000260 98 b5 b4 3c 6c b6 e5 3d b6 71 aa bd 1a 29 d8 bd
       0.022059247 0.11216435 -0.0832247 -0.105547145
000270 3e 23 c8 3d 4c 93 63 3d 00 c1 3e bc 00 37 9a bd
       0.09772347 0.055560395 -0.0116426945 -0.07530022
000280 da c0 9e bd 34 78 98 bd 2c 38 d3 bd a0 81 c0 bc
       -0.07751627 -0.07444802 -0.10313448 -0.02349931
000290 40 13 9e bb 34 79 19 3d 08 1e d2 3c 00 77 97 bb
       -0.004824072 0.037469104 0.025649086 -0.00462234
0002a0 20 52 da bc 10 8d 72 3d 00 26 38 3a 5a 71 f2 3d
       -0.026650488 0.05921656 0.00070247054 0.11838026
0002b0 00 70 30 bc 6c d4 44 bd 4c b6 12 bd 54 3f 85 bd
       -0.01076889 -0.048054144 -0.035818383 -0.065062195
0002c0 cc eb 30 bd 92 10 e7 3d f0 08 c0 bd 9c 26 96 bd
       -0.043193623 0.112824574 -0.09376705 -0.07331583
0002d0 84 4f f3 bd 40 dd 5b bd d4 ac ef 3d 08 1e ac bc
       -0.11880401 -0.053677797 0.11702886 -0.021010414
0002e0 5c 73 97 3d 90 49 5d bd 28 b9 67 3d 60 d6 b7 3d
       0.0739505 -0.054025233 0.056573063 0.08976436
0002f0 32 e6 d1 bd 4a 48 9f 3d 6c de c8 bd 04 9b 64 3d
       -0.102489844 0.0777746 -0.098080486 0.055811897
000300 40 b6 4b bb ee 06 80 bd a4 fb fa 3d c8 8f da bd
       -0.0031083971 -0.06251322 0.12255028 -0.10671955
000310 ea bc a8 3d ee 62 c3 bd f6 2e bf bd 6c 40 d1 bd
       0.082391575 -0.09540354 -0.09335129 -0.102173656
000320 70 3a 64 bc f6 18 f1 bd b0 2c ae bd 56 b4 c3 3d
       -0.013929948 -0.11772339 -0.08504617 0.09555881
000330 46 2a a5 3d cc 0c 7e bd 3c c6 b8 bd a6 e0 99 3d
       0.08064704 -0.062023923 -0.09022185 0.075135514
000340 c8 1c b4 bc 1a e4 eb bd 9c 3d bd 3d 8c e3 0d bd
       -0.02198638 -0.11518116 0.09240267 -0.034640834
000350 2e c3 bd 3d 92 d2 ab bd 00 4e f9 ba 26 fa b7 3d
       0.09265743 -0.083897725 -0.0019020438 0.08983259
000360 d0 93 cd bc c0 0d 07 bc f0 d1 16 bc 92 1a d0 3d
       -0.025094897 -0.008243024 -0.009205326 0.10161318
000370 bc dd db bd 14 da 8b 3d ca bb ee 3d 20 ad 90 3c
       -0.10735652 0.068287045 0.11656912 0.017660677
000380 a0 ce 36 bd 68 c5 12 3d 40 a3 ba bc ec b6 cc bd
       -0.044630647 0.035832793 -0.022782922 -0.09995827
000390 80 d4 3e 3c 54 08 86 bd 58 ed b0 3c 64 b8 db bd
       0.011647344 -0.06544557 0.02159755 -0.10728529
0003a0 b2 f3 ed 3d 1e dd c7 bd 62 d7 de 3d 82 30 87 bd
       0.11618747 -0.09758972 0.10880925 -0.06601049
0003b0 e8 e4 2b bd 70 ad 9c bc dc 8f 0c 3d a2 3d dd bd
       -0.04196635 -0.01912567 0.034316882 -0.10802771
0003c0 80 ac 78 bb 8a f8 a3 3d f6 30 ec 3d d4 8a 1c bd
       -0.0037944615 0.080063894 0.11532776 -0.038218334
0003d0 e0 e3 85 3d d8 6f ee bd ca 36 e9 3d 74 ec 55 3d
       0.06537604 -0.11642426 0.11387403 0.052227452
0003e0 ce 5a ed 3d 64 cb d0 bd 3e c7 93 bd ca 77 be 3d
       0.11589585 -0.10195044 -0.07215737 0.09300192
0003f0 5e 47 97 bd 98 b2 0d 3d 2e 76 ec 3d 38 99 ce bd
       -0.07386659 0.03459415 0.115459785 -0.10087818

fc2.bias_ih_l0 f4 [256]
000000 16 a7 aa 3d 28 4b aa 3d f8 b7 be 3d e3 fc 02 3a
       0.0833265 0.08315116 0.09312433 0.00049967895
000010 d2 2b b0 bd fe d5 a7 bd cd 15 e8 bc f4 c9 24 3d
       -0.08602108 -0.08195113 -0.028330708 0.04023166
000020 4c 91 9f 3d 10 b3 b3 bd b0 c5 7d 3c 6c 88 23 3e
       0.07791385 -0.08774388 0.015489027 0.1597001
000030 98 38 e1 bd db 37 a2 3d 0b c1 6d bd 18 fc ee 3d
       -0.109971225 0.0792081 -0.05804543 0.11669177
000040 fa d8 b7 3d da ec 8e 3d 19 1d 0b bd 02 5d 85 3c
       0.08976932 0.069787696 -0.033963297 0.016279701
000050 a2 04 09 3e 98 76 80 bc a6 7c 27 3c d6 16 84 bd
       0.13380674 -0.01568155 0.01022259 -0.06449668
000060 f4 d2 cb bd 0e 72 90 3c 56 8f 8f bd 52 c9 f0 bc
       -0.099523455 0.01763251 -0.07009761 -0.029392872
000070 f9 0d 07 3e 15 89 2c bc 0d 83 d0 bc 7c 80 c9 bd
       0.13188924 -0.01053073 -0.025453115 -0.098389596
000080 4e 6d e4 bd ec 78 aa bc 82 61 13 bd 1c 79 89 bc
       -0.11153661 -0.020809613 -0.035981663 -0.016781382
000090 ee 1e f1 3d 29 50 3a 3d 2b 17 b1 3d 6f bd 6b 3d
       0.117734775 0.045486603 0.08646997 0.057553705
0000a0 3b d2 98 bc f3 2c 7a 3c ce dd 0b be 8c 3b 7c bc
       -0.018654933 0.015269506 -0.1365883 -0.015395056
0000b0 da a4 20 bd ac fc f5 bd 13 83 34 3e c3 29 25 3e
       -0.039219715 -0.12011084 0.17628126 0.16129212
0000c0 14 41 5a 3d 69 00 78 3c 54 b2 82 3d 29 58 63 bd
       0.05328472 0.015136817 0.0638167 -0.055503998
0000d0 af 5d dd bc a5 ff a3 3c 76 0e b2 3d 48 d0 9a 3c
       -0.02702221 0.020019362 0.086941645 0.018898144
0000e0 c8 8f b6 bc 30 02 cd 3c 9c c7 23 bd b2 ee 6f 3d
       -0.022285357 0.025025457 -0.039985284 0.058577247
0000f0 9f 3a 9b 3d 37 12 81 3d 73 07 21 bd 80 1d 7d bc
       0.075795405 0.06302302 -0.039313745 -0.015448928
000100 f8 c2 ee bc b0 89 33 3d 78 9d 54 3d 22 74 f8 3d
       -0.029145703 0.04383248 0.051907986 0.121315256
000110 10 39 7e bd 48 a2 b7 3c d2 6b a0 bd 46 c9 81 3d
       -0.062066138 0.022416249 -0.07833065 0.06337218
000120 78 77 a9 3d 18 a9 83 3d 90 6c 18 bd d0 71 de bc
       0.0827474 0.064287364 -0.03721291 -0.02715388
000130 48 8a 88 bc 1c 06 73 bd a0 d3 17 3d 70 24 fc bc
       -0.0166675 -0.059332 0.037067056 -0.030779094
000140 28 d2 5d 3d d0 8d 03 bd 78 c5 47 bd 30 8a a1 3d
       0.0541555 -0.032117665 -0.048772305 0.07887685
000150 e0 bb d0 bd 60 18 27 bd e8 6e b3 bd 2c 57 1e 3d
       -0.10192084 -0.04079473 -0.08761388 0.038657352
000160 d4 d0 1c 3d 18 76 50 bd 6a 7e c6 bd 4c be 64 bd
       0.03828509 -0.050893873 -0.0969208 -0.055845544
000170 22 41 f6 bd 98 1a bb bc a0 42 95 bb b0 80 b7 3d
       -0.12024142 -0.02283983 -0.0045550615 0.08960092
000180 d8 59 ec 3c d0 89 29 3d 38 67 5c 3d 38 72 93 3d
       0.028851435 0.041391194 0.053809375 0.0719952
000190 ec d5 a0 3d d6 8b cd bd 00 9c bb 3d 80 f8 d2 bc
       0.07853302 -0.10036437 0.09160614 -0.02575326
0001a0 12 48 9f 3d 9a 5f f8 bd c0 e9 86 3d 60 b6 29 3c
       0.07777418 -0.121276096 0.06587553 0.010358423
0001b0 3a 23 af 3d 8c 63 77 3d 8e aa 84 bd d8 3b 99 3c
       0.08551641 0.06039767 -0.06477843 0.018705294
0001c0 b4 b1 24 bd c8 c9 db 3c 3c 08 c1 3d b8 47 d9 bc
       -0.040208533 0.026829615 0.09425399 -0.026523456
0001d0 c8 32 93 bd 56 03 ea 3d 80 09 00 bc 88 be 43 3d
       -0.0718742 0.114264175 -0.007814765 0.047789127
0001e0 e0 bf da 3c e4 9f 52 bd 60 36 83 3b 52 26 80 3d
       0.026702821 -0.051422015 0.0040042847 0.06257309
0001f0 0c 99 0c bd e2 d6 82 bd f4 14 53 bd b6 86 e3 3d
       -0.034325644 -0.06388642 -0.051533654 0.111096784
000200 33 fa 07 bd 88 90 ab bc c2 0b 34 3c 01 95 52 ba
       -0.033197593 -0.020942941 0.010989131 -0.00080330676
000210 80 52 75 3b 46 81 02 be e1 e7 e2 3d af ca 8c bd
       0.0037433207 -0.12744626 0.11079384 -0.06874596
000220 7e 82 c1 bd be 63 c6 bd b0 6a 2a 3c a5 91 fd bd
       -0.094487175 -0.09686993 0.010401413 -0.12381295
000230 80 4c 6a 3b 90 b8 0c bd 08 69 fe 3c 44 3c 50 3d
       0.0035751164 -0.0343557 0.031055942 0.050838724
000240 19 b5 a4 bc 78 0f df 3d 86 b4 b7 bc 74 c2 0d 3d
       -0.020105885 0.10891622 -0.022424947 0.034609273
000250 f2 dc ab 3d 80 32 b2 bc b8 cf 85 bd 54 d0 f2 bd
       0.08391751 -0.021752596 -0.0653376 -0.11856142
000260 b0 1d bc 3d 50 2b 6d 3c aa 29 a2 3d 49 89 97 bd
       0.0918535 0.014475659 0.07918103 -0.07399232
000270 1c cc 6d bd 2b 50 75 3d 8b 54 0f be 62 08 9c bd
       -0.058055982 0.059890907 -0.13997094 -0.076187864
000280 88 51 f3 3d 98 5c 3e 3d 41 fd 29 3d 30 05 df bc
       0.11880785 0.046475023 0.041501287 -0.027224153
000290 bd 2a 6e ba c0 2d 8b bb ac 98 2f 3c 58 84 7f bd
       -0.0009085348 -0.004247397 0.010717552 -0.062382072
0002a0 7d 79 05 3d 92 9f 9c bd e6 51 ce 3d b0 13 43 bd
       0.032586563 -0.07647623 0.10074215 -0.047626197
0002b0 c0 7f b1 bd 04 ff bc bd b1 4b d6 bd 8f eb c2 3d
       -0.086669445 -0.09228328 -0.10463656 0.095175855
0002c0 76 a0 80 bd f9 13 6e bd 2b 3e aa bd 7c fc f8 3d
       -0.062806055 -0.058124516 -0.08312639 0.121575326
0002d0 ba f8 ce bd 3a 3c a2 bd 20 3e 96 bd dc f8 e1 3d
       -0.101060346 -0.079216436 -0.07336068 0.11033794
0002e0 11 a2 ff 3d 7c fa 0f bd be 23 c5 3d 52 c8 08 be
       0.124820836 -0.03515099 0.09625958 -0.13357666
0002f0 b8 3e 08 3d a4 ea bb 3d 20 3a 3b bd 0a a2 90 3d
       0.03326294 0.091756135 -0.04570973 0.070621565
000300 76 17 be 3d 33 c6 9f 3d bd 77 ee bd af aa e2 3c
       0.092818186 0.078014754 -0.11643932 0.027669279
000310 51 24 a2 bd b1 92 ac 3d 71 fe 0d be 30 34 ba 3d
       -0.07917083 0.08426417 -0.13866593 0.09091985
000320 e9 ed f3 bd e8 69 ee bd ef 34 41 bc a7 bd 6b bd
       -0.11910612 -0.11641294 -0.0117924055 -0.057553913
000330 ca e5 c8 bc 10 9a 0c bd 73 a3 06 be ac cc e6 bd
       -0.024523634 -0.034326613 -0.13148288 -0.11269507
000340 40 1a c5 bd 0e 23 a5 3d 62 02 c5 3d 48 3d 19 be
       -0.096241474 0.08063327 0.09619595 -0.14964783
000350 d5 a7 24 3d 84 85 6e bc c7 c1 ba 3d 78 9c 4f 3d
       0.04019912 -0.0145582 0.09118991 0.05068633
000360 9b e7 b6 bd 00 36 a5 bb 44 1d 3e 3d d9 30 ec 3d
       -0.08930894 -0.0050418377 0.04641463 0.115327545
000370 f2 e3 0e 3d e3 ac aa bd d1 ba c9 bd d3 f8 1c be
       0.034885354 -0.08333757 -0.098500855 -0.15329294
000380 6b b1 27 bc 25 bc bd bd 90 1b 5f 3d c6 ed c4 bd
       -0.010235171 -0.09264401 0.054469645 -0.09615664
000390 6c 67 2e 3e fa 0e fd bd 74 68 f3 bd 42 21 8b bd
       0.1703164 -0.12356372 -0.11885157 -0.06793453
0003a0 22 70 14 bd 20 14 18 be 32 5c 08 3e 00 7f 37 bd
       -0.03623975 -0.14851427 0.1331642 -0.04479885
0003b0 2a 4e a4 3d 6c 2c 91 3c 38 90 79 3c 88 63 b7 3c
       0.08022721 0.017721377 0.015232138 0.022386327
0003c0 32 ee 78 bd e0 3b 39 bd bf 4f 86 bd 58 36 c0 3d
       -0.060774036 -0.045223117 -0.06558179 0.09385365
0003d0 76 64 e0 3d db c0 05 3e 97 83 88 3d 54 0c 54 bd
       0.109566614 0.1306185 0.06665724 -0.05176957
0003e0 24 4a 53 bc 34 16 f8 bd ac 97 06 bd a6 6c 0f bd
       -0.0128960945 -0.1211361 -0.03285949 -0.035015725
0003f0 dc 24 83 3d af 5c 29 3d 1e 16 c5 bd 0f 90 f9 bc
       0.06403515 0.041348156 -0.09623359 -0.0304642

fc2.bias_hh_l0 f4 [256]
000000 44 87 ea 3d 58 89 da bc a6 e0 7f bd 73 52 b7 3d
       0.11451581 -0.026676819 -0.0624701 0.08951273
000010 da 9d 9b bd 96 ed 88 bd 1a ad 49 bd 49 a1 42 be
       -0.07598467 -0.06685941 -0.04923735 -0.19006838
000020 25 75 73 bd 9c de 48 3d f8 d0 eb 3d e2 a0 22 3b
       -0.05943789 0.04904042 0.11514467 0.0024815132
000030 ee 2a 26 bd 45 4d 87 3d 48 8d cc bd b6 aa 85 3d
       -0.040568285 0.06606535 -0.09987885 0.06526701
000040 17 3b 1a bd c2 57 50 3c 67 f9 7f 3d 52 e7 d6 3d
       -0.03765401 0.012716236 0.062493708 0.104933396
000050 57 d0 b6 3d ea 48 b1 bd 72 c5 72 3c a0 81 dd bb
       0.089264564 -0.086564854 0.014817582 -0.0067598373
000060 ec b3 f2 3c 51 40 ba 3d d8 de 0a bd 7a 65 93 bd
       0.029626809 0.09094299 -0.033903927 -0.071970895
000070 5d 46 29 3d f1 01 e6 bc 3e 5d 26 3e 88 55 aa bc
       0.04132687 -0.028077098 0.16246507 -0.020792738
000080 78 04 27 bd 47 57 1e bd f6 48 01 bd 39 1c 29 bc
       -0.040775746 -0.038657453 -0.03156372 -0.01032167
000090 c6 d0 b4 3c dd da 90 3d d6 af b7 3d 8b 1d 85 3c
       0.022072207 0.07072995 0.08969085 0.016249439
0000a0 89 3a a7 3d 49 04 97 bc 6e 39 3b bd ae 6c dd 3d
       0.081654616 -0.01843466 -0.045709066 0.10811745
0000b0 5d 14 a9 3d f0 ba de 3d 30 bb 8b 3b f5 96 5d 3c
       0.08255837 0.10875499 0.004264258 0.0135247605
0000c0 bb 85 d4 3d 4b 9b 7f 3c 7a f0 51 3d a6 76 ca 3c
       0.103770696 0.01560099 0.051254727 0.02471478
0000d0 fd 96 f9 3d 36 cd d0 38 70 03 cd 3d de ae ed bd
       0.12187002 9.9564364e-05 0.10010421 -0.11605619
0000e0 3a 9e 6c bd 03 1b b1 bc 17 1b fc bd 6e 05 8a bd
       -0.057768084 -0.021619326 -0.123098545 -0.06739317
0000f0 17 14 e2 bd a0 b8 91 3d d8 9a 65 bd 20 6c 82 3b
       -0.11038988 0.071152925 -0.056055874 0.0039801747
000100 60 f5 29 bd e6 5a a9 bd 80 fb 3f 3d 72 2f 97 bd
       -0.041493773 -0.082692906 0.04687071 -0.07382096
000110 38 b0 04 bd 80 80 63 bc 80 15 e1 3a d8 4e be bc
       -0.032394618 -0.013885617 0.0017172545 -0.023230955
000120 0c 29 54 bd 74 24 4f bd 7c 1b bf 3d a8 8b df bd
       -0.051796958 -0.050571874 0.09331414 -0.10915309
000130 34 56 cc 3d 70 40 96 bd 4c 04 a5 3d b2 2c 9e bd
       0.099773794 -0.07336509 0.0805746 -0.07723369
000140 14 25 a9 3d 0c 99 35 3d 80 a7 1d 3b 60 bd 75 3c
       0.08259025 0.04433541 0.0024056137 0.014998764
000150 70 03 e5 bd 14 ac e8 bd 00 b8 3b b9 8e 56 9d bd
       -0.11182296 -0.11360946 -0.00017902255 -0.076825246
000160 80 8f 9d bd 00 08 97 bd d0 41 6f bd b8 d7 da 3c
       -0.07693386 -0.07374573 -0.058412373 0.02671419
000170 d2 8f bb 3d 68 9a a7 3c fc fa 4b 3d 9c d3 c3 3d
       0.09158291 0.020459369 0.049799904 0.09561846
000180 68 db dd 3d a8 22 59 3d 1c 89 c5 3d 9a 7c 8a 3d
       0.10832864 0.053011566 0.09645292 0.06762047
000190 10 a1 7f bc 10 fd 6d 3d e8 db 49 bd b0 35 22 3d
       -0.015602365 0.058102667 -0.049281985 0.03960198
0001a0 14 9f f9 bd 48 c2 da bc be b3 b6 bd a8 c6 05 bd
       -0.12188545 -0.026703969 -0.08921002 -0.032660156
0001b0 00 d6 af 3a d8 4a 73 bd 0a 84 c3 3d 10 45 6c 3d
       0.0013415217 -0.05939755 0.09546669 0.05768305
0001c0 e0 c5 22 bd 12 0f c4 3d 0c fb 91 3d 80 34 1f 3d
       -0.03973949 0.09573187 0.071279615 0.038868427
0001d0 f0 cb 14 3c f2 1a f2 3d e0 85 e9 bc 64 7e 35 bd
       0.009081826 0.11821546 -0.02850622 -0.04430999
0001e0 c0 7b 63 bb 60 fe b1 3c 80 ab c0 3a ba 6f 93 3d
       -0.0034711212 0.02172774 0.0014699548 0.071990445
0001f0 fe 0f 83 3d 40 22 8b 3b c0 55 b3 bd 8c fd bc bd
       0.06399535 0.0042460263 -0.0875659 -0.09228048
000200 26 38 bd bd b0 39 ff bd d1 84 55 3c 86 5f 10 3d
       -0.09239225 -0.12462175 0.013032154 0.03524735
000210 62 e4 8f bd 56 a5 91 3c 8b a4 96 bd a7 fc 3d bc
       -0.070259824 0.017779034 -0.07355603 -0.011595882
000220 60 24 bb bd 42 3b b7 3d 1e fc 8e bd 49 7d e4 bd
       -0.09137797 0.089468494 -0.06981681 -0.11156709
000230 6a be de 3d 36 21 af 3d 94 95 d0 3d 74 8c 8e bd
       0.10876162 0.08551256 0.1018478 -0.06960383
000240 cd fc 1a bc f8 79 00 bd 18 f8 f7 3d 0a 04 db bd
       -0.009459686 -0.03136632 0.12107867 -0.1069413
000250 c2 40 f5 bc 0e ad 89 3d 4f 2f b6 bd c8 08 cb 3d
       -0.029938105 0.06722461 -0.08895742 0.09913784
000260 ce 0f 06 be c6 d7 e2 3d 48 c7 2c 3d 97 5a f8 bd
       -0.13091967 0.11076312 0.042182237 -0.12126654
000270 d0 f4 0c bc d3 4a 3a 3d 38 42 93 bd 78 0a 71 3d
       -0.00860329 0.045481514 -0.071903646 0.058847874
000280 34 e3 c6 bd d7 33 8c 3d 3b f6 e5 bc f4 73 ce 3d
       -0.09711304 0.06845825 -0.028071513 0.1008071
000290 a2 c4 ff 3c 54 ec 55 3d 27 80 3d bd e4 7d e9 3d
       0.031221692 0.052227333 -0.046264794 0.11400965
0002a0 30 2d 18 bc 16 f3 f2 bd 28 7f fb bd a8 a9 9b 3c
       -0.009288117 -0.11862771 -0.122801125 0.019001797
0002b0 c6 3c f2 bd 30 b8 72 bd 43 9f 79 3d 6d ad a8 3c
       -0.11827998 -0.059257686 0.0609429 0.020590508
0002c0 e6 aa 0f 3e eb fa c2 bd 9d ca cc bd 90 a5 cd bd
       0.14030036 -0.09520515 -0.09999583 -0.10041344
0002d0 5c 31 62 bd 12 ce 0a 3e 8f 39 f3 3c 88 07 f2 bd
       -0.055222854 0.13555172 0.029690532 -0.11817843
0002e0 45 74 8e bd 68 98 15 bd 14 ae 67 bd 3b dd 12 3c
       -0.069557704 -0.0365223 -0.0565625 0.008963878
0002f0 62 a9 8b bd 68 3c d1 3d ec 51 04 bd 68 1b 8e 3d
       -0.068194166 0.102166 -0.03230469 0.06938821
000300 d0 84 c5 3d 8e 50 4b bc df c5 27 3c 3d ab 6a bd
       0.096444726 -0.012409342 0.010240047 -0.05729221
000310 aa c1 19 3c fa 32 98 3d 69 1e 9d bd 96 0c d0 3d
       0.009384552 0.07431598 -0.07671816 0.101586506
000320 5a 89 0d be c8 f8 c1 bd 96 ca 77 bd 5f 02 88 bd
       -0.13821927 -0.094712794 -0.060495935 -0.06641077
000330 03 13 25 bd 40 0a bb bc f5 51 0b 3d 09 b8 10 bc
       -0.040301334 -0.022832036 0.034013707 -0.00883294
000340 62 20 a2 3c 98 26 da bd 33 75 02 be 38 04 3a 3d
       0.019790832 -0.106518924 -0.1274002 0.04541418
000350 e7 27 f7 bd 7c 0e 0f 3e d9 1a 88 bd e0 02 12 3d
       -0.12068158 0.13970369 -0.06645746 0.035647273
000360 e1 19 c3 3c dd 60 6d 3d a6 f1 a2 3d 1f f4 9f 3d
       0.023816051 0.057953704 0.07956247 0.07810234
000370 a0 1a 18 be 8a ea ef 3c e1 87 7a bd f6 e3 07 3d
       -0.14853907 0.029286642 -0.06116474 0.033176385
000380 22 cf de bd de a8 15 bc 80 12 8c bc 94 41 9a 3d
       -0.10879351 -0.009134499 -0.017098665 0.07532039
000390 c8 18 e4 3d ec c2 ce 3d 16 1b c6 bd 94 c5 d2 3d
       0.11137539 0.10095772 -0.09673135 0.10291591
0003a0 bd b7 8c 3c 3c fe 1a 3d 6d 60 64 bd a8 32 6d bd
       0.017177457 0.037840113 -0.05575602 -0.057909638
0003b0 a6 e8 ce bd b2 57 90 3d b6 39 69 bd 3c bc 6b 3d
       -0.10102968 0.070479766 -0.056939803 0.05755256
0003c0 2c c2 8c bd 06 73 be bd 8a ce 9a bd 00 29 8b bd
       -0.06872973 -0.09299283 -0.075589254 -0.067949295
0003d0 48 ec 89 bd 74 ef fb 3d 80 de 1b 3e 20 9d 92 bb
       -0.0673452 0.123015314 0.15221596 -0.004474297
0003e0 65 50 8a bc ca 9d 3d bd 50 76 ae 3c 12 11 3a 3d
       -0.016884038 -0.046293058 0.02129665 0.045426436
0003f0 f0 72 16 be 1e 3c b8 3d 00 1a 9e ba 37 bc 62 3b
       -0.14692283 0.089958414 -0.0012062192 0.0034597048

fc3.weight f4 [3, 64]
000000 be b0 13 3f 3a 7e e4 3d 1a 7a 18 40 b7 58 a7 be
       0.5769156 0.11156888 2.3824525 -0.32684872
000010 58 ca 97 be ba 09 2a c0 b0 a2 d1 be a4 9a 6c bf
       -0.29646564 -2.6568437 -0.40944433 -0.9242346
000020 f3 08 d6 3d 5c a1 b1 be 54 70 02 bd 24 e8 9a c0
       0.10450926 -0.3469342 -0.031845406 -4.8408375
000030 32 fb 83 3b 2f d6 17 bd 48 67 56 3d 9c d1 35 3e
       0.0040277475 -0.037069496 0.05234459 0.17755741
000040 9c 9a 9c bf dd f1 ad 3d f4 41 8f 3d c0 27 e0 bf
       -1.2234683 0.084933974 0.069950014 -1.7512131
000050 7b 5f f3 bd dc 68 4f 40 1d 87 55 3d 5e 1e fb 3d
       -0.11883446 3.240775 0.052130807 0.122616515
000060 8a ce 22 3d 85 8f 87 3e 82 38 80 3d eb 8f 64 bd
       0.039747752 0.26476684 0.06260778 -0.055801313
000070 a7 65 e1 3d 6c c8 83 40 5e 04 5a 40 97 55 9e bd
       0.11005717 4.1182156 3.4065166 -0.07731169
000080 d1 99 cf bd 7b 1e 5b bd 40 59 a0 c0 22 bf c6 be
       -0.1013676 -0.053495865 -5.010895 -0.38817698
000090 ac b0 a4 c0 d0 98 c9 bd d9 4c 34 3e 3c 24 51 be
       -5.1465664 -0.098436 0.1760744 -0.20423979
0000a0 80 2c 61 c0 7c d3 c7 bd 2b 5b a5 bd 70 ce 14 3f
       -3.518341 -0.09757134 -0.080740295 0.581275
0000b0 f4 07 3a 3e da 8a 25 3d 8e 08 a2 40 dc ac 9f 40
       0.18167096 0.040415622 5.0635443 4.989851
0000c0 30 0e 9c 40 e7 4d 86 bc e7 99 93 bd c0 0b 52 bb
       4.876732 -0.016394569 -0.07207089 -0.003205046
0000d0 e2 b5 5a c0 fc 78 9f 40 e8 71 9b c0 ec 68 8b bd
       -3.4173512 4.9835186 -4.8576546 -0.06807122
0000e0 2e 00 9f 40 d9 42 0b be f0 5b c7 bd da 22 e4 bf
       4.968772 -0.13599719 -0.097343326 -1.7823136
0000f0 5b e4 18 3d 5b 56 a1 3d 0a 9c f4 bd 40 c7 9c bb
       0.03732715 0.07877799 -0.119438246 -0.0047844946
000100 2c 21 0c 40 7a 42 41 bd 40 df 4c 40 fd 5a 16 bf
       2.1895247 -0.047182538 3.201126 -0.5873259
000110 8e bd 2d 3e 00 98 5c c0 91 fd 37 3e ae 31 8b be
       0.1696684 -3.4467773 0.17967822 -0.2718634
000120 02 6a ed 3d 17 28 81 be 3b bf a3 3d ea 1c 8f c0
       0.11592485 -0.252259 0.07995459 -4.4722795
000130 46 32 ad 3d ef 78 8c 3c bb 0a a0 3d 0e 97 8f 3d
       0.084568545 0.01714751 0.07814547 0.07011233
000140 ef c2 23 bf 4d b9 a8 3d 56 9b 06 be 9e 39 35 bf
       -0.6396932 0.08238468 -0.13145193 -0.7079104
000150 22 28 a3 bb 40 4c 76 40 fd fe 0e bd 88 f2 e5 bc
       -0.0049791494 3.848404 -0.034911145 -0.02806975
000160 08 88 93 bc 10 a9 04 3d c4 74 f8 bd 01 b6 b3 bc
       -0.0180092 0.032387793 -0.12131646 -0.021937372
000170 41 4d a3 bd f8 d4 83 40 b6 65 5d 40 68 77 db bc
       -0.079737194 4.119747 3.459333 -0.026790336
000180 63 28 49 3d f4 31 84 3d 1c 65 93 c0 2d 25 51 be
       0.04911078 0.0645484 -4.6060925 -0.20424338
000190 94 19 9c c0 16 c3 6b bc c5 72 ce 3d 3f 9b e6 b9
       -4.8781223 -0.014389774 0.10080484 -0.00043984686
0001a0 92 e1 76 c0 f4 a3 bd 3d 41 62 a7 bd d3 46 d1 3e
       -3.8575177 0.09259787 -0.08173037 0.40874347
0001b0 70 b6 4b 3d b6 a8 e5 3d 46 2a 97 40 c4 c8 94 40
       0.049734533 0.1121382 4.7239103 4.6495075
0001c0 60 24 91 40 fe c5 37 3e f1 b5 08 be b4 67 3c 3d
       4.5356903 0.17946622 -0.13350655 0.045997337
0001d0 52 5b 6c c0 8a 01 8a 40 bc 60 92 c0 44 3d 3d 3d
       -3.6930737 4.312688 -4.5743084 0.046201006
0001e0 d8 3d 8e 40 63 37 21 3e 98 38 df 3d f4 09 3f bf
       4.4450493 0.15743785 0.10899466 -0.7462456
0001f0 de 4d 52 3c aa 03 ee bc c1 26 a1 bc c2 0d 2e 3d
       0.012835948 -0.029054482 -0.0196718 0.04249359
000200 e8 74 01 40 d4 b3 ba bd ac 8c 4d 40 fd 95 8f be
       2.0227604 -0.09116331 3.211711 -0.2804412
000210 7e cd 20 3e 70 29 66 c0 2e 2d a3 3e 8c 3b bd be
       0.15703389 -3.5962791 0.31870407 -0.36959493
000220 fa 5f 4a bc ae 44 3e be d8 9f a9 bc ad c9 87 c0
       -0.012351984 -0.18580887 -0.020706102 -4.2433686
000230 50 cd 16 bc 07 5e c7 3d 23 8f dd bd 65 b6 d3 bc
       -0.009204224 0.09734731 -0.10818317 -0.025843808
000240 44 89 31 bf 02 85 4a bc 7c df 4e 3d af f5 8a be
       -0.69350076 -0.012360813 0.0505061 -0.27140567
000250 b0 8c 03 3d e4 82 80 40 10 43 de bd 96 bc b9 3d
       0.032116592 4.015978 -0.10852635 0.09069173
000260 98 08 7a 3d 5e b2 fd bd e4 05 83 bd 6c 27 33 3b
       0.061043352 -0.123875365 -0.06397608 0.002733673
000270 17 3e f2 ba 1b c5 90 40 a6 28 48 40 90 41 e3 3d
       -0.0018481639 4.5240607 3.127481 0.110964894
000280 f8 eb 98 3c 31 22 28 bc 61 d8 91 c0 26 fb 0c be
       0.018667206 -0.010262058 -4.5576634 -0.1376768
000290 7b 7b 97 c0 2c d1 77 bd 19 24 8a bc 41 97 ca bc
       -4.7338233 -0.060502216 -0.016862916 -0.024730327
0002a0 e6 b5 84 c0 f2 44 f8 3a ec e3 55 3d 65 1d 1c 3f
       -4.1472044 0.0018941446 0.052219316 0.6098235
0002b0 50 83 09 3d 18 a1 8c bd 2f 43 8e 40 3d a9 91 40
       0.033572495 -0.06866664 4.445701 4.551909
0002c0 01 d4 89 40 f6 2a 21 3d 52 17 b6 bd fa 84 a3 bd
       4.3071294 0.03934761 -0.08891167 -0.07984348
0002d0 eb cb 75 c0 61 01 8a 40 a7 af 90 c0 88 c1 66 bd
       -3.8405712 4.3126683 -4.521442 -0.05633691
0002e0 b1 70 91 40 f3 c1 ad bc b9 d1 b1 3d 0d 7f 33 bf
       4.5450063 -0.021210646 0.086825795 -0.7011574
0002f0 56 10 93 be 2f f9 85 bd 20 32 94 bc 4c a8 5d 3d
       -0.287234 -0.065416686 -0.018090308 0.05411558

fc3.bias f4 [3]
000000 bc db a9 40 40 c8 94 40 67 cd 8f 40
       5.308073 4.6494446 4.4938235
