Models/LSTM/agentDQN-LSTM_2020-2022_lstm_v3_300_EPS_6.pth (torch, 256291 bytes, 8 tensors)

fc1.weight f4 [128, 104]
00000000: a05b 8e3d 4a93 1fbd 5de9 d13c f67e 303e
00000010: f86b a23d 6f09 633d ff82 853d 26af 0a3e
00000020: d6d5 253e 3c3f 633e 4cee 633d c8fc e83c
00000030: b73c 6a3e a770 c33d 182d aa3d a327 e93d
00000040: 76cd f13d c9dd e03d 0f7c bb3d 600d c83d
00000050: e5fe f63d 9017 393e b1bd e63d f671 ecbd
00000060: 2363 603e 6cd4 8e3d 835d fbbe 4f83 6e3e
00000070: a429 823d 795a 363d 3813 bebd c2fe 48be
00000080: db5f 13be f5a5 493e da69 103e 457b d13d
00000090: c2bb a33e cd98 a33e 4c23 813e 68f0 403e
000000a0: eb79 9d3e 1f43 c83d 1a11 613e 9ceb 2f3d
000000b0: 88e5 cebd 1195 563e 12cb 593e abc0 a63d
000000c0: accc 83bd f70b 81be ebb5 d8bd 5400 ddbd
000000d0: ce14 823d 9a15 de3c aa1e 3e3e 43fa 763e
000000e0: c13a a33d f1cb 7e3e 2a3a 473e 07db 073e
000000f0: d4ad 82be f0ac 8c3d 0fe2 823e cc2b 9a3d
00000100: 3499 123e 896f c8bd 2af3 783e bc45 1c3e
00000110: dd3c aa3d 4047 243e 6ed0 563e 72cb 3a3e
00000120: a4e8 bb3d 69f6 6d3e 51ac 3a3e fbdb 233e
00000130: fc09 763d 8674 733e 3c0f 1d3e 745f db3d
00000140: 9600 c73d 4843 9d3d e89d 013e 886d 9e3d
00000150: 7b5f 6b3e 9966 193e e90e 313e 5da6 5b3e
00000160: 92a2 e23d a314 0f3e 6839 f83d c4b8 a33d
00000170: 64b5 283e 83be 3b3d 18f5 adbd b9fc 0d3d
00000180: 2fb2 853c aa2b ab3d 1441 cb3c f490 b93d
00000190: c626 183d f2dc 613e 7cd4 a23d edb3 c83d
000001a0: 67d4 a53c f544 8dbd 7d50 95bd 96b0 edbd
000001b0: fb52 c6bc 1996 32be bb90 95bd f77e 39be
000001c0: 29f1 c5bc aaab acbd cff3 ddbd 632b c7bc
000001d0: 5807 62bc b6d4 0ebe c2fe 0abd b7e4 59bc
000001e0: 13d5 22be 2cb7 45be c03c 86bc dd46 05be
000001f0: ed85 9fbd a0ff 86bd dd18 33be 9f3b 983c
00000200: ce71 05be 76a1 b8bd bd8c e7bd ee60 d53c
00000210: 3dbd 92bd defc 96bd a61c 82bc 9583 d6bb
00000220: bf1a 20be 9873 0bbe d7ae 36bc 1e0b f1bc
00000230: b231 aaba 69cf 37bd 22b6 893d 8b91 5dbc
00000240: ec71 40bd b7b6 493b f6fe afbc a6f6 a93d
00000250: b8ff 943c 2877 0dbe 279e 2bbd 5045 36be
00000260: 8141 1abd 0322 92bb ee10 97bd 63c8 24be
00000270: 554a edbd d80e ac3d 977c ddbc c125 59bd
00000280: 28e9 2abe c364 ddbd d46f 94bd 6334 803c
00000290: 45d1 333e b496 14bd 698f f5bc 46db 8c3d
000002a0: b3b4 febd 1ab3 cb3d 9cfe a7bc b489 17be
000002b0: 9869 4abc 5986 cfbd 66f4 1ebe bbd8 28be
000002c0: 55e7 3bbd 4657 92bd daa1 d9bd a679 eebb
000002d0: ede3 8fbd 28e2 1ebd 9553 13bd 05a9 2abe
000002e0: 8692 24be efaa 39be 71ef 07be ef41 38bd
000002f0: 1920 33be cae0 bebd f1aa 0bbe 7321 2cbe
00000300: e08c a7bd 263d 12be f61a e9bc e069 3cbe
00000310: adc9 dcbd 7469 29be 45cc 4f3d 0d47 87bd
00000320: d940 583d 7bf2 81bd 7179 47bd 392c 48bd
00000330: 6bb5 dabd b6f8 f8bd 3de6 b4bd 6a36 cfbc
00000340: b850 84bd a1e7 c53d bd40 4b3c 7cef 1b3d
00000350: 45b4 c03d d5c9 a23d 5f3d f9bc ae96 283d
00000360: adc2 dc3c edec 85bd 4c9f d8bc 533f 8f3d
00000370: d4dd 1abd 0a1d 9cbc 43ed b33d 79c0 26bd
00000380: 43ca 623d 3ee5 993d d27a 71ba cef5 083e
00000390: 0731 58bd 41b0 39bd 1735 2d3d b9eb adbd
000003a0: ad02 b43d 12eb 8cbb f83f d13d 8fa1 64bd
000003b0: 1353 803e 0f67 573d b060 de3b 9dfa 35bd
000003c0: b5c6 65bb e9d4 4e3c 22c9 e7bd 11f4 833b
000003d0: aea5 cbbb 3eef 53be df16 03be 0b61 bebd
000003e0: 4009 d2bd 86ab 97bd 4542 20bd f8e8 e63d
000003f0: 9e1a c93c 6aea be3c 0708 5c3e 07f8 a33d
0.0695107 -0.038958825 0.025623972 0.17235932 0.0793075 0.05542892 0.06519126 0.13543376
0.16194853 0.22192091 0.05564718 0.028440848 0.22874723 0.09542971 0.08309382 0.11384513
0.11806767 0.10979802 0.09154522 0.09768176 0.12060336 0.18075395 0.112666495 -0.11545174
0.21912818 0.0697411 -0.4909478 0.23292278 0.063555986 0.044519875 -0.092810094 -0.19628432
-0.14392035 0.19692214 0.14102879 0.1022859 0.31979185 0.31952515 0.25222242 0.18841708
0.3075708 0.09778427 0.2197918 0.042949304 -0.10102373 0.20955302 0.21268871 0.08142217
-0.064355224 -0.2520444 -0.10581573 -0.10791078 0.063516244 0.02710991 0.18566385 0.24118905
0.07970191 0.24882485 0.19455782 0.13267146 -0.25523245 0.06868923 0.25563094 0.07527885
0.14316255 -0.09786899 0.2431151 0.15260977 0.0831239 0.16042805 0.20977947 0.1824167
0.09175232 0.2323853 0.18229796 0.16001885 0.060068116 0.23774919 0.15337843 0.107115656
0.09716909 0.076788485 0.12657893 0.07735735 0.22985642 0.14980544 0.17290844 0.21450181
0.11066164 0.13972716 0.121203244 0.079942256 0.16475445 0.045835983 -0.084940135 0.034664843
0.016320316 0.08357938 0.024811305 0.09060851 0.037146352 0.2205694 0.079506844 0.09799943
0.020242883 -0.06897918 -0.072907425 -0.11605947 -0.02420949 -0.1744007 -0.07302996 -0.1811484
-0.024162846 -0.0843118 -0.108375184 -0.02431268 -0.013795696 -0.1394833 -0.033934362 -0.013299159
-0.15901594 -0.19308156 -0.01638639 -0.13015313 -0.07789216 -0.06591725 -0.17489953 0.018583117
-0.13031694 -0.09015171 -0.113061406 0.026047196 -0.071650006 -0.07372449 -0.015882801 -0.0065464475
-0.15635203 -0.13618314 -0.0111500835 -0.029424246 -0.0012984781 -0.044875536 0.06724192 -0.01352347
-0.046983644 0.0030779073 -0.02148388 0.082989976 0.018188342 -0.13814986 -0.041898873 -0.17799878
-0.037660126 -0.004459621 -0.07376276 -0.16092066 -0.11586443 0.08401269 -0.027036948 -0.05301452
-0.16690505 -0.108102344 -0.07247892 0.01564998 0.17560299 -0.036276534 -0.02997561 0.068777606
-0.124368094 0.0994627 -0.02050715 -0.14798623 -0.012354277 -0.10133047 -0.15522918 -0.16488926
-0.045874912 -0.07145552 -0.10626574 -0.007277685 -0.07025895 -0.0387899 -0.035968382 -0.16666038
-0.1607152 -0.18131612 -0.13274933 -0.044984754 -0.17492713 -0.09320219 -0.13639428 -0.16809635
-0.08181167 -0.14281139 -0.028455239 -0.18399763 -0.10780654 -0.16544133 0.050731916 -0.06605349
0.05279622 -0.063450776 -0.0486998 -0.0488703 -0.10679134 -0.12156813 -0.08832977 -0.025294501
-0.064607084 0.0966332 0.0124055715 0.038070187 0.09409384 0.07948653 -0.030424772 0.041159324
0.026948297 -0.06539331 -0.026443146 0.069945 -0.037809208 -0.019056816 0.087854885 -0.0407109
0.055368673 0.075144276 -0.0009211722 0.13375017 -0.05278113 -0.045334104 0.04228696 -0.08492226
0.08789573 -0.0043004835 0.10217279 -0.055818137 0.2506338 0.05258852 0.0067864284 -0.044428457
-0.0035061066 0.012624004 -0.1131766 0.0040268977 -0.006214819 -0.20696732 -0.12801693 -0.09295853
-0.102556705 -0.074057624 -0.0391257 0.11274904 0.024548825 0.023305137 0.21487437 0.08006292

fc1.bias f4 [128]
00000000: 7fc7 c93d ca50 2fbc d063 713c 2ef3 ea3d
00000010: c50a 803d 3565 2abe 1f4a e9bb 516d ebbc
00000020: e1d1 3d3d 7ea2 6e3d f6a9 473c 1e78 06be
00000030: bcb4 093e 3bd6 00be e9ea 373e 3463 a5bc
00000040: d0ca 25be 8991 6abe 87a1 ba3c 93cf 0b3d
00000050: d834 38bd 6865 12be d677 2cbe 1684 88bd
00000060: c1cd b43d 683c 85bc 6d95 70bd 03b3 cdbd
00000070: 9480 98bb 9c88 0bbe 2346 323d ffdd d5bd
00000080: 3e76 0dbe b558 4bbe a9d8 cd3d 20ea 7bbb
00000090: 4576 1ebe c44b 583c 79f8 8abc 5275 93bd
000000a0: a5f1 d93d f7e7 dbbd fb8e abbc 90b5 513e
000000b0: d5ea 8d3e 497e 4abd e4b5 d0b7 cdbf 9f3d
000000c0: 1bb6 42be d57d 23bd ee1d fbbc a23b 7fbd
000000d0: ee1c f03c 102e 4ebe e68c 5d3d 45c5 52bd
000000e0: 19a1 81bc 4844 0d3e 11d6 0d3e bda3 edbc
000000f0: a169 77bc ae2d 4f3d 40f8 e83d c0fa 23be
00000100: ba99 033c bd6b e7b8 c074 34bd 2632 71bc
00000110: a120 453d 3f79 903d 51d8 8dbd c26d 2d3d
00000120: 19cd 85bd 22a1 84bd 39be 30bd c682 babd
00000130: b182 06be 7157 663e cd4d f33d 6824 513d
00000140: 1e3d ba3b 5a59 923d dd64 413c 10cf 073e
00000150: e4a3 cabd 80f7 82bd 956c f4bc bf59 883d
00000160: d121 9c3d b22a 0a3d 49e4 383d 915e 31be
00000170: 3945 faba 2776 b8bd 85e6 2fbe 5ec9 cd3d
00000180: 7eb0 883e e31c a33e 7668 b3bd ce06 91bd
00000190: 2801 873e b754 43be 8107 44bc 29b9 423c
000001a0: 10fc f0bd c900 fabd d397 00be d4c0 d73d
000001b0: fa02 383d 625d 20bd 9bb0 06be bf0b 983e
000001c0: 3e47 9d3d 7b9f 553e 2b2e 263e 544d d33d
000001d0: 48dc 6d3c 69c8 a9bd 5fce 87bd 92ca c1bc
000001e0: 4a9a c13e 1488 a9bd 7f5f e43d f532 babd
000001f0: c392 a93d 0dc6 523e b394 11be d954 603c
0.09852504 -0.010700414 0.01473327 0.11472164 0.06252054 -0.1664017 -0.0071194316 -0.02873865
0.046342734 0.058260433 0.012186518 -0.13131759 0.13447851 -0.12581722 0.17960705 -0.020188905
-0.16190648 -0.2290708 0.0227821 0.034133505 -0.04497227 -0.14296496 -0.16842589 -0.066658184
0.08828307 -0.016264156 -0.058736254 -0.100439094 -0.0046539996 -0.13626331 0.04352392 -0.10442733
-0.13814637 -0.19858058 0.1005109 -0.003843911 -0.15474804 0.013201658 -0.016964184 -0.072001114
0.10641793 -0.10737603 -0.020942202 0.20479417 0.27718225 -0.04943684 -2.4880232e-05 0.07800255
-0.1901478 -0.039914925 -0.03065392 -0.06231273 0.02931067 -0.20134759 0.05408945 -0.051457662
-0.015823888 0.13795578 0.13851191 -0.02900874 -0.0151008675 0.050580673 0.11375475 -0.16013622
0.008032257 -0.00011035006 -0.044056654 -0.014721429 0.04812682 0.07054376 -0.06926025 0.042341
-0.0653326 -0.06476046 -0.04315016 -0.09106974 -0.13135792 0.22494294 0.11880074 0.05106011
0.0056835553 0.07145949 0.011803833 0.13262582 -0.09894541 -0.06394863 -0.029836932 0.06657743
0.076236375 0.033732124 0.045139585 -0.1732123 -0.0019094116 -0.09006911 -0.1717778 0.10048173
0.26697153 0.31857976 -0.08760159 -0.07081376 0.2636807 -0.19075285 -0.01196468 0.011884966
-0.11766827 -0.12207181 -0.12557916 0.10534826 0.044924714 -0.039151557 -0.13153307 0.29696462
0.07679604 0.20861618 0.16228549 0.103174835 0.014517851 -0.08290178 -0.06631159 -0.023656163
0.37813026 -0.08277908 0.11151027 -0.090917505 0.08279946 0.20583363 -0.1421688 0.013692104

fc2.weight_ih_l0 f4 [256, 128]
00000000: 801e 05bd 10b3 8cbc 6406 003d f1c8 7abd
00000010: 705a 0ebc fc9a e53d 08a3 a4bc a056 d13b
00000020: 3a5c d53d a122 293d 2659 8dbd b3ac ce3d
00000030: ca55 4cbd 294f 9f3d 2e88 dc3d 489f aebc
00000040: 7076 d8bd e079 e1bd fb32 4c3d 75d0 87bd
00000050: e4b4 473d e8b6 843c 7b84 afbb acb8 9bbd
00000060: d0cf b13c eb83 ac3d 7ddd fabc c6e4 d03d
00000070: cc57 913d e4a4 fc3d c6be ce3d 2de2 113e
00000080: 66e8 bebd 9c09 213d 182e 763d b7a6 4d3c
00000090: 49bc d4bd 0e74 95bd 9041 cb3d 3096 06bd
000000a0: daa0 2c3d 2240 ea3d 2960 ea3c 68b1 cabd
000000b0: 4061 b2bd 734f d1bd c085 06bb a0d6 6bbd
000000c0: 9b2b d2bd 4334 bdbd eab4 a93b 76a7 f43d
000000d0: f8f3 d0bd 909f 48bc de8a b33d 918c 8cbc
000000e0: bf25 60bc ba2f c83a 0c24 99bd 634f c13c
000000f0: d249 bb3d 788a c53d 3c49 443d c8c4 b7bd
00000100: a644 f63d 04a4 e5bd 906a 8fbc dafb 8f3d
00000110: 003e e33b f024 113c d12e bc3d acca 473d
00000120: c553 0b3e f239 79bd a775 d93d 0ab3 ccbd
00000130: 8615 f5bd 5be2 6f3d 3285 1e3d 869e c63d
00000140: d488 0ebd fcfa 7d3d deec 873d 6a68 ba3d
00000150: 5975 763d 1462 d33d 2049 ce3d e3b9 363d
00000160: 70d9 0cbc e841 cd3d 6101 db3c 19d0 cd3d
00000170: 5ac0 923d 4432 57bd 36b0 80bd fd64 cfbc
00000180: c05f fc3b aba3 a4bc a0ab 953d 1ed7 b2bd
00000190: 7a91 94bd 2034 14bd bdd5 e23d e11a 763d
000001a0: b83a cbbc 0009 193c 506e 16bc 5b93 293c
000001b0: 88aa 50bd c56e 86bd 3703 fa3c 5bc6 2fbc
000001c0: 0b07 383d d69b 0d3e 5ab7 75bd f49e 053e
000001d0: 0247 d93d 0438 1f3d 5d7d ff3d 116b 4fbc
000001e0: 4e0b 883d b4fe 0f3b 33b2 cfbd 44be ff3d
000001f0: 1c5c bebd d45c b3bd 30fe 4f3d 38a7 923d
00000200: 7d40 6c3e eea2 99bc b84c 0b3e b494 8cbd
00000210: 50d9 c6bc b089 01bd a957 0a3e 90f3 aa3d
00000220: d30d 4a3c 793a 223e 3e6d 8bbd 9a34 b93d
00000230: 3289 1a3d 7d16 2f3d 8dde 6fbd de74 b3bd
00000240: c879 913d 527e 523d 9aa8 2dbd ca85 553d
00000250: 9887 2fbd 1263 303e 51bc fe3c 9f73 a13d
00000260: 241c 953d 50cb dd3d d121 0d3d df7a a13d
00000270: 355b 79bd 1faa cabc f3d8 053e 5c33 15bd
00000280: 9bd9 ac3d a56c b6bb 7500 7d3d df79 9cbd
00000290: 53e2 aabb 5a4b b23d 3103 f7bc cdc8 8e3d
000002a0: 9f08 1f3e 34be ed3b 25cb 703b 02b9 713d
000002b0: 4ec6 583c bbd9 e43c 7a29 e5bd b0eb cb3d
000002c0: a2b4 e83d a912 453e c217 d0bc 38ad a4bc
000002d0: c7fb c8bd 9d36 ed3d 9016 08bd 685a 203b
000002e0: 667b ef3c cedf b83c 7bc8 1d3e 2838 f4bd
000002f0: 8897 c53c 0d20 643e b2e5 c93d 5023 9fbd
00000300: 2c0f 37bd 2008 b43d 14e8 3c3d 16cd 763d
00000310: 8e65 f3bd c045 3ebd 4d08 24bc 5078 223c
00000320: df49 73bd c4ba 1abd 2926 98bd 9298 9cbd
00000330: 3064 10bc 7567 f33d 2cbc b33d 181c 39bd
00000340: f0fa 11bc 370e 38bd e9d8 2b3d fe4e c5bc
00000350: b062 2b3e 2657 61bd 1cb5 c7bd faeb dbbc
00000360: 4173 ce3d c0cc c03b 492d 9bbd 9a93 cf3d
00000370: 83c8 803d 1a03 8a3d b48f 743d 7191 643e
00000380: 9d90 62bd d91f 133e fe30 f2bd 8074 023d
00000390: bdb7 063e 9f94 aebc 09bd 5e3d 746b 813d
000003a0: 0070 05b8 ace0 94bd 84fa 843d 13cc 053b
000003b0: ea67 d03d 586c 5b3d ec15 cabd 16b8 273e
000003c0: 347c 843d 8159 853d d531 ec3c 6c26 2d3e
000003d0: 10bc c83c 5498 79bd cd00 6fbd 14e8 3b3c
000003e0: 5b5b 4e3e af2f 203d 3a44 69bd 18a9 353e
000003f0: afc1 023d 69c4 113e 59de 92bd 451b 1c3e
-0.03249979 -0.017175227 0.031256095 -0.06122679 -0.008688554 0.112112015 -0.02009727 0.0063885003
0.104179814 0.04129279 -0.06901769 0.100915335 -0.049886502 0.077787705 0.10768162 -0.021316186
-0.10569465 -0.11009574 0.049853306 -0.06631557 0.048756495 0.016200498 -0.005356369 -0.07603583
0.021705538 0.08423599 -0.030623192 0.10199885 0.07096824 0.12336138 0.10094981 0.14246435
-0.0932167 0.039315805 0.060102552 0.012551955 -0.10387475 -0.07297526 0.099246144 -0.032858074
0.042145588 0.114380136 0.028610306 -0.09897119 -0.08709955 -0.10220232 -0.0020526499 -0.05757773
-0.10262223 -0.09238484 0.0051790373 0.11946003 -0.10202783 -0.012245074 0.08766721 -0.017156871
-0.013680874 0.0015273013 -0.074775785 0.023597425 0.091449395 0.096455514 0.047921404 -0.0897308
0.120248124 -0.11212924 -0.017506868 0.07030459 0.006934881 0.008858904 0.09188617 0.048777267
0.13606174 -0.060846277 0.106181435 -0.099950865 -0.11966996 0.05856548 0.038701244 0.09698205
-0.03479846 0.062006935 0.06636976 0.09101947 0.060170505 0.10321441 0.10072541 0.04461087
-0.008596763 0.10022336 0.026734056 0.10049457 0.071655944 -0.05253817 -0.062836096 -0.02531671
0.007701844 -0.020097574 0.073081255 -0.087324366 -0.0725431 -0.036182523 0.110759236 0.060084227
-0.024808273 0.009340525 -0.009181574 0.010350074 -0.05094388 -0.06564096 0.030519111 -0.010728444
0.04492859 0.13828978 -0.05998931 0.13048917 0.10609247 0.03887178 0.12475083 -0.012659804
0.06642781 0.0021971883 -0.10141411 0.12487462 -0.09294912 -0.0875794 0.05077952 0.07160801
0.23071475 -0.018754449 0.13603485 -0.068643 -0.024273545 -0.03162545 0.13510002 0.08347237
0.0123323975 0.15842618 -0.06807946 0.09043236 0.037728496 0.042746056 -0.05856185 -0.08762525
0.07103306 0.05139 -0.04239712 0.052129544 -0.04285392 0.17225292 0.031095656 0.07883381
0.07280758 0.108297944 0.034456078 0.07884764 -0.060877997 -0.024739323 0.13071041 -0.036425933
0.084399424 -0.0055671507 0.061768014 -0.076404326 -0.005214968 0.087057784 -0.030152889 0.069718935
0.15530632 0.00725534 0.0036742177 0.059014328 0.013230873 0.027935853 -0.11189552 0.09957063
0.11362578 0.192454 -0.025401954 -0.020102128 -0.09813648 0.11582682 -0.033224642 0.0024467949
0.029233646 0.022567656 0.15408508 -0.119247735 0.024120107 0.22277851 0.09858264 -0.07770407
-0.044692203 0.08790612 0.046119764 0.06025418 -0.118846044 -0.046453238 -0.010011745 0.00991638
-0.05939662 -0.03777577 -0.074291535 -0.07646288 -0.008812949 0.11884967 0.08776125 -0.045192808
-0.008909926 -0.04493543 0.04195491 -0.024085518 0.16736865 -0.05501475 -0.09751341 -0.02684592
0.10080577 0.005883783 -0.07576997 0.10135575 0.062882446 0.06738873 0.05970736 0.22321106
-0.055313695 0.14367618 -0.11825751 0.031849384 0.13156028 -0.021311102 0.054379497 0.06319323
-3.181398e-05 -0.07269415 0.064930946 0.0020415827 0.1017607 0.05357012 -0.098674625 0.16378817
0.06469002 0.06511212 0.028832356 0.16909188 0.024503738 -0.060936287 -0.058350373 0.011468906
0.20152037 0.039107975 -0.05694983 0.17740285 0.031922992 0.14235081 -0.07171316 0.15244778

fc2.weight_hh_l0 f4 [256, 64]
00000000: 4c82 74bd 1c0d 7b3d d078 00bc e03e 38bd
00000010: d096 653c 20ad c1bd 9005 703c 3203 9b3d
00000020: 6271 bbbd 3e26 83bd beab a9bd 468f 933d
00000030: dc5b 3f3d 4473 bb3d 7c7c ff3d 1417 6ebd
00000040: 0ce3 7dbd f8fd fa3c ccfd c13d 60ad 8dbc
00000050: fc73 7dbd 983a 87bd 6031 da3c 807e e13c
00000060: 5484 593d f0c4 8f3c 18fd b0bc a6c5 8e3d
00000070: fa44 f2bd 8a9a 843d e0e0 1e3c c03c 163d
00000080: b05c 6c3d ac3f b8bd e80b db3d ea64 aebd
00000090: fe7c c43d a0e8 6a3c 92a4 883d 80ac d7ba
000000a0: bce0 22bd aad5 c8bd 6e51 ee3d aca3 2bbd
000000b0: 4404 633d 008c 3ebd 9833 673d 24c1 093d
000000c0: be48 f3bd 7065 3cbd dcb2 153d 68ce 2dbd
000000d0: 00dd 6bbc e0c5 87bb e685 d0bd 44cd b83d
000000e0: c050 8fbc b440 21bd a8b7 f1bc bcf2 bfbd
000000f0: 5839 c53c 0aac e03d 38f5 533d c8f0 b6bd
00000100: a49b a7bd 9c0f 1cbd 6e94 92bd da6e 89bd
00000110: a064 f93c da07 88bd 309c 583c 10fe fcbc
00000120: b456 33bd f2fe d6bd 6002 bc3c b267 efbd
00000130: 68f3 923d 0897 fcbd 2a5f cabd 7648 93bd
00000140: 68e3 933c 4a64 8fbd 4eb9 a4bd d0fa 343d
00000150: 2c20 473d 745b 883d 9851 0d3d 5605 8f3d
00000160: 80a8 dabc 002b 693d 30bd ec3c 303d 19bc
00000170: 9a1e d9bd 0036 8e39 a4ba 923d 60c1 f0bb
00000180: 2c3e 2abd 2833 5fbd eace 993d ced9 84bd
00000190: 1a67 b2bd 94fb 2c3d b646 d63d f00e ae3d
000001a0: eccf 87bd 7880 afbd 087d c23c 500b 793d
000001b0: 204e be3c 8865 3abd f81a 883d 88b8 293d
000001c0: 701d 803d 54c6 a43d b0ef 653c c086 4abd
000001d0: e849 003d 720d a13d c4bf fb3d 00eb 1abb
000001e0: 2030 843c 1ea4 b53d c6f1 803d f8e0 e1bd
000001f0: 92f1 f0bd 3026 18bd 5e38 c4bd 3079 3b3c
00000200: 20d0 e4bb a057 b73b 2a47 cebd b4af 0b3d
00000210: 9ad2 953d bce0 fdbd 5eba 98bd f04b 4dbc
00000220: f00a 323d 30b6 4cbd e678 953d 4c98 b1bd
00000230: 8044 23bc 2c53 613d 8019 a83a 8e5b 9bbd
00000240: 5c22 4bbd 44c7 e53d 00a9 78bb 8c79 31bd
00000250: 9603 893d 641b 7cbd 04c8 3d3d b0f5 5cbc
00000260: 8ccd 903d d256 c7bd ac2e d1bd e0e6 5c3d
00000270: b634 babd 00c3 433d f2e2 a23d 6865 cc3d
00000280: 64c9 663d b05d 1c3c 2283 edbd 947c 70bd
00000290: 008e 583c c03c 56bb c056 b8bc f06b 2abc
000002a0: b4e6 23bd 587e d63d e094 953d 76e0 b13d
000002b0: 66aa 85bd 5a4d c03d 20bd 64bc 00ac df3b
000002c0: e037 fdbc f0c1 2fbd 56b1 eb3d 4a66 f5bd
000002d0: 6878 43bd b8ad b7bd d4a0 533d 5009 063d
000002e0: 209e 61bc 0022 a03a 988a 6dbd 5040 4f3d
000002f0: a81c 2c3d b89f be3d 4681 dcbd a027 143c
00000300: 00e0 d4b8 60fc c7bb e014 9e3b a80d 7b3d
00000310: 0ee6 a83d 4800 f93d 1c4f 1cbd 8c54 28bd
00000320: ae12 e4bd b015 56bc b002 7f3d c887 653d
00000330: 0ab2 873d a893 4abd fc9f 5abd 40e5 f83b
00000340: 003f bebb 3071 b33d 7aa3 e1bd 7c53 abbd
00000350: 18df 83bc 20aa c63d aea7 cd3d 5e4e ae3d
00000360: 9800 d93d 2cbd 8d3d a828 fb3c 0c26 6d3d
00000370: e834 ae3d 70ea 6c3c fc9d 143d e892 3c3d
00000380: b0b1 56bc 10ac a0bd 0489 533d 068d b33d
00000390: 4039 613b 929e a13d 2891 e2bc f002 69bd
000003a0: 8cc3 d7bd c8df 26bd 5093 1fbc b8b2 49bd
000003b0: b8b6 8a3c baf9 c2bd eecf 80bd d006 7e3c
000003c0: 68e3 423d ec71 333d a4c0 093d c0bb b13c
000003d0: b2de f4bd e0a1 12bc e0a5 b83d e0e9 2abd
000003e0: d0e1 203d 5064 7cbd 3484 62bd 9433 7b3d
000003f0: 562c c23d ec71 e0bd e00f 753d 625c f7bd
-0.059694573 0.0612918 -0.007841304 -0.044981837 0.014013007 -0.09456849 0.014649764 0.07568969
-0.091524854 -0.064037785 -0.0828471 0.072050616 0.046718463 0.091528445 0.124749154 -0.058127478
-0.061984107 0.03063868 0.09472236 -0.017294586 -0.06187819 -0.06602973 0.026634872 0.02752614
0.053104714 0.017549962 -0.02160506 0.06971292 -0.118295625 0.064747885 0.009697169 0.03667903
0.05770558 -0.089965194 0.1069563 -0.085153416 0.09594153 0.014337689 0.06672014 -0.0016454607
-0.039765105 -0.09806378 0.11636625 -0.041904137 0.05542399 -0.046520233 0.056445688 0.03363146
-0.11879109 -0.045995176 0.036547527 -0.042433172 -0.014395952 -0.0041434616 -0.10181789 0.09023526
-0.01749456 -0.039368346 -0.02950652 -0.0937247 0.024075195 0.10970314 0.05174753 -0.08932644
-0.08183983 -0.038100824 -0.07157217 -0.067105964 0.03044349 -0.066421226 0.013220832 -0.030882865
-0.04378386 -0.10497846 0.022950351 -0.116897 0.07175332 -0.123334944 -0.09881432 -0.07191555
0.018052772 -0.070015505 -0.080431566 0.044184506 0.048614666 0.06658068 0.034501642 0.069834396
-0.026691675 0.056925774 0.028898805 -0.009352967 -0.1060154 0.00027124584 0.07164505 -0.007347271
-0.041563198 -0.054492146 0.07510169 -0.064868554 -0.08711071 0.04223211 0.10462706 0.08498943
-0.06631455 -0.08569425 0.02374126 0.060801804 0.023230612 -0.045506984 0.06645769 0.04143575
0.06255615 0.080456406 0.014034197 -0.049444914 0.031320482 0.078638926 0.12292436 -0.0023638606
0.016136229 0.088691935 0.062961146 -0.110292375 -0.11764826 -0.037145793 -0.09581064 0.011442468
-0.0069828182 0.0055951625 -0.10072167 0.03410311 0.0731556 -0.1239638 -0.07457422 -0.012530312
0.043467462 -0.049978435 0.0729845 -0.086716264 -0.009965062 0.05501096 0.0012824982 -0.07585822
-0.049593315 0.112196475 -0.0037942529 -0.043328807 0.06690137 -0.06154956 0.046333328 -0.013486311
0.07070455 -0.097333565 -0.1021398 0.053931117 -0.09092085 0.04779339 0.07953443 0.09980279
0.056344405 0.009543821 -0.11597277 -0.058712557 0.013217449 -0.0032690018 -0.022502303 -0.010401711
-0.040014938 0.10473317 0.07303786 0.08685391 -0.065266415 0.09389754 -0.013961107 0.006825924
-0.030910432 -0.042909563 0.115084335 -0.11982401 -0.04772225 -0.08968681 0.05166705 0.032723725
-0.01377061 0.0012217164 -0.0579935 0.050598443 0.042019516 0.09307808 -0.107668445 0.00904265
-0.00010150671 -0.0061030835 0.004824266 0.06129232 0.082470044 0.12158257 -0.038161382 -0.041096255
-0.11136375 -0.013066694 0.062258422 0.056037694 0.06625755 -0.049457222 -0.05337523 0.007595688
-0.00580585 0.08761823 -0.11017509 -0.08365533 -0.01609759 0.097004175 0.10041748 0.08511041
0.105958164 0.06920847 0.030659035 0.057897612 0.08506185 0.014460191 0.03628348 0.04603854
-0.013103887 -0.07845318 0.05164434 0.087671325 0.00343664 0.07891573 -0.027657107 -0.056887567
-0.105353445 -0.04074076 -0.009739712 -0.049242705 0.01693283 -0.09520288 -0.062896594 0.015504554
0.047580153 0.043809816 0.033630982 0.021695971 -0.11956538 -0.008949727 0.09016013 -0.041726947
0.03927785 -0.061619103 -0.05530186 0.061328486 0.09481113 -0.10959229 0.059829593 -0.120781675

fc2.bias_ih_l0 f4 [256]
00000000: 9e4d f03d e82b 213e f07f b53c 6a20 c3bd
00000010: fecb 00bd 9698 a13d ba43 a8bd f2bc 913d
00000020: 3008 8d3d 70c5 92bd fe18 7e3d 9b8b 14bd
00000030: 5d30 183c ac8c 20bd 7429 d23d f30b ca3d
00000040: 0172 17bd af31 563d e071 0b3d 6889 b7bd
00000050: c4e9 883d 2309 313e 504c 8fbd 2413 abbd
00000060: 88ed 2b3b a8ff 7b3d 9a9d 203e a0bc ff3b
00000070: d65d 30bd f729 973c dfb4 843d f6e0 453d
00000080: 81dc eabd 0c52 debd 3c85 ffbc f17f 183c
00000090: 403c 143d 4ddf 103e 8771 3dbc d158 a33d
000000a0: f71c 3cbd 0011 a33a bcd3 97bd 71a1 973d
000000b0: f9c4 96bb e537 dd3d 053a 663d a46b 053e
000000c0: 7116 3dbd 482c 7dbd 37ae 26bd d721 3bbd
000000d0: 8af6 033d 01c4 70bd c046 d33c 09e6 fbbd
000000e0: 1640 393d 32cb 0d3b b641 28bd 8729 6dbd
000000f0: 849a c6bc 839f 23bc ee83 c9bd 9700 e9bc
00000100: a0d4 003d ae35 e4bd ba92 babd 1a53 a3bd
00000110: bcc9 1dbd b0c3 38bc 560d c43d de3f 95bd
00000120: 4040 7fbd 3eb3 dfbd 4084 cabd 9046 7b3d
00000130: 6c4e 9ebd 10bf d2bc 7800 eb3d 38db 26bd
00000140: f005 383d a86e d1bd b848 96bc d053 b1bc
00000150: 52dd d73d c0ef 313d f459 acbd 104b d13d
00000160: 3a3f 84bd 6c1d 7d3d 0098 9e3b 7c0c b3bd
00000170: 60b0 6bbc f21b 92bd 00b8 0fba ac17 ba3d
00000180: 382f 3a3d 2040 523d d05a 873d 98ea e03c
00000190: d0eb 173d 4080 623d d40d 32bd 10a1 933d
000001a0: bcba acbd 006a 1d3b 6c8d 3c3d d67f d23d
000001b0: 404d 55bd 94a9 203d 08e1 843d 106e 2fbc
000001c0: 007a d43b 38f4 e73d 9047 1dbd a46c ef3d
000001d0: 34ba a4bd 40c9 69bd 1050 e23c 600f 6cbc
000001e0: acc6 ac3d 4821 103d 1035 a53d 7832 1a3d
000001f0: 50e3 333c 10a3 fd3c d0a5 183c 808f ac3d
00000200: ad8f 3b3d 7073 a2bd 577b 3d3c ea95 993b
00000210: 7a89 c23d c0ad d23c 1551 3d3c 4c18 d4bc
00000220: b3d5 6abd a841 8bbd 5e55 ce3d 6d3d 993d
00000230: 517b e83d f9e0 423d 24f0 58bd 89d4 4f3c
00000240: 6099 efbc d640 983c 4cd8 6a3d c040 933d
00000250: d865 ae3d eecf 9cbd 8ff1 283e 50e2 97bd
00000260: 8385 af3d 00b1 753b b286 f83d 94e6 e4bd
00000270: 00bf f43a dc7d f1bc c619 943d 8e9c d4bd
00000280: da9c 85bd f519 f8bd 1211 3fbc e688 2ebd
00000290: 3b17 f7bd adb9 c73d 3905 873d eb8b 72bc
000002a0: 1231 093e d4e8 433d 4007 6f3c c021 283b
000002b0: a09e a13c b4aa 483d 466f b7bd 55cf 57bd
000002c0: 6ae2 96bd 7882 9c3c f4ac 783c a542 8d3c
000002d0: 9409 ddbd d02c 4a3d 883b b93c 98de ff3d
000002e0: db79 29bb 5a61 923d d01f dbbd 70a6 763d
000002f0: e079 71bd 7803 e2bc 580a 4e3d d03c 413d
00000300: 6918 ea3d 65c3 94bd 96c6 363d c679 823d
00000310: 62b6 193d d1ca 233d 6fd9 3b3e f8a7 0b3d
00000320: 1b44 8b3d 15de 15bd f192 b23d 7ab8 3ebc
00000330: f21e b33d a137 1e3d f37f ba3d 9beb 8e3c
00000340: 4a89 c5bd 0289 a13c 8565 273d 88af e53b
00000350: 5827 d7bd ab98 cc3d d624 0e3e deef 8e3d
00000360: 9a3c c9bd 5c74 4a3d 4911 533d 4048 0abd
00000370: 0a79 edbd 0e9e 583d ebe2 39bc 234a 1fbe
00000380: da16 9a3b f9f2 473c bd5c 83bc 9072 79bd
00000390: c820 8abd 3067 83bc 6da4 22bd 3235 8ebc
000003a0: 0970 d43d 60fa d3bd 3ed4 da3d a472 a83c
000003b0: d5d9 ad3c 8ee1 2f3c 704b 02bc e19a 803d
000003c0: 6185 85bd 6224 c93b a840 fa3d bde6 f13c
000003d0: 8015 f23b fc68 823d 889d 9ebd cfe0 b4bd
000003e0: 1565 b23c e8b8 91bc 1963 bf3d fe3b 5abd
000003f0: fc63 c43d a88c 3ebc a39a e63c b991 fd3d
0.11733554 0.15739405 0.022155732 -0.09527667 -0.031444542 0.078904316 -0.08216043 0.071161166
0.06886327 -0.071665645 0.062035553 -0.03626595 0.009288874 -0.039196655 0.10261813 0.098655604
-0.036973957 0.052293476 0.034044147 -0.08961755 0.06685212 0.17288642 -0.06996977 -0.0835326
0.002623411 0.06152311 0.1568512 0.0078044683 -0.04305824 0.018452628 0.06479811 0.048310243
-0.11467839 -0.10855493 -0.03119146 0.009307847 0.03619027 0.14147682 -0.011562712 0.07975925
-0.04592606 0.001244098 -0.07413432 0.074038394 -0.0046011177 0.10801677 0.056207675 0.13029343
-0.04616398 -0.061809808 -0.040693488 -0.04568657 0.03221754 -0.058780674 0.025790572 -0.12299735
0.045227133 0.0021636006 -0.04107829 -0.05790093 -0.0242436 -0.009986761 -0.09839617 -0.028442664
0.031452775 -0.11143051 -0.09110017 -0.07974835 -0.038522467 -0.011277124 0.09572856 -0.07287572
-0.062317133 -0.109228596 -0.09888506 0.06134659 -0.077298015 -0.025725871 0.11474699 -0.040736407
0.044927537 -0.10226184 -0.018345222 -0.02164641 0.105402604 0.043441534 -0.08415595 0.10219395
-0.06457372 0.061795637 0.004839897 -0.087426156 -0.014385313 -0.071342364 -0.0005482435 0.09086546
0.045455188 0.051330686 0.06609118 0.027455613 0.037090123 0.05529809 -0.04347022 0.072084546
-0.08434054 0.002401948 0.046033308 0.10278289 -0.052075624 0.039224222 0.06488234 -0.010707393
0.00648427 0.11325878 -0.038398325 0.116906434 -0.08043328 -0.057076693 0.027626067 -0.014407963
0.08436331 0.03518799 0.080667615 0.037645787 0.0109794885 0.030961543 0.0093168765 0.08425808
0.045791317 -0.07932174 0.011565051 0.0046870606 0.09498878 0.025717616 0.011554976 -0.025890492
-0.057332706 -0.06799632 0.10074876 0.07482419 0.11351646 0.047577832 -0.05296339 0.01268495
-0.02924794 0.018585604 0.057335183 0.071900845 0.08515519 -0.07656847 0.16498397 -0.074162126
0.08570387 0.0037489533 0.12135066 -0.11176792 0.0018672645 -0.02947896 0.072314784 -0.10381423
-0.06524058 -0.12114326 -0.011661785 -0.042611025 -0.12064978 0.09752212 0.06592793 -0.014803867
0.13397625 0.047829464 0.014589131 0.0025654882 0.019728959 0.04899092 -0.089567706 -0.05268796
-0.07367404 0.019105181 0.015177954 0.017243693 -0.107928425 0.049359143 0.022611395 0.12493628
-0.0025859985 0.071474746 -0.10699427 0.06021732 -0.05895412 -0.027589545 0.050302833 0.047177136
0.11430437 -0.07263831 0.04462298 0.06370883 0.03752745 0.039988343 0.18344663 0.034095734
0.068000995 -0.036588747 0.08719433 -0.011640662 0.08746137 0.03862727 0.091064356 0.01744633
-0.096453264 0.01971865 0.0408683 0.0070094503 -0.10505551 0.099900566 0.1388124 0.06979345
-0.09826012 0.049427375 0.051530156 -0.03376031 -0.11595352 0.052885108 -0.011345605 -0.15555625
0.004702431 0.012203925 -0.016035432 -0.06090027 -0.06744534 -0.016040415 -0.03970759 -0.01735935
0.103729315 -0.103504896 0.10685013 0.020562477 0.021222034 0.010734929 -0.007952556 0.06279541
-0.06519581 0.0061383704 0.122193635 0.02952897 0.007387817 0.063676804 -0.077448905 -0.08831941
0.021776715 -0.017788365 0.09345073 -0.05327987 0.09589383 -0.011630215 0.028149908 0.1238131

fc2.bias_hh_l0 f4 [256]
00000000: adf2 a33c 82dd 503c 526f c43d 5bb8 893b
00000010: c69e 193c d427 7bbd 97a1 423b d36a 213c
00000020: 1ca9 cabd 8891 c33d 34d1 16bd aa65 603d
00000030: 61e8 13be 001e c4ba f0f1 863d 953b bb3d
00000040: fda6 5bbd 1476 9a3b 7cb4 8c3d 52bd de3d
00000050: c8a2 30bd 3287 293d 4294 88bd e2ea ffbd
00000060: c3d2 7d3c f30c 85bd 5675 853c 4e1e 8cbd
00000070: 8624 613d b39d 263d 38e9 09be a20d e53c
00000080: 9b00 38be 0042 58bc 73b0 993d 7bb8 a3bd
00000090: 4e4b b5bd 0ccc 263d cce7 9e3c 1a30 b13c
000000a0: 7731 60bd 6cd3 29bd 9b27 02be a93d 11be
000000b0: 9e26 3b3d fc51 de3b c8cc 81bd f027 fb3c
000000c0: 2bf5 d4bd 266a 1a3e 02b8 803d 4813 f03c
000000d0: d2fe aebc 8360 c13c 03d1 6ebd 729b 523c
000000e0: 650b 81bd c962 16be ecf0 223d fd4c 043e
000000f0: 0cd8 dabd 0dfa b13d 30af a1bd 2fb3 e8bd
00000100: 8043 873b d06d debc 644b 9abd 9c0d 8b3d
00000110: e4a5 383d e038 f2bd e86b 223d 4491 1b3d
00000120: 20c3 753d 2014 0bbc c05b 9d3d 0a75 d2bd
00000130: b065 17bc 48c4 9dbc 0ece c9bd 86fc a7bd
00000140: c86e fe3d 0cdb 68bd dab8 c4bd acd2 42bd
00000150: faef f73d c04f 00bb a058 e63b 8c2b 81bd
00000160: fe52 843d a0ab 7cbd 2080 b1bd 3473 07bd
00000170: 5a85 de3d 2c45 39bd 0005 2ebd d2c5 863d
00000180: 909a 73bc 8095 76bb 80eb fabb d00b ffbd
00000190: b0bd fbbc e285 ecbd ac23 c13d 307c f7bc
000001a0: c2a3 8dbd cc66 283d 7801 4cbd 506f 40bd
000001b0: 9419 503d 8a60 e53d 5ce6 7e3d aa74 bb3d
000001c0: b6ae 963d 823f ebbd a2cf a7bd 78a9 a33c
000001d0: 802c c9bb 80c7 08bd e092 02bc 9e64 dfbd
000001e0: 4cf4 563d a644 cabd bc4d d7bd 9665 bfbd
000001f0: 3cc0 a0bd 429b c0bd 64da 9f3d 5421 41bd
00000200: e3c3 f53d 989b 023d a722 1fbd 4df7 7c3d
00000210: 0818 98bd 00e5 a7bb fcc3 3f3e 8cc4 f6bc
00000220: d316 5f3d 4c05 26bd 91df 113e eac6 6abc
00000230: 031a 6dbd 59da 12be 2cc3 05bd 3762 ecbd
00000240: 0a58 eabd 4c1d 943d c23a e6bd 4801 e63c
00000250: 38ac 863c 9cbc d83c a665 26bd 0c85 20bd
00000260: 002b 23bc 600a 003c 6053 6d3c 54e2 81bd
00000270: fa30 bebd cc4f dcbc c457 d43b 16c7 e4bd
00000280: f0ed acbc 3498 123d b34d a43d 04f1 fd3c
00000290: 3d2b 51bd a42a 893c 4f76 293e 0f31 6fbd
000002a0: c7e9 323e 5021 df3d 41fd 89bd 7add d5bd
000002b0: 80f6 c6bc 9ccb a13c 5844 d03d d91b 3cbd
000002c0: d06f b23d 13de 2a3d b3cd a63c f744 f6bc
000002d0: c998 113d 243f fd3d 60cd 9abb 5cab 943d
000002e0: 4400 da3c 0014 1139 0cea 8a3d 71d9 d93d
000002f0: 4a98 f43d c815 fe3c de90 97bd 9801 a93d
00000300: 8044 a23d 5fe1 033e 00e7 6c3d a72d b33d
00000310: d439 c93d 0389 80bd 3bfa 233e 15ac d13d
00000320: c706 ddbd e794 0b3e 5af4 8c3b fcf6 fe3d
00000330: 70ca 693d b068 893c 9db1 41bd 575a 17bd
00000340: bc88 173d b062 c73d efde 03be 782f b73d
00000350: 1a2e f33d 1b84 96bd 3779 f63d bcab fabd
00000360: 2322 8fbc c089 1a3d 99f9 efbc a44b a7bd
00000370: 8a04 e2bd e809 75bb 181e 81bc a1e3 e8bd
00000380: 1901 aa3b 775c ca3d 3535 aa3d 4023 c73c
00000390: 8023 81bb fb33 ce3d 56c9 e73d 549e b3bd
000003a0: 3dd5 123e f21a cbbd 9a52 d3bd 52ac 83bc
000003b0: fa45 a3bd afe7 1a3c 943e 7b3d 836c b73d
000003c0: f577 583d 35c6 1a3e f07f f73d 1fa7 f23d
000003d0: 5aef a1bd 4dd4 b13d 0ca7 12be 8965 06be
000003e0: d522 a23c 7248 b6bd 2a37 9d3d 76aa 20be
000003f0: c009 6c3b fd37 6dbd 9807 adbc 1ab5 3ebd
0.020013178 0.012748124 0.09591545 0.004202885 0.009376233 -0.06131728 0.0029698366 0.009852129
-0.09895536 0.09549242 -0.036820605 0.054784454 -0.14444114 -0.0014962554 0.06589115 0.09142224
-0.05362605 0.004713783 0.06870362 0.10875954 -0.04312399 0.041388698 -0.06668903 -0.12495972
0.015492144 -0.064966105 0.016291302 -0.06841718 0.054966472 0.040677737 -0.13467872 0.027960602
-0.17968981 -0.013199329 0.07504358 -0.07994171 -0.08852254 0.040721938 0.019397639 0.021629382
-0.054734673 -0.041461393 -0.12710421 -0.14183678 0.045691125 0.0067846756 -0.06337887 0.030658692
-0.103983246 0.15079555 0.06285097 0.029306069 -0.021361742 0.02360559 -0.058304798 0.012854444
-0.063010015 -0.14686121 0.039780542 0.12919994 -0.10685739 0.086902715 -0.078947425 -0.113623016
0.0041279197 -0.027151972 -0.07533911 0.06789705 0.04508008 -0.11827254 0.03965369 0.037980333
0.06000054 -0.008488685 0.076835155 -0.1027623 -0.009240553 -0.019258633 -0.09853755 -0.08202462
0.124234736 -0.056849524 -0.0960557 -0.047564194 0.12106319 -0.0019578785 0.007029608 -0.06307134
0.06461142 -0.06168711 -0.08667016 -0.03306885 0.108652785 -0.045231983 -0.042485237 0.065807
-0.014868394 -0.003762573 -0.0076574683 -0.12453425 -0.030730098 -0.115489736 0.09430632 -0.030210584
-0.06916 0.04111366 -0.04980609 -0.046981156 0.050805643 0.11200054 0.062231407 0.09153111
0.07357542 -0.114867225 -0.081939 0.01997827 -0.006139338 -0.033393383 -0.007969588 -0.10907863
0.052479073 -0.09876375 -0.105128735 -0.09345548 -0.07849166 -0.09404613 0.078053266 -0.047150925
0.12000253 0.031886667 -0.038851406 0.061759282 -0.074264586 -0.0051237345 0.18727106 -0.030123018
0.054465126 -0.040532395 0.1424544 -0.014329651 -0.057886135 -0.14341106 -0.032656834 -0.115421705
-0.11442573 0.072321504 -0.11241676 0.028076783 0.016439542 0.026457123 -0.040624283 -0.039189383
-0.0099589825 0.007814974 0.01448521 -0.06341997 -0.09286685 -0.026893519 0.006480189 -0.11170785
-0.021109551 0.035789683 0.080226324 0.030998714 -0.051066626 0.016743965 0.16549037 -0.058396395
0.17471991 0.10895026 -0.067377575 -0.10442634 -0.024287462 0.019750409 0.101692855 -0.045924995
0.08712733 0.041715693 0.020361757 -0.030062182 0.035546098 0.12365559 -0.0047241896 0.07259247
0.026611455 0.00013835728 0.06782922 0.10637177 0.11943109 0.031016245 -0.07400678 0.08252257
0.079232216 0.12878941 0.057837486 0.08748942 0.09825483 -0.06276133 0.16013424 0.102379
-0.10792308 0.1363102 0.00430159 0.12449452 0.057077825 0.016773552 -0.047288526 -0.03695139
0.036995634 0.0973562 -0.12878011 0.08944601 0.118740276 -0.07349416 0.12034839 -0.12239787
-0.017472332 0.037729025 -0.029293822 -0.08168724 -0.11036022 -0.0037389938 -0.01576142 -0.11371542
0.005188119 0.098809175 0.0831093 0.0243088 -0.0039409995 0.10068508 0.11317699 -0.08770433
0.14339156 -0.09917249 -0.103184894 -0.01607338 -0.07972331 0.009454652 0.061338976 0.08956244
0.052848775 0.15114672 0.12084949 0.11848282 -0.07906981 0.08683071 -0.14321536 -0.1312467
0.019792 -0.089005366 0.07676537 -0.15690026 0.0036016554 -0.057914723 -0.021121785 -0.04655943

fc3.weight f4 [3, 64]
00000000: 73b5 c0c0 f0d4 ce40 3d89 dbbc 0bed bcc0
00000010: 84a9 7cbd e049 253d a6ee c340 9d6c c940
00000020: dad4 b23d 442e b540 5d6f c040 3c2d 013d
00000030: 52cb 45be d195 d9c0 ec8e 32bd ed50 df3d
00000040: dfea a8bd fc66 d1c0 6f9d c6bd 663f 70bd
00000050: 1c64 e8bd 9715 d3c0 9d52 d240 1259 e4bd
00000060: 76fe 2cbd f02d 20bd 2418 b9bc 2a98 e33d
00000070: 9462 9d3d ab01 d2c0 386b 0a3e e252 0dbc
00000080: 7846 4c3f a1f7 733c 5cd6 bd40 ce5a 3e3e
00000090: aed3 a1bf 1b34 a540 d8e3 d740 62c4 b33c
000000a0: 35b3 cf40 edf4 98bd 7773 ecbc a510 19bd
000000b0: f938 b0bb f16b c7c0 a81d 903c f685 a53d
000000c0: 12f3 193e 17ac c740 eb87 d840 0046 d1c0
000000d0: 9008 7c3d e682 d5c0 d63f 883d a1a9 fcbc
000000e0: c622 3fbf 54f4 2bbd 5cdc b8bd fb5d 0a3e
000000f0: 7a47 9c3d 85ec 05be a301 323d d8f7 923d
00000100: 9801 eec0 4de5 1041 3d73 4ebe dc18 fdc0
00000110: 2e7d ea3c 51d0 713d 4685 dd40 3d71 0841
00000120: 2be9 81bd 46b4 a140 b27e e740 362a a0be
00000130: c26f 18bf 8fbc 1dc1 75cd 093d d07f 2a3c
00000140: bf34 e6bd 8125 1bc1 d9d6 de3d a614 52bd
00000150: 902c b23d 3f98 14c1 17e2 1541 0169 6a3c
00000160: e4cc f33d 022b 37bd 744b e93c b67e 07be
00000170: f4ae e0bd c960 1bc1 f1de c03d c5a7 823b
00000180: 7b2a 1740 5c9b cbbb ed41 0141 35f2 003f
00000190: 8572 05c0 cd49 1241 1f62 1d41 c787 8c3d
000001a0: 53db 0e41 9ca0 1fbe eee5 97bd 5e04 be3d
000001b0: 8a2a 473c 61de 01c1 f991 003d ff35 493c
000001c0: 536a 1b3f 6531 1641 81c1 1e41 bbe7 18c1
000001d0: ae6d f7bd 25f3 1fc1 9da1 bebd fc42 b9bd
000001e0: b3d3 17c0 aadc e1bb 8517 b33c 8076 783d
000001f0: 0e46 8f3c df07 513d b8dc c03c da06 ae3d
00000200: 100c b5c0 8e0c c340 19a3 3a3d 604e b7c0
00000210: 909d d13c 14e8 903d 9c1c b340 2278 c140
00000220: 1c15 593d 489c a640 d402 b840 55ef 26bd
00000230: fa7b 30be 3ebc cbc0 829c 8ebd 9ba5 423d
00000240: 9bb8 8fbc 6482 cac0 416a 89bd 04c8 a7bd
00000250: 46dc be3d c480 c6c0 b858 c340 9359 0ebd
00000260: 4185 dabc 6d45 93bd bcbb 383d 881c f63c
00000270: 0324 973d 44da d2c0 8597 e03d a987 7bbd
00000280: 5658 573f 7762 7e3d 96d4 bc40 efa3 c23d
00000290: 705b 6bbf 9646 9040 d274 ce40 0bef 2f3d
000002a0: 4e4f c640 41b2 2e3d 1cad 8ebc d155 3cbb
000002b0: 0c26 cb3c 0876 bec0 0ccb b4bd b92a eb3d
000002c0: 5618 6c3c a200 c040 62b2 ce40 5e4c cbc0
000002d0: 2ef3 99bd 5ef5 d1c0 a285 bb3d c06a 71bb
000002e0: 777d 5dbf ef99 f73d 758e 863d fef2 063e
000002f0: 4603 d33d 7eff 393c f8f0 f33c 1a40 ae3b
-6.0221496 6.4634933 -0.026798839 -5.903936 -0.0616851 0.040353656 6.122882 6.2945085
0.087320045 5.6618977 6.013594 0.03153728 -0.19315842 -6.799538 -0.043593332 0.10904107
-0.08247923 -6.5438213 -0.09697997 -0.05865421 -0.11347219 -6.5963855 6.5725846 -0.11149801
-0.04223486 -0.03910631 -0.022594519 0.11113007 0.07684818 -6.5627036 0.13517463 -0.008625718
0.79795027 0.014890582 5.932417 0.18589327 -1.2642725 5.1626105 6.746563 0.021944229
6.490626 -0.07468591 -0.028863652 -0.03736939 -0.0053778854 -6.2319264 0.017592266 0.08082192
0.1503413 6.239757 6.7665915 -6.539795 0.061531603 -6.672229 0.06652801 -0.030842604
-0.74662435 -0.041981056 -0.09026405 0.13512413 0.076308206 -0.13078506 0.043458592 0.07176179
-7.4376945 9.055982 -0.20161147 -7.9092846 0.028624143 0.059036557 6.9225187 8.527646
-0.063433014 5.053256 7.2342157 -0.31282204 -0.5954553 -9.858535 0.033643205 0.010406449
-0.11240529 -9.696656 0.10880823 -0.051289223 0.08699906 -9.287169 9.367698 0.014307261
0.11904314 -0.04471875 0.028478362 -0.1323193 -0.1097087 -9.711129 0.09417523 0.003987285
2.3619678 -0.0062135886 8.078595 0.5036958 -2.0851147 9.143018 9.836455 0.06861835
8.928546 -0.15588611 -0.074169025 0.09278177 0.012156138 -8.116792 0.03138921 0.01228094
0.6070911 9.387059 9.922242 -9.556575 -0.120814666 -9.996861 -0.09308169 -0.090459794
-2.372296 -0.0068927603 0.0218618 0.060659885 0.01748946 0.051032897 0.023542747 0.084974006
-5.6577225 6.0952826 0.0455657 -5.7283173 0.025587827 0.070755154 5.5972424 6.0459146
0.052998647 5.2065773 5.750345 -0.04075559 -0.17234793 -6.366729 -0.06963445 0.047521215
-0.017544081 -6.328417 -0.067097194 -0.08192447 0.093193576 -6.2032185 6.10458 -0.034753393
-0.026674869 -0.07190976 0.045100912 0.030042902 0.073799156 -6.5891438 0.109664 -0.061408672
0.84119165 0.062105622 5.9009504 0.09503924 -0.919364 4.5086164 6.4517603 0.04295258
6.1971807 0.042650465 -0.01741653 -0.0028737674 0.024798416 -5.951908 -0.088277906 0.11482758
0.014410099 6.0000772 6.4592752 -6.353072 -0.07517086 -6.561202 0.09156348 -0.003683731
-0.8651957 0.120899074 0.0657014 0.13178632 0.10303359 0.011352418 0.029777989 0.0053177

fc3.bias f4 [3]
00000000: 6bcd d640 9451 2141 eabe cc40
6.7125754 10.082417 6.398305
