Models/LSTM/agentDQN-LSTM_2012-2014_lstm_v2_300_EPS_6.pth (torch, 256291 bytes, 8 tensors)

fc1.weight f4 [128, 104]
00000000: fa93 3abd 70c4 1e3c 017a 92bd c30e 96bd
00000010: 97e1 58bd 137c f9bd 69a2 b6bd 93a4 abbb
00000020: 4e49 66bd f00c bbbd 4ddf e6b9 7e45 4ebd
00000030: 4c3b 7ebd b402 063b 1bd6 f6bd 9cd4 a53c
00000040: cdef e6bc af91 aebd 2ffb c7bc e0e6 eebd
00000050: 4196 25bd dd26 18bd 4cac eabc 40a3 d6bc
00000060: 44b6 c9bc 1532 be3c 6106 0e3c 222c 16bd
00000070: 3636 e43d 15a0 7e3c 5809 0bbe 395e 013e
00000080: 93a9 973d a269 b53c 2ff1 cb3c 5378 00bd
00000090: 4fe6 06bd 1d01 9fbc f17f 8bbd 34d2 c3bc
000000a0: f0f1 18be 47d3 afbc acab 8e3a d93d 99bd
000000b0: 4ecb b83c 3a58 e0bd b649 aebd 81f5 21be
000000c0: 5d9c 103e 12dc c9bc ebac 863d 8247 073d
000000d0: 385e 08be df9e 1cbd 3860 cdbd 66d4 db3c
000000e0: 49d6 04be 2535 cf3c e9eb b6bd 6db0 fbbb
000000f0: 8620 db3c 21d4 86bd 90f0 d13d 3c8c c1bd
00000100: cc22 813a a681 54bc cb8a 363c 828a a5bd
00000110: 81e0 963b 1216 3b3c f013 79bd af09 66bd
00000120: d042 10bd 1d1b 1fbe 1c11 aabc f714 a5bc
00000130: 46c9 8abd 2e60 73bd 1a0b 50bd d373 acbb
00000140: 1e81 13be 30ef cbbd a9fa b4bd 95b0 b1bd
00000150: bcde db3c daf6 66bd 58ea 11be 0d66 27be
00000160: d7ce 9d3c bbcf b2bd b013 00bc 0a6e 943b
00000170: 0ec3 0ebe 15d5 e9bc 8fc0 d7bd 1b6f a5bd
00000180: d33e 7d3d 0cee c9bd 2e44 f93b 615b fbbc
00000190: 3374 9e3d aeed 00bd 1ac1 64bc 9638 333c
000001a0: dae1 123c 8047 a9bc cc09 1ebe 77d6 b7bc
000001b0: 4415 0bbd 41e7 6abd 724c 1dbe d0bb bcbd
000001c0: 8e10 a53c 4860 a4bd f89f 2d3d 1264 1abe
000001d0: 52a9 d8bd 591c 15be 2034 b13b f762 573c
000001e0: 5226 0a3d c973 a6bd ac8c debd fccc 12be
000001f0: b81e 0b3c a73a cbbd 5216 66bd 13f2 cabc
00000200: 7ee7 1a3c 2e5e eebb fef4 74bd f245 05be
00000210: 38a2 073c 19d6 8abd d3be b239 e626 9f3d
00000220: 6c76 92bc 85c5 00be 7e24 8ebd b0ea 0a3d
00000230: 4e5d a7bd c045 d1bd 0e5c 09be 7393 0dbd
00000240: 6626 f8bd 1130 9cbd 5ffe 13be e669 0dbd
00000250: eb85 d13b e073 16be 2bf5 73bd fe10 05be
00000260: e61e c43b 7d52 ab3d ba45 bcbc e201 97bd
00000270: 0042 9fba 6757 32bd 1437 c6bd cb8c bcbb
00000280: 8785 20be c367 b2bd 8aec 7abd dea2 f0bb
00000290: d993 e6bc dcf9 f1bd 7cba e7bd 25fb 1bbd
000002a0: ccc1 273d dc9a 253e 6c83 23be 92b0 efbd
000002b0: 2563 03be 0abf b03c 9dc2 ddbd ef8e a9bb
000002c0: 3a45 cb3b 9c2c 1fbe d33b 40bb 8970 0ebe
000002d0: a9be 0cbe 74bc aebd dcc5 8bbc 0651 46bd
000002e0: 5a1d 393c f8f4 25bd eac1 13be 13fc 1bbe
000002f0: 1f6d 033b a7ba a0bc 0785 1dbe 3c1d d5bd
00000300: 053c 84ba f2e7 0dbe 076a 2abe b0ec daba
00000310: 3276 a9bd 560e a4bd 1bf5 a83c 86fa e0bd
00000320: 65d0 c6bd 80ed 0bbe 55fa 0cbe efb1 7f3d
00000330: a94d 953c ef08 4f3d 9e95 d0bd ec79 ea3c
00000340: de66 f53b 57f4 f03b 7684 d53c 7a6f e73d
00000350: 7358 5c3d affe be3d b868 06bd 9718 4d3c
00000360: 8be7 d43d 9351 9ebb 4e31 633e 4073 0b3d
00000370: 1bad 21bd 3456 b33c 455c a83d 0b8c 983d
00000380: d64b a73d 091a e63d 952b f33c 2b65 363d
00000390: fa8c 023e 6eec d73c bdfe 42bc 26c3 c4bb
000003a0: 3540 ef3d de7e 493b 6f76 313e d4cd b9bd
000003b0: 4b93 a3bd 151b d0bd d731 dabd cd0c 833e
000003c0: 10e8 db3d 3e3d 9fbd f5d7 9cbc ad9b afb9
000003d0: 104d e03c 17f5 08be 03d0 443c 9079 f33d
000003e0: f5d1 973c 0c7c ba3c 3113 ff3d 42ce 71be
000003f0: 338c 99bc 0e5a 6b3d 684a 00bd b633 a73c
-0.045551278 0.009690389 -0.07152177 -0.07327034 -0.052949514 -0.121818684 -0.08917696 -0.0052381246
-0.056222253 -0.09133327 -0.0004403539 -0.05035924 -0.06206827 0.0020448389 -0.12052556 0.020242982
-0.028190518 -0.08523881 -0.024411766 -0.1166513 -0.040426496 -0.037146438 -0.02864661 -0.02620089
-0.024623044 0.02321724 0.008668513 -0.036663182 0.111431524 0.015541096 -0.13577783 0.126336
0.074053906 0.022145096 0.024895279 -0.03136475 -0.032934483 -0.01940971 -0.06811512 -0.023903944
-0.14936042 -0.02146305 0.0010884902 -0.074825 0.02255788 -0.10954328 -0.08510153 -0.15816309
0.14122148 -0.02464107 0.0657595 0.03302718 -0.13317192 -0.03823745 -0.10028118 0.026834678
-0.12972368 0.025293896 -0.08931715 -0.0076809437 0.026748907 -0.06583429 0.10250962 -0.09450576
0.0009852289 -0.012970364 0.011141489 -0.08083059 0.0046043997 0.011418836 -0.06081003 -0.05616158
-0.035219967 -0.15537687 -0.020760112 -0.020151598 -0.06776671 -0.059417896 -0.050791837 -0.0052628308
-0.14404723 -0.09957731 -0.08836872 -0.086762585 0.026839606 -0.05638776 -0.14249551 -0.16347523
0.019263668 -0.08731028 -0.007817194 0.0045297192 -0.13941595 -0.028543988 -0.105347745 -0.08077832
0.061827492 -0.09859857 0.0076070046 -0.030683221 0.07737007 -0.03147667 -0.013962055 0.010938784
0.00896498 -0.020663977 -0.15433425 -0.022441132 -0.033955827 -0.057349447 -0.15361193 -0.0921551
0.020149495 -0.08026177 0.042388886 -0.15077236 -0.1057917 -0.14561595 0.005407825 0.013146154
0.03372795 -0.08127553 -0.10866675 -0.14336008 0.008491211 -0.099232964 -0.05617363 -0.024773633
0.009454606 -0.0072744107 -0.059803955 -0.13014963 0.008278422 -0.06779117 0.0003409298 0.07771091
-0.017878734 -0.12575348 -0.06940554 0.03391522 -0.08172093 -0.10218382 -0.13414022 -0.034564447
-0.12116699 -0.076263554 -0.14452504 -0.03452482 0.006394138 -0.1469264 -0.059559982 -0.12994763
0.0059851287 0.08365343 -0.022982467 -0.07373406 -0.0012150407 -0.043540385 -0.09678474 -0.0057540885
-0.15675937 -0.08711197 -0.061260737 -0.007343634 -0.028146671 -0.11815235 -0.11314866 -0.038081307
0.040956303 0.16172355 -0.15968102 -0.117036 -0.1283079 0.02157547 -0.10828135 -0.0051745097
0.006203321 -0.15544361 -0.0029332533 -0.13910116 -0.13744606 -0.08532038 -0.01706212 -0.048417114
0.011298502 -0.040516824 -0.14429441 -0.15232877 0.0020054055 -0.019620253 -0.15382777 -0.10405967
-0.0010088688 -0.13858011 -0.16642009 -0.0016702618 -0.08274497 -0.08010547 0.020624688 -0.109852836
-0.09707717 -0.13664818 -0.13767369 0.06242555 0.018225508 0.05054563 -0.10184787 0.02862259
0.0074890694 0.0073533463 0.026064139 0.11300559 0.05379529 0.09325921 -0.03281471 0.01251807
0.10395726 -0.0048315017 0.22186777 0.034045458 -0.039471727 0.02189169 0.08220724 0.07448586
0.081687614 0.112354346 0.029683867 0.044530075 0.12749091 0.026357856 -0.011901555 -0.006004709
0.116821684 0.0030745785 0.17330335 -0.09072462 -0.07987078 -0.101614155 -0.106540374 0.25595704
0.10737622 -0.07775353 -0.019145945 -0.0003349459 0.027380496 -0.13374744 0.0120124845 0.118884206
0.018532733 0.022764228 0.12454832 -0.23613837 -0.01874361 0.05745893 -0.03132096 0.0204104

fc1.bias f4 [128]
00000000: 25af 85bd a5f0 9fbc a59d 4d3c 55b6 0bbc
00000010: 2123 c4bb 6ff2 163d 486d e63d 2cf0 27be
00000020: 01a0 ffbc 67b8 0ebd 934e d9bd d701 01be
00000030: bc6a 0abd 9580 25bd fb10 88bd 228c 7abc
00000040: f122 00be 9968 57be 201b c43b 73a3 0f3e
00000050: 0ef9 debc 8f6e acbc af70 53bd be6c 543e
00000060: 2e0f 063d 6e2d 27be 73e9 7f3e f552 07bd
00000070: 54a4 28be a6b0 bebd 3a88 a3bd 2711 10bd
00000080: f74e 15be c6e1 6f3e eb98 ecbc 588a 81bd
00000090: a1cc a23e 084d 543d caeb 9bbd 9ead 273e
000000a0: 3cd2 1d3e b780 453d 8705 6e3b a18f 3cbe
000000b0: c964 073e 0c13 553d adc7 4c3e 90bb 97bd
000000c0: b768 303d 2f2b 973d 9d59 5bbd e69e 5f3d
000000d0: 60d3 97bd b72a 1abe 6a06 32bd ba36 06be
000000e0: a43a 983e 4524 f5bd 9447 16be 9e69 6fbd
000000f0: 72b2 aa3d 8e4c 92bd 82b6 ccbd c522 20bc
00000100: 2f2b f93d 4214 34bd f0dd fcbc 395a a33e
00000110: 9f20 20bd 5815 9b3d 6b10 6a3d 4371 0e3c
00000120: 1e0a e6bd 0f7f d53d f299 a4bd 8697 43bd
00000130: 4b25 c33d 56b6 f7bd d4ac 3d3d c6d3 5ebd
00000140: 119e d0ba 33af acbd e917 05bd 39dd 80bd
00000150: 7ad0 343e 23ea 9bbd 6767 48be 42aa 493e
00000160: dd63 94bc 9e4f 27be 84b1 373d d855 493e
00000170: 84a4 273e 068e 91bd 3509 85bd 83a5 0abd
00000180: d522 023d dbbf 273c 5795 85bc a388 683e
00000190: 811e dbbd 67ea 78bd 4762 20bd 0119 b03c
000001a0: 5c4b 04bd 0440 1abe 7d3c 12be 18cd b83c
000001b0: 987e e5bd 20b0 d8bd e78a f3bd be5f f33d
000001c0: 70e4 203d 8640 fb3d 8813 5c3e a4d7 9abd
000001d0: 91a0 07bd f877 00be 66d4 bfbc e746 313e
000001e0: 6d92 9fbd 6eeb 243e 8f71 eebd 98f6 1a3d
000001f0: 98e5 95bd e87d 1fbe 0178 5bbd 81a4 bc3c
-0.06527547 -0.019523928 0.012549792 -0.008527358 -0.005985633 0.036852296 0.112513125 -0.16400212
-0.031204225 -0.03484383 -0.1061069 -0.12598358 -0.033793196 -0.04040583 -0.06643864 -0.015292199
-0.12513329 -0.21035995 0.005984679 0.14027195 -0.027218368 -0.021048812 -0.051621135 0.20744607
0.03272932 -0.16325924 0.24991398 -0.0330381 -0.16468936 -0.09311037 -0.079849675 -0.035172608
-0.14580904 0.2342597 -0.02888151 -0.06325215 0.31796744 0.051831275 -0.076133326 0.16374823
0.1541223 0.048218455 0.0036319213 -0.18414165 0.1322204 0.052020118 0.19998045 -0.074088216
0.043068614 0.073812835 -0.05355226 0.054594897 -0.074133635 -0.15055357 -0.04346315 -0.13106814
0.2973224 -0.119698085 -0.14675742 -0.058450334 0.08334817 -0.07143508 -0.09995748 -0.009773915
0.1216644 -0.04396463 -0.030867547 0.31904772 -0.03909361 0.0757243 0.057144564 0.008693996
-0.112323985 0.10424625 -0.08037175 -0.047751926 0.095285974 -0.12095325 0.0463074 -0.05440118
-0.0015916248 -0.08431854 -0.032493506 -0.06292195 0.17657652 -0.076130174 -0.19570695 0.19693854
-0.018114025 -0.16338965 0.044847026 0.19661653 0.16371351 -0.07107167 -0.06495897 -0.03384925
0.0317715 0.010238613 -0.016306562 0.22708373 -0.106991775 -0.06077042 -0.039156225 0.021496298
-0.03229843 -0.15063483 -0.14280887 0.022558734 -0.112057865 -0.10580468 -0.11891728 0.11883496
0.039280355 0.12268166 0.21491826 -0.075606614 -0.033112112 -0.12545764 -0.02341671 0.17312203
-0.077916004 0.16105434 -0.11642753 0.037832826 -0.07319182 -0.15575373 -0.05358124 0.02302766

fc2.weight_ih_l0 f4 [256, 128]
00000000: e082 38bc 00bf 653d 245f 6fbd 3423 acbd
00000010: 2ea3 923d 96a5 d93d 4471 50bd 7a36 dfbd
00000020: 1ce3 6bbd c0d3 45bc 9490 f03d f4c7 cdbd
00000030: a012 c43b 40b2 73bb e036 c13b c8bc e5bd
00000040: 0097 82bc 4857 c03c e034 043c a098 fcbc
00000050: 9068 863c 9867 ef3d 808f 9abc 826e fc3d
00000060: 8e54 c8bd 1c59 4a3d 92d7 f63d c0af 88bd
00000070: 4cc2 cfbd b0e2 72bd d4e5 683d 06ab c4bd
00000080: 582a c5bc 4c49 f5bd 80ae 2bbb 5237 e63d
00000090: bc27 d2bd 6878 80bd 303f f5bd 7847 a23c
000000a0: bae0 9dbd 7c50 b13d e614 973d 8429 4a3d
000000b0: a836 90bd a017 abbd e0b5 0d3c 3e11 fb3d
000000c0: 24bd bebd 485e e33d d6b7 ba3d fc82 64bd
000000d0: 4ac4 96bd 181e a4bd aa74 fb3d 946e 513d
000000e0: e87a 93bc 7098 bebd 6604 b53d 2c74 f4bd
000000f0: dc67 efbd 0464 adbd a092 f4bb a08d 4bbc
00000100: ec13 0a3d 54ef d13d 707d efbc 4841 bc3c
00000110: c674 aa3d 48b0 b33d 605a 65bc c8c3 9fbc
00000120: 309e bebc 6c62 83bd 0c58 263d f03b e63d
00000130: 80ed 043b f067 8b3d 2af9 aa3d 8016 7ebc
00000140: 7c23 aa3d 08b4 b8bd 6ea7 b4bd 6879 9abd
00000150: b411 6cbd f89d bc3d 609a b83c 647d c43d
00000160: 1041 a73d 48c5 cdbc f2e5 fcbd e0b3 fc3d
00000170: acd0 983d 6035 60bc 2cd2 94bd b837 f93c
00000180: c051 29bd bcbb b63d 5c5a 0fbd e027 9ebd
00000190: 24a2 803d e00a 1dbc a89e 24bd f4a6 3f3d
000001a0: e8b9 b63d c629 91bd 2c7b 1bbd a016 45bc
000001b0: 686a 83bd 081b f0bd ac5d 8b3d f276 ca3d
000001c0: c064 363b 1878 b63d 9042 653d daa9 993d
000001d0: 54ac 4cbd c8cc 96bc d4d8 bbbd d8d0 7a3d
000001e0: 80fb ef3c 6807 f3bc 6497 cc3d 2801 5bbd
000001f0: 50a8 a13d f097 1ebd 6eb0 e33d ccad 8cbd
00000200: c8ea 823c 8808 423d f86f c13c d0ce 1a3c
00000210: 04b4 c5bd 10ad 543d 4c0f 63bd ba39 9c3d
00000220: 180b db3c c85c 343d 10f2 4b3d dad2 b23d
00000230: 3a73 933d 04d2 0cbd 00bd a3ba 3c47 793d
00000240: 2e3b f9bd 1682 96bd 00fd 8aba 5ab1 ed3d
00000250: 4800 fdbd 8e87 d3bd 5c89 273d 4681 f0bd
00000260: 6059 2cbc 9c2a a43d 7abb edbd c06d 853c
00000270: 98ce ab3d 30bb 2e3c 56b2 c3bd 7447 f4bd
00000280: f066 9b3c 1009 a13d 50e8 dfbd 8886 913c
00000290: 406a c83c d858 85bc 0013 343a 8a83 95bd
000002a0: 684d be3c aa78 e5bd 6816 acbd 3cec 8a3d
000002b0: 3617 adbd b8a0 ffbd b04a 413c c0d0 ec3c
000002c0: 0c43 c23d 803b f9bc e0bc ffbc e4c0 62bd
000002d0: 401c 553b f64e c2bd 64b3 7d3d e893 c9bc
000002e0: 0446 a03d 4857 0d3d fcc0 1cbd c0e0 7a3d
000002f0: 2252 dcbd bc76 1abd 4893 c5bc 2809 11bd
00000300: c06a 07bc 8ccf 2dbd 10e0 6cbc 563c 8fbd
00000310: dce4 cdbd 2cee be3d 7404 423d 005c 333d
00000320: fe62 a8bd ece3 1d3d 3a7c f63d 5eea 86bd
00000330: 92c7 82bd e0f6 1abd b0db e1bd 6802 463d
00000340: 7ef1 e23d da20 9dbd 7c15 373d b880 b13d
00000350: 5caa 04bd 528a 87bd 40fa 4bbc 08fc 213d
00000360: deda f3bd c84b c63d 52cb c6bd 54a9 30bd
00000370: c0da 313c 4843 e73c 3020 2b3d 2807 7cbd
00000380: a458 51bd 9800 813c e078 a63d 7823 41bd
00000390: 68af eebd e008 c5bd 903d 52bd 8887 a2bd
000003a0: d0ed c33c 8488 4f3d b891 9a3d 58bc 393d
000003b0: 5e7f b0bd 506f e13d 0639 c93d 2c7a 4c3d
000003c0: 42c9 c0bd aaa9 c2bd f004 acbd 800e 9fbd
000003d0: 68a2 eabd a02d 99bb 86bd 95bd 7ebe ccbd
000003e0: c2a0 dbbd f4ca 13bd 6caa 513d 04c7 30bd
000003f0: f00d 14bc 5402 27bd acb6 bc3d 6c10 d0bd
-0.011261672 0.056090355 -0.058440343 -0.08405152 0.0716003 0.10627286 -0.05088927 -0.108990625
-0.057589635 -0.012074411 0.11746326 -0.10047904 0.0059836656 -0.0037185103 0.005896434 -0.11217648
-0.015941143 0.023479119 0.008069247 -0.030834496 0.016407281 0.11689681 -0.018867254 0.12325765
-0.097817525 0.049401388 0.120528355 -0.06674147 -0.10144481 -0.059298217 0.056859806 -0.09602933
-0.024068043 -0.11976871 -0.002619654 0.1124102 -0.10261485 -0.06272966 -0.11974943 0.01980947
-0.07708879 0.08657929 0.07377033 0.049356 -0.07041675 -0.083541155 0.008649319 0.12259148
-0.093134195 0.11101967 0.09117095 -0.05578898 -0.07361658 -0.080135524 0.12278111 0.051130846
-0.018002942 -0.09306419 0.088387296 -0.119362205 -0.116897315 -0.08466342 -0.007463768 -0.012423903
0.033710405 0.10250726 -0.029234618 0.022980347 0.08323054 0.08773857 -0.013998598 -0.019502535
-0.023268789 -0.06415257 0.04061131 0.11241901 0.0020283163 0.06806934 0.083483055 -0.015508294
0.08307549 -0.09018713 -0.08820997 -0.07542688 -0.05763407 0.09209818 0.02253455 0.09594229
0.081667066 -0.025118485 -0.12348546 0.12338996 0.07461676 -0.013684601 -0.072666496 0.030422077
-0.04133773 0.08922526 -0.034998283 -0.07722449 0.06280926 -0.009585112 -0.04019037 0.04679008
0.089221776 -0.07088046 -0.037959263 -0.01202932 -0.0641678 -0.11723906 0.06804976 0.09885968
0.0027831048 0.08909625 0.055971682 0.075031 -0.049969032 -0.018408194 -0.09172216 0.061234325
0.02929473 -0.029666618 0.09989813 -0.0534679 0.07893431 -0.038719118 0.11117636 -0.068690866
0.015981093 0.047371417 0.023612961 0.009448722 -0.09653476 0.051922858 -0.05543451 0.07628198
0.026738688 0.044033796 0.049791396 0.08731623 0.07199712 -0.034379974 -0.001249224 0.06085895
-0.12169491 -0.07349031 -0.0010603964 0.11606093 -0.12353569 -0.103285894 0.04090248 -0.11743407
-0.010519356 0.080159396 -0.11608024 0.016287684 0.08389014 0.010664746 -0.09555499 -0.11927691
0.018969983 0.07863057 -0.10932982 0.017764345 0.024464726 -0.016277716 0.00068692863 -0.0730048
0.02323027 -0.112046555 -0.08402711 0.067833394 -0.08451693 -0.124818265 0.011797592 0.028908134
0.094854444 -0.03042388 -0.031217992 -0.055359736 0.003251806 -0.09487717 0.06193866 -0.02460666
0.078258544 0.034507066 -0.03826998 0.061249495 -0.10757853 -0.03771089 -0.02411808 -0.035409123
-0.008265197 -0.04243426 -0.014457718 -0.0699393 -0.10053417 0.093227714 0.047367528 0.04378891
-0.08222006 0.03854744 0.12035413 -0.06587671 -0.06385721 -0.037833095 -0.1102823 0.04834214
0.11081217 -0.076722816 0.044698223 0.08667129 -0.03238903 -0.066181794 -0.012449801 0.039546996
-0.1190698 0.09682423 -0.09706749 -0.043130234 0.010855377 0.028230324 0.041778743 -0.061530262
-0.051109925 0.015747353 0.08128524 -0.047152966 -0.1165455 -0.096208334 -0.05132824 -0.07936007
0.023917109 0.0506673 0.07547325 0.045345634 -0.08618043 0.11007559 0.098253295 0.0499212
-0.09413387 -0.09505017 -0.08399379 -0.077664375 -0.11456758 -0.0046746284 -0.07311539 -0.09997271
-0.107240215 -0.036082223 0.051187918 -0.043158546 -0.009036526 -0.040773705 0.092145294 -0.10159382

fc2.weight_hh_l0 f4 [256, 64]
00000000: 96f2 aa3d c60c 8ebd 08c9 e93d 587d f33d
00000010: f0ee 9a3d 08ae d6bc 9cde d6bd 9488 523d
00000020: d058 1a3c b4b2 05bd 2ea1 e33d 2485 f8bd
00000030: 2010 aebd 6a1e dabd 92ce cabd 443c d4bd
00000040: 84ab 0bbd 2896 c4bc 5aef c6bd bc25 f3bd
00000050: 7af2 9d3d 8435 11bd a077 6c3c 5009 853c
00000060: 2cfd 96bd 6873 b9bd 8ecd dfbd a8a5 fbbd
00000070: 20e6 213d 8469 a53d 40fd e1bb e8bf fe3d
00000080: 64e8 c33d 18f6 3b3d ca5e 823d 00dd 1ebd
00000090: 3e11 ac3d 00b4 243a d692 b63d c8d1 d3bd
000000a0: ea7a f63d f86a 383d d050 13bc b4ec 77bd
000000b0: b4c1 3fbd f244 b3bd 4a4a d2bd 14cf 3b3d
000000c0: 96e0 f3bd 40f6 ad3b 50ce b7bc 4830 e1bc
000000d0: a05d e0bd ccd5 2fbd 0028 4cba 685c aa3c
000000e0: 1001 c63d 202c 2fbd 00a8 7db9 38c6 f7bc
000000f0: b498 fbbd 7092 46bc 40ea 11bd 00de 193d
00000100: 22a7 a03d ea71 e13d 8685 fb3d 4092 e0bc
00000110: 7659 9c3d 4ec7 e33d 9ee8 b13d 30d0 093c
00000120: a800 29bd a055 443d 4c35 f7bd 2298 aebd
00000130: d0c5 d8bd 30d7 94bd 0484 c63d c4fe f43d
00000140: 2eb6 ea3d d48d 26bd 00f6 be3d c48a 553d
00000150: 4ce2 45bd a4ed ee3d d00f 44bc 1008 e63c
00000160: 066f dc3d c421 f0bd 64a1 453d 90db 633d
00000170: 1c9e 87bd 7eac e93d 3838 cdbc c890 49bd
00000180: 2831 11bd ec9d 1a3d bce5 4bbd 8685 8b3d
00000190: d804 7ebd f0ed b73c 4000 e7bd aaf7 d9bd
000001a0: 0c43 b0bd 18dd f9bd bc70 7e3d 0208 803d
000001b0: 0062 9539 a6e3 b53d 005e 2ebc 5c17 23bd
000001c0: 1889 86bc a6c5 fa3d f039 71bd e095 eabd
000001d0: c0af 09bd 301a f3bc 644b 0a3d b471 c5bd
000001e0: 5052 47bd 909a 903d 4852 d03c 6c4f e33d
000001f0: 5e38 f5bd 4870 fd3c c002 90bb 50de 4b3c
00000200: 24f6 c53d 5027 6abc 08b3 dd3c 761d a33d
00000210: e04d ffbd c8dc f53d 6881 b23d ee01 d43d
00000220: 78f5 0cbd 387c d0bc 6835 f53c d855 ce3d
00000230: 50dc 67bd 4001 d4bb 409a cabc 1623 e13d
00000240: e8b0 ce3c 10dd 4a3d d6dd f4bd 8a28 e93d
00000250: 5e5e e6bd 0081 943d c086 ff3c 389d 2ebd
00000260: 0058 e83d f0b2 6b3c 68ec 1a3d 4ab2 863d
00000270: 14e7 3b3d 7046 0ebc 4046 58bd 8065 2c3c
00000280: 90c5 4c3c 565a bc3d 7853 a1bc c0fa afbc
00000290: b832 b5bc 30fa 9e3d d4a4 913d 78d7 e13d
000002a0: a874 e43d 44c6 563d e442 77bd 9a24 87bd
000002b0: b4ac 3b3d 4064 d2bc 9862 073d 688f b2bc
000002c0: 58d7 e5bc 5a73 983d 20b0 7cbd 1cb6 fa3d
000002d0: 40b7 273d 3c9d c7bd 18e8 7b3d 08cf d73d
000002e0: f8a5 d1bc dca0 58bd 587b fe3c 0a6a f6bd
000002f0: 40cb 86bb 20f1 cbbb 34e5 153d b223 8abd
00000300: 68bd 3bbd 5c8d 8c3d 90ac 08bc 8437 603d
00000310: 8897 c6bc fcd4 a5bd 90dc c6bc 5ccd 8ebd
00000320: 74d8 433d d01b c03c 2646 ba3d e09d 6ebc
00000330: 2cdf dbbd 34b2 863d deb6 ba3d 7a2e 97bd
00000340: 40a5 eebd f83d f1bd 505d fcbd 146b 083d
00000350: 1878 30bd d24b 853d a883 4cbd d8fa 19bd
00000360: 1021 0f3d e267 a5bd c078 27bd 4c08 72bd
00000370: b877 a7bc 888b e5bd 3e4a d8bd 66ec e3bd
00000380: 80ea edba e02e ea3b 801a 733c 9835 86bc
00000390: dcbb d33d 2800 573d 988b e73d 9c94 3bbd
000003a0: 48d2 3c3d 987c 88bd 2073 97bd 4c26 ffbd
000003b0: 0885 0ebd de68 c2bd 50ce 583c 6c33 9cbd
000003c0: a860 e93c 2850 dc3d 3056 23bc 8880 943c
000003d0: 185e d13c d255 fcbd 00ea 71ba 005f 863a
000003e0: 205b 973d 8e0d fc3d 00a6 9639 740d 7e3d
000003f0: 5c1e 51bd b0df c3bc b029 39bd 5013 cd3c
0.08347051 -0.0693603 0.11415297 0.11889142 0.07565105 -0.026206031 -0.10491678 0.051399782
0.009420589 -0.032641128 0.11114727 -0.121347696 -0.08499169 -0.10650332 -0.099026814 -0.10363057
-0.034099117 -0.023997381 -0.097136214 -0.11872432 0.07712264 -0.035451427 0.014432818 0.016239792
-0.073725075 -0.09055215 -0.10927878 -0.12287456 0.039526105 0.08076766 -0.006896645 0.12438947
0.09565809 0.04588899 0.06365736 -0.03878498 0.08401726 0.00062829256 0.089147255 -0.10342747
0.12035163 0.04502389 -0.008991435 -0.060528472 -0.04681559 -0.08753385 -0.10268076 0.045851782
-0.11908071 0.0053088963 -0.022437245 -0.027488843 -0.109553576 -0.042928502 -0.0007787943 0.020796016
0.096681714 -0.04276669 -0.00024190545 -0.030245885 -0.12284985 -0.012119874 -0.03562379 0.03756523
0.07844378 0.110080555 0.12281327 -0.027413487 0.07634251 0.11121999 0.08686946 0.008411452
-0.04126039 0.04793322 -0.120707124 -0.08525111 -0.10584605 -0.07267606 0.09693149 0.11962655
0.11460529 -0.0406626 0.093242645 0.05213429 -0.048311517 0.1166642 -0.011966661 0.028080016
0.107633635 -0.1172519 0.048249617 0.055629313 -0.06621954 0.114098534 -0.025051221 -0.04921034
-0.03544727 0.037748262 -0.04977964 0.06812577 -0.062016338 0.022452325 -0.112793446 -0.10642941
-0.08606538 -0.122003734 0.06211923 0.06251527 0.0002849251 0.08881311 -0.0106425285 -0.0398172
-0.016422793 0.1224473 -0.058893144 -0.11454368 -0.033614874 -0.029675573 0.033763304 -0.09640828
-0.048662484 0.070607305 0.02542986 0.11099133 -0.11973642 0.030937329 -0.004394859 0.01244314
0.09666088 -0.014291599 0.027062908 0.079646036 -0.12466025 0.12005001 0.087160885 0.103519306
-0.034413785 -0.025449857 0.029932693 0.10074967 -0.05660659 -0.0064698756 -0.024731755 0.1099302
0.02523084 0.049527228 -0.11956374 0.11384685 -0.11248468 0.07251167 0.031192183 -0.042630404
0.1134491 0.014385924 0.03782311 0.06576975 0.04587467 -0.008683786 -0.05280137 0.010522246
0.012498274 0.09196918 -0.019693121 -0.021481872 -0.022118911 0.07762563 0.071115166 0.110274255
0.11155063 0.052435175 -0.060366526 -0.06598778 0.045819 -0.025682569 0.03305301 -0.021796897
-0.028056785 0.074438766 -0.061691403 0.12241766 0.040946245 -0.09746787 0.06150064 0.10537535
-0.025591835 -0.052887782 0.031064674 -0.12031944 -0.0041135848 -0.0062238127 0.03659554 -0.067450896
-0.04583493 0.068629 -0.008341923 0.054740444 -0.024242178 -0.08097264 -0.024275094 -0.06972763
0.047813848 0.023450762 0.09095411 -0.0145640075 -0.10735926 0.06576958 0.091169104 -0.073819116
-0.11652613 -0.11779398 -0.123224854 0.033305243 -0.04308328 0.06508602 -0.049930245 -0.03759274
0.03494364 -0.08076455 -0.04088664 -0.059089944 -0.020442829 -0.11208254 -0.105610356 -0.11129074
-0.0018151551 0.007146701 0.014837861 -0.016382977 0.10338566 0.052490383 0.11305922 -0.04579602
0.046098977 -0.06664389 -0.07395005 -0.124584764 -0.034794837 -0.09492658 0.0132327825 -0.076269954
0.028488472 0.10757476 -0.009969279 0.018127695 0.025557563 -0.123210564 -0.0009228289 0.0010251701
0.073904276 0.12307273 0.0002873391 0.06202455 -0.051054344 -0.023910373 -0.045205772 0.025033623

fc2.bias_ih_l0 f4 [256]
00000000: 22e4 dbbd 9853 cabd a81c 543d 984c c33c
00000010: 39ab de3c 1ff1 81bd 053c 223d 009b 443d
00000020: a0a7 ef3d e95b 2d3d 2a03 24bc 5fbc 073e
00000030: 785c e8bd e853 9ebd 3e0b 52bc 5606 e1bc
00000040: daef 93bc 85a2 24bd 9fbd db3d 1606 463d
00000050: b556 8db9 2333 df3c 4099 f9bd f5dd 6fbd
00000060: 2035 8bbc fd59 5abd 8ec5 bcbd 64e1 b23d
00000070: 2f27 e6bd bbc3 87bd 4004 33bb 36d3 ef3d
00000080: a42b a23d 4a89 8ebd fba9 553d 5de2 eb3d
00000090: cd3a b4bd e249 173d 8f46 d4bc 1b8a 953d
000000a0: c5f8 043d 0156 c13d 8b0d 653d 6a9e b9bd
000000b0: 7dfe d73d ce29 e2bd 5c8d 83bd 3948 9e3d
000000c0: dcc2 fd3d 870f 07bd 13c5 b5bd 36da 8abd
000000d0: 8730 e53d 57e3 a83d 561a d13d 4209 a6bd
000000e0: d0d1 f6bd 70f6 8d3d 5e21 bdbc cbb1 99bc
000000f0: 6b18 ea3d 58bd 843c 4044 073b ea69 8a3b
00000100: 2801 30bd 8074 a3bb fa14 a2bd 7896 a23c
00000110: eced 153d 1c4b 793d c063 5cbd 1a17 b83d
00000120: c61f 8abd b000 a4bd e02e ee3c 9217 ba3d
00000130: 787c b3bd c096 c73d 88c2 02bd 6810 2d3d
00000140: da80 8f3d 0440 e7bd 7a7f 8e3d 8c54 fd3d
00000150: 4060 f13c c0e1 d6bc dca4 cc3d 18e8 b63d
00000160: 8c6d 31bd cc64 ef3d a4bb 133d 8612 fc3d
00000170: 28dd 633d 44e1 5f3d 6e43 8bbd 2c67 9ebd
00000180: d2df c43d 3295 dfbd e023 74bc 0abf c53d
00000190: 8cd3 083d 78ac b13c d04e b93c c086 13bd
000001a0: be7c f63d 406c 8b3b dc06 30bd 50a4 6dbc
000001b0: 2859 ec3c 048a 84bd 8412 233d 001e cabc
000001c0: 2ae2 df3d b889 acbc 887c 2d3d a0ec 63bc
000001d0: d8a4 b4bd ca7f 81bd 40ea 093d 2013 36bd
000001e0: e0f4 ce3b 42fa 84bd 80d4 3fbb 801a d0bd
000001f0: 5c5c de3d 4c9b 123d 6815 6d3d 288c b33c
00000200: a4cb 663d 54a7 14bd 3465 d23d 7c31 aebd
00000210: 70c2 2fbc 7192 c2bd 343a b7bd 3361 debd
00000220: f896 af3c a209 9b3d e5fd d1bd b506 87bd
00000230: 789e 0abd c012 0a3c 4d57 11bd 40e8 8cbc
00000240: 33cd 66bc 66c9 ad3d 27cd 0a3d 408c 25bb
00000250: a00d fe3b 300e 1b3d 445e cdbd 36ef b5bd
00000260: b496 b13d c099 26bb 306c 203c 40cd 25bc
00000270: e403 e03d b077 e73c d489 563d 62ed bcbd
00000280: 8341 e43d 9f47 c7bc b9f4 053b 3829 b53c
00000290: 701b b4bc 4238 a5bd b557 d5bd f296 da3d
000002a0: 2c38 c1bd d028 303d c1db 46bb d060 53bd
000002b0: 7a74 8dbd 8053 543d 4e7b c43d be28 92bd
000002c0: c487 5a3d 5079 92bc 5a60 cf3d 38c6 e53d
000002d0: 5d0b 5bbd c40b db3d 4795 523c c04f e63d
000002e0: c4e6 533d 49b4 8d3d cc05 a53d 4a90 0c3e
000002f0: 09bd 8c3c a0ae 823c f41d c9bd 50df 0ebd
00000300: 6baa 68bc c0c8 febb ebdf 09bd ff69 01be
00000310: fa78 ec3d 3cf0 f03c f713 1cbe 47ae 9e3c
00000320: cce7 8a3d 06f7 433c 0147 963d 2f58 f13d
00000330: 003c b8bd 4fc3 853d 48b1 573d 00d8 4d3d
00000340: 6320 de3d 682e 863d 6350 dcbc 9599 0f3e
00000350: 8ad4 3ebd c723 b63d b542 9e3d a4df 71bd
00000360: 0421 b5bd 373a 9fbd 14ca d53d 4cc4 023d
00000370: 579b 8a3a f8ac a13d 00ea ee3c a6b6 61bd
00000380: 996d 843c e86b 9abd 6eaa e03d d6cb e63d
00000390: c225 913d 8012 96bd 7ad8 82bd 6732 3f3e
000003a0: c45e 4abd 8d2d d53d c26c fdbd ddcb cabd
000003b0: 5895 023e 5abd 1fbe c2c4 ee3d ffd0 913d
000003c0: 80d4 a2ba 21bc 8a3c dc2b 1dbd fe72 ffbd
000003d0: 3ffb 013e 1d03 993d 9313 24bd c228 2cbe
000003e0: 3df8 293d 646f 7abd 5084 98bc cced bf3c
000003f0: e202 2ebd 5f25 45bc 9c82 de3d a1d9 96bd
-0.10736872 -0.098792255 0.05178514 0.023840234 0.027181255 -0.06344818 0.03960802 0.047999382
0.11701894 0.04232398 -0.01001052 0.13255452 -0.11345762 -0.077308476 -0.012820063 -0.027468842
-0.018058706 -0.040194053 0.10729527 0.048345648 -0.00026958217 0.027246064 -0.12187433 -0.058561284
-0.016993105 -0.053308476 -0.09217368 0.08734396 -0.112379424 -0.066291295 -0.0027315766 0.11710207
0.0791848 -0.069597796 0.05216406 0.11517785 -0.08800278 0.036935695 -0.025912551 0.07301732
0.032463808 0.09440232 0.05592112 -0.09063418 0.10546587 -0.1104313 -0.064234465 0.07728619
0.12390682 -0.032973792 -0.088754795 -0.06779902 0.111908965 0.08246487 0.10210101 -0.081072345
-0.12051737 0.0693177 -0.0230872 -0.018761536 0.114304386 0.016203567 0.0020640045 0.0042240517
-0.042969853 -0.004988253 -0.07914157 0.01984714 0.036603853 0.060862646 -0.053806067 0.08988781
-0.067443416 -0.08007944 0.029075086 0.09086527 -0.08763975 0.0974555 -0.0319238 0.042251974
0.07006998 -0.11291507 0.06957908 0.12369642 0.02946484 -0.026230693 0.09992382 0.08930987
-0.043317363 0.11689147 0.03606762 0.123082206 0.055630833 0.05465819 -0.067999706 -0.07734522
0.09613003 -0.109171286 -0.014901131 0.096555784 0.03340487 0.021688685 0.022620589 -0.03601718
0.120355114 0.0042548478 -0.04297529 -0.014504507 0.028851107 -0.06471637 0.03981258 -0.024672508
0.10931809 -0.021061763 0.04235509 -0.013911396 -0.08820504 -0.06323202 0.033670664 -0.044451833
0.0063158125 -0.064930454 -0.0029270947 -0.101613045 0.1085746 0.035792634 0.057881743 0.021917418
0.05634655 -0.03629239 0.10273209 -0.08505532 -0.01072751 -0.09500588 -0.08946648 -0.10858383
0.021434292 0.07570197 -0.10253505 -0.06593076 -0.033842534 0.008427322 -0.035483647 -0.01720059
-0.014087009 0.08485679 0.033887055 -0.0025260597 0.007753089 0.037855327 -0.10027745 -0.088835165
0.086713225 -0.0025421232 0.009791419 -0.010119736 0.10938242 0.028255314 0.052377537 -0.09224965
0.11145308 -0.024326144 0.0020440056 0.022114381 -0.02198574 -0.08067371 -0.104171194 0.10673322
-0.09434542 0.04300767 -0.0030343386 -0.051606 -0.06906982 0.051837444 0.09593831 -0.07136677
0.053352132 -0.017880112 0.101257995 0.11219448 -0.053477634 0.106956035 0.012852973 0.1124568
0.051733747 0.06919152 0.08057746 0.13726917 0.017179983 0.015952408 -0.09820166 -0.034880936
-0.014200787 -0.007775396 -0.03366081 -0.1263809 0.11546512 0.029411428 -0.15241991 0.019370211
0.06782493 0.01196075 0.07337762 0.11784398 -0.08995819 0.06531393 0.052659303 0.05025482
0.10846021 0.0655182 -0.0268938 0.1402343 -0.04658941 0.08893543 0.07727567 -0.05905117
-0.08844188 -0.077747755 0.10438934 0.031925485 0.0010574859 0.07894319 0.029164314 -0.055105828
0.016165541 -0.07540113 0.10970007 0.11269347 0.0708728 -0.07327747 -0.06388946 0.1867157
-0.04940678 0.10409079 -0.123742595 -0.09902165 0.12752283 -0.15599576 0.11658622 0.07119941
-0.0012422949 0.01693541 -0.038371906 -0.12473105 0.12693499 0.07471297 -0.04005773 -0.16812423
0.041496504 -0.061141387 -0.018617779 0.02342882 -0.042483218 -0.012032836 0.108647555 -0.07365728

fc2.bias_hh_l0 f4 [256]
00000000: 0c8f 143d c067 c33d b629 813d 2492 29bd
00000010: 594b aa3c 5f93 b5bd f3c5 ba3d a2b3 003d
00000020: d0eb 9f3c 608c d73d 1950 5ebd 7c01 9b3c
00000030: 3289 6fbd 04ef 083d d3a2 8dbd 10f8 82bd
00000040: 5e11 f03c 4e50 903c 83d8 af3d b21c 353d
00000050: 1047 5d3c cdd8 acbc 2c5a 3e3d 0b07 7c3d
00000060: 44c0 debd 9d37 bd3d 7eb2 ab3c 764a c93d
00000070: 4e79 36be 5450 50bd e616 cebd 08a0 92bd
00000080: 1f7e e53d 4e39 683d c142 dcbd 4762 2cbd
00000090: de43 c03c b755 253c d3e1 a63d da8c 103e
000000a0: 17a9 b83d f330 923d 3955 acbc 46fa 1fbe
000000b0: 91f5 583c d2ac 963d a09b a53b 5180 e2bd
000000c0: 40d8 c33d 86fd 323d 75fa a83d c80b a3bd
000000d0: 5f4a 9a3d 0c81 67bd 2090 833d 2d38 2bbd
000000e0: 9c16 d0bd a2ed ef3d b64e 15bd 49eb 5d3d
000000f0: 6407 bfba 80f1 73bb 0e88 b9bd 3216 d03d
00000100: 981d f9bc 2014 42bd 8024 af3c 2ed5 b43d
00000110: c6ad 8c3d 54d4 afbd 8000 c53d 8856 36bd
00000120: 9a79 ff3d 92bb d93d aa97 d73d 5ee3 e5bd
00000130: 4e45 fdbd 3066 a73c 846a c83d 44b0 6b3d
00000140: 60cb 8fbd 2eef ce3d ee15 91bd bc3f 5cbd
00000150: 84ed e9bd e825 483d c29c 963d e209 8ebd
00000160: 7092 bb3c d672 a23d 9a6a c1bd c6ee 8ebd
00000170: 2af4 c73d 5805 7c3d d006 c13c 58f7 9f3d
00000180: b069 ca3c 7438 5fbd d8f8 66bd 608e 903b
00000190: 60ef db3c a06f a0bc 76f1 8ebd 8ad6 dbbd
000001a0: 405b 3f3d 04d2 4d3d da9a 96bd f0cb 07bd
000001b0: c011 bdbc 002c 003b bc02 723d 5c26 153d
000001c0: 4ac5 d83d 7cb8 883d e013 04bc a8e4 b0bc
000001d0: 8074 88bc 9004 3cbd 3097 07bc 9019 adbc
000001e0: 7411 863d a041 17bd 0862 103d 0848 bdbc
000001f0: a82a cdbd 6e6c 85bd 8044 ca3d fed3 8dbd
00000200: bcb6 3b3d 9227 c5bd 2ebe dabd 7883 843d
00000210: 2e3e babd 239d dabd 006f a83d 34ce e3bc
00000220: 42cf d33d 9db3 073e 7db7 4c3c 0e37 35bd
00000230: 88a0 773d c8dd 823d 54cb 813d 6090 823c
00000240: 7e57 bbbb d05e 673c 76e7 7abd 8069 003b
00000250: c49b ccbd 3803 42bd 2a68 e53d 74e1 eebd
00000260: d454 693d c070 23bc 1863 cdbd 3056 093c
00000270: 7836 a53c 5082 ab3c a8d7 b4bc 8a84 2dbb
00000280: bf61 8cbd 80b9 25bc 758b 413d 00fa 243b
00000290: 9ec3 a03d a073 b9bb f2ee 4fbd 80f8 ad3d
000002a0: a8f1 b6bd 5ca4 da3d daad 0abe 88da 1b3d
000002b0: 265e 8bbd 30dc 42bc 2c65 20bd 12b9 c8bd
000002c0: c6d2 cabd 9202 f6bd 1467 223d 10c9 313c
000002d0: b1b6 afbd ea79 f83d 29d6 3fbc e0a8 153c
000002e0: d4ae 3dbd 0906 1fbe aa4f dd3d a508 a03c
000002f0: f4a8 033d ded1 f1bd 6a7e d2bd d091 d83d
00000300: e185 12ba 4292 bbbd a664 a23d dd0d 1fbe
00000310: e8d9 1d3d 14f4 5c3d f8e7 a7bd c49a e7bb
00000320: 93de 49bb c4b1 42bd fa41 7a3d c02c 9e3d
00000330: e416 7cbd cea3 0dbe 88ea a23d 68e9 8f3c
00000340: d1ac 973d c81f cf3c 071a 1c3e 54a9 8a3d
00000350: a142 e53c 181f 1e3a 44f2 87bd 0c7d acbd
00000360: 8a2b cfbd bd86 b73d 1251 d83d 50b8 1f3d
00000370: b7b8 8c3d 9ac6 d6bd 00ce a33b 3d35 9e3d
00000380: 4052 e0bd f8a3 97bd 81c1 993d e8e9 ec3c
00000390: d20a 3cbd 69ba 3dbd a386 823d 591a 6e3e
000003a0: 7658 eb3d ef32 9dbd f8fa 0abe 3f6c 9abb
000003b0: 3cc8 e23d 5686 11be 24bc aabd f90d a83d
000003c0: da05 8dbd 6d87 1dbd 9413 763d e412 143d
000003d0: 40a2 033e c86c c1bc a287 81ba 1a3f 843d
000003e0: 0772 8a3c 1cd5 163d ba6c 8d3d 2e17 823d
000003f0: 7c8f f6bd 494e 273d 78a9 4d3d 8dae bd3d
0.036269233 0.09541273 0.06306784 -0.041399136 0.020787882 -0.088659994 0.09119787 0.03142131
0.019521624 0.10524821 -0.054275606 0.018921606 -0.05848045 0.033431068 -0.06915822 -0.063949704
0.029305156 0.017616417 0.08586218 0.04421682 0.013505712 -0.021099472 0.046472713 0.061530154
-0.108765155 0.09239123 0.020959135 0.098286554 -0.17819712 -0.050857857 -0.10062961 -0.0715943
0.11205696 0.056695275 -0.1075492 -0.042085912 0.023469862 0.010091237 0.08148541 0.1411623
0.09016626 0.071382426 -0.021036731 -0.15622815 0.013242141 0.073571816 0.0050539523 -0.11059631
0.09562731 0.04369881 0.08250896 -0.079612315 0.075337164 -0.056519553 0.06423974 -0.04180162
-0.101605624 0.11715247 -0.036452018 0.054179464 -0.0014574346 -0.0037222803 -0.090591535 0.101604834
-0.03040962 -0.047382474 0.02137971 0.08829723 0.06869082 -0.0858542 0.09619236 -0.044516116
0.124743655 0.10631479 0.105269745 -0.112250075 -0.123667344 0.020434469 0.09785941 0.057541147
-0.070212126 0.10104214 -0.07084261 -0.05377172 -0.11422256 0.048864275 0.07354118 -0.06935479
0.022896975 0.079320595 -0.09444161 -0.06979136 0.097633675 0.061528534 0.023562819 0.07810849
0.024708599 -0.054497197 -0.05638966 0.0044115037 0.026847541 -0.019584477 -0.06979649 -0.107342795
0.046717882 0.050249115 -0.07353754 -0.033153474 -0.023079753 0.0019557476 0.05908464 0.036413535
0.10584505 0.066758126 -0.008061379 -0.021593407 -0.016657114 -0.04590279 -0.008275792 -0.021130353
0.06546298 -0.03692782 0.03524974 -0.023105636 -0.10017902 -0.06514822 0.098763466 -0.069252
0.045828566 -0.09626688 -0.10680805 0.06470388 -0.09093891 -0.10674503 0.082242966 -0.027808286
0.10342266 0.13252111 0.012494919 -0.044241957 0.06045583 0.06389958 0.0633761 0.015937984
-0.005717217 0.014121726 -0.061255895 0.0019594133 -0.099906474 -0.04736635 0.11201508 -0.116640955
0.056965664 -0.009975612 -0.10028666 0.008382365 0.020167574 0.020936161 -0.02207549 -0.0026476705
-0.06854581 -0.010115027 0.047252137 0.0025173426 0.07849811 -0.0056595355 -0.050764985 0.08494663
-0.08932811 0.1067588 -0.13542882 0.038050205 -0.06805067 -0.011893317 -0.039158985 -0.09800924
-0.09903483 -0.12012209 0.039649084 0.01085116 -0.085797675 0.12132628 -0.011708775 0.009134501
-0.046309307 -0.15529646 0.1080621 0.019535372 0.032143548 -0.11807607 -0.10278018 0.105746865
-0.00055894075 -0.09158756 0.079293534 -0.15532632 0.03853789 0.05394371 -0.081985414 -0.00706801
-0.003080283 -0.04753281 0.061098076 0.07723379 -0.061545268 -0.13832018 0.079548895 0.017567351
0.07406009 0.02528371 0.15244304 0.06770578 0.027985873 0.0006031855 -0.066380054 -0.08422288
-0.10115726 0.08961246 0.10562338 0.038994133 0.06871169 -0.10487099 0.0049989223 0.07724998
-0.10953188 -0.074043214 0.07507611 0.028920129 -0.045908757 -0.046320353 0.06373336 0.23252238
0.11491482 -0.076757304 -0.135723 -0.004712611 0.11073348 -0.14211401 -0.08336666 0.0820579
-0.06885882 -0.03845923 0.060077265 0.036150828 0.12854862 -0.023611441 -0.0009882341 0.06457348
0.016900076 0.03682433 0.069055036 0.063520774 -0.12039086 0.040846143 0.050210446 0.092618085

fc3.weight f4 [3, 64]
00000000: a963 743d f0f0 6d3c 9cb1 78bd 8858 6bbd
00000010: 38c7 cc3c 0440 f3bc a28b df3f 5807 f3bd
00000020: d8a2 fbbd deaf 143e 6ba4 29bf f06f 4ebb
00000030: 2aa0 e3bd 3055 263c 2dae c23d 7e85 b4bd
00000040: f7bb 4dbf e872 c3bd fb44 063f 5f78 0d3e
00000050: 6017 85bf da11 a93d 5195 bfbc 81bf 703e
00000060: 309b 99bc f29b 24bd 3fec 70bd e093 92bb
00000070: 2d98 f5bd 28e1 1ebd 7099 b53d b79d 7c3f
00000080: 070d 8240 93ec 2fbe f343 d0bd b4df 90bd
00000090: c58c 6ec0 192c 2b3f dbc9 28bf ec8d 0fbf
000000a0: 10aa c1bc c027 303d 0d30 f03f a579 9f3e
000000b0: f256 a8bb 4282 df3e ffa0 70c0 4c61 ca3e
000000c0: e860 ef3d 10dc a1bd 3c44 e03d 4e8e 8ebd
000000d0: 3010 f43e 2833 01bd 42dd 82be 5a3b c43d
000000e0: 8065 d43b 790a b9bf b0bd 0cbd 4bb4 fb3f
000000f0: 826a 63bd d067 e93c 3091 df3d 14af 6bbd
00000100: 1dad 84be 40bf 4a3c a4a3 823d 8eb9 13bc
00000110: d731 843d 57c2 3cbf fff8 d941 fe6d dabd
00000120: cabd 85bd 8641 a93f d14d 17c1 59b3 663c
00000130: cd3e da3c b4e3 97bc c186 233d acc8 ed3d
00000140: dbd3 23c1 8304 433d 6f0f 1d41 fb28 f6be
00000150: a768 0ec1 d8b3 033e 2b6d 05bd 3935 bebd
00000160: 22e1 f2bd a47b 913d 2f00 20be 6a72 aabd
00000170: cda8 013d 4e41 083e 589c f33c ea0e 2b41
00000180: e35f 1c42 d7c4 a2be 4ee6 b23d 81c6 083e
00000190: 632e 8ec1 941e 1e41 e72e 25c1 c9fd c040
000001a0: 4d0a f03c fe4a 813d 0d0f 4e41 8ecf 363f
000001b0: 12a1 113d c77e ce3f 43a7 1fc2 190f 3d3f
000001c0: 40c3 023b 836f 9abc 741e ab3b 58c0 e53c
000001d0: b404 9a3f b6fb edbe 4e46 8dbe 44a2 fc3e
000001e0: ce47 d63c 675a 44c1 ea35 fdbd 9e91 5041
000001f0: 9289 45bd a3de d93c 6868 bd3c aac2 68bb
00000200: 45eb e9bd bc29 e23d a1d4 89bd e6eb 31bd
00000210: 0f7a ee3c f233 583d 8c14 ba3f 47a5 a739
00000220: 1644 c1bd 41f7 183e 4071 00bf f948 4cbd
00000230: 8c23 1abd 1404 c5bd 814c a73c 632d b43d
00000240: e7d4 15bf c610 cbbd 30de 9a3e 706a 913d
00000250: c967 76bf f559 f03d 2a1d f63c c9fb bd3d
00000260: 2091 afbd 3cc0 973c 298d d93b e88c 9bbd
00000270: 4b86 dd3d 30f5 453d ee5f dc3d 555d 333f
00000280: e4e4 6140 e870 dbbd af1a e43d 2a04 e3bd
00000290: a62c 53c0 8085 eb3e 15d5 3cbf 3cd1 9ebe
000002a0: f42e 3b3d a491 553d 757b 89be 9d8d bd3e
000002b0: 000c fe3d 69e5 953e 2078 54c0 7f9e a23d
000002c0: 4044 95bb 7d5c 8b3c 401a 463d b008 783c
000002d0: 2bc1 883e c628 363e 7242 7ebe da6c 543e
000002e0: 9801 553d 6745 8dbf 7693 5c3d 8d7f ec3f
000002f0: 3e48 683d 3828 9abc 205e e73d 7f9f 83bd
0.059665356 0.014522776 -0.060716256 -0.057457477 0.024997339 -0.029693611 1.7464488 -0.11866635
-0.12286919 0.14520213 -0.66266507 -0.0031499825 -0.11114533 0.010152146 0.09505878 -0.08814524
-0.80364937 -0.09543401 0.52449006 0.13815449 -1.0397758 0.08255358 -0.02338663 0.23510553
-0.018750757 -0.040187784 -0.05881905 -0.0044731945 -0.11991916 -0.038788944 0.088671565 0.98678154
4.0640903 -0.1718009 -0.1016921 -0.07073918 -3.727342 0.6686416 -0.65933007 -0.5607593
-0.023640662 0.04300666 1.8764664 0.31147495 -0.005137318 0.43654066 -3.7598264 0.39527357
0.11688405 -0.07903302 0.10950515 -0.06960736 0.476686 -0.031542927 -0.2555943 0.09581633
0.0064818263 -1.4456321 -0.034360588 1.9664396 -0.055521496 0.028491884 0.10916364 -0.057540014
-0.25913325 0.012374699 0.06378868 -0.009016408 0.06454819 -0.7373404 27.24658 -0.106655106
-0.0653034 1.3223121 -9.456498 0.014080846 0.026641274 -0.018541194 0.039923433 0.11610541
-10.239223 0.047611725 9.816268 -0.4807814 -8.90055 0.12861574 -0.032574814 -0.09287495
-0.11859347 0.07103661 -0.1562507 -0.08322604 0.03165512 0.13306162 0.029737636 10.691141
39.09364 -0.31790802 0.087353334 0.13356973 -17.77265 9.882465 -10.323951 6.0309796
0.029301787 0.06313132 12.8786745 0.71410453 0.035554 1.6132439 -39.91334 0.7385116
0.0019952804 -0.018852001 0.005222136 0.028045818 1.2032685 -0.46481103 -0.275927 0.4934255
0.026157286 -12.272071 -0.12363799 13.035551 -0.0482269 0.02659542 0.023121074 -0.003551642
-0.11421827 0.110431165 -0.06730009 -0.04343786 0.029110936 0.052783914 1.453752 0.00031975863
-0.094368145 0.1493807 -0.50172806 -0.04987428 -0.037631556 -0.096199185 0.020422222 0.08797719
-0.5852799 -0.09915309 0.3024764 0.071003795 -0.96252114 0.11735908 0.030043203 0.0927654
-0.08572602 0.018524282 0.006639142 -0.07595235 0.1081663 0.048329532 0.10760485 0.7006429
3.5295954 -0.107148945 0.11137902 -0.110847786 -3.2996001 0.4600029 -0.7376264 -0.31019008
0.045699075 0.052140847 -0.26852003 0.37022105 0.124046326 0.2927659 -3.3198318 0.07940387
-0.004555255 0.017011875 0.048364878 0.01513879 0.26709875 0.17788991 -0.24830034 0.20744649
0.052003473 -1.1036805 0.053851567 1.8476425 0.05670952 -0.018818006 0.1129725 -0.06426906

fc3.bias f4 [3]
00000000: ccdd 043f 2d21 1e41 680d e93e
0.51900935 9.8831 0.4551804
