Models/LSTM/agentDQN-LSTM_2008-2009_lstm_v5_300_EPS_1.pth (torch, 256291 bytes, 8 tensors)

fc1.weight f4 [128, 104]
000000 f2 8a d2 3d 22 42 e2 3e 2c c4 9c 3b 9a c7 b3 bc
       0.10280408 0.4419108 0.0047841277 -0.021945763
000010 72 eb 13 3e fe ab cc 3c 2e e7 1d 3e a2 6d 85 3c
       0.14445284 0.024984356 0.1542022 0.016287629
000020 f5 8f af 3d d3 7d f8 3d 7d 73 4e be d0 be ab 3d
       0.085723795 0.12133374 -0.20161243 0.08386004
000030 be 66 62 3d 99 a5 ab 3d 65 07 8b bb 24 11 11 3e
       0.055273764 0.083811946 -0.004242825 0.14166695
000040 e7 e0 80 bc 42 54 45 bc b2 65 22 bd cf d2 11 bd
       -0.015732242 -0.012044014 -0.039647765 -0.035601433
000050 cd e6 d0 bc 00 e5 4b bd 2c ed e2 3d 33 76 27 be
       -0.02550068 -0.04977894 0.11080393 -0.16353683
000060 16 85 1d 3e a2 72 3c 3d 03 96 2a 3d e9 b2 a6 3e
       0.153828 0.04600776 0.04164697 0.32558373
000070 6a f1 3e bd 6d d5 0f 3e 63 cc ec 3e 81 26 6d be
       -0.04661695 0.14046259 0.46249685 -0.2315922
000080 9a 9b 34 3e 68 c4 94 3d 04 ad bb 3d f5 29 11 3e
       0.17637482 0.07264024 0.091638595 0.14176162
000090 a7 fb bd 3e 53 5a 00 3f 1d bd d1 3d 6b ae c7 3d
       0.37106058 0.50137824 0.102411486 0.097500645
0000a0 0c cd 37 3e c7 f3 67 3e 25 2e 1b be 84 ee 6e 3e
       0.17949313 0.22651587 -0.15154321 0.23333174
0000b0 d5 10 9f 3e d6 2e fd 3c ed cb 23 be 01 23 1c 3e
       0.3106753 0.030906122 -0.1599576 0.15247728
0000c0 a0 eb 8d 3d 13 03 2a be 2e f6 82 3d f9 91 67 be
       0.069297075 -0.16602735 0.06394611 -0.22614278
0000d0 4b 85 7e 3d 18 96 81 3e 01 94 b0 3d 0b f9 98 3d
       0.062138837 0.25309825 0.086219795 0.07469376
0000e0 5b 73 8f 3a 24 8a ad 3d a4 4f 16 3e 5f 1c 01 be
       0.0010944413 0.08473614 0.14678818 -0.12608479
0000f0 a7 7f 17 bc 5e eb 73 bd 34 ba 2d 3e 5d 29 bd 3d
       -0.009246743 -0.059550636 0.16965562 0.09236405
000100 17 73 15 3e 66 ac 42 bb d7 e7 2a 3d 23 49 03 3e
       0.14594685 -0.0029704808 0.041725006 0.12820868
000110 fd 12 9b 3d 24 21 e3 bc d5 b2 5f 3d 07 7a d3 3d
       0.07571981 -0.027725764 0.054613907 0.10326009
000120 1f 77 3f bd 9f 81 a5 3c 04 8e a4 bb 79 da 28 3d
       -0.046744462 0.02020341 -0.0050218124 0.041223977
000130 1e 80 04 3e a2 9b a0 3d 4d cf 22 3c a6 5c 8d 3c
       0.12939498 0.078421846 0.00993712 0.017256092
000140 ba 84 ee bc 18 59 76 3d d7 5f 80 3d e0 eb 8e 3d
       -0.029116023 0.06014356 0.0626828 0.06978583
000150 e0 f9 99 3c 65 28 cc 3d bb 17 d4 3d 99 75 02 3e
       0.018795907 0.09968642 0.10356089 0.12740172
000160 2f 09 66 3d 94 21 a5 3d 45 b0 59 3d 3c c6 76 bd
       0.056161102 0.08063045 0.05314662 -0.060247645
000170 75 06 6e bc c7 b2 5a 3d 1a 33 ce 3d 3c 57 ae 3d
       -0.014527907 0.05339315 0.100683406 0.085127324
000180 ef 53 78 3c 71 0e fa 3c 90 d8 3a bd 77 b2 d4 bd
       0.01515673 0.030524464 -0.045616686 -0.10385602
000190 0e 04 9d 3d eb c9 72 3c d6 c5 d7 3d 55 2d d1 3d
       0.07666789 0.014818649 0.10535781 0.102137245
0001a0 1d 2c cc 3c 98 62 3d 3f 01 00 6b 3e db df c2 3e
       0.024923379 0.7397857 0.2294922 0.38061413
0001b0 7e d0 bd 3e 2c 8a 67 3e e8 c8 47 3e 3e 43 ae 3e
       0.3707313 0.22611302 0.19510233 0.34035677
0001c0 36 e2 b0 3e 73 8e 96 3e 45 a7 6a 3e 09 95 89 3e
       0.34547585 0.29405555 0.22915371 0.26871517
0001d0 af 49 af 3e 4f 9c b4 3e cc cc c9 3e 73 cb 91 3e
       0.34235904 0.35275504 0.3941406 0.28475532
0001e0 6b 3d 93 3e 9e 70 96 3e b8 4d e8 3e d0 f9 d7 3e
       0.28757796 0.29382795 0.45371795 0.4218278
0001f0 80 a9 cf 3e c4 3a bc 3e 18 b2 af 3e fe 32 fc 3e
       0.40559006 0.36763585 0.34315562 0.49257654
000200 1c 6c e8 3e f8 ee 92 3e 66 6b 91 3e 95 94 2b 3f
       0.4539498 0.28697944 0.2840225 0.67023593
000210 0c f6 9e bd fb b8 8a 3e 28 32 2d 3f bd f5 c6 be
       -0.077617735 0.27094254 0.6765466 -0.38859358
000220 23 2f 43 3e 1e 84 67 3e e1 52 d8 3e a9 cb 6f 3e
       0.1906095 0.22608992 0.42250732 0.23417534
000230 30 84 e6 3e 76 df 45 3f 43 9f e7 3e a8 7e 40 3e
       0.45022726 0.772941 0.45238695 0.18798316
000240 76 83 f9 3e 6d ca 08 3f d4 88 6a 3e 9e e6 56 3f
       0.4873311 0.5343388 0.22903758 0.83945644
000250 f6 a1 17 3f 62 d8 8d 3e da 9d c3 3d 84 ed c1 3e
       0.5923151 0.2770415 0.09551592 0.37876523
000260 a1 28 25 bf cf f0 aa be 66 a3 ca 3e 8f ea 4c be
       -0.6451512 -0.33386847 0.39577788 -0.20011352
000270 d9 c2 c2 3e f9 eb 88 3e 1f 4e e2 3e b3 da a1 3e
       0.38039282 0.26742533 0.44200227 0.31612167
000280 42 da a0 3e 13 05 9c 3e 9f f3 a4 3e cb 41 a4 3e
       0.31416517 0.3047262 0.32217118 0.32081446
000290 13 59 08 3f cf 26 e2 3e 07 4c 06 3d 1a fc ff b9
       0.53260916 0.44170234 0.03278735 -0.0004882522
0002a0 cb f7 9f 3e e4 b7 91 be cd 7e c5 3e 66 79 cc 3e
       0.3124374 -0.2846061 0.38573304 0.3993637
0002b0 69 b2 b6 3e 01 7c a8 3e 54 dd c8 3e 65 71 c9 3e
       0.3568299 0.32907107 0.3923136 0.39344326
0002c0 ac 19 9e 3e db c8 ec 3e 3f 5f ce 3e b3 6d e6 3e
       0.3087896 0.4624699 0.40307042 0.4500557
0002d0 3f 97 d2 3e 64 15 c8 3e b7 07 e4 3e 53 eb da 3e
       0.41131017 0.3907882 0.44537136 0.42757663
0002e0 e3 b9 e9 3e 81 88 8e 3e c2 80 b5 3e b3 13 db 3e
       0.45649633 0.2783852 0.35449797 0.42788467
0002f0 87 d7 d0 3e ad 0c a9 3e 64 19 c8 3e 84 88 93 3e
       0.40789434 0.33017483 0.39081872 0.2881509
000300 19 0d e3 3e 10 3b 87 3e 29 c5 a4 3e bc f1 88 3e
       0.4434593 0.2641225 0.3218167 0.2674693
000310 15 13 cb 3e 50 b9 97 3e 83 9e a4 3e 3e 29 f5 3d
       0.39662996 0.2963357 0.32152185 0.11970757
000320 34 d5 28 3e 9d df 94 3e 7c 8a be 3b 87 83 5e bd
       0.1648758 0.29076853 0.0058148485 -0.054324653
000330 67 ad ff 3d 17 a5 95 3e 52 de ef 3e 2b d7 a3 3e
       0.12484246 0.29227516 0.46849304 0.32000098
000340 46 80 3e 3d ac e7 f4 bd 81 9c 5e be f7 8d 7c be
       0.04650905 -0.119582504 -0.21739389 -0.2466353
000350 f7 fb a5 bd f7 6d 87 bd 85 18 fa bd e7 b8 39 be
       -0.08104699 -0.06612771 -0.12211708 -0.18136941
000360 69 3e c4 bd 10 b8 97 bd 36 d1 a7 bd 7a fc 69 be
       -0.09582216 -0.07408154 -0.08194201 -0.22850218
000370 be 94 e8 bd 3e 17 bb bd be 56 49 be ab b1 dc bd
       -0.11356495 -0.091352925 -0.19661996 -0.10776075
000380 8b a1 7b be cb 42 e3 bd 05 af 47 be 81 11 79 be
       -0.24573343 -0.11096724 -0.19500358 -0.24323083
000390 ae e1 99 be 7a 01 88 be 48 25 8b be 8f f3 47 3e
       -0.30054992 -0.26563627 -0.2717688 0.19526504
0003a0 52 47 6a be 65 9e 81 be 54 41 3d 3e d9 aa b6 3d
       -0.22878769 -0.25316158 0.18481952 0.08919305
0003b0 8c 9c af be b3 5c dd 3d 28 38 ec bc aa e3 51 3e
       -0.34299123 0.108086966 -0.028835371 0.20497003
0003c0 22 21 4e be e2 55 b6 3b 23 0f c3 bd b3 ba 41 be
       -0.20129827 0.0055644372 -0.095243715 -0.18918876
0003d0 8e 3b 46 3d 04 e0 57 be ea cd 24 3d c8 86 c0 bd
       0.04839664 -0.21081549 0.040235437 -0.094007075
0003e0 5c 00 41 3d 96 eb bf 3d 3f cb 7e be af 09 ea 3d
       0.047119483 0.09371106 -0.2488222 0.11427628
0003f0 90 b9 0c be 7f 01 44 be ba 2b 03 be 64 be fe bd
       -0.13742661 -0.19141196 -0.12809649 -0.12438658

fc1.bias f4 [128]
000000 9e 5d 65 3d 47 1a d3 3e 81 ef 4a be db f2 32 3e
       0.055997483 0.41230986 -0.19817926 0.17475455
000010 35 8e 22 3e 20 b4 4e be f3 d3 a0 3c cc aa 78 bc
       0.1587456 -0.201859 0.019632315 -0.01517744
000020 b9 ab 82 3d 5d 96 aa 3b d8 43 59 3d f8 78 2c bd
       0.0638041 0.005205913 0.053043216 -0.042107552
000030 64 d9 0d be d4 19 19 be 66 4e 07 be 92 61 23 3e
       -0.13852459 -0.14951259 -0.132135 0.15955189
000040 69 90 05 be d6 57 2c be a6 cd b3 bd 9a 43 a0 bd
       -0.1304337 -0.16830382 -0.08779459 -0.07825394
000050 19 43 49 3e f4 5e 1f be 30 d3 b0 3c 57 67 8e 3d
       0.19654502 -0.15563565 0.021585077 0.06953304
000060 49 0c ed 3d 3e 92 8b 3d 8b 3e 7d bd 97 47 b5 3c
       0.11574609 0.06815003 -0.061827224 0.022128863
000070 25 13 5d be a9 21 35 be 15 53 ad 3e 61 a3 ee bd
       -0.21589334 -0.17688622 0.3385245 -0.11652256
000080 22 12 e2 bd 05 85 70 bd a0 05 45 3e 05 e5 19 be
       -0.11038615 -0.058720607 0.19240427 -0.1502877
000090 a6 10 93 3e c1 ff 3d be e6 b9 f4 bd f4 a4 04 be
       0.2872364 -0.18554594 -0.1194952 -0.1295355
0000a0 bc 4e 80 3b 09 1a 2c be 66 9d 2f bc de f5 14 be
       0.003915636 -0.16806807 -0.010718679 -0.14546916
0000b0 c6 01 17 be 72 76 fd bd 79 f8 7b 3c ec 22 c1 3d
       -0.1474677 -0.12376107 0.015379065 0.09430489
0000c0 f1 19 83 bd 28 22 8e bd 77 46 89 3e 3e d2 50 3d
       -0.06401432 -0.069401085 0.26811573 0.050981753
0000d0 59 9f 35 3d 4e c4 89 bd 63 1e 0e 3e bc fc f6 3c
       0.04434142 -0.06726895 0.13878779 0.03014981
0000e0 1a 74 58 3e 39 81 f1 bd 67 6b 62 3e 08 5e 70 bd
       0.21138039 -0.117922254 0.22111283 -0.058683425
0000f0 35 8d 9e bd 5b 48 fe bc fd 25 96 3d b3 35 70 3e
       -0.07741777 -0.031040361 0.073314644 0.23457985
000100 57 8e ad 3d e2 6c 15 3d 89 13 e7 3d a6 b3 2f bd
       0.08474415 0.036480792 0.11283023 -0.042895935
000110 33 68 0b be 84 94 40 be 15 3d 11 bd bc a9 48 3d
       -0.13613968 -0.18806654 -0.035458643 0.048989996
000120 b3 43 d9 3c 26 1a b5 bd 51 4d 1c be f3 45 15 be
       0.02652154 -0.08842878 -0.15263869 -0.14577465
000130 83 ad 60 3d 73 24 cb 3c c6 bf 1f 3e 9f d0 7c 3e
       0.054852974 0.024797654 0.156005 0.24688958
000140 a7 18 62 3d 8e 47 53 bd e0 33 e3 3d 14 58 27 3d
       0.05519929 -0.05158191 0.11093879 0.040855482
000150 e3 36 94 3e e9 b0 36 3d 55 19 12 3d 19 64 de bc
       0.28948125 0.04460231 0.03566869 -0.02714734
000160 e1 24 ae bd 34 4c de bd 42 54 9a bd c8 61 98 3e
       -0.08503128 -0.10854378 -0.07535602 0.297621
000170 b4 30 10 3e 33 ee c9 bc 47 56 9a 3d 5d b8 72 3e
       0.14081079 -0.024649715 0.07535987 0.23703142
000180 a2 f8 4e be c8 15 60 3d 79 e8 d4 bd a4 fe eb 3d
       -0.20212033 0.054708272 -0.10395903 0.11523178
000190 72 22 e0 bd c2 2c a3 bd b9 af 9f 3d 34 16 df bd
       -0.1094407 -0.07967521 0.07797188 -0.10892907
0001a0 3e ac ef bd 33 08 ca bc c1 2d a6 bd 14 5b f3 3d
       -0.117027745 -0.024662113 -0.081141956 0.11882606
0001b0 16 cc 69 3e 08 6e c2 3d c3 a4 c2 3d c2 a2 f9 3d
       0.22831759 0.09493643 0.09504082 0.12189247
0001c0 de dc 41 3e df a8 79 3e ab 38 8d bc f2 a6 87 3b
       0.1893191 0.24380825 -0.017238935 0.0041397745
0001d0 c2 4b 31 3e 57 09 00 be 9e 37 ef bd 30 7e 18 3e
       0.17314056 -0.12503563 -0.1168053 0.14891887
0001e0 47 48 49 be 2b 85 94 3c f7 ad 17 bd 15 c3 07 be
       -0.19656478 0.018129906 -0.03703114 -0.13258012
0001f0 e9 2a 91 be 75 9b 53 3d dd 84 54 3d 15 6a 75 3c
       -0.2835305 0.051661927 0.05188452 0.014978905

fc2.weight_ih_l0 f4 [256, 128]
000000 88 d0 f2 bc fc b4 31 3d ac fd 0f bd 9e 0e d1 bd
       -0.029640451 0.04338549 -0.03515403 -0.10207866
000010 10 b1 0a bc c8 9e 9e 3c 5c 62 a1 bd b8 7a cd bd
       -0.008465067 0.019362822 -0.07880089 -0.10033172
000020 8a 78 e1 3d 44 35 1a 3d 18 c7 99 3d 38 37 3f 3d
       0.11009319 0.037648454 0.07508677 0.04668352
000030 90 7a 17 bc 20 34 c8 3c de 0a b8 bd e0 fc eb bb
       -0.00924553 0.024438918 -0.08986448 -0.007201776
000040 54 1f 28 3d fa 7f b0 bd 70 e3 6a 3d 10 3c 43 3d
       0.0410455 -0.086181596 0.057345808 0.047664702
000050 8c 84 88 3d 00 a9 5f 3b a0 4b e2 bb 40 a2 55 3c
       0.06665906 0.0034127831 -0.006905988 0.013039172
000060 58 b4 ab bc d8 ce 57 3d e6 1d ea bd 74 a8 88 bd
       -0.020960018 0.052687496 -0.11431484 -0.06672755
000070 b0 a9 91 bc 30 0a aa 3d 4c 8d 0d 3d 1c a3 4b bd
       -0.017781109 0.08302724 0.03455858 -0.0497161
000080 00 db 10 bd 00 60 8f 37 d8 3c c5 3d 44 7d 26 3d
       -0.035365105 1.7091632e-05 0.09630746 0.040646806
000090 ec ae a0 3d 74 cd c2 3d 72 27 bb 3d 74 0e 7c bd
       0.07845864 0.09511843 0.09138383 -0.06153722
0000a0 10 ab 39 bc ce 2e da 3d c0 8c 9f 3b a4 4d 06 3d
       -0.011332288 0.106534585 0.0048690736 0.032788888
0000b0 24 df a2 3d fa d2 8b 3d ac c9 58 3d 8c f1 4c 3d
       0.07952717 0.0682735 0.052926704 0.050035045
0000c0 70 b9 eb bd 42 a4 da bd 80 0b f8 bc 58 08 82 bd
       -0.11509979 -0.10675861 -0.030278921 -0.06349248
0000d0 92 49 e2 3d 9e 69 cb bd 60 80 3e bd 82 76 9a 3d
       0.11049189 -0.09932254 -0.046509147 0.07542135
0000e0 80 7e b3 3a f0 67 de bc 48 3f 2c bd dc e2 af 3d
       0.0013694316 -0.02714917 -0.042052537 0.08588192
0000f0 a2 9b b1 3d 1e dc 9d 3d 78 03 ac 3d c0 96 10 bd
       0.08672263 0.07708 0.08399099 -0.035300016
000100 f8 d8 aa bc 74 93 87 3d 4a 68 86 bd d8 65 bb 3c
       -0.020855412 0.06619921 -0.0656286 0.022875711
000110 c8 35 c9 bd f0 69 90 bd 98 a8 41 3d 8a 06 9b 3d
       -0.09824711 -0.07051456 0.047279924 0.075696066
000120 60 30 ec 3c 44 02 3a 3d ce 78 93 3d c0 d0 3f 3b
       0.02883166 0.045412317 0.07200776 0.0029268712
000130 00 fd 36 3a b0 94 ef 3c 30 3e 3e 3d 18 a0 f3 3d
       0.0006980449 0.029245704 0.046446025 0.1189577
000140 9a 9f c7 3d 4c 20 fc bd 78 20 1e 3d 4c 99 b6 bd
       0.097472385 -0.12310848 0.038605183 -0.08915958
000150 10 34 29 bc 48 6c 49 3d 40 30 a1 3b 98 7f a8 3d
       -0.010327354 0.04917553 0.004919082 0.082274616
000160 70 06 e0 3d 30 61 d1 3c 98 0d c6 bc 98 0e d9 3d
       0.10938728 0.025559038 -0.024176404 0.10598487
000170 50 a3 ac bd 9c ed fb 3d a0 ea e7 bb f8 62 b2 3c
       -0.08429587 0.1230118 -0.00707753 0.021775708
000180 80 1d 82 bd b8 d9 ba 3d 28 51 d2 3d 40 4f 22 bc
       -0.06353283 0.09123558 0.102693856 -0.00990659
000190 80 19 e9 bd 38 4b 2d bd 10 90 92 bc 1c 8b 4b 3d
       -0.11381817 -0.042308062 -0.01789096 0.049693212
0001a0 d4 0a 9b bd be 23 df bd c0 86 c5 bd b4 a1 c8 3d
       -0.07570425 -0.10895489 -0.09644842 0.097964674
0001b0 6e 46 f7 bd 60 b2 34 3c b8 cd 1b bd c8 fd 92 3c
       -0.1207398 0.011028856 -0.038037986 0.017943278
0001c0 ec 4c 28 3d fa c0 c0 bd e0 b2 be bb 60 56 28 bd
       0.041088983 -0.09411807 -0.0058196634 -0.041098
0001d0 c8 29 16 3d c4 b3 c4 3d d8 93 82 3c 60 c7 e8 bc
       0.03666094 0.096046 0.015939638 -0.028415382
0001e0 70 e0 21 3d c0 cd 06 3b ca 84 8f 3d d6 9f ba bd
       0.03952068 0.0020569414 0.070077494 -0.091125175
0001f0 ca 73 c2 3d ac d0 4a 3d 20 3d 77 bc c0 6d 63 3c
       0.09494741 0.04951541 -0.015090257 0.013881147
000200 83 22 00 be a4 06 ba bd 00 d5 27 3d 68 00 77 3d
       -0.12513165 -0.09083298 0.040974617 0.06030312
000210 7e 0a 98 3d be 88 ba bd 9c d4 dd bd 24 8c 86 3d
       0.07423876 -0.09108113 -0.10831568 0.065696985
000220 c5 87 2c be 20 44 7a 3c a8 df 05 bd 18 59 fb bd
       -0.16848667 0.015275031 -0.032684 -0.12272853
000230 c8 79 bc bd ce fe 9d bd 3d 74 d4 bc ef 3a f4 bd
       -0.092029154 -0.07714616 -0.025934333 -0.11925303
000240 90 17 84 bd 6c 56 b2 bd 5a b2 9e bd 26 66 f6 bd
       -0.06449807 -0.0870789 -0.077488616 -0.12031202
000250 ff d3 1a bd 84 d6 28 3d 00 c3 4c 3c e0 f8 c3 bd
       -0.03779983 0.041220203 0.0124976635 -0.095689535
000260 c0 8f 33 be ca 88 a2 bd bc 82 b8 bd 36 91 9e bd
       -0.17535305 -0.07936247 -0.090093106 -0.077425405
000270 26 f8 cf 3c e3 5d 84 bb 2a db 9f bd 20 9f ca bd
       0.025386881 -0.0040395125 -0.07805474 -0.09893632
000280 81 e2 d7 bc 70 47 f0 3c 78 e9 0b bc ca 37 b6 bd
       -0.026353123 0.029330939 -0.00853955 -0.0889736
000290 e5 e1 5f 3d 72 9c d0 bd e8 40 ef bd 94 cd f0 3d
       0.05465879 -0.101860896 -0.11682302 0.11757961
0002a0 d1 06 91 3d 08 c5 6c bd d0 4a e1 bd 0c b9 67 3d
       0.07081378 -0.05780509 -0.110005975 0.05657296
0002b0 9c 34 43 3d d8 8a 10 bd 18 ba 99 bc c1 bd 49 3b
       0.047657594 -0.03528866 -0.018765494 0.0030783268
0002c0 ee a7 c8 3d ce 97 90 bd 59 2f 5a bd 92 89 e4 bd
       0.09797655 -0.070602044 -0.05326781 -0.11159052
0002d0 30 bc 38 bd 05 61 27 bd ac 66 b2 3d 5c ed 66 bd
       -0.045101345 -0.04086401 0.08710989 -0.056378707
0002e0 40 bc 0b 3d 24 98 a3 bd 73 a4 86 3d 00 cb d2 bc
       0.034115076 -0.07988003 0.06574335 -0.025731564
0002f0 52 f6 98 3d 70 25 1a 3c 17 7a 65 3d 6c 64 46 bd
       0.07468857 0.00940834 0.056024637 -0.048435614
000300 ae ae 93 bd 46 00 a7 3d 48 88 30 bd 5c 47 d5 3d
       -0.07211052 0.08154349 -0.043098718 0.10414001
000310 e2 a3 96 bd 72 d7 e9 bd 80 e1 01 3b 9c bc 43 3d
       -0.07355477 -0.11418046 0.0019818246 0.047787294
000320 90 5e 8e bd 2b a1 85 bd cb 40 01 be 20 f8 51 3d
       -0.0695163 -0.06524881 -0.12622373 0.05126202
000330 34 21 d6 bd fd ce c6 3c db 9a 0b bd e4 e2 10 3c
       -0.10455552 0.024268622 -0.03408323 0.008843157
000340 5e 00 5d bc 2d c5 d8 bd 36 ce 94 bd 82 f9 15 bd
       -0.013488857 -0.10584483 -0.07265894 -0.036614902
000350 30 d4 84 bd 4f 7d 9f 3d 70 ea f3 3c 98 0a eb bc
       -0.06485784 0.077875726 0.029774874 -0.028691575
000360 40 c1 9a 3d f6 dd 0a be da d1 d0 3d d4 27 af 3d
       0.07556391 -0.13561234 0.10196276 0.085525185
000370 7c 30 f9 bd 26 a8 c8 3d 63 92 c7 bd ff f9 f6 3c
       -0.12167451 0.09797697 -0.09744718 0.030148504
000380 4d 9b 95 bd 7c 56 64 3d 62 13 e4 bd 69 86 f6 bd
       -0.07305012 0.05574654 -0.111365095 -0.120373555
000390 33 84 5d bd 64 63 ff 3d 04 ee 0a 3d b8 b3 04 bd
       -0.054081153 0.12470129 0.033918396 -0.032397956
0003a0 d2 e0 13 be e0 97 99 3d 70 c3 23 bc b2 25 f1 3d
       -0.14441231 0.07499671 -0.009995326 0.11774768
0003b0 b6 9b 03 be ec 9b a6 bd 57 d3 2d bc b0 cd d9 bd
       -0.12852368 -0.081352085 -0.010609469 -0.10634935
0003c0 a8 62 e0 bd 01 17 0c be 5e c0 cb bd 64 c3 88 bd
       -0.10956317 -0.1368065 -0.099488005 -0.06677893
0003d0 a7 fd f2 bd 29 08 9e bc 10 42 37 3d d4 4c 7d bc
       -0.118647866 -0.019291 0.044740736 -0.015460212
0003e0 2c 62 5b bd 84 f1 88 bd e0 1b 61 3d af 92 b3 bd
       -0.05356042 -0.066866904 0.054958224 -0.08768212
0003f0 90 11 dd bd d3 e1 bd 3d f0 ab fd bc 35 f5 0c be
       -0.107943654 0.09271588 -0.030965775 -0.13765414

fc2.weight_hh_l0 f4 [256, 64]
000000 66 3f c4 3d d6 98 f4 bd a4 d9 cc 3d f6 2a 9a bd
       0.09582405 -0.11943214 0.10002449 -0.075277254
000010 44 4c 76 3d de f9 a8 bd b4 02 73 3d 60 f7 e8 bb
       0.060131326 -0.082507834 0.05932875 -0.0071095675
000020 5c 9f 3a 3d 30 f7 19 bd 68 50 a1 3c 60 f0 4f 3d
       0.045562133 -0.037589252 0.019691661 0.05076635
000030 7c 61 bf 3d b8 c9 e0 bd 40 86 eb 3d e4 94 29 3d
       0.093447655 -0.10975975 0.115002155 0.04140176
000040 64 86 a2 3d c0 59 93 bd b8 f5 20 bd 08 df 90 3c
       0.07935789 -0.07194853 -0.039296836 0.017684475
000050 8c 29 1d 3d c0 b5 1a bd 7e cd d3 bd 82 30 b7 3d
       0.0383697 -0.037770987 -0.10341929 0.08944799
000060 08 45 13 3d b8 6c 91 3c 1e e5 89 bd 2e eb 8c 3d
       0.035954505 0.017752036 -0.06733154 0.068807945
000070 c8 d7 58 3d 80 f1 ae 3d b6 9b 8f 3d a0 55 a4 3c
       0.05294016 0.08542156 0.070121214 0.02006036
000080 5a e7 f6 3d 9c 47 4b 3d 80 3f fe bd 00 52 92 3c
       0.120558456 0.04962884 -0.124144554 0.017861366
000090 e0 d0 fe 3c 38 27 1d bd 50 58 94 bd f0 9b 4f bc
       0.031105459 -0.03836748 -0.07243407 -0.012671456
0000a0 be 66 be 3d c0 e4 c0 bb e4 3b cb bd 26 24 94 bd
       0.0929694 -0.005886644 -0.099235326 -0.07233457
0000b0 24 1c 79 bd a0 2f 8e 3d 34 f4 5a bd c0 1e 17 3b
       -0.060817853 0.069426775 -0.053455546 0.00230591
0000c0 14 c7 bc 3d be 0c a3 bd 98 8b 4d 3d 7e 8d b5 3d
       0.09217659 -0.07961415 0.050181955 0.08864878
0000d0 b8 74 b9 bd 84 03 8d bd d0 40 6b bc 8e 27 f2 3d
       -0.090554655 -0.06885436 -0.014358714 0.11823951
0000e0 10 65 3d bd cc 6a 79 bd 54 bc b6 bd 0a 3f 9c 3d
       -0.04623896 -0.060892865 -0.089226395 0.07629211
0000f0 1a 88 8f bd 10 bf f1 3d e0 70 bd bb f4 ee 7a bd
       -0.07008381 0.118040204 -0.005781278 -0.06126304
000100 48 48 c9 3c e8 c3 d4 bd be 22 f0 3d 28 5d 9b bd
       0.0245706 -0.10388929 0.117253765 -0.075861275
000110 cc c0 f1 3d b6 ef d1 3d a4 c5 41 bd f4 5e af 3d
       0.11804351 0.10250799 -0.047307625 0.08563033
000120 d4 1b 4b bd a0 e7 82 bd 10 ca 0c bc 60 dc 40 3c
       -0.049587086 -0.06391835 -0.008593097 0.0117712915
000130 30 c5 59 bd 66 ea b4 bd a0 4a 1b 3c 60 2c 4c bc
       -0.05316657 -0.088337705 0.009478241 -0.012461752
000140 f4 f1 ea 3d 8a 5c ef bd 5a c1 9e 3d 7e 83 f4 3d
       0.1147193 -0.11687572 0.07751723 0.11939143
000150 60 c6 b9 3b ea 14 ec 3d b0 bf 6f bc d0 39 f4 3c
       0.0056694 0.115274265 -0.014633104 0.029812723
000160 94 82 69 3d 88 bb cf 3d 24 15 46 bd a0 12 a3 3c
       0.057009295 0.101431906 -0.048360005 0.019906342
000170 e0 75 d9 bd 6e 89 a0 bd ca d1 cc 3d f4 95 de bd
       -0.10618186 -0.07838713 0.100009516 -0.10868445
000180 18 9d 99 bc fe f5 bf 3d fc dd b1 bd f4 b8 df 3d
       -0.018751666 0.09373091 -0.08684918 0.10923949
000190 20 8c a2 3c 60 33 cd 3c 00 9c f8 bc be b6 88 bd
       0.019842207 0.025048912 -0.030347824 -0.0667548
0001a0 60 b3 c0 bc e0 16 d9 3d b0 a5 fc bd 90 50 0a 3d
       -0.023523033 0.10600066 -0.1233629 0.033768237
0001b0 8a 56 bb 3d 3c b2 1b 3d 3c 0b f1 bd ec 98 d1 3d
       0.091473654 0.038011774 -0.11769721 0.10234246
0001c0 82 2c e9 bd cc 3a 03 3d 48 53 ed bd 10 4e 43 bd
       -0.11385442 0.032038495 -0.1158815 -0.047681868
0001d0 50 42 1f 3d 54 23 63 bd 34 af de 3d 1c ef 61 3d
       0.0388816 -0.055453613 0.10873261 0.055159673
0001e0 f4 01 22 3d 9e 05 ad bd 00 ad d5 3c c0 de 31 bb
       0.039552644 -0.08448337 0.02608347 -0.0027140826
0001f0 00 01 c4 bc 70 81 ef bc 50 4e 47 3d 00 a5 41 bd
       -0.023926258 -0.029236525 0.04865867 -0.047276497
000200 06 66 87 3d c0 c3 98 bb 42 f7 81 3d 44 81 db bd
       0.06611256 -0.004662007 0.06345989 -0.10718015
000210 b4 8e 06 3d 46 3d bc 3d 50 d1 13 3d 8a e3 cf bd
       0.032850936 0.091913745 0.036088288 -0.101508215
000220 4a 2d c7 3d a8 9a cb 3d 00 00 3f 38 80 53 03 3c
       0.09725435 0.09941608 4.553795e-05 0.008015513
000230 ec 2c f1 bd 46 3a d6 3d f6 7a 96 bd 04 a7 fa bd
       -0.11776146 0.104603335 -0.07347672 -0.12238887
000240 f4 85 d3 3d e0 70 8e bd 1e 9b a9 3d 1e 0f 8c 3d
       0.10328284 -0.06955123 0.082815394 0.06838821
000250 a0 e0 9f bd 22 13 85 3d c8 84 6d 3d 00 46 87 3b
       -0.07806516 0.0649779 0.05798796 0.0041282177
000260 98 27 a2 bd 58 1b c9 3d d2 b0 e1 3d c0 15 79 3d
       -0.07917708 0.098196685 0.11020054 0.060811758
000270 98 2b 1e 3d 2c c7 87 bd 38 cc c9 bc d0 a9 8b 3c
       0.038615793 -0.06629786 -0.024633512 0.017048746
000280 e0 26 b9 bc 4e ae b6 bd 5c e3 53 bd b6 79 cf bd
       -0.022601545 -0.08919965 -0.0517305 -0.101306364
000290 fc b8 15 bd 98 90 e2 bd 14 78 d4 3d 18 aa c5 bd
       -0.036553368 -0.11062735 0.103744656 -0.096515834
0002a0 8e c8 ba bd 9a 48 c3 bd 1a 12 ff bd 40 1f 7d 3c
       -0.09120284 -0.09535332 -0.124546245 0.015449345
0002b0 32 17 ad bd 80 6f f4 bd e0 de 04 3d 28 aa ce 3c
       -0.0845169 -0.119353294 0.032439113 0.025227621
0002c0 e0 fc 38 3c 94 46 8e bd 5a 08 b3 3d f4 e0 84 3d
       0.011290759 -0.069470555 0.08741827 0.06488219
0002d0 4c b5 01 bd e0 75 19 bd 74 e8 58 bd 9c 57 ea 3d
       -0.03166704 -0.03746593 -0.05295606 0.114424914
0002e0 bc 65 19 bd 46 d0 d6 bd 00 02 d0 3d a0 a3 d9 bc
       -0.037450537 -0.10488944 0.101566315 -0.02656728
0002f0 c2 cc cd bd 60 24 13 3d 4a 83 d6 bd e0 9d 4e bd
       -0.1004882 0.03592336 -0.1047426 -0.05044353
000300 a4 c8 52 bd 44 b9 b0 3d 50 3d 2d bd 2c 02 cd bd
       -0.051460877 0.086290866 -0.0422948 -0.1001018
000310 52 f0 f7 bd a2 79 fa 3d 90 cb 9e 3d a0 fe e5 3b
       -0.12106384 0.12230231 0.0775367 0.007018879
000320 cc e9 2c 3d 70 45 7a 3c be f8 ab bd c8 a6 a8 bd
       0.042215154 0.015275344 -0.08397053 -0.08234936
000330 80 77 12 3c 58 32 1c bd c0 ff e4 bb 98 df 35 bd
       0.008939624 -0.03813395 -0.0069884956 -0.04440269
000340 cc 0a 93 bd 54 73 77 bd b0 69 6e 3c e0 fc 7c bc
       -0.07179794 -0.06041272 0.014551565 -0.0154411495
000350 68 fb df 3d 48 c8 db 3d bc c5 c3 3d f6 e8 96 bd
       0.10936624 0.1073156 0.09559199 -0.073686525
000360 22 37 ac 3d 08 b3 56 3d 50 0c fd 3d 60 b7 a9 3d
       0.08408953 0.05241683 0.12355864 0.08286929
000370 8e 90 91 bd 64 c0 bd bd 58 fc c8 3d 00 f4 ea 39
       -0.0710765 -0.09265211 0.09813756 0.00044813752
000380 92 74 f2 bd 58 bf 46 3d c8 aa e1 bc ba e9 be 3d
       -0.1183864 0.048522323 -0.027547255 0.093219236
000390 24 ce ba bd 90 4c 23 bc e0 a0 b4 3b 1e 73 e6 bd
       -0.091213495 -0.009966984 0.005512342 -0.112524256
0003a0 90 c1 e7 3c 60 d2 49 3d 28 50 ea bc f4 73 8e bd
       0.02829054 0.049272895 -0.028602675 -0.0695571
0003b0 28 db 15 3d 20 40 d6 bc 7c 93 57 3d 08 b1 a2 3c
       0.036585957 -0.026153624 0.052630886 0.019859806
0003c0 c6 7b 81 bd 4a df d8 bd 10 53 9e bc 60 68 4b bd
       -0.06322436 -0.10589464 -0.019326717 -0.049660087
0003d0 20 7e f0 bb b0 2b 52 bc 20 0a 9f 3c 9a f2 cc 3d
       -0.007339254 -0.012827799 0.019414008 0.1000721
0003e0 60 e6 79 bc 80 66 84 3d b0 23 0d bc 78 8a fd bd
       -0.01525268 0.06464863 -0.008614466 -0.123799264
0003f0 4a ca f5 3d cc 00 a2 3d 48 8d 92 bd a0 12 cf bc
       0.12001474 0.07910308 -0.071558535 -0.025277436

fc2.bias_ih_l0 f4 [256]
000000 38 20 08 bd db 44 06 be 7b 54 96 3a 2c c9 0a be
       -0.03323385 -0.13112204 0.0011469269 -0.13553303
000010 db 08 fa 3d fc fe 64 bc 25 9a 1f 3d 07 a4 93 bc
       0.1220872 -0.013976809 0.038965363 -0.01802255
000020 0e 85 fd 3d 77 b1 ca bd cc ef e3 3c e7 fc 4e bd
       0.12378894 -0.0989713 0.027824305 -0.050534155
000030 28 99 cb bd 4b c9 ce 3d 41 28 7f 3d 0c 62 94 bd
       -0.099413216 0.10096987 0.06229425 -0.072452635
000040 67 e6 df 3d e2 56 86 bc 31 e1 78 bd 15 1c ce 3d
       0.10932618 -0.01639885 -0.060761634 0.1006395
000050 98 90 c6 3c 70 c7 1d bc 85 a6 19 be c7 c3 b1 3d
       0.02423887 -0.009630069 -0.15004928 0.0867992
000060 52 89 90 3d de 51 19 3e bf cb 19 3e 98 61 8d bd
       0.07057442 0.14972636 0.15019129 -0.0690338
000070 a8 bb 12 3b 86 07 eb 3c c6 39 06 3d 8e ea 83 3d
       0.0022389684 0.02869011 0.03276994 0.06441222
000080 1c d4 b7 3a 0b 37 fe bc 9e 36 a6 3d 43 04 4e bc
       0.0014025006 -0.031032106 0.08115886 -0.012574258
000090 8e 1a b2 bd 02 87 df bd c2 bf d0 bd 22 11 8d 3b
       -0.08696471 -0.109144226 -0.10192825 0.004305021
0000a0 18 88 ab 3c 94 8f d6 3c 59 ef 38 bd f1 e1 da 3c
       0.020938918 0.02619151 -0.045150135 0.026719065
0000b0 3a db 00 bb f2 ac eb 3d 30 bc 80 bc 91 88 16 3e
       -0.001966192 0.11507596 -0.015714735 0.14700533
0000c0 69 79 23 3d 31 97 4e 3b 0c 5e 37 bd f9 09 6f 3c
       0.039910708 0.0031523223 -0.044767424 0.01458978
0000d0 46 f0 d9 3d cc 92 ee 3c d6 85 df 3d 7d 45 3d 3d
       0.10641532 0.029122733 0.10914199 0.046208847
0000e0 39 6c 9b 3d fd 7a 0e 3e af 31 ce 3c e0 be 60 bd
       0.07589001 0.13914104 0.025170175 -0.054869533
0000f0 93 cd b4 3d ef fa f9 3d 18 63 21 3e c8 1f 83 3d
       0.08828273 0.12206065 0.15760458 0.06402546
000100 92 c2 81 bd 18 bd f3 3c 02 05 bb 3d d0 a8 ef bd
       -0.063359395 0.029753253 0.091318145 -0.1170212
000110 ec 9b 86 bd 10 61 33 bd 34 65 07 bd a2 5d cd bd
       -0.065727085 -0.043793738 -0.0330555 -0.10027625
000120 ee 68 b6 3d c0 97 71 3c fc ad 5c bd a0 4b d4 3d
       0.089067325 0.014745653 -0.053876862 0.10365987
000130 fa 33 a5 3d f4 d5 f4 bd 50 73 04 bc c0 2c cd bd
       0.08066554 -0.11954871 -0.008084133 -0.10018301
000140 d4 51 38 3d 30 7a 4b bc 6c bc a7 bd 64 29 1e bd
       0.044999912 -0.0124192685 -0.081902355 -0.038613692
000150 e6 b7 fd 3d 56 73 d7 bd 20 30 ef 3c 40 83 9c bb
       0.123885915 -0.105200455 0.029197752 -0.0047763884
000160 4e c5 ea 3d 48 49 b1 bc 82 bc bc 3d 96 0c d6 bd
       0.11463414 -0.021641389 0.092156425 -0.10451619
000170 00 00 ea bd 30 41 c4 3c 8e 68 f1 bd 74 f9 89 bd
       -0.11425781 0.023956865 -0.1178752 -0.067370325
000180 44 3c ef bd de b8 f3 3d d0 3d 23 bd 40 be 9f 3d
       -0.11681417 0.11900495 -0.03985387 0.07799959
000190 5c 1e 54 bd 60 c5 93 bb a0 96 1b bd c0 59 41 bd
       -0.051786765 -0.004509613 -0.037985444 -0.047204733
0001a0 2c 5b 92 3d 70 de b2 3d e8 41 ae bc 76 a3 a4 3d
       0.07146296 0.08733833 -0.02127166 0.0803899
0001b0 78 a9 ba 3c d8 32 ed bd bc 1b 71 bd 8c 31 40 bd
       0.022785887 -0.11581963 -0.05886434 -0.04692225
0001c0 26 cf cb bd a0 be a2 bb 1e dd fe 3d 80 ab 5c bd
       -0.0995162 -0.004966572 0.124445185 -0.053874493
0001d0 42 60 b1 bd 96 22 ff 3d 40 1e 47 bb d2 e5 e0 bd
       -0.08660938 0.124577686 -0.003038302 -0.10981335
0001e0 08 9e fc bd 5a ee 97 3d 4a 50 90 bd 96 04 eb bd
       -0.123348296 0.07418509 -0.07046564 -0.11475484
0001f0 f8 f1 95 bd 48 39 c0 bc 28 97 f4 bd 40 87 6d bd
       -0.073215425 -0.023464814 -0.11942893 -0.057990313
000200 78 f7 64 3d 9a 92 84 3d 89 19 c2 bd 15 4a 40 3d
       0.055900067 0.064732745 -0.09477527 0.04694565
000210 1c 65 7c 3d f0 97 59 3d 4f eb ae bd 2b a0 2b bc
       0.061619863 0.053123415 -0.08540975 -0.010475199
000220 f4 ca 15 bd dc 88 f0 3b 40 25 c6 bb 8a a4 19 bb
       -0.036570504 0.0073405337 -0.006046921 -0.002344402
000230 e0 ee a8 bb 60 23 d9 3d de f2 a0 bd c2 47 66 bd
       -0.0051554292 0.1060245 -0.07858823 -0.056220777
000240 d6 c6 91 bd a2 27 fd 3c 48 4d 9b 3b df 25 10 3e
       -0.07118003 0.030902687 0.0047394373 0.14076947
000250 1c 66 3b 3d 88 fe 12 3d c8 72 8e bd 10 8e b2 bd
       0.045751676 0.03588727 -0.069554865 -0.087185025
000260 65 e4 8a bc 1a dc dc bd 7a 26 1f 3d 98 c1 cc 3c
       -0.01695461 -0.107841685 0.038855053 0.024994656
000270 40 17 0e 3c 97 3b b7 3d ac b5 eb bd a8 dd 9a 3d
       0.008672535 0.08946913 -0.115092605 0.07561809
000280 ce 70 0c bd d0 84 ef bd c4 d7 47 3c 12 e1 aa bd
       -0.034287266 -0.11695254 0.012197439 -0.0834371
000290 75 43 b5 bd da d9 cc 3d 64 55 c7 3d 6a b0 c8 3d
       -0.08850757 0.100024894 0.09733084 0.09799273
0002a0 e0 72 23 bc 4f 2f e6 bd f2 d8 57 bd 1e d9 91 3d
       -0.009976119 -0.11239492 -0.05269713 0.0712149
0002b0 c8 39 da 3c 47 33 63 bd de 66 5e bd 33 d1 e9 3d
       0.02663888 -0.055468824 -0.05429732 0.11416855
0002c0 28 61 92 bd 58 54 92 3c 4c 36 77 3c f4 b9 b3 bd
       -0.07147437 0.017862484 0.015088629 -0.08775702
0002d0 ca c2 8f bc 23 85 44 bc 26 2e f8 bd 8c 51 dd 3d
       -0.017548937 -0.011994633 -0.12118177 0.108065695
0002e0 b9 5f 9c 3c 70 03 fe 3c 40 6d 2f 3b 80 87 59 3d
       0.019088613 0.031007499 0.0026768 0.05310774
0002f0 d0 79 ec 3d 54 06 1b bd 96 66 3c 3d f1 7f d7 3d
       0.115466714 -0.03784783 0.04599627 0.1052245
000300 63 a1 dc 3d d0 39 82 3d 4c 85 fc 3c db cf 02 3d
       0.107729696 0.06358683 0.03082528 0.031936508
000310 46 1d 56 3b 24 f7 f1 3d c9 c0 77 3d 66 13 73 3d
       0.0032671257 0.118147165 0.06048659 0.05934467
000320 f7 c1 b6 3d 59 3b 3d bb 73 e9 ad bb f0 ff 40 bb
       0.089237146 -0.0028874485 -0.0053073703 -0.0029449426
000330 e1 f7 ca bc 43 6e 9a 3d 34 f2 4a 3d e7 91 12 3e
       -0.024776401 0.07540562 0.04954739 0.1431347
000340 5d cc ca 3d 02 96 9d 3d 7e 27 87 3b 70 dc 8c bd
       0.099022605 0.07694627 0.004124581 -0.068779826
000350 9f a6 28 3e 05 cd 57 3d f6 51 b6 3d e0 76 8b 3d
       0.16469811 0.052685756 0.089023516 0.06809783
000360 e6 0a 94 bc d7 2e e0 bd aa d1 15 3c 19 c0 97 bd
       -0.018071603 -0.10946434 0.009144226 -0.074096866
000370 20 80 2a bc 1d ec 04 bb 17 26 bc 3d 5a 78 af 3d
       -0.010406524 -0.0020282336 0.091869526 0.08567877
000380 01 e1 ee 3d b7 e4 cd bd 56 56 a8 bd b5 1f 04 bd
       0.1166401 -0.100533895 -0.08219592 -0.0322568
000390 c5 d5 86 3d c1 5a 78 3d ea bd 45 3d d2 a1 a9 bd
       0.06583742 0.060633425 0.04827682 -0.08282818
0003a0 8a f2 e6 bd a0 95 a4 bd 63 37 48 3d 6a 98 bb 3d
       -0.112767294 -0.08036351 0.048880946 0.0915993
0003b0 07 13 d7 bb 01 76 0a be f2 f2 05 bd 85 93 2a be
       -0.0065635475 -0.13521577 -0.032702394 -0.16657837
0003c0 00 37 48 3d 20 c4 be bd 10 ee c7 3c a5 59 3d bd
       0.048880577 -0.093147516 0.02440551 -0.04622807
0003d0 be 64 18 3d 14 57 82 ba 00 4b 21 3d 6e d0 c5 3d
       0.03720545 -0.0009944164 0.039378166 0.096588954
0003e0 6f 8a b5 bc 01 7f b3 3c 04 6a ac bd c0 e1 80 bd
       -0.022160737 0.021911146 -0.084186584 -0.062930584
0003f0 4f 85 6f bd b9 1f 10 bd 49 56 43 3d 04 71 d2 bd
       -0.058476742 -0.035186503 0.04768971 -0.10275462

fc2.bias_hh_l0 f4 [256]
000000 5c 1c 0d bd 2f f1 11 3c 84 d6 8a bd db c7 f2 bd
       -0.034450874 0.0089076 -0.06779197 -0.11854526
000010 2e 43 09 3d 1a 58 f3 bd 21 a8 8d 3d 9e fb b1 3d
       0.033511333 -0.118820384 0.06916834 0.0869057
000020 92 84 79 bd 8a 66 1b be 39 7d 03 be 7d 27 0e 3d
       -0.060917445 -0.15175834 -0.12840737 0.034705628
000030 c4 59 31 bd af 85 ac 3d 98 b9 8e bd c0 43 86 bb
       -0.043298498 0.084239356 -0.06968993 -0.004097432
000040 e2 ac 5b 3b db 1f a1 bd f5 5f 2b 3d 13 de bb bd
       0.0033519794 -0.07867404 0.04183956 -0.09173217
000050 3a 66 8c bd e8 d0 6e 3d 6f a2 8c bc b3 38 6b bc
       -0.06855436 0.058304697 -0.017167298 -0.01435678
000060 51 0c 95 bd e6 60 02 3e dc 21 91 3d af ff 76 bc
       -0.0727774 0.12732276 0.07086536 -0.015075608
000070 c3 14 60 bc 0f 5c 9c bd 3a 76 ac bd 82 6d 09 be
       -0.013676825 -0.07634746 -0.084209874 -0.1342068
000080 15 1d 8b bd 0a 1c c3 bd 90 03 88 3d f5 06 0b 3d
       -0.06792656 -0.095268324 0.066413045 0.03394218
000090 2c 8c 45 3d 99 ed 2c bd 0c 9b 9a 3d 7b b4 17 bc
       0.04822938 -0.04221878 0.07549104 -0.0092593385
0000a0 30 c9 d3 3d 2b e5 5c 3c 94 ba d2 bd bd 13 82 3d
       0.10341108 0.013482372 -0.10289493 0.06351421
0000b0 33 21 00 3e 49 7b 60 bc d4 0b aa 3d 77 ad 7d 3d
       0.12512664 -0.0137012685 0.08303037 0.061933007
0000c0 82 70 e0 3c 60 da 79 3d 50 d8 48 3d a9 15 78 3c
       0.027397398 0.060999274 0.049034417 0.015141883
0000d0 88 11 9b bb 58 6e de 3d 5e 71 da bb 2b 24 ed bc
       -0.0047323145 0.1086089 -0.0066663465 -0.02894791
0000e0 68 84 1a 3e 18 9f c3 3d 21 3f 03 bd 52 2a ab bd
       0.15089571 0.09551829 -0.032042626 -0.08357681
0000f0 c3 c7 ac 3d c9 25 ba 3d c2 58 6a bc f7 f2 51 bd
       0.08436539 0.09089238 -0.014303388 -0.0512571
000100 a8 45 80 3d 24 a4 13 3d 58 e8 f2 bd 90 e7 78 3d
       0.06263286 0.03604521 -0.11860722 0.06076771
000110 00 e7 5f 3d a8 13 5e 3d a0 3e 06 3c a0 ee 7b bc
       0.05466366 0.054217964 0.008193642 -0.015376717
000120 b4 22 76 bd e0 14 99 bd 88 58 ed bd 38 83 9f bc
       -0.06009169 -0.07474685 -0.115891516 -0.01947175
000130 e2 03 e8 bd c0 83 d4 bd 44 68 51 3d e8 9f cd bc
       -0.113288656 -0.10376692 0.051124826 -0.025100663
000140 78 6c d4 3d 7c 23 6c bd a2 cd fe 3d bc ff da bd
       0.10372251 -0.057651028 0.12441565 -0.10693309
000150 90 ba a2 bc e0 99 40 bc 28 f1 a2 bd 20 4d a8 3b
       -0.01986435 -0.011755437 -0.07956153 0.005136147
000160 6c 91 e0 3d 50 ec 07 bc e0 bc db bd 6c 9b 7d 3d
       0.10965237 -0.008296087 -0.107293844 0.0619158
000170 70 18 2a bc e0 7e 8f bd c8 59 b7 bc 72 ae b8 bd
       -0.010381803 -0.07006621 -0.022381678 -0.09017648
000180 58 fb 80 3d 5c be f4 bd 28 69 db bd 60 40 e2 3b
       0.0629794 -0.11950371 -0.10713416 0.0069046468
000190 80 43 65 3c ec 81 11 bd 44 39 43 bd 9e 0c 84 bd
       0.013993144 -0.035524294 -0.047662035 -0.06447719
0001a0 d0 7d fe bc 8c ad 4d 3d ba 9d 90 bd 84 7e ee bd
       -0.031065851 0.050214335 -0.07061334 -0.11645225
0001b0 32 ff 85 3d 72 83 a9 3d c8 6a eb 3c c0 05 19 3d
       0.06542815 0.08277024 0.02873744 0.037359
0001c0 a4 dc 44 bd 7e 71 cb 3d ce a5 c9 bd 58 1b f8 3d
       -0.04806198 0.09933756 -0.09846078 0.121145904
0001d0 e8 76 8e 3d fe 10 e8 3d 00 78 7d 3c 64 01 38 bd
       0.06956273 0.11331366 0.015470505 -0.0449232
0001e0 3c 9b 4c bd 80 01 c8 3d 80 f2 43 3b 20 68 25 bd
       -0.04995273 0.09765911 0.002989918 -0.040382504
0001f0 4c 81 fd bd b6 4f 9c 3d 16 8b a5 3d 32 19 b4 3d
       -0.12378177 0.07632391 0.08083169 0.08793868
000200 df 9d 7b 3b 58 3c fa 3d 9d 41 fc 3d c8 c4 c1 3c
       0.003839366 0.12218541 0.12317202 0.023653403
000210 8b 83 17 3e 04 34 a1 3d b9 40 5d bd a1 b2 de 3c
       0.14796273 0.07871249 -0.054016802 0.027184786
000220 70 fe 10 3c 34 36 08 3c f4 a7 72 bd 65 73 69 3d
       0.008849725 0.008313704 -0.059242204 0.056994814
000230 00 b8 2f 3d fe 3f b2 3d 7a 5a fc 3c 72 46 04 be
       0.042900085 0.08703612 0.030804861 -0.12917498
000240 c8 f2 1b bd fd 8c 08 bd ec e6 f9 3d 37 88 f4 bc
       -0.03807333 -0.033337582 0.12202248 -0.029850109
000250 76 8b a5 bd 63 f6 e9 3d 18 17 82 bd d4 62 c1 ba
       -0.08083241 0.11423948 -0.06352061 -0.0014754185
000260 bb f9 80 bc b4 ad 93 3d 0e 53 2c 3d 8e 94 97 bd
       -0.01574408 0.072108656 0.042071395 -0.074013814
000270 f2 f2 e8 3d 73 54 7d 3c 04 c6 90 3d c4 2b 31 3d
       0.11374463 0.015462029 0.070690185 0.04325463
000280 89 c2 61 bb b4 64 eb 3d 3e a7 41 3d 88 91 d4 3d
       -0.0034448227 0.11493817 0.047278635 0.103793204
000290 48 43 20 be e0 fa f4 3d 62 14 b5 bd 64 f1 49 bd
       -0.15650666 0.11961913 -0.08841778 -0.049302474
0002a0 a2 a1 83 bd 96 4a 0e be 94 05 a4 3c 1c 9b a3 bd
       -0.064273134 -0.1389564 0.020022191 -0.07988569
0002b0 4c e3 0b bd 96 87 33 3d d4 21 8f 3d 87 19 ce 3c
       -0.034152314 0.043830477 0.06988874 0.025158657
0002c0 c4 51 44 bd c4 64 72 3d d3 ad d9 3d c3 ba 2a bd
       -0.04792954 0.05917813 0.106288575 -0.041682016
0002d0 3c e2 b9 bd 31 da 09 3e 48 b0 ad 3d 86 c4 e6 3d
       -0.09076354 0.1346214 0.084808886 0.112679526
0002e0 f0 e9 05 3e 18 0a 20 3d 5e 1f ad 3d be 7e aa bd
       0.13077521 0.039072126 0.084532484 -0.083249554
0002f0 b8 f7 40 bd 1c ec 2a 3d bc 59 23 3d 60 0a 16 bd
       -0.047111243 0.041729078 0.0398805 -0.036630988
000300 83 b8 15 3c 26 b0 c2 3d 2f ce d7 bd 11 e3 7a bd
       0.009138229 0.09506254 -0.10537373 -0.061251704
000310 06 cf 85 bd d2 c2 a4 bd 9b 81 89 3d 37 65 e4 3d
       -0.06533627 -0.080449715 0.067141734 0.11152118
000320 d9 8c 16 be 17 e4 19 b8 f8 db 29 bc 9b 4f 9a bc
       -0.14702167 -3.6690468e-05 -0.010367386 -0.018836787
000330 a9 da c8 bd 1a 47 4e bd 33 d7 fa 3d 99 5d 18 3e
       -0.09807331 -0.050360776 0.12248077 0.14879455
000340 85 3d 83 3d 5d 8c 87 3d 99 af 12 bc cc 96 22 3e
       0.06408218 0.06618569 -0.008952999 0.15877837
000350 76 14 fd 3d f9 64 66 3d 50 32 b1 bc bb 97 15 bd
       0.12357418 0.05624864 -0.021630436 -0.036521655
000360 1a f2 e7 3c 0b 1b 97 bd b2 5c 01 bc 50 5d 36 3c
       0.028313685 -0.07378205 -0.007895635 0.011130646
000370 8c 7c 72 bd 89 21 72 bd d8 b5 ff 3d 7c a0 88 bd
       -0.05920081 -0.059114013 0.12485856 -0.06671235
000380 db 48 06 3d da f5 13 be bf a9 05 be 6c 7c 66 3d
       0.032784324 -0.14449254 -0.13053034 0.056271
000390 de 4b 0b 3d 55 c4 c9 bd e7 db 0f 3b b8 9b eb 3d
       0.0340079 -0.098519005 0.002195114 0.1150431
0003a0 78 29 d8 bc 94 e3 a9 3d 95 64 00 3e 86 59 e4 bd
       -0.026386961 0.0829536 0.12538369 -0.11149888
0003b0 19 45 db 3d 9f 65 a0 bd 8a df a2 3d 44 ee 99 bd
       0.10706539 -0.07831883 0.07952793 -0.07516149
0003c0 27 9b 99 bd 9e 4c ca 3d f8 23 17 3d 45 f3 98 bd
       -0.07500296 0.09877895 0.036899537 -0.07468275
0003d0 83 af d6 3c 72 df 05 bd 00 89 53 bc 20 80 06 3c
       0.026206737 -0.032683797 -0.012911081 0.008209258
0003e0 7c 43 cf bc ef 63 12 bd 00 8e d4 bd 46 a1 5b 3d
       -0.025300734 -0.035739835 -0.10378647 0.0536206
0003f0 cb d1 60 bd ad 14 0f be 5b a9 74 3d f9 ee ab bc
       -0.054887574 -0.13972731 0.059731822 -0.020987974

fc3.weight f4 [3, 64]
000000 56 b3 c3 3d 6a fc a4 bb b2 0f bc bb 8a 97 f0 3f
       0.0955569 -0.005034973 -0.0057391757 1.8796246
000010 1d c6 ad 40 55 43 1e 3e 6d 3f 4f 3d 98 93 8f 3e
       5.4304338 0.15455373 0.050597597 0.28042293
000020 c3 2d 0c 3e 88 9c 94 3f 00 04 28 bb 9e 9d 1b be
       0.13689332 1.161027 -0.002563715 -0.15196845
000030 66 d8 ea 3d 5f 7d 03 3d 5f ee d2 be 30 aa 25 c0
       0.11467056 0.032101985 -0.41197488 -2.5885124
000040 5d 93 87 3d 00 5f 46 bf 92 f3 81 bc 1c 8c 83 3e
       0.06619904 -0.7748871 -0.015863214 0.25692832
000050 7e 15 84 bf 46 29 35 bd d1 b2 ec 3c e8 2f 74 be
       -1.0319059 -0.044228815 0.02889386 -0.238464
000060 6d b5 be 3e d7 9f 3a be 88 42 9f be a8 04 b1 3d
       0.37247792 -0.18225037 -0.31105447 0.08643466
000070 b0 cf 5e bd 8f a6 44 be bd d8 0a 3f 12 85 6b bf
       -0.054397285 -0.19204162 0.54236966 -0.91999924
000080 ba d3 3e 3e 50 b8 2b 3d 5a 87 e7 bd 48 98 6b bd
       0.18635455 0.04192382 -0.11305113 -0.057518274
000090 4a 3d 1b 3f 33 64 45 3d 01 5a 8c 3d 80 82 9c 3d
       0.60640395 0.04819126 0.068531044 0.076420784
0000a0 b0 61 5e bc 20 65 9d be 60 38 04 be ee 9e 1a 3f
       -0.013573095 -0.30741215 -0.1291213 0.6039876
0000b0 28 66 46 3e ae b8 9a be db ee 86 40 8a 6e 8f bd
       0.19374907 -0.30219024 4.216657 -0.070035055
0000c0 a8 df 1a 3e bb c5 81 3c 58 ba 0e 3f 6d 0f c6 3e
       0.1512438 0.015841356 0.5575309 0.38683644
0000d0 9d a8 e1 3e 24 21 94 3e e8 11 82 bc 67 af 2e 3d
       0.44073954 0.28931534 -0.015877679 0.042647745
0000e0 b6 7a 02 3f 6e 78 20 bf aa 25 48 be 7c 94 32 3e
       0.5096849 -0.6268376 -0.19545618 0.17439455
0000f0 e1 01 a4 3d d7 1e 41 3e 1a 3a 3c 3e 1c c7 d6 bd
       0.08008171 0.1885942 0.18381539 -0.10487196
000100 e0 b5 ae bc 67 ad ac bc 01 e9 e8 3d 9d 46 51 40
       -0.02132696 -0.021078778 0.11372567 3.269935
000110 73 7c a1 41 1e 2d 06 3e 0a 75 a5 3c 3c c1 20 40
       20.185766 0.13103148 0.02019741 2.511794
000120 18 5b a0 3e cd 2b 9e 40 bc d2 5e 3d 72 5c 64 be
       0.313195 4.942847 0.05440019 -0.2230089
000130 a3 f6 9f 3d 96 ea 17 be a8 a0 1e c0 ca eb 67 c1
       0.07810714 -0.14835581 -2.4785557 -14.495066
000140 34 bf 13 40 00 d1 28 c0 13 25 0b 3e 16 33 13 40
       2.308545 -2.6377563 0.13588361 2.299993
000150 36 cb 0e c0 8f 58 f3 3d 08 62 db bd ef 08 26 be
       -2.231153 0.118821256 -0.10712057 -0.16214345
000160 92 50 a2 3e 36 4c 38 3e a8 29 11 c0 79 c6 6e 39
       0.31702095 0.17997822 -2.2681675 0.00022771386
000170 73 8e 9e bc 41 f3 65 3f d3 f2 bb 3e c2 70 97 c0
       -0.019355034 0.898243 0.36708698 -4.7325144
000180 71 58 bd 3f 17 8e ab 3d 8a 72 77 bd 67 39 8e bd
       1.4792615 0.08376711 -0.060411967 -0.069445424
000190 f4 6b 8a 3f 64 39 14 be f4 7b f6 3d 4d 3c 73 bd
       1.0814195 -0.14475018 0.12035361 -0.05938368
0001a0 4e cd c4 3d d2 71 2c c0 5b 44 01 bf 2f a8 6e 3f
       0.09609471 -2.694447 -0.5049493 0.9322538
0001b0 84 b4 2b 3e 86 67 52 be 54 e7 ab 41 d0 56 b0 bd
       0.1676808 -0.20547304 21.487953 -0.08610308
0001c0 f9 3c 0b 3d 48 37 b4 bd 3a ba 1a 40 8a 8d e2 bd
       0.033993695 -0.087996066 2.4176164 -0.11062153
0001d0 dc f0 30 40 62 f2 06 40 c1 af a7 bd 20 1b e6 3b
       2.764701 2.1085439 -0.08187819 0.0070222765
0001e0 b8 ed 25 40 da 2b 2b c0 14 4f fb 3c 0c b7 72 3d
       2.5926342 -2.6745515 0.030677356 0.0592566
0001f0 d4 23 2d bd 15 03 8f 3d 6e 7c 25 40 aa 8e 1e be
       -0.042270496 0.0698301 2.5857196 -0.1548411
000200 e6 c4 e0 3c e6 05 a7 3c 22 70 71 bd 08 49 e4 3f
       0.027437638 0.020388555 -0.05894483 1.7834787
000210 0a ce b6 40 40 af aa bd 97 e3 cd 3d 47 bc 8d 3e
       5.7126513 -0.083342075 0.10053175 0.27682707
000220 9c 1c 70 3e 88 62 73 3f ee 11 cd 3d 7b 37 eb bd
       0.23448414 0.9507222 0.100131854 -0.114851914
000230 c8 02 98 bc ff 91 38 bd b7 42 23 bf fb 07 1c c0
       -0.018556014 -0.045061108 -0.63773674 -2.437987
000240 40 34 76 3e cb 4f 68 bf 51 73 0b 3e 44 74 5c 3e
       0.2404337 -0.90746754 0.13618208 0.21528727
000250 a3 9b 3f bf 3a 93 e8 3c f8 06 33 be 5f 28 13 be
       -0.7484686 0.028390516 -0.17483127 -0.14370869
000260 10 62 77 3e c5 e0 bb be de 8c 5c be e5 a7 e2 3d
       0.24158502 -0.36694923 -0.21538112 0.110671796
000270 48 1c b2 bd 34 0c 94 bd c8 6d dd 3e 8b 64 00 bf
       -0.086968005 -0.0722889 0.4324782 -0.50153416
000280 dc e6 dd 3e 74 a2 a8 bd 92 cb d4 bd 0b 77 cb bc
       0.43340194 -0.082341105 -0.103903905 -0.024837038
000290 47 eb 38 3f 80 62 09 3e 53 56 37 3e 7a 05 29 bc
       0.72234005 0.13416481 0.17904024 -0.010316247
0002a0 20 39 84 3c fd 13 e7 be 00 3c 7e be c4 7d e4 3e
       0.01614052 -0.45132437 -0.24827576 0.44627202
0002b0 56 1c 47 3e 35 15 3c be a9 1c 8a 40 37 8b e7 3c
       0.19444403 -0.18367465 4.3159986 0.028264625
0002c0 94 06 05 3e 01 ef fb 3d 37 24 f9 3e 68 50 5c 3e
       0.1299079 0.12301446 0.48660442 0.21515048
0002d0 37 02 e5 3e e2 db c6 3d 26 c1 cd 3d 68 c3 61 bd
       0.44728252 0.09709908 0.10046606 -0.055117995
0002e0 7d 0d 34 3f 3b 8a 25 bf c1 1d a5 bc 14 c4 e7 3a
       0.7033308 -0.6466405 -0.02015579 0.0017682337
0002f0 50 f6 66 3d ec 74 0e 3e 01 2e ee 3e 24 4f 69 be
       0.056387246 0.1391179 0.46519473 -0.22784096

fc3.bias f4 [3]
000000 f3 65 80 3e e0 37 15 40 f7 10 42 3e
       0.2507778 2.3315353 0.18951784
