Models/LSTM/agentDQN-LSTM_2018-2020_lstm_v4_300_EPS_1.pth (torch, 256291 bytes, 8 tensors)

fc1.weight f4 [128, 104]
000000 c6 68 6e 3e 44 ee 84 bd 0f 9e 25 3e 51 4c 23 3d
       0.23282155 -0.06490758 0.16173576 0.039867703
000010 9d bb 57 3e 77 13 46 3e 37 cc 7f 3e 0f 4d 9f 3d
       0.21067663 0.19343363 0.24980246 0.0777837
000020 7d 1a 80 3e 1e 64 2a 3e bf 9f 63 3e 37 93 3d 3e
       0.2502021 0.16639754 0.22228907 0.1851319
000030 b2 4c 21 3e ab e0 5a 3e c5 12 e3 3d 8b b5 13 3e
       0.15751913 0.21374767 0.110875644 0.14424722
000040 9b f0 df 3d b4 22 b3 3d 73 3c 6b 3e 00 2c 3a 3e
       0.10934564 0.087468535 0.22972278 0.18180847
000050 26 62 82 3d aa b3 5a 3e 34 03 50 3e 7c d0 06 bf
       0.063663766 0.21357599 0.20313722 -0.5266187
000060 3d b1 06 3e 6c d5 80 3e a2 b1 ea 3d 7e 9c 6c be
       0.13153549 0.25162828 0.11459662 -0.23106572
000070 d9 1d 35 bd a4 83 60 3b 6c 4f 39 be f4 5e 77 bc
       -0.044217918 0.0034258151 -0.18096703 -0.015098322
000080 28 34 f6 bc e0 27 65 be 6c f1 3e be ad 89 41 be
       -0.030054167 -0.22378492 -0.18646783 -0.18900175
000090 ce 66 6d bd c5 dd d6 bd 2f 6c 0c be a3 09 0d be
       -0.05795937 -0.10491518 -0.13713144 -0.13773207
0000a0 d7 d4 3b be a8 14 fb bd 7c 63 30 be 42 27 c0 be
       -0.1834291 -0.12259799 -0.1722545 -0.3752995
0000b0 c7 07 79 be 06 97 ab 3d b1 a3 52 3e 54 ec 47 3d
       -0.24319373 0.08378415 0.20570256 0.048809364
0000c0 f1 da a9 3e 6d 8d 9d be 9f 15 e5 bc d2 37 9d 3e
       0.33174852 -0.30771962 -0.027964411 0.3070665
0000d0 19 a5 31 3e a0 a9 5f bd 12 3c 93 3c 91 28 49 3d
       0.17348136 -0.054605126 0.01797298 0.049110953
0000e0 cb 1d 05 3e 96 42 84 bd 04 34 2b 3e 9b 97 89 3c
       0.12999646 -0.06458013 0.16719061 0.016795924
0000f0 6f f2 11 bf 9f 71 32 3e 0e ea c8 be dd d1 92 be
       -0.5701055 0.17426156 -0.3924107 -0.28675738
000100 3f 95 e4 bd 81 9e 02 be 3b f7 12 3e 43 c2 21 3e
       -0.11161279 -0.12755777 0.14352123 0.15796761
000110 8a 98 47 3e 5d 71 c8 3d a3 7c 30 3e 96 ac 6a 3d
       0.19491783 0.09787247 0.17235045 0.057293497
000120 bc a0 32 3d 0a 84 29 3e 68 78 19 3e 8f 3e 54 3d
       0.04361032 0.16554275 0.14987338 0.051817473
000130 98 fa 12 3e c1 3f 61 3e 21 f3 3a 3e 63 33 61 3e
       0.14353406 0.21996976 0.18256809 0.21992259
000140 bb 66 54 3e 65 67 50 3e 03 38 5e 3e 6a f9 6f 3d
       0.20742314 0.20351942 0.21701054 0.05858747
000150 2c 03 a9 3d e9 88 e2 3d 8b 2a 14 3e b6 bc 38 3e
       0.08252558 0.1106127 0.14469354 0.18040738
000160 d2 93 14 3e 81 ae cd 3d 73 f3 d6 3d f0 59 45 3d
       0.14509514 0.100430496 0.10495653 0.048181474
000170 a4 21 ed 3d 9a 83 50 3e 37 de ee 3c 2a a4 af 3d
       0.11578682 0.20362702 0.029158695 0.08576234
000180 01 1e d2 3d 1b 9f c2 3d c6 eb 41 3e 50 4d d4 bb
       0.10259629 0.09503003 0.18937597 -0.006478943
000190 40 45 d4 3d 54 58 fd b9 6c 14 d9 bb 96 d4 2c 3e
       0.10364771 -0.0004832173 -0.006624749 0.1687797
0001a0 6e 0e 98 bd 97 ba d0 bd c9 6e 27 3e 3b 34 ac 3d
       -0.07424627 -0.10191839 0.16350855 0.084084
0001b0 bb b9 40 3e ce 19 02 3e 59 19 4e 3e 5d 08 15 3e
       0.1882085 0.12705156 0.20126857 0.14553972
0001c0 25 8b 74 3e 9c 2c 66 3e 52 2c 09 3d 71 04 35 3e
       0.23881204 0.22477955 0.033489533 0.17677476
0001d0 ad 8a 3e 3e d0 97 6e 3e 13 d0 17 3e 1d 6c 5b 3e
       0.18607588 0.233001 0.14825468 0.2142796
0001e0 50 53 ab 3e 56 29 9a 3e 56 2c 91 3e 1b 17 84 3e
       0.33462 0.30109662 0.28354138 0.25798878
0001f0 e6 b3 f6 3d 17 82 51 3e 8c 6a 34 3e 06 36 24 3e
       0.12046032 0.20459782 0.1761877 0.16036233
000200 33 42 32 3e 79 ba 54 3d 10 f2 bc be d6 7a 66 3d
       0.17408065 0.051935647 -0.3690343 0.05626949
000210 85 68 32 be 03 69 d5 3c 8b 27 d8 bd 4f 86 1b be
       -0.17422684 0.02605105 -0.10554417 -0.15187953
000220 4c 14 9f bb 7e e1 20 3e 04 49 05 be 7d 96 c3 bc
       -0.0048547145 0.15711018 -0.13016135 -0.02387547
000230 5e 7c d1 3e c2 74 a7 3e 92 2e 34 3e 64 3f 57 3e
       0.40915197 0.32706267 0.1759589 0.21020275
000240 fc 0c 37 3e e5 c6 20 3e 61 6d c3 3d 3b b4 13 bd
       0.17876047 0.15700872 0.09542347 -0.036060553
000250 6d a8 dc 3e eb e1 7f 3e 54 ad 8c 3e 57 bd cb 3d
       0.4309725 0.24988525 0.2747599 0.09948223
000260 72 bf 7a bd 92 4f 1f be ac 2b b0 3e 53 4b 7a 3e
       -0.061217733 -0.15557697 0.3440832 0.24442796
000270 12 36 fe 3d bc 04 a3 3e ea 65 b4 3e a0 be 4d 3e
       0.12412657 0.3183955 0.35234004 0.20092249
000280 b8 28 e0 3d 88 9b 32 3e 58 ae 9c 3d fd 57 90 3d
       0.109452665 0.17442143 0.07650441 0.070480324
000290 46 9d ec 3d b8 b8 c5 3e 5d 84 84 bd b9 58 4c 3e
       0.11553435 0.38617492 -0.06470559 0.1995572
0002a0 ca 33 2f 3e 4c ba 50 be 02 ac 00 3e dc 73 de 3d
       0.171096 -0.20383567 0.12565616 0.10861942
0002b0 0b f5 35 3e ef b5 2d 3e 98 67 5f 3e 88 e5 38 3e
       0.17769258 0.16963933 0.21816862 0.18056309
0002c0 31 58 85 3e 6d b5 81 3e f6 55 58 3e 8d b1 6d 3e
       0.26043847 0.2533373 0.21126541 0.23212261
0002d0 2f 21 1c 3e 20 58 b5 3d d1 1c 44 3e d7 00 17 3e
       0.15247034 0.08854699 0.19151618 0.14746414
0002e0 c1 65 0d 3e 7e fa 88 3e 49 77 30 3e ea 1b 67 3e
       0.13808347 0.2675361 0.17233004 0.22569242
0002f0 f2 5b 2e 3e 57 61 f7 3d 81 22 84 3e 3e be 99 3e
       0.17027262 0.12079113 0.25807574 0.30027956
000300 ee c0 4f 3e c4 9e 2b 3e ff 0d ba 3d 75 f2 42 3e
       0.2028844 0.16759783 0.09084701 0.19037803
000310 c8 8f 59 3e 24 6e 61 3e 93 35 36 3e cd 75 4a 3d
       0.21246254 0.22014672 0.17793874 0.04942875
000320 3e f3 32 3d 05 a1 10 be d0 cb a7 3e 6e 03 58 3e
       0.043689005 -0.14123924 0.32772684 0.21095058
000330 f6 4f 10 3e 4c 6c f5 3d 43 ee 65 3d 8f 0a 59 3d
       0.14093003 0.119835466 0.056135427 0.052988585
000340 fe 97 25 bc 76 dd df bd 17 3c 90 bc 95 4d 8a 3b
       -0.010107039 -0.10930912 -0.017606778 0.0042206743
000350 a2 ec ed 3d c4 5f cf 3a 62 c8 b3 3d 95 29 eb 3d
       0.116174 0.0015821387 0.08778454 0.114825405
000360 c5 82 dc bc 34 db 69 3d 9f 36 9b 3c 9a f3 e6 3c
       -0.026917825 0.057093814 0.018946944 0.02819233
000370 5a 4b 03 bd 57 9c 18 3d 6c 1e 21 3e 46 8b 05 3e
       -0.032054283 0.037258472 0.15734261 0.1304141
000380 ab 97 9a 3d 79 b6 bc 3d 13 2b 23 3e 11 2b e5 bc
       0.075484596 0.092144914 0.159344 -0.027974637
000390 8d f7 02 3d f6 c0 03 3e bf 50 97 3d 83 91 a1 bd
       0.031974364 0.12866578 0.07388448 -0.07889082
0003a0 d7 c8 9d 3d 6b 2c 53 bc f8 dc 74 bc 9f 92 93 bd
       0.07704323 -0.012889008 -0.014945261 -0.072057
0003b0 28 99 95 bd dd 91 bb bd 48 8f 65 be 60 5a 3d bb
       -0.07304603 -0.091586806 -0.22417939 -0.002889298
0003c0 b4 8e 40 3c 9e 93 22 be 34 0b 18 bc 95 83 86 bd
       0.011752773 -0.15876624 -0.009280015 -0.06568066
0003d0 9c 1f 28 bd d2 b4 3b 3d 94 42 d7 bb e9 78 9c bd
       -0.04104577 0.04582674 -0.006569216 -0.07640249
0003e0 5b cd 9b bc 26 6a e1 bd eb 0c b3 bd 99 21 6a 3d
       -0.01901882 -0.11006574 -0.08742698 0.057160947
0003f0 5b 3b 37 3d f1 82 f1 37 ce ad fa bd b3 28 a5 3d
       0.04473434 2.8790413e-05 -0.12240182 0.080644034

fc1.bias f4 [128]
000000 20 23 f4 3d 55 b4 e0 3d e8 f0 78 3d f9 be a2 bd
       0.11920762 0.109718956 0.06077662 -0.079465814
000010 98 61 95 bd 74 41 b0 bd 71 6e d5 3b 23 23 17 bd
       -0.07294005 -0.08606234 0.00651341 -0.036898743
000020 d0 89 59 bd 3a 1e 05 be ae c9 03 bd 7a 9e 20 be
       -0.053109944 -0.12999812 -0.03217476 -0.15685454
000030 8d 59 c2 bd 1f 80 0c 3d 9b 8f d8 3e bd 35 36 3d
       -0.09489737 0.034301873 0.42297062 0.044484843
000040 c1 7d 7a 3e 43 b5 30 be fa e3 3d 3d 03 57 b0 3e
       0.24462034 -0.17256646 0.046359994 0.34441385
000050 43 70 ad bd ae 5d ed bc a7 10 bb bd 2f fa 16 3e
       -0.08468678 -0.028975334 -0.091340356 0.14743875
000060 72 8e 0b be 13 4d 39 bc 58 4e 80 bb f6 5c e8 bd
       -0.13628557 -0.01130988 -0.0039155893 -0.11345856
000070 5b 17 9c bc e0 08 7b 3d b2 56 ba bc 1e 61 be bd
       -0.019054106 0.06128776 -0.022746418 -0.092958674
000080 ab 37 f2 bd d0 32 05 be 50 1e 52 be b1 67 8b bd
       -0.11827024 -0.13007665 -0.20519376 -0.06806887
000090 6a 78 ee bd 47 78 6a 3c c2 95 c7 bd 61 d7 86 bd
       -0.11644061 0.014310903 -0.09745361 -0.06584049
0000a0 15 a4 30 3e 34 ef 35 3e 97 bb 36 3d f8 3a 11 be
       0.17250092 0.1776703 0.044612493 -0.14182651
0000b0 5d a0 02 3e cb 02 17 be 3d 75 38 bd 36 ab 86 bd
       0.12756486 -0.14747159 -0.045033682 -0.06575625
0000c0 77 70 72 bd b5 6f 28 be c0 61 4f bd 4a dc 97 bd
       -0.059189286 -0.16448863 -0.05063033 -0.07415064
0000d0 5c d3 92 bd 44 77 45 be f1 a1 ac 3e 62 10 c0 3d
       -0.0716922 -0.19283777 0.337173 0.09378125
0000e0 5c 44 0e 3e db 8d 93 bd c0 f5 0f bb 8b ed 37 be
       0.13893265 -0.07204791 -0.0021966547 -0.17961709
0000f0 fd 27 bb bc d8 85 31 bd db 24 83 3b 04 71 df bd
       -0.022846216 -0.043340534 0.0040021962 -0.10910228
000100 55 ff 0a 3d 4d 3a 19 3d 9b e3 f5 3e a8 3d 1d bc
       0.03393491 0.037409116 0.48025212 -0.0095972195
000110 18 61 b9 bc 47 de df bd f6 f3 1e be 82 ed 5c be
       -0.022629306 -0.10931068 -0.15522751 -0.21574977
000120 5b 3a 09 3e 2c c3 48 bc 80 75 42 3b e7 09 0b bc
       0.13401167 -0.012253564 0.0029672086 -0.008486248
000130 12 36 ff bd bb 38 94 bd b6 b6 e7 3d 76 7e 40 be
       -0.12461485 -0.07237383 0.11314146 -0.18798241
000140 ef 3f 74 bd f3 96 46 be 98 ca 97 bd 6b dc 96 3e
       -0.059631284 -0.1939352 -0.074116886 0.2946504
000150 bb a8 22 3e ee 22 05 bd 47 42 d9 bd 9d de 85 3c
       0.15884678 -0.032504015 -0.106083445 0.016341502
000160 a2 2e f2 bc fa 58 8a bd 00 88 7c be 68 e8 eb 3c
       -0.029563252 -0.06755252 -0.24661255 0.028797343
000170 9d d2 bd bd a9 30 5d be db bd 4a 3e f3 58 a8 3e
       -0.09268687 -0.21600594 0.19798987 0.32880363
000180 ea 55 22 be 4c 51 34 be 7a 82 6d bd e5 d5 bc 3c
       -0.15853086 -0.17609137 -0.05798576 0.023051212
000190 62 d9 38 be 3d ef 84 be f0 0e d1 bd 86 d3 0c be
       -0.18051675 -0.25963774 -0.10207927 -0.13752565
0001a0 56 38 f4 bd 24 6b 0a be 0e 18 04 3f 90 02 1e be
       -0.11924808 -0.13517433 0.51599205 -0.15430665
0001b0 27 71 36 3e 8d b2 aa 3e 69 31 e2 bd 18 0c 9e bd
       0.17816602 0.33339348 -0.110445805 -0.077171504
0001c0 a0 f6 86 3e 1f 4a df bd cc 06 2c be bf 01 b5 bc
       0.26360035 -0.10902809 -0.16799468 -0.02209556
0001d0 b8 86 24 be 29 e8 4b 3e 7c bf 6c bd 52 79 a7 bc
       -0.16067016 0.19912781 -0.0577998 -0.020443592
0001e0 97 03 d0 bc fd 70 06 3f 28 8f d2 3d b0 7a 0a bd
       -0.025392337 0.52516156 0.10281211 -0.03380841
0001f0 e8 56 45 3c 42 c2 be bc 6c ec c8 bd 8d da 29 bc
       0.012044646 -0.023285989 -0.09810719 -0.010367048

fc2.weight_ih_l0 f4 [256, 128]
000000 a8 75 e2 bd b8 1f 89 bc b0 5a 7a 3d 20 e0 9c 3d
       -0.110575974 -0.016738757 0.061121643 0.07659936
000010 ca 0d a6 3d 18 05 09 bd d1 86 00 be 48 ac 87 3c
       0.08108099 -0.033452123 -0.12551428 0.016561642
000020 d9 3e 06 bb d9 56 17 bc fe ea 9b bd ee 2b 45 3d
       -0.0020484237 -0.009237015 -0.076131806 0.048137598
000030 d0 1a 07 3e 4c a3 e0 3d aa f9 93 3d 2c ee 9e bd
       0.13193822 0.109686464 0.07225354 -0.077602714
000040 5d 76 00 3e 0a cf 43 bc 58 a9 f2 3c 7d 70 3c bd
       0.12545152 -0.011951217 0.029621765 -0.046005715
000050 1e c4 93 3d 46 47 de 3d 70 89 e0 3c b7 57 b5 bd
       0.07215141 0.10853438 0.027409285 -0.08854621
000060 ba 7a a0 bd 5a fe c2 3d 95 b9 49 bd b0 51 c2 bd
       -0.07835908 0.0952117 -0.04924925 -0.09488237
000070 20 a4 33 3c f8 7a 48 3d e4 6b 8f 3d 04 42 96 bd
       0.010964423 0.048945397 0.070030004 -0.0733681
000080 bf ac 00 be 55 fa 49 bd 2a b6 1f be 6e e3 f0 3d
       -0.12565897 -0.049311 -0.15596834 0.11762129
000090 a2 1e ca 3d c4 e6 47 bd d0 c7 08 bd d2 c9 a2 bd
       0.09869124 -0.04880406 -0.03339368 -0.079486504
0000a0 ce 16 b8 3d 07 2a de 3c e6 4a b4 3d a0 77 f6 bb
       0.08988725 0.02711965 0.08803348 -0.0075215846
0000b0 fd 7f a7 bc 50 83 66 bc 82 93 15 be cd 22 67 bd
       -0.020446772 -0.014069393 -0.14607051 -0.056429673
0000c0 d8 1b e4 bd 2a 05 af bd 88 75 0f bd 1c b2 1f be
       -0.11138123 -0.08545907 -0.035024196 -0.15595287
0000d0 09 fb 91 3d 28 68 ac 3c dc dd 9c bd 5a 11 68 3d
       0.07127959 0.02104576 -0.07659504 0.056657173
0000e0 61 41 6c bd 40 84 5e bb c0 59 a1 bc 57 ce a4 3d
       -0.057679538 -0.003395334 -0.019696116 0.08047169
0000f0 30 98 b8 3d e7 aa 6c 3c 8c 8c 1d bd e0 ce 4a 3c
       0.090134025 0.014445043 -0.038464114 0.012378424
000100 7d 0f 00 be cc 53 d2 bd 71 79 60 3d 4d a4 8e bd
       -0.12505908 -0.10269889 0.054803316 -0.06964932
000110 57 e3 ff bd 10 cd ab 3d 33 3c 59 bd 3e 5a d6 bc
       -0.124945335 0.08388722 -0.053035926 -0.026166078
000120 a8 ca 3d bd 8e 70 b7 3d 10 36 1f 3c b9 d7 19 be
       -0.046335846 0.08957015 0.009717479 -0.15023698
000130 41 18 b4 bd c0 1d 92 3c 93 d5 cd bc ad ef 5a 3d
       -0.087936886 0.017836452 -0.025126254 0.05345123
000140 42 6f d2 3d 6e 55 b4 bd 5d a8 80 3d cc ef 10 3e
       0.10275127 -0.08805357 0.06282113 0.14153975
000150 24 2d 34 bd a4 71 db bd b8 74 72 bd d6 20 b0 3d
       -0.043988362 -0.107150346 -0.059193343 0.08600013
000160 58 2f 8e bd a1 7d 03 be c6 10 f0 3d d2 1b 52 bd
       -0.06942624 -0.12840892 0.11721949 -0.051296063
000170 95 37 96 3c e5 2e ec bd 1d 6f 7e 3d bd 2f fc 3d
       0.01833705 -0.11532382 0.062117685 0.12313793
000180 98 fe 8f 3d 43 65 0c 3e 5a dc af bd 0c 6b 08 bd
       0.07030982 0.13710503 -0.085869506 -0.033305213
000190 56 86 b5 3d e1 82 70 3d 12 89 ba 3c c7 35 1c bc
       0.08863513 0.058718566 0.022770438 -0.009534306
0001a0 d0 ee 82 3c ae cd 40 bd b2 fb 9a 3d 1a b5 8c 3d
       0.015983015 -0.04707115 0.07567538 0.0687048
0001b0 ec 22 8e bc 7a 27 62 3d 58 45 08 3d 0c 9a 0c 3c
       -0.017350636 0.05521343 0.033269256 0.0085816495
0001c0 2e e0 24 3e e2 e4 e2 bd e2 68 82 3d a7 87 5c 3d
       0.16101143 -0.11078812 0.06367661 0.053840306
0001d0 30 8d de bd 5a 44 84 bb 91 25 ac bd 75 ae 99 bd
       -0.10866773 -0.0040364685 -0.08405603 -0.07503978
0001e0 94 eb 8e 3d 37 f2 6b 3d f2 c5 85 bd 60 c3 ea 3d
       0.06978527 0.05760404 -0.06531896 0.11463046
0001f0 7e d4 98 3c 8e 12 bb 3d ba 5d 3d bd 21 d5 df bd
       0.018656012 0.091343984 -0.046231963 -0.10929323
000200 ec 9b a7 bc 1a 95 76 bc 70 c6 64 bc 38 27 a3 3d
       -0.020460092 -0.015050197 -0.013963327 0.07966465
000210 02 65 92 bd b8 c7 db bd 5e 63 cd bd 80 7d 7d 3d
       -0.07148172 -0.10731453 -0.100287184 0.061887264
000220 d8 ed a6 bd a0 f7 c4 3c c0 8f 9e 3b 2e dc 3a bd
       -0.08150834 0.024043858 0.0048389137 -0.045620136
000230 4e 0a b2 3c 40 96 b2 bb ab 4a 15 3e 60 53 4c 3d
       0.02173343 -0.00545004 0.14579265 0.0498842
000240 2d 21 bf 3d 98 34 19 bd c0 2b c6 bd 86 0e ba 3d
       0.093325 -0.037403673 -0.096763134 0.090848014
000250 98 b7 28 bd 00 f7 db 3b 8c 5a 6b 3d f9 d5 6c bd
       -0.041190714 0.0067127943 0.0574594 -0.057821248
000260 e0 eb 26 3c 44 81 b9 3d 42 09 ae 3c 48 b7 f9 3d
       0.010188073 0.090578586 0.021244649 0.12193161
000270 d4 bb 98 bd c6 26 e3 bd 40 05 ac 3c 72 36 e9 3d
       -0.074577 -0.1109138 0.020998597 0.11387338
000280 48 65 2d 3d 22 be 65 3d 90 e0 bc bb 08 cc 87 bc
       0.042332917 0.056089528 -0.0057640746 -0.016576782
000290 b0 95 40 bd 48 e8 d2 3d e0 99 09 bc 80 15 a8 3c
       -0.047017753 0.102982104 -0.008398503 0.020518064
0002a0 90 d1 0d 3e 92 db a5 bd da 02 bd 3d d0 18 3e bc
       0.13849473 -0.0809852 0.092290595 -0.011602595
0002b0 ec 3f 86 3d 00 a2 87 bd ec 58 aa 3d 00 c2 f9 bb
       0.06555161 -0.06622696 0.08317742 -0.0076220036
0002c0 06 b7 fa bd 20 a2 f0 bd 28 0b f3 3c f8 b5 b7 3d
       -0.1224194 -0.11749673 0.029668406 0.08970255
0002d0 00 3c 0e 39 92 24 f2 3d 82 5f cf bd a8 b3 6a bd
       0.00013564527 0.118233815 -0.101256385 -0.05730024
0002e0 26 a0 b5 3d ea 6c e0 3d c0 ed e3 bb 28 1c 15 3d
       0.088684365 0.10958274 -0.0069558322 0.036403805
0002f0 e0 a0 58 3d cf 87 8f bd e4 7f b6 bd 8a 81 bb bd
       0.052887797 -0.07008325 -0.08911112 -0.09155567
000300 20 2f d5 bb 66 5c 97 3d aa 5d cd 3d 88 43 ae bc
       -0.006505862 0.073906705 0.100276306 -0.021272436
000310 14 8a f2 bd 98 f2 c6 bc bc 5c 84 bd fe 55 27 bc
       -0.118427426 -0.0242856 -0.06463 -0.010213373
000320 6c 20 f6 3d ec e0 7b bd 54 90 96 bd 12 b3 c8 3d
       0.12017903 -0.0614938 -0.07351747 0.0979978
000330 f4 c5 76 3d 50 e7 48 3d f2 a1 93 bc fd 62 c8 3c
       0.060247377 0.04904872 -0.018021557 0.024461264
000340 74 a4 8a 3d 5a 1a 8b bd 68 af c6 3d f5 c6 0d 3e
       0.06769648 -0.067921355 0.09701425 0.13845427
000350 80 a9 d8 3b 48 9b d5 3d 99 b6 5b bd 78 88 8a 3c
       0.006612003 0.10430008 -0.053640936 0.016910776
000360 68 bd a3 3c 9e da f7 bd f8 7a de 3d 16 f7 cb 3d
       0.019987777 -0.12102245 0.10863298 0.09959237
000370 cc c9 a1 bd 76 0b 8a bd a6 a1 00 3e 0b 72 3e bd
       -0.07899818 -0.06740467 0.12561664 -0.04649548
000380 52 f5 8f 3d 88 2b 40 3d ac 07 10 3d 7c 54 54 bd
       0.07029213 0.046916515 0.035163566 -0.051838383
000390 e7 f9 d9 3d 4c ef f4 3d 22 74 bb bd 43 e4 15 3e
       0.10643368 0.11959705 -0.0915301 0.14637856
0003a0 84 56 5a bd f1 38 03 bd 95 f8 88 3d d4 77 77 3d
       -0.053305164 -0.032036725 0.06688038 0.06041701
0003b0 00 13 15 3e b0 8b 08 b9 24 97 5b 3d 20 d8 41 3d
       0.14558029 -0.00013022008 0.053610936 0.047325253
0003c0 28 b4 85 3d 94 a0 97 3d bc 7e 69 bd 98 43 83 bd
       0.06528503 0.07403675 -0.05700563 -0.06409377
0003d0 60 1b b5 bb cb 8a 4a bd 00 da 3d bd 2e 49 f4 bd
       -0.005526945 -0.04944877 -0.04635048 -0.119280204
0003e0 f6 11 ac bd 2e d2 ad bc 2a 44 8e 3d d2 99 e2 bd
       -0.08401863 -0.021218386 0.06946595 -0.11064495
0003f0 8a 37 de bd 40 32 af 3b 5d 7f 50 3b 06 91 93 bd
       -0.10850437 0.0053465664 0.0031814196 -0.072053954

fc2.weight_hh_l0 f4 [256, 64]
000000 40 3b e9 bc 5c 74 22 bd ac 47 0c bd 8c 7e 8a 3d
       -0.028470635 -0.03966175 -0.03424804 0.06762418
000010 b8 f3 b9 bd dc 57 41 bd 94 3e aa bd b8 f6 bf 3d
       -0.09079689 -0.04720293 -0.08312717 0.0937323
000020 5e 00 91 3d 00 23 77 bb ba 67 b9 3d c0 8b 05 bd
       0.07080148 -0.003771007 0.090529874 -0.03260398
000030 a0 09 01 bc 8c 86 2b 3d 94 21 73 bd 46 85 90 bd
       -0.00787583 0.04187636 -0.059358194 -0.0705667
000040 c4 ac ba 3d cc eb bf bd 6a 3d bd bd 9e f9 d7 bd
       0.09114984 -0.093711466 -0.092402294 -0.105456576
000050 f0 70 49 bd e0 23 53 3d 2c 73 e7 bd f0 0f bd bc
       -0.04917997 0.051547885 -0.11301264 -0.023078889
000060 78 e7 77 3d e2 91 e6 bd 40 05 6f bc 24 0e 47 bd
       0.06052348 -0.11258294 -0.014588654 -0.04859747
000070 10 71 4f 3d 1c 9f 25 bd 58 84 a0 3d c0 43 5a 3c
       0.050644934 -0.04043494 0.078377426 0.013321817
000080 5a af a2 bd 20 76 a9 bc 9a 3b f8 bd 10 38 a2 3d
       -0.07943602 -0.02068621 -0.12120743 0.07920849
000090 1a d8 b8 bd 10 53 c8 3d c0 93 a9 3b ac 19 06 3d
       -0.09025593 0.09781468 0.005175084 0.032739326
0000a0 f0 b0 92 bc d4 1e ca 3d 2a 38 c1 3d 2a 03 b2 3d
       -0.017906636 0.09869161 0.094345406 0.0869201
0000b0 80 31 84 3d d8 71 dc 3c b4 bd a5 bd b8 d3 46 3d
       0.06454754 0.026909754 -0.080928236 0.048541754
0000c0 ce 1e 8c bd 7a ff b4 3d 1c 82 b5 3d aa 82 b2 bd
       -0.06841813 0.08837791 0.08862707 -0.087163284
0000d0 4c 02 28 bd 16 26 99 3d 12 ad ad bd 60 f4 c3 bb
       -0.041017815 0.074779674 -0.08480276 -0.0059800595
0000e0 18 f6 3c bd 38 5a 42 bd 40 57 af 3d da 5c e9 bd
       -0.04613313 -0.04744932 0.085615635 -0.11394663
0000f0 6e a5 ae bd 7e 6b bd bd a0 7c 71 3c 78 75 d5 bd
       -0.08527647 -0.09249018 0.014739186 -0.10422796
000100 be 9f e5 bd 80 a4 4f 3c e0 31 b2 bb 62 12 84 3d
       -0.11212109 0.012673497 -0.0054380745 0.06448819
000110 08 0f 74 3d 00 4d 0e 3b fa f0 82 3d ac 93 d2 3d
       0.059584647 0.0021713376 0.06393619 0.102820724
000120 0c 6b b2 bd 58 77 ed 3d c0 f4 88 bb d8 09 bf 3c
       -0.08711824 0.11595029 -0.004179567 0.023320124
000130 a0 18 23 bc 50 ca 75 bd ca 6a dc 3d 10 7e e5 bc
       -0.0099546015 -0.060007393 0.10762556 -0.028014213
000140 f4 88 0a 3d c0 de ef bd 1c 59 a8 3d e0 ca 57 3c
       0.033822015 -0.11712408 0.08220121 0.013170928
000150 88 02 37 bd b8 1e 01 bd 66 dd fc 3d f8 5c ac bc
       -0.04468015 -0.031523436 0.12346916 -0.021040425
000160 00 e2 ae bc 00 69 30 3c a0 cd db bc 5e 3e 85 3d
       -0.021348 0.010767221 -0.026831448 0.06506036
000170 30 0d 0a 3c b8 13 81 3d b4 08 3a bd 96 d4 de 3d
       0.008425996 0.06302589 -0.045418456 0.10880391
000180 82 d6 99 bd d8 de db bc dc 30 65 bd b4 c6 55 bd
       -0.07511617 -0.026839659 -0.0559548 -0.05219145
000190 42 e9 9d bd 0c f5 49 3d 16 94 c4 3d c4 d5 ee bd
       -0.07710506 0.04930596 0.09598558 -0.11661866
0001a0 e6 b9 ca 3d 80 d9 9b ba d0 af 0e bc 00 ba 8d 3a
       0.098987386 -0.0011890382 -0.008708909 0.0010812879
0001b0 40 c1 32 bb d8 fe f5 3d ac 71 b1 3d 58 7e 45 3d
       -0.002727583 0.12011498 0.08664259 0.048216194
0001c0 d8 2b b4 bc 6e 9d d0 bd fa bb 99 3d 1e a3 86 3d
       -0.021993563 -0.10186277 0.07506557 0.06574081
0001d0 80 6b 1b bc 1c af 23 3d 20 49 e5 bc 00 ac 04 bd
       -0.009486079 0.03996192 -0.02798897 -0.032390594
0001e0 00 18 12 bd ae 22 da 3d 48 eb 82 bd a2 47 85 bd
       -0.03566742 0.10651146 -0.063925326 -0.065078035
0001f0 0e 11 c7 3d b8 d3 cc bc a0 36 f0 bd 94 24 e2 bd
       0.0972005 -0.0250033 -0.11729169 -0.11042133
000200 9a 63 bd bd 7c aa 17 3d 58 54 5a 3d 28 ee 7f bd
       -0.09247513 0.03702782 0.053303093 -0.062482983
000210 a8 4a 03 3d 58 4a 91 bd d4 ca 1c 3d f6 eb ee bd
       0.03205362 -0.07094258 0.03827937 -0.116661
000220 e0 67 50 bc 0a 36 db 3d e4 f9 30 3d 50 32 ff 3d
       -0.012720078 0.107036665 0.043207064 0.12460768
000230 e4 76 f5 bd 6a ba c9 bd f8 8c 83 bc 9e 04 a3 3d
       -0.11985567 -0.09850009 -0.01605843 0.07959865
000240 80 fb 6a bd a0 21 cc bd d6 ba de 3d 84 ed 33 3d
       -0.057368755 -0.09967351 0.1087548 0.043927684
000250 08 4f a0 3d 50 3b e7 3d 04 48 cb bd c0 1c 03 bd
       0.07827574 0.1129061 -0.09925845 -0.03200984
000260 d0 76 b4 bc 94 e3 d1 3d 40 0d 50 bc c4 ff a2 bd
       -0.02202931 0.10248485 -0.012698472 -0.0795894
000270 54 16 9e 3d a6 c2 b6 3d 48 da 9e bd c2 f5 92 3d
       0.077191025 0.08923845 -0.077564776 0.07175781
000280 1a 88 9f 3d a0 45 af 3c c6 41 8d 3d 08 84 6e 3d
       0.07789631 0.021395504 0.06897311 0.058231384
000290 20 8a e1 3d a8 dc 2c bd c4 16 57 bd 58 1a 84 bc
       0.110126734 -0.04220262 -0.052511945 -0.016125843
0002a0 00 c2 dd 3a 8c 3a 67 bd 0e 8f 98 3d e2 c0 d3 3d
       0.0016918778 -0.05645232 0.074491605 0.10339524
0002b0 30 d7 7f bc 8c 62 89 bd bc 46 66 3d 06 78 a6 3d
       -0.01561527 -0.067082494 0.0562198 0.081283614
0002c0 20 ff 60 bc de cc 96 3d c0 21 0c 3c 30 8f 96 bc
       -0.013732702 0.07363294 0.0085529685 -0.018378824
0002d0 52 9a c2 3d c0 e7 77 3d c0 e3 63 bb 98 dd 7d bd
       0.095020905 0.06052375 -0.00347732 -0.061978906
0002e0 04 bd 19 3d 4c e3 1c bd f4 a6 d9 bd 34 36 9f 3d
       0.037533775 -0.038302705 -0.10627547 0.0777401
0002f0 d8 60 ea bc 02 0e 98 3d 98 32 8a bc d4 bb ce bd
       -0.028610632 0.07424547 -0.016869828 -0.10094419
000300 08 3a 26 bd 10 64 4c bc f4 83 5a 3d 26 0f 9c bd
       -0.040582687 -0.012475029 0.053348497 -0.07620077
000310 fc 85 d0 bd 88 90 9a bc ae e4 96 3d da e4 fd bd
       -0.101818055 -0.018867746 0.07367836 -0.123971656
000320 68 6f fa bc 68 ee 37 bd 72 af 8a 3d a0 61 82 3b
       -0.0305707 -0.044905096 0.06771745 0.003978923
000330 60 5b 7b bc aa 7b d3 bd 4e 58 e4 bd e6 a3 df 3d
       -0.01534161 -0.103263214 -0.11149655 0.10919933
000340 40 21 9c 3b 92 cc cb 3d 30 b9 91 bc ac cc 0e 3d
       0.004764706 0.09951128 -0.0177885 0.03486316
000350 48 ea d7 bc 2c b4 4d 3d 00 7c 8d 3a 72 a3 ec 3d
       -0.026356831 0.050220653 0.0010794401 0.11554612
000360 a2 33 83 3d 48 15 8f bd 14 67 89 3d 9c 71 7b bd
       0.064063326 -0.06986481 0.06709114 -0.061387643
000370 3a 26 ca bd 22 2f b0 3d d6 ef b3 3d e0 94 28 bc
       -0.098705724 0.0860274 0.087859794 -0.010289401
000380 fc c0 17 3d b0 f3 b3 bd e0 a9 9c 3c 28 f1 bf bd
       0.03704928 -0.08786714 0.019123971 -0.09372169
000390 6e 7a c8 3d d2 ef da 3d f6 58 d7 bd c8 9a af 3d
       0.097889766 0.10690273 -0.10515015 0.08574444
0003a0 00 a4 66 bb 7a 29 e0 bd 28 37 83 bd 60 ef 50 bc
       -0.0035192966 -0.10945411 -0.064070046 -0.012752384
0003b0 e8 21 be bc 68 37 4c bd 58 aa ad 3d 20 30 1f bd
       -0.023209527 -0.049857527 0.08479756 -0.038864255
0003c0 50 07 47 3c 44 e9 20 bd a0 c0 76 3d 10 96 1c 3c
       0.0121477395 -0.03928496 0.060242295 0.009557262
0003d0 e0 cb 5d 3d cc 04 f3 bd cc 59 ba 3d b4 4c 33 bd
       0.05414951 -0.11866149 0.09099159 -0.04377432
0003e0 b2 08 c5 3d 0e ad 9b 3d 50 dc 3b 3d 9e 7b f1 3d
       0.09620799 0.07601367 0.045864403 0.11791156
0003f0 1c 03 6e bd 98 f5 b6 bd a0 12 bf bd e0 8b 18 bc
       -0.058108434 -0.08933562 -0.09329724 -0.009310693

fc2.bias_ih_l0 f4 [256]
000000 4e 8b 7f bd ae ec 90 bd 8f 5a 12 bc 20 b9 80 bd
       -0.06238871 -0.07076393 -0.008932724 -0.0628531
000010 d1 07 74 bc 48 97 bf bc 3e 28 0e 3d 10 99 4b 3d
       -0.014894442 -0.023387566 0.034706347 0.04970652
000020 94 69 2d bd 66 c2 48 3d 10 df ed 3c dc cd e5 bb
       -0.042337015 0.049013518 0.029037029 -0.0070130657
000030 d1 60 d9 3d ec 28 b0 bd 98 be 03 3e de 35 2b 3e
       0.106141694 -0.08601555 0.12865674 0.16719767
000040 2c 56 8b bd 0d f6 e8 bd 41 d5 88 3d fd f3 a6 bd
       -0.06803545 -0.113750555 0.066813 -0.08152006
000050 32 33 10 bd be 47 f3 3b 3c 41 ce 3c 58 eb 89 bc
       -0.035205074 0.007424324 0.02517759 -0.016835853
000060 d6 80 cc bd 4e 92 4f bd 69 c0 ef bc 3a 71 25 3d
       -0.09985511 -0.050676636 -0.029266553 0.040391184
000070 bd 84 cc bd 19 5d 7c 3d 11 a4 72 bd 6c 8a c4 3d
       -0.09986255 0.061612222 -0.059238497 0.095967144
000080 ad 8a 9c bd 6d 20 86 bd 8d fb de 3d 96 6c 43 3d
       -0.07643638 -0.065491535 0.10887823 0.047710977
000090 d2 0f c4 bc 21 aa 51 3e 0f 75 27 be 2a c9 29 3e
       -0.023933325 0.20475055 -0.16353248 0.16580644
0000a0 dc 6c b9 3d c4 a9 bc 3c 29 2b 68 bd eb f3 38 3e
       0.090539664 0.02303017 -0.056681786 0.18061797
0000b0 5a bb e6 bc e0 22 03 3c d0 a6 db 3c 5d 8f 0d be
       -0.028165508 0.00800392 0.02681294 -0.1382422
0000c0 fc 71 cd 3d 24 8b b8 3d 21 44 59 bd 2c c0 b6 bd
       0.100315064 0.09010914 -0.05304349 -0.089233726
0000d0 5b c5 92 bd 10 78 c4 3c 39 7a e0 3d 92 b4 44 3e
       -0.07166549 0.023983032 0.10960812 0.19209507
0000e0 88 34 8f bd fd 91 42 be 69 26 92 3d 28 2d ce bc
       -0.069924414 -0.19001003 0.071362324 -0.025168017
0000f0 48 0a 2c be 76 26 01 3e 77 02 1f 3d 24 30 14 bd
       -0.16800797 0.12612328 0.03882071 -0.036178723
000100 da 73 e2 bd b0 e8 c5 3d 78 a3 ac 3d e0 77 a5 bc
       -0.11057253 0.09663522 0.08429617 -0.020198762
000110 6a b8 b3 3d 88 bb 11 bd fc 14 d2 3d 10 fe ee 3d
       0.087754086 -0.035579234 0.10257909 0.11669552
000120 a8 5a 84 3d 14 df b8 3d 20 32 86 3d 00 3b 40 3a
       0.06462604 0.09026924 0.06552529 0.00073330104
000130 c6 9d a4 3d 58 cb d5 3d a8 a4 d2 3d 4a 1d ad bd
       0.080379054 0.10439175 0.10285312 -0.08452852
000140 08 1b 00 bd e6 0c cc 3d 82 56 9d 3d 7c e4 5d 3d
       -0.03127578 0.09963398 0.07682516 0.054172978
000150 88 13 a1 bc ce 44 97 3d 02 d9 83 3d fc ae c9 3d
       -0.019662634 0.0738617 0.06437875 0.09847829
000160 e0 04 f7 3b 24 bf 0c bd 18 5b d5 bd c8 03 9a 3d
       0.007538423 -0.034361973 -0.104177654 0.075202525
000170 40 0a 18 bc 60 6e 83 bd 20 e0 6b 3d e4 75 d5 3d
       -0.009279788 -0.06417537 0.05758679 0.104228765
000180 36 a4 be 3d 40 7c 23 bb 64 8c fe 3d e0 56 56 3c
       0.093086645 -0.0024945885 0.12429121 0.013082236
000190 50 b6 ff 3c 92 14 ed bd f0 92 c4 bc ce ec dc bd
       0.031214863 -0.11576189 -0.023995847 -0.107873544
0001a0 54 48 a2 3d 02 f8 b3 bd 70 0f 36 3d 9a cd fe 3d
       0.07923952 -0.08787538 0.044448316 0.12441559
0001b0 c8 e1 d6 bd f0 ea 67 3d a0 d2 d6 bc f0 3f 38 3d
       -0.10492283 0.05662054 -0.02622348 0.04498285
0001c0 10 b3 0f 3c 80 25 b7 bb 42 10 cb 3d 62 1e b9 bd
       0.008770719 -0.005589187 0.0991521 -0.09038998
0001d0 40 1c 08 bb 92 d7 88 bd 68 76 f2 bc 8e ba f1 3d
       -0.0020768791 -0.06681742 -0.029597476 0.118031606
0001e0 b0 a7 b0 bc f4 3e 7b bd 10 87 38 bc 00 ad 69 bc
       -0.021564335 -0.061339334 -0.01126267 -0.014262438
0001f0 2a 59 d6 bd 86 fe 86 bd b0 09 fd bd 80 01 2d 3c
       -0.104662254 -0.06591515 -0.12355363 0.01055944
000200 e4 9b 86 3d ae 53 f8 bd 20 f2 48 bd 23 1b 12 be
       0.065727025 -0.12125336 -0.049059033 -0.14268164
000210 17 38 25 3d 1c 02 c6 bc ff c1 1f be 80 db 7e 3b
       0.040336695 -0.024170928 -0.15601347 0.0038888156
000220 da d3 a6 bd 00 07 0c 3e 88 08 88 bd b4 d3 4c bd
       -0.08145876 0.13674545 -0.06642252 -0.050006583
000230 ea 9c d5 3c fc 44 d3 bd 91 dd 94 3d 10 af 50 bd
       0.026075799 -0.10315892 0.07268823 -0.050948203
000240 6d 96 2e ba 34 a2 80 bd c1 86 7e 3d 91 47 80 3c
       -0.00066599884 -0.06280938 0.06214023 0.015659126
000250 45 42 e1 bd f0 9d d3 bc 50 84 d8 bd 87 46 d6 bd
       -0.10998968 -0.025832146 -0.105721116 -0.10462671
000260 9e 55 09 3d 3d 2e 17 3e 3c 39 a7 3d 69 08 8b 3d
       0.033528917 0.14763732 0.081652135 0.067887135
000270 90 3b dc 3d 1f 63 91 bc 6d f7 73 bb b2 d8 7a bd
       0.10753548 -0.01774746 -0.0037226335 -0.061241813
000280 42 39 f1 bd 90 17 9a 3c f0 44 aa bd 00 2c fd bb
       -0.11778499 0.018810064 -0.0831393 -0.0077261925
000290 4b 5d 13 3d 35 22 36 bd c1 7d d4 3d 33 f0 77 3d
       0.035977643 -0.044466216 0.10375548 0.060531806
0002a0 14 4d a1 3d 15 04 9b bd 32 ec cb 3d de 7b 16 3d
       0.078760296 -0.07569138 0.0995716 0.036739223
0002b0 d6 4d ed bd a8 66 60 bd b7 ab d0 bc cc 44 64 bd
       -0.11587112 -0.0547854 -0.025472505 -0.055729672
0002c0 01 82 ed 3d 62 9b 97 bd 74 db e9 bd ec 7d 17 3d
       0.11597062 -0.07402684 -0.114188105 0.036985323
0002d0 22 88 be bd 80 2a 95 3c b4 0d c6 3d c7 10 4b be
       -0.09303309 0.018208742 0.096705824 -0.19830619
0002e0 7f ee 3b bd 1e 2e 18 be 07 84 a9 bc 48 8e 5e 3d
       -0.045881744 -0.14861342 -0.020692838 0.05433491
0002f0 f8 37 7b bb b3 36 df 3d 36 32 98 3d 22 44 84 bd
       -0.003833292 0.10899105 0.07431452 -0.06458308
000300 94 e3 f2 3d 15 d8 88 bd 7a 8f 62 3d 34 56 36 3d
       0.11859813 -0.066818394 0.05531261 0.044515803
000310 00 5a 37 3c 27 58 37 3e 7b 89 65 bd 40 c4 d6 3c
       0.011190891 0.17904721 -0.056039315 0.026216626
000320 c0 96 ff 3d 0f ee 18 3e 2d ac 93 bd 08 2e c0 3c
       0.12479925 0.14934562 -0.07210574 0.02345945
000330 e3 d9 1f be 9b a3 e4 ba f9 fe a6 bc 38 6f 94 3d
       -0.15610461 -0.0017443778 -0.020385252 0.07247776
000340 b5 08 83 bd b0 34 6e 3d 90 e8 31 bd d5 e6 be bd
       -0.06398145 0.058155715 -0.04343468 -0.093213715
000350 75 87 14 3e 40 81 01 3d 3d da 5c bc f2 45 c7 3d
       0.14504798 0.031617403 -0.013479766 0.09730138
000360 f8 28 e2 3c 06 82 56 bc 66 c1 1f 3e 55 ad cb 3d
       0.027607426 -0.013092523 0.1560112 0.0994517
000370 80 99 3e bd 5c ee e0 3c ce 4d f4 bc a8 fb b0 bd
       -0.046533108 0.027457409 -0.029822256 -0.086417496
000380 de c1 eb 3d 1f b7 bd 3c 95 87 38 bd 5a 5d ab bd
       0.115115866 0.023158608 -0.045051176 -0.08367415
000390 ba eb 03 be 87 56 80 3c ef fd 2d bd 00 ed fe 3a
       -0.12882891 0.01566626 -0.042478498 0.0019449294
0003a0 7b 98 0b 3e 05 ae b4 bd 33 85 2c 3d e2 d1 04 3e
       0.13632385 -0.08822254 0.042119216 0.12970689
0003b0 70 fb 45 3c b0 94 e1 3c eb 6f d9 3c 4f dd 96 3a
       0.012083873 0.02753672 0.026542624 0.0011510047
0003c0 6a 82 71 3d 80 1c 2c bb ac af b2 3c c0 d2 8e 3d
       0.058962263 -0.0026262105 0.021812283 0.06973791
0003d0 60 96 00 bd d8 75 46 3d 52 ea e7 bd 95 20 32 3d
       -0.03139341 0.04845223 -0.1132399 0.043488104
0003e0 61 bb 02 3e 50 e7 9c 3c 36 02 03 3e c7 c0 58 3d
       0.12766792 0.019153267 0.12793812 0.05291822
0003f0 49 c0 55 bd c1 e3 82 bd 3e 8a 15 3d ac ed e2 bd
       -0.05218533 -0.06391097 0.03650879 -0.110804886

fc2.bias_hh_l0 f4 [256]
000000 90 a6 2c 3d fa 73 44 39 54 c0 f7 3d 56 a7 5b 3d
       0.042151034 0.00018735221 0.120972306 0.05362638
000010 f0 5b 6e bb f7 e7 1e 3e 30 39 8d 3b 08 55 38 3d
       -0.0036370717 0.15518175 0.004309796 0.045002967
000020 90 70 80 bd 0c 4a 04 bb de 54 a8 3d a5 c4 c2 bd
       -0.062714696 -0.0020185737 0.08219312 -0.09510163
000030 a5 d3 a1 3d d6 31 9c 3d 88 75 67 3d 60 07 d8 3d
       0.07901696 0.07626693 0.05650857 0.10548282
000040 fa ff 37 3d 17 ff 8c bd 24 b4 0d 3c af 55 e7 3d
       0.044921853 -0.06884592 0.008648906 0.1129564
000050 52 4b a0 bc aa 22 0c be b4 b8 e9 bc 1e 57 92 3d
       -0.019567166 -0.13685098 -0.028530456 0.071455225
000060 c6 f8 55 3d 9c 2d 5c 3d 9a 3d 27 3e c3 e7 a0 3d
       0.052239202 0.053754434 0.16332093 0.07856705
000070 0f d6 a8 3d 4d 01 5c 3b fb 29 87 bd 40 27 aa bd
       0.082439534 0.0033570111 -0.06599804 -0.083082676
000080 2b 02 af ba a9 93 ff bd b3 e5 8b 3d 1f 34 12 bd
       -0.0013352087 -0.12479336 0.06830921 -0.035694238
000090 5c 48 89 bd 66 cc 54 3e 93 f1 9a bc 6c 02 38 bd
       -0.067032546 0.20781097 -0.01891402 -0.044924185
0000a0 44 9d fb 3d 06 69 6b bd 8b 75 7f 3d 8f 15 16 3e
       0.122858554 -0.057473205 0.062367957 0.14656661
0000b0 e7 0c fc bd da b4 a3 3d 71 70 5d 3d 19 0c 09 be
       -0.123071484 0.07993479 0.05406231 -0.13383521
0000c0 4f 57 04 3e 80 7b 58 3b ed d3 38 bd a4 bd 25 bd
       0.1292393 0.0033032596 -0.045123983 -0.04046406
0000d0 84 e0 3b 3d 32 98 9b bd bd 4c 9b bc a2 21 51 3e
       0.04586841 -0.07597388 -0.01895749 0.20422986
0000e0 da 20 10 3e 6c f6 ea bc 1b 92 9a bd fc f7 63 bd
       0.14075032 -0.028681956 -0.07547399 -0.05565642
0000f0 82 91 1a bd 13 51 c2 3d 69 70 c1 3d 1c 21 65 bd
       -0.037736423 0.0948812 0.09445269 -0.05593978
000100 c4 be 05 3d e0 66 b4 bb 3e b7 fc 3d 80 6e 21 3d
       0.03265263 -0.0055054277 0.12339638 0.03941202
000110 d4 7d 65 3d 10 a7 df bc 14 ef c4 3d fa 96 b7 3d
       0.056028202 -0.027301341 0.09615913 0.08964343
000120 00 ee 5a 3a d0 31 19 3d 16 51 da bd 08 7c 31 3d
       0.0008351505 0.03740102 -0.10659997 0.043331176
000130 a0 d8 44 3c 10 cf ee 3d 70 93 eb 3c 7c 64 b1 bd
       0.012014538 0.11660588 0.028756827 -0.08661744
000140 e8 48 f8 3d da 79 d4 bd f4 2e 45 bd 08 5a ef bd
       0.12123281 -0.10374804 -0.04814048 -0.11687094
000150 c4 39 1d 3d 24 f5 38 bd 94 aa 4f bd 40 5b 6d bc
       0.038385168 -0.04515566 -0.050699785 -0.014487088
000160 b0 f3 f0 3c 8a 76 e8 3d 38 8f d9 3d 36 bc db bd
       0.029413074 0.113507345 0.1062302 -0.10729258
000170 00 4f 02 3d b0 f2 07 3c 90 30 b9 bd 64 ab b6 bd
       0.03181362 0.008297607 -0.09042466 -0.08919409
000180 a0 69 26 3c 26 a5 f3 3d 90 7f c5 bc 3a 46 89 3d
       0.010157019 0.11896734 -0.024108678 0.06702848
000190 40 13 ef 3d ae 74 b8 bd 26 19 f8 3d e0 80 fd 3b
       0.116735935 -0.0900663 0.12114172 0.0077363104
0001a0 54 0f 21 3d 80 4f 52 bb b6 ef d6 bd cc 0e 21 bd
       0.03932126 -0.0032090843 -0.1049494 -0.039320752
0001b0 ee 4f 88 3d 4e ef 87 3d c0 c5 a2 3b f4 c1 1e bd
       0.066558704 0.066374406 0.0049674213 -0.038759187
0001c0 e8 2a 24 3d d0 c2 5f 3c 04 68 ce 3d b4 5d 49 bd
       0.04007998 0.013657287 0.10078433 -0.049161628
0001d0 04 5f b0 bd de c7 d7 bd b2 fa fc 3d 60 bf 26 bd
       -0.08611873 -0.105361685 0.12352504 -0.040709853
0001e0 6c 91 52 bd 76 ad 9b bd c2 a1 cf 3d 8a 59 ad bd
       -0.051408216 -0.076014444 0.10138275 -0.08464344
0001f0 94 ec fa bd 86 2e d1 3d 1e b8 ad bd 24 43 cd 3d
       -0.12252155 0.10213952 -0.08482383 0.10022572
000200 93 31 6c bd 40 1e 71 3d 2e d2 a6 3d 8f 91 a5 bd
       -0.057664465 0.05886674 0.08145557 -0.08084404
000210 66 72 f0 3b 38 e4 b5 3d f2 eb 62 bd 9c ef 2e 3d
       0.007337856 0.0888142 -0.055400796 0.042708978
000220 50 86 48 bd 9a ce 5d 3c b0 31 69 3d f0 51 e4 3c
       -0.048956215 0.013538027 0.05693215 0.027871102
000230 b1 17 49 bd 74 80 aa bd 69 b9 c9 3d 68 c5 c7 3c
       -0.04909486 -0.08325282 0.09849817 0.024386123
000240 6a 77 83 3d 6a 17 be 3d 5e 04 d5 3d 0b c6 8d bc
       0.06419261 0.0928181 0.104012236 -0.017306348
000250 cd 95 19 be 48 eb 91 3d 30 6b 0f bc 34 f4 1f be
       -0.1499855 0.071249545 -0.008753583 -0.156205
000260 b6 c3 16 3d 7e 6d b8 bc ae 87 56 3d 27 96 c0 3d
       0.03680774 -0.022513147 0.052375488 0.09403639
000270 a0 84 17 3c 1c ae e9 bd 56 c4 a2 bd 1d 4f 15 be
       0.009247929 -0.11410162 -0.07947604 -0.1458096
000280 0a d2 df 3d e0 f4 33 bd c4 d8 82 3d f8 2e d3 bd
       0.10928734 -0.043934703 0.06389001 -0.10311693
000290 88 2a 18 3d 0c 09 aa 3d 8f c7 bd bd 21 f1 c1 3c
       0.037149936 0.08302507 -0.092665784 0.02367455
0002a0 86 4f b8 3d 8a 45 bc bd 5c 2d 29 bd 5b a8 2c bc
       0.08999543 -0.09192951 -0.041303024 -0.010538186
0002b0 a0 6a 9c 3b 18 39 ae bd 2f 2c c1 bd 0a 29 d3 bd
       0.004773453 -0.085069835 -0.094322555 -0.10310562
0002c0 c7 05 b4 3d 1c 92 27 bd 26 2c b0 3d 30 22 b3 3d
       0.087901644 -0.040910825 0.08602171 0.08746755
0002d0 a8 3e 81 3d c0 a8 87 3d 06 6b a5 bd 7b e1 13 be
       0.06310779 0.066239834 -0.08077054 -0.14441483
0002e0 c1 05 b8 3d b9 ac 03 3d 41 4b e2 3c 28 18 cf bc
       0.089854725 0.032147143 0.027623774 -0.025280073
0002f0 21 c1 03 3d 39 12 e7 3d 3f db c0 bb 28 ec 3d bd
       0.032166604 0.112827726 -0.005885511 -0.046367794
000300 f4 5a 58 bc 83 38 4f be 2d 90 88 3c ca 89 29 be
       -0.013205279 -0.20236401 0.01667031 -0.16556469
000310 fb dc 90 3d 34 07 10 3b 15 f1 0a bd 7a 67 ea 3d
       0.07073399 0.002197695 -0.03392132 0.11445518
000320 24 24 db bd 3b 90 db 3d 7d 84 59 bd 2c 4b e3 3d
       -0.10700253 0.10720869 -0.053104866 0.11098322
000330 d0 f8 e2 bd 0c b7 8f bd 46 16 15 bc 19 30 bb 3d
       -0.110826135 -0.07017335 -0.009099549 0.09140033
000340 74 69 ed 3c c2 89 e4 3d e2 33 a4 bd 76 f6 6f 3d
       0.028980948 0.11159088 -0.08017708 0.058584653
000350 59 1b a0 bd 70 0e f7 bd 97 c0 f1 bd 56 c6 3b bc
       -0.07817716 -0.120633006 -0.11804312 -0.011460861
000360 40 02 6b 3c 37 27 1a 3e aa 7d e9 3b b8 20 1c 3e
       0.014343798 0.15054022 0.007125576 0.15246856
000370 38 b3 03 bd 46 c2 08 3d f3 59 2a 3a c8 96 e9 bd
       -0.03215334 0.0333884 0.0006498389 -0.11405712
000380 a8 8a a2 bc 71 33 b0 bd 47 0b 99 3d b0 4a 4b 3c
       -0.019841507 -0.08603562 0.07472854 0.012407944
000390 ae e2 71 bd 3f 44 c0 bd 67 34 68 bd e0 fe fb 3d
       -0.05905407 -0.09388017 -0.0566906 0.12304473
0003a0 d3 e7 84 3d b7 d2 f5 bd 40 7b 06 3a d0 9e 3b 3d
       0.064895295 -0.12003081 0.000513006 0.045805752
0003b0 40 35 57 bc dc ef 90 3d ce 1f 91 3d fc 77 96 bd
       -0.013135254 0.070769995 0.070861444 -0.07347104
0003c0 6f 06 89 bb 70 63 13 bc 4a ce c6 bd f3 09 cd bb
       -0.004181675 -0.008995876 -0.09707315 -0.0062572896
0003d0 d0 50 e0 bd 32 ee cb bd 84 32 96 bd 94 8b e9 3d
       -0.10952914 -0.099575415 -0.07333854 0.114035755
0003e0 af 61 a7 3c 70 6b 1e bc 01 e0 0c bd 5e e5 d9 bd
       0.020432321 -0.00966917 -0.034393314 -0.106394514
0003f0 ac b6 01 3e 0d 50 22 bc d2 01 37 3e 58 b4 0b bd
       0.1266734 -0.009906781 0.17871788 -0.034107536

fc3.weight f4 [3, 64]
000000 1f 49 0e bf aa bf 7e bc 5c 50 5f 40 5c e6 2f c0
       -0.55580324 -0.015548626 3.4892797 -2.748435
000010 06 ea 47 c0 0a 9e 3a 40 22 7c 4c 40 e8 94 cc bd
       -3.1236587 2.915896 3.1950765 -0.09989339
000020 8a d6 e7 3d a0 e9 1a c0 e3 40 1b 3d 8a 12 8d bd
       0.11320217 -2.4205093 0.037903678 -0.06888302
000030 2d 81 f8 3d 48 33 58 c0 a8 2f 5b 40 52 39 2a 40
       0.12134013 -3.37813 3.4247837 2.6597486
000040 00 29 44 c0 06 5c 1b bd a9 37 a4 3d 56 2f 5f 40
       -3.0650024 -0.037929557 0.08018429 3.4872642
000050 c1 8e 56 c0 ba 35 0a bc 35 96 ea bf 8c 7d b6 c0
       -3.352463 -0.008435661 -1.832709 -5.7028255
000060 41 71 31 3c ac c1 33 40 92 81 4e c0 de a2 55 40
       0.0108302245 2.8086958 -3.2266583 3.3380656
000070 65 c4 18 3c 69 f0 70 3d e2 16 4e 40 a8 40 82 bf
       0.009324168 0.058823023 3.2201467 -1.0175982
000080 90 30 a6 bd 9f b8 4e 3e 72 95 a0 be 77 0b d0 bd
       -0.08114731 0.20187615 -0.31364018 -0.10158437
000090 86 44 73 3f 8e 20 62 c0 67 03 e4 3d 24 6f 21 40
       0.95026433 -3.533237 0.111334614 2.5224085
0000a0 a4 1a 5f c0 6e b5 0d 3c 90 56 84 3d 0b 4c 85 3d
       -3.486001 0.008649213 0.06461823 0.06508645
0000b0 00 6b 1c 3e a8 08 da 3d 54 e1 82 3f 80 06 9c ba
       0.15275192 0.10646182 1.0225015 -0.0011903793
0000c0 52 93 45 40 20 62 f4 bc dd 07 5a be 9c 28 0f 3d
       3.0871167 -0.029831946 -0.21292062 0.034950837
0000d0 56 33 10 40 6a fb a1 bd a4 05 72 3d 96 26 50 c0
       2.2531333 -0.079092816 0.05908741 -3.252355
0000e0 a8 2b 5c 40 24 69 a2 be 6a 7b 57 c0 86 c1 ea bc
       3.4401646 -0.3172084 -3.3669076 -0.028656732
0000f0 09 00 50 bd 99 fb d4 3c 61 42 21 3f 52 0a b6 bd
       -0.050781284 0.025998877 0.6299191 -0.08888687
000100 22 b8 79 bf 48 c0 4e 3d d5 6e 59 40 2d 6c 0f c0
       -0.9754659 0.050476342 3.3973897 -2.2409775
000110 f9 4f 3f c0 fb fa 44 40 09 3f 4b 40 f4 b6 1b bd
       -2.9892561 3.0778186 3.1757224 -0.038016275
000120 78 2f 98 3d 77 a7 21 c0 9a 21 fe 3d 6c 2e c2 3d
       0.07430929 -2.5258462 0.12408753 0.094815105
000130 25 2e a4 bd 71 b7 5f c0 69 92 56 40 0b c4 3c 40
       -0.08016614 -3.4955714 3.3526862 2.9494655
000140 cb 29 4e c0 65 99 d5 bd be 5a 77 3d 4b 57 63 40
       -3.2213008 -0.10429648 0.060389273 3.552203
000150 05 5a 6f c0 3a c2 e0 bb 40 40 a9 bd 8f d2 54 c0
       -3.7398694 -0.006859091 -0.08264208 -3.3253515
000160 e9 70 79 be 9b 41 3d 40 39 ef 4b c0 17 02 5a 40
       -0.24359478 2.9571292 -3.186476 3.4063776
000170 48 b9 d1 3d 28 18 ab bd 4d 89 45 40 0c 42 b5 bf
       0.10240418 -0.08354217 3.0865052 -1.4160781
000180 3e 7e 66 3d d8 c6 f4 3d 39 cc 5c be 38 f6 b4 3d
       0.056272738 0.11951989 -0.2156228 0.08836025
000190 6b 37 49 3f 3f c6 61 c0 bc af 50 bd 3f 70 35 40
       0.78600186 -3.527725 -0.050948843 2.834976
0001a0 c5 7f 67 c0 09 5a bf bd b7 85 18 bd 14 66 88 3f
       -3.6171734 -0.09343345 -0.037236895 1.0656152
0001b0 a8 f8 8f 3d da ae 8e 3d 92 56 e4 3d c0 18 2e bb
       0.07029849 0.06966944 0.111493245 -0.0026565045
0001c0 23 98 48 40 48 45 b3 3d 55 c0 8f be 9a 7a b5 3d
       3.1342857 0.08753449 -0.28076425 0.08861275
0001d0 f7 ea 25 40 fa 55 d4 bd e0 21 1e 3c 19 16 50 c0
       2.592466 -0.10367961 0.009651631 -3.2513487
0001e0 ed 51 66 40 bf 8f 9a be e1 e0 5d c0 96 25 ea 3d
       3.5987504 -0.30187795 -3.4668505 0.1143295
0001f0 32 c6 18 3e 0c 56 85 3e f9 9b 1c 3f 60 ed 94 3c
       0.14919356 0.2604221 0.61175495 0.018179595
000200 04 ba fa be b9 39 d9 3e 04 ed 62 40 03 a4 79 c0
       -0.48970044 0.4242685 3.5457163 -3.9006355
000210 ae 36 55 c0 72 08 5d 40 b2 f9 52 40 3e 25 f0 3d
       -3.3314624 3.4536405 3.2964902 0.117258534
000220 01 fb 08 3e 90 14 04 bf 5c cf 8b bd 61 d3 23 bd
       0.13377 -0.51593876 -0.0682666 -0.03999651
000230 45 db fa bd 52 58 68 c0 44 49 49 40 f8 6c 60 40
       -0.122488536 -3.6303906 3.1450968 3.506651
000240 ac 1f 57 c0 3a 73 d1 bd 15 05 fa 3d c4 47 6c 40
       -3.361308 -0.10227056 0.122080006 3.6918802
000250 63 ac bd c0 d9 48 ff bc 6e d7 2a be b4 bf 46 c0
       -5.9272933 -0.031162666 -0.16683742 -3.1054506
000260 88 f6 bd 3e 7e b2 34 40 38 a8 31 c0 f0 63 53 40
       0.3710215 2.8233943 -2.7758923 3.3029747
000270 79 33 76 bb 25 74 00 3c 42 ba 4f 40 44 20 39 bf
       -0.0037567301 0.007840191 3.2457433 -0.7231486
000280 a2 95 8c 3d f8 ac 05 3e ca f2 a6 be f0 55 bf 3c
       0.06864478 0.13054264 -0.32607108 0.023356408
000290 46 42 42 3f 30 7c 6e c0 04 d3 13 3e 90 80 31 40
       0.75882375 -3.7263298 0.14435965 2.7734718
0002a0 16 62 71 c0 bb 90 cb 3d b0 05 96 3d 01 4a 0c 3e
       -3.7716117 0.099397145 0.073253036 0.13700105
0002b0 2d 78 d3 3d 20 e6 8d bd 72 cc 68 3e b1 ff ab 3c
       0.10325656 -0.069286585 0.2273424 0.020995947
0002c0 c6 ea 37 40 e0 02 be bc 99 81 46 be 82 aa d8 3d
       2.8737044 -0.02319473 -0.19385375 0.10579397
0002d0 cd da fb 3f 40 c6 18 bd 53 79 b2 3d de e0 09 c0
       1.9676148 -0.03729844 0.08714547 -2.1543498
0002e0 38 58 6b 40 62 2a 94 bd 00 31 76 c0 17 da 40 ba
       3.6772594 -0.072346464 -3.8467407 -0.00073567167
0002f0 53 5c 2e 3f 9b da a2 3e 06 ff 1a 3f e4 ca 1d bd
       0.68109626 0.31807408 0.60545385 -0.03852357

fc3.bias f4 [3]
000000 8e 49 5e 40 05 bb 60 40 87 76 68 40
       3.4732394 3.5114148 3.6322343
