Models/LSTM/agentDQN-LSTM_2018-2020_lstm_v4_300_EPS_6.pth (torch, 256291 bytes, 8 tensors)

fc1.weight f4 [128, 104]
000000 64 75 c1 bd d5 ac 91 bb 61 24 09 be e4 5f 3e be
       -0.094462186 -0.004445652 -0.13392784 -0.18591267
000010 63 99 01 bd dd 9e f4 bd 73 d1 db bc 29 2e 92 bd
       -0.03164042 -0.11944363 -0.026833272 -0.071377106
000020 18 cd f0 bc 4b 7a eb bc ed 7f c7 bd 09 39 a5 bd
       -0.029394671 -0.028744837 -0.09741197 -0.08067519
000030 27 da 67 bc 5a 12 31 be 63 17 f8 bc 8d 64 39 be
       -0.014151133 -0.17292157 -0.03028459 -0.18104763
000040 51 00 88 bd 5c 22 8b bc 95 4b e1 bd 21 7a b4 bd
       -0.06640685 -0.016984157 -0.11000744 -0.08812357
000050 4a 2c f0 bd 27 d8 2b bd 54 48 36 be 53 d9 d4 3d
       -0.117271975 -0.041954186 -0.17801028 0.10393014
000060 ab bd 0a be 66 b8 84 bd cf a7 46 bd 5d 34 b4 3c
       -0.13548915 -0.06480484 -0.04849988 0.021997625
000070 02 c9 e7 3d 99 ae 3b 3d f9 7e ca 3c a4 8c fc bc
       0.11317636 0.045820806 0.024718748 -0.030828781
000080 73 37 2a be 23 0d a1 bd 6f 2f 77 bc 7f dc 6d bd
       -0.16622715 -0.07863834 -0.015086993 -0.05807161
000090 16 d8 27 be a3 c2 1f bd 5c bd 63 3d 52 1f b4 3c
       -0.16391024 -0.03900398 0.05560051 0.021987591
0000a0 51 9b 08 be 95 ec f5 39 0d b8 18 3d 48 90 7e bc
       -0.13340499 0.0004690631 0.0372849 -0.015537329
0000b0 57 a4 88 3d 51 bb 9a bd f5 b4 59 3d 66 81 83 bd
       0.0667197 -0.07555259 0.05315109 -0.06421165
0000c0 f5 cf 96 3d c8 f7 43 bd e8 7a a4 3d d5 4c 8e 3d
       0.073638834 -0.047843724 0.08031255 0.06948248
0000d0 9c 63 1c be 42 9b 57 3d 29 e7 c1 3d 95 ee 28 be
       -0.15272373 0.0526383 0.094679184 -0.16497262
0000e0 e2 cf 1c be 15 5f fd bd 52 c5 0c be 1e 1a 6a 3c
       -0.15313676 -0.12371651 -0.13747147 0.014288453
0000f0 45 e1 99 bc 0a 65 c2 bd 5e 54 aa 3c 22 54 9d bb
       -0.018784175 -0.09491928 0.020792183 -0.004801289
000100 9f 2f c6 bd 70 93 28 3e 21 a2 9a bc a3 e7 11 be
       -0.09677052 0.16462493 -0.018876137 -0.14248519
000110 78 7f 70 bd 34 cb 4b be b1 36 c7 bc 01 b1 14 be
       -0.058715314 -0.19901735 -0.024318071 -0.14520647
000120 b8 ea 4f be b4 fc 5c bd 51 b6 81 bd 00 3c d0 bc
       -0.20304382 -0.053951934 -0.06333602 -0.025419235
000130 f8 20 b4 bd df 15 42 be 99 4b 3b be 17 a4 98 bd
       -0.08795351 -0.18953656 -0.18290557 -0.07453173
000140 e7 af 60 bd 02 fd 9d bc 49 14 ad bd 71 fb 43 be
       -0.054855254 -0.019285683 -0.08451135 -0.19138886
000150 0c 77 24 be ed aa dd bd 5b 82 c7 bd 08 f9 5d bd
       -0.16061038 -0.10823617 -0.0974166 -0.054192573
000160 74 72 d5 bd ed 3b 3d be 7c 61 02 be 81 57 1d be
       -0.10422221 -0.18479891 -0.127325 -0.15365411
000170 d7 d7 b9 bd 65 cc 13 be 95 bf 04 be e9 33 ab bd
       -0.09074371 -0.14433439 -0.12963708 -0.083595105
000180 61 b1 47 bd bb 5d 9c bd db e9 27 be 5e 04 25 be
       -0.048753146 -0.07635065 -0.16397803 -0.16114947
000190 e2 09 f7 3c 73 8f 64 3d 31 90 9e bd a1 ce f4 bd
       0.03015608 0.055800866 -0.07742346 -0.11953474
0001a0 16 6b 38 3c a6 b0 a6 3c bf 18 a5 bd 91 33 75 be
       0.011256 0.020347904 -0.080613606 -0.23945452
0001b0 60 29 7b bd 2f 0c 8d bc 9c df 46 bd 25 b9 28 be
       -0.061318755 -0.017217724 -0.048553094 -0.16476877
0001c0 b7 78 0a be cc 5e 35 be 29 24 a3 bd 5c f8 40 be
       -0.13522612 -0.17711943 -0.079658814 -0.18844742
0001d0 a4 bf d0 bd 0f 24 4d be 93 33 70 be 51 47 05 be
       -0.101928025 -0.20033287 -0.23457174 -0.13015486
0001e0 da fd 10 be 88 a0 47 be 6b 53 7d be 27 e1 ec bd
       -0.14159337 -0.19494832 -0.24738853 -0.11566382
0001f0 e4 ba 9e bd 48 cf 12 be f8 ed 23 be 79 67 c6 3d
       -0.0775049 -0.14336884 -0.16008747 0.096877046
000200 4d 9a 61 be 18 4b 5e be 61 56 e0 bd 1c 18 ae be
       -0.22031517 -0.21708333 -0.109539755 -0.3400277
000210 e1 2a 71 3c 1f 85 bc bd 92 94 84 bc b4 e2 5b 3e
       0.014719696 -0.09205078 -0.016184125 0.21473199
000220 33 56 5e be 3f 43 25 be a4 34 78 be 05 3a 0d be
       -0.2171257 -0.16138934 -0.24238831 -0.13791664
000230 2b 81 f9 bd bb 58 9e be db 81 b0 be af f0 af be
       -0.1218284 -0.3092707 -0.34474072 -0.34363315
000240 93 68 83 be 8b f7 e7 bd ce 1e 05 be 90 be 03 be
       -0.2566572 -0.11326512 -0.13000032 -0.12865663
000250 f7 aa a6 be e6 0d 5a bc d5 91 bf bd f6 57 0d be
       -0.3255231 -0.013308978 -0.09353987 -0.13803086
000260 2a 2d 27 3e 9d 24 f5 3c dd 3b b4 3d 7e 39 3f be
       0.16325822 0.029924685 0.088004805 -0.18674275
000270 af ed 64 bd ea c2 45 bd 41 7f a6 bd 65 3d 30 be
       -0.055890735 -0.048281588 -0.081297405 -0.1721092
000280 f8 4b f1 bd 57 1d a0 be af 5d 3c be 8b 03 f1 3d
       -0.11782068 -0.31272385 -0.18395112 0.11768254
000290 3a 0d 2b 3e fe 30 48 3b b3 9f 53 3d 9c ab db be
       0.16704264 0.003054678 0.051665973 -0.42904365
0002a0 1e 4f af be 91 b5 61 3e c0 71 ce bd d4 14 9f bd
       -0.3424005 0.22041918 -0.1008029 -0.077676445
0002b0 fa 75 19 be bd 55 9a bd e7 74 49 be 61 cd f7 bd
       -0.1498641 -0.075358845 -0.19673501 -0.1209972
0002c0 f9 02 ce bd ed 0d 4d be aa ee 0d be e5 59 99 bd
       -0.10059161 -0.20024844 -0.13860574 -0.07487849
0002d0 71 8b 25 be d8 f4 a7 bd cf e3 3c be e6 71 5c be
       -0.16166474 -0.08200997 -0.18446277 -0.21527824
0002e0 ae 03 42 bd 7e 87 2a be 31 02 d5 bd cb 11 30 be
       -0.04736679 -0.16653249 -0.104008086 -0.17194287
0002f0 3a 0c 08 be 56 b9 35 be 98 9f 45 be 40 29 08 be
       -0.13285914 -0.17746481 -0.19299161 -0.13296986
000300 12 ec 35 bd 43 9f 53 be 95 cb 2e be 81 02 07 be
       -0.044414587 -0.20666222 -0.17069848 -0.13184549
000310 ed 2d 23 be 90 fa 18 be 67 86 a3 bd a1 11 58 bd
       -0.15935488 -0.14939332 -0.079846196 -0.052751187
000320 08 3a 3d 3d 9d 9f fb 3c ef da 2b bd ab d5 ff bd
       0.04619792 0.030715758 -0.04195684 -0.12491926
000330 43 19 4f bd 54 4c 0c bd da e1 90 3d 68 31 24 bd
       -0.0505612 -0.03425248 0.07074328 -0.04008618
000340 f9 f9 a5 bc 7d 03 e3 bc 0e 78 bd bd 46 b8 30 be
       -0.020260798 -0.027711624 -0.09251414 -0.17257795
000350 81 46 f9 bd 65 78 71 bd be 1f 1c be 47 12 f3 bd
       -0.12171651 -0.058952708 -0.15246484 -0.118687205
000360 2a ea 26 be 08 2d 5b be e2 d2 ae bd a2 aa 8b bd
       -0.16300264 -0.21403897 -0.085363165 -0.06819655
000370 3b 6c 4d bc ee 22 fb bd 7f 0c df bd 54 2b b6 bc
       -0.012538011 -0.12262522 -0.10891055 -0.022237457
000380 75 6d 16 be 1b e7 5f bd 3e 8b 9c bd 54 cf a1 bd
       -0.14690192 -0.05466376 -0.07643746 -0.07900873
000390 2f 96 a6 bc 3e e0 8f bc 7d 76 c4 bd d5 13 0e 3e
       -0.020335285 -0.017562982 -0.09592912 0.13874753
0003a0 c8 20 22 be f9 a9 23 bd 5b 0e b0 3b fc 87 4f bc
       -0.15832818 -0.03995702 0.005372805 -0.012666699
0003b0 6e e0 d7 3a ce 52 1d 3e 2e c8 dd 3d e5 c6 ce bc
       0.0016470084 0.15363619 0.10829197 -0.025241325
0003c0 88 05 f7 bd 9b cb 57 bd 37 49 f3 3d db 90 4d bd
       -0.12061602 -0.052684408 0.11879199 -0.050186973
0003d0 3a 0d 8c be ee 94 bf 3c 81 29 aa 3d 06 f4 ae 3c
       -0.2735384 0.023386445 0.083086975 0.021356594
0003e0 bf db bd 3c 53 a0 4a bd 58 9f 8d 3d f8 e3 f3 3c
       0.023176072 -0.049469303 0.06915158 0.02977179
0003f0 a5 57 f4 bd 5d 35 4a be 83 49 0c be 70 36 a5 bd
       -0.11930779 -0.19746919 -0.13699917 -0.08067024

fc1.bias f4 [128]
000000 a0 80 25 be 2a 40 61 be ea 24 f5 bd 15 e5 d7 bd
       -0.16162348 -0.21997133 -0.119699314 -0.10541741
000010 69 27 24 bd 81 83 35 3e 8d f9 87 bc a9 cb 12 3e
       -0.040076647 0.17725946 -0.016598487 0.14335503
000020 ee 26 8d bd 3e f9 89 bd c0 09 49 be 3b e0 70 3e
       -0.06892191 -0.06736992 -0.19632626 0.23523037
000030 df 89 37 be a4 db 06 be 02 77 1c be 66 fb 8d 3e
       -0.17923687 -0.13169724 -0.15279773 0.27730864
000040 f1 91 e6 bd 6a 59 9f 3c 89 46 2d be ce 32 4d 3d
       -0.11258305 0.019451816 -0.16921438 0.05009728
000050 9e d0 10 be b7 11 81 3e b1 52 11 3d d5 70 19 3e
       -0.14142081 0.25208828 0.03547925 0.14984448
000060 f7 1a 07 3e db 36 2d be fb 7c 40 3d 8a a4 51 3e
       0.1319388 -0.16915457 0.04699419 0.20472923
000070 13 34 17 3d f7 f2 ea bc 3b fb ba bd a1 c0 30 be
       0.036914896 -0.028680308 -0.0912995 -0.17260982
000080 2e e9 6f bd 72 99 01 3f b8 c5 72 be 01 4a bd bd
       -0.058571987 0.50624764 -0.23708236 -0.09242631
000090 27 cc 45 3e 1d a4 f6 3d ea 5e 3e be c2 46 24 bd
       0.19316159 0.12043021 -0.18590894 -0.040106542
0000a0 0e 63 8e bd 14 86 66 bd f2 96 95 bd d3 1a d5 bc
       -0.06952487 -0.05628021 -0.07304181 -0.026013767
0000b0 56 e7 cb 3e 0e aa d9 bd 61 50 33 bd 1b b3 8b bd
       0.39824933 -0.106281385 -0.043777827 -0.06821271
0000c0 47 87 a9 3e e4 71 88 3e 3f d4 0a be 65 8f 5d be
       0.3311102 0.26649392 -0.13557528 -0.21636732
0000d0 5e f8 03 3d 09 25 80 bd 19 0e 14 be ba 71 5b 3e
       0.032219283 -0.06257064 -0.14458503 0.21430102
0000e0 54 12 8a 3e df 9f e6 bd e5 97 24 be 3d 0e de 3e
       0.26967108 -0.11260962 -0.16073568 0.43370238
0000f0 6c 14 5d bd 70 c2 a7 3e e8 09 c7 bd c1 dc a5 3e
       -0.053974554 0.32765532 -0.09718686 0.32394984
000100 27 83 ae 3c 5e 12 f5 3d d0 b7 20 bd 68 67 c0 bd
       0.021302773 0.11966394 -0.039237797 -0.09394723
000110 49 17 99 3e 5a 9e 8c bd 5d b4 a2 bd 60 4f 1d bd
       0.29900578 -0.06866141 -0.07944558 -0.038405776
000120 d6 ac fe 3c 6f c1 f4 bd a4 21 33 bd e1 40 d9 bd
       0.031088274 -0.11950957 -0.043733254 -0.10608078
000130 e0 34 1a bd 69 89 26 be 99 12 22 3d dc 10 72 bd
       -0.03764808 -0.16263355 0.039568517 -0.05909811
000140 a4 13 87 3e 9e 8e 00 be 49 07 d7 bd 03 b8 39 be
       0.26382172 -0.12554404 -0.104994364 -0.18136601
000150 8f a1 9c 3c e3 30 98 3b 20 a5 15 3e 0d ba 8a 3d
       0.019120006 0.0046444996 0.14613771 0.067737676
000160 06 d6 03 be c3 7a dd 3d 43 05 5e bd f4 e5 22 3d
       -0.12874612 0.108144306 -0.054204237 0.03977008
000170 c7 ca 02 3d e7 1f e3 bd 20 20 7c 3e a3 59 95 3e
       0.031931665 -0.11090069 0.2462163 0.2916995
000180 2a 76 da bc 4a ce 05 be fa 68 ce 3c de df db bd
       -0.026667673 -0.13066974 0.025196541 -0.10736059
000190 ba 88 c9 bd c1 8a e0 bd 16 6d 34 3d af 04 63 3e
       -0.09840532 -0.10963965 0.044049345 0.22169755
0001a0 fd cd 2e bc 59 f9 0d bd 9e 22 33 be 8d 5d 39 3d
       -0.010669229 -0.034661625 -0.17493674 0.045255233
0001b0 ff 31 d6 3c e6 9c d9 bc 75 83 ca bd 09 fb 23 bd
       0.026146887 -0.026564073 -0.09888355 -0.040034328
0001c0 56 4b a4 bc ad f5 47 be b8 46 a4 3c 49 d5 ed 3a
       -0.020055454 -0.19527312 0.020053253 0.0018145229
0001d0 aa 09 9e bd be a0 ab 3e 81 70 19 be 96 e3 59 be
       -0.07716687 0.33521074 -0.14984323 -0.21278223
0001e0 77 26 c4 3e e3 8c bc bd 9f ec 5f bd 8a 38 ce bd
       0.38310596 -0.092065595 -0.05466902 -0.10069378
0001f0 e4 18 37 3d 7f b0 85 bd 41 fb 6a be d8 7d 01 be
       0.044701472 -0.065278046 -0.22947408 -0.12645662

fc2.weight_ih_l0 f4 [256, 128]
000000 a1 da 42 3d 3f 69 98 bd b8 53 55 3d cc cb e3 bd
       0.047571782 -0.07441949 0.052081794 -0.111228555
000010 49 17 6f 3d 80 02 32 bd 1e 8a bc bd 12 7f df 3c
       0.058371816 -0.043459415 -0.09206031 0.027282272
000020 a4 ff a9 3d a0 0d 58 bd 5c c9 8f bd 76 41 a1 3d
       0.08300713 -0.05274737 -0.07020828 0.07873814
000030 79 08 e4 3d 94 98 c3 bd c0 15 e2 bb 45 19 9f 3d
       0.111344285 -0.09550586 -0.0068995655 0.07768492
000040 ab 33 61 3d a6 35 88 3d c0 c2 73 bd ee 4a 0d 3d
       0.054980915 0.066508576 -0.0595119 0.034495287
000050 34 0c 4b 3d 84 c7 5c 3d bc 73 4e bd 17 e1 62 b7
       0.049572185 0.05390121 -0.05040334 -1.35230575e-05
000060 b4 43 be bd 0a 79 cc bd fc d6 6d 3d 44 e5 60 3d
       -0.09290257 -0.09984024 0.058066353 0.054906145
000070 5a 92 8e 3d 24 f7 7d 3d 54 dd 84 bd 4f 9e 9a bd
       0.06961508 0.06200327 -0.064875275 -0.07549726
000080 f0 e2 6e 3d 3e 4c db bd dd be aa bd 68 a3 9c 3c
       0.058321893 -0.107079014 -0.083371855 0.019120887
000090 20 0a e8 3b 58 00 32 3d 98 be 12 3d 74 4f 70 bd
       0.007081285 0.04345736 0.035826296 -0.058669522
0000a0 87 9d 0f 3d 20 10 f5 bb b2 68 01 be e4 a3 07 bd
       0.03506234 -0.007478729 -0.12637594 -0.033115283
0000b0 20 dd 79 3d 68 37 c9 bd b8 57 88 3d 9a 8a c4 bd
       0.061001897 -0.09825021 0.06657356 -0.09596749
0000c0 9f e0 fc bd 9a 57 03 be 96 c7 b1 3d 1c 90 b5 3d
       -0.123475306 -0.12826386 0.08680646 0.08865377
0000d0 78 5d b7 bc 2c ee a1 bd bc 58 d3 3a 80 8b 27 bb
       -0.022383437 -0.07906756 0.0016124467 -0.0025565326
0000e0 54 ec b1 3d 14 a7 e7 3d 85 a7 75 3d 0c 88 21 3d
       0.08687654 0.113111645 0.059974212 0.039436385
0000f0 30 fb ff bc f6 65 82 bd e2 a1 b5 3d a0 2d 85 bd
       -0.031247705 -0.06367104 0.08868767 -0.06502843
000100 76 3e f8 bd 54 06 c9 bd 63 ed f7 bd 85 bb 50 bc
       -0.121212885 -0.0981566 -0.12105825 -0.012740021
000110 3a e9 63 bd fb aa 0b be b0 34 34 3c d4 a6 d7 3d
       -0.055642344 -0.13639443 0.01099889 0.10529867
000120 54 09 90 bd b7 74 80 3d 34 5e 58 bd d8 dd e0 bd
       -0.07033029 0.062722616 -0.052824214 -0.10979813
000130 1a e2 dd 3d 17 43 0b be d4 ac e6 bd f4 c5 07 be
       0.10834141 -0.13599811 -0.11263433 -0.13259107
000140 14 6e 91 bd 14 b5 b2 bd fe d3 c7 3c 06 67 d4 bd
       -0.07101074 -0.08725944 0.024393078 -0.10371213
000150 ec eb 09 bd 78 79 dc 3c d6 10 0f bd 58 5a d9 bc
       -0.03367226 0.02691339 -0.034928165 -0.026532337
000160 30 6f 72 bd ac 6b 40 bb f4 7d 45 bd 28 2d 95 3d
       -0.059188068 -0.0029361052 -0.04821582 0.072840035
000170 a8 78 11 bd d0 89 81 bc a8 f7 e6 3d 0c a5 8f 3d
       -0.035515457 -0.015812784 0.112777054 0.07013902
000180 58 5b 5f 3d 18 2f dd 3c 88 d9 27 bd 60 d8 9e bb
       0.05453047 0.026999995 -0.04097894 -0.0048475713
000190 2c 95 f6 3d 44 20 4c bd 6f 4f e8 bd 7c ba 8f 3d
       0.12040171 -0.04983546 -0.11343276 0.07017991
0001a0 b3 9e 48 bd 00 12 0f 3b 9a ea 4c 3d dc f4 4f bd
       -0.048979472 0.0021830797 0.05002842 -0.050770625
0001b0 f0 3b 40 3d 7c b7 b2 bd 04 9a a7 bd b6 d2 db 3d
       0.04693216 -0.08726403 -0.08183673 0.10733549
0001c0 90 4a fd 3c 20 57 b0 bc 40 12 aa 3b 1c 99 48 3d
       0.030919343 -0.02152592 0.005190164 0.04897414
0001d0 94 ec ce bd f4 f7 cb 3d f4 9e 93 bd d0 61 11 bc
       -0.101037174 0.09959403 -0.07208052 -0.008873418
0001e0 01 a3 8c 3d 72 8b 9d bd 7d 8a 86 bd 21 12 82 3d
       0.06867028 -0.07692613 -0.06569383 0.06351114
0001f0 98 18 30 3d 50 05 c5 3c 94 3f e7 3d 58 a0 86 bc
       0.042992204 0.024050385 0.112914234 -0.01643388
000200 4b e7 41 bd a0 9a 0e 3d 3a e3 9b bd f4 1e 18 3d
       -0.04733972 0.03481543 -0.076116994 0.037138894
000210 33 ae 16 3d 60 8f b1 bc 43 b6 03 be 0a 67 b4 3d
       0.036787223 -0.021674812 -0.12862496 0.08808716
000220 30 64 39 3c d0 79 30 3d e4 b6 63 bd 5b 7d 01 be
       0.0113153905 0.04308492 -0.05559434 -0.12645476
000230 da c9 f7 bd 40 6b c9 bc ea 34 d0 bd 90 82 28 3c
       -0.12099047 -0.024587274 -0.101663426 0.010285035
000240 0e 7f bf 3d 20 b1 cd bd 4c 15 ed bd de 14 fb bd
       0.09350406 -0.100435495 -0.11576328 -0.122598395
000250 40 ab 35 3c 30 08 01 be e3 a4 87 bc 62 e8 2a be
       0.011088192 -0.1260078 -0.016558116 -0.1669021
000260 f0 cb ba bc 0a 5a ca 3d f0 da e3 bc 24 90 78 bd
       -0.022802323 0.09880455 -0.027814358 -0.06068434
000270 70 b9 a7 bc 2a 9e ed bd 3a 4f b4 bd 67 89 55 bd
       -0.020474166 -0.11602433 -0.08804174 -0.05213299
000280 4c 97 ae 3c 54 8f 93 3d b0 59 8c bd d8 59 57 bd
       0.021312378 0.07205072 -0.06853044 -0.052575916
000290 1d ac 9a bc aa e5 59 3d b1 12 d7 3c 08 db e5 bd
       -0.018880898 0.05319754 0.02625403 -0.112234175
0002a0 6c 76 ef bd 29 e8 78 bd 25 e1 e4 bc de a2 82 bd
       -0.11692509 -0.06076828 -0.027939389 -0.06378721
0002b0 c2 e5 d6 bd 6c 6a 2a 3d d8 38 40 3d b7 e3 88 3d
       -0.104930416 0.041605398 0.04692921 0.06684058
0002c0 82 2d ab 3c 51 89 ab 3d dc a8 91 3d e8 fe 00 3d
       0.020895723 0.083758004 0.071122855 0.031493098
0002d0 54 4c 28 3d d4 9b cd bd 4a fd a7 bd b2 2b 8d 3c
       0.041088417 -0.100394875 -0.08202608 0.01723275
0002e0 90 8d 3c 3c fa 1f bd bd dc 46 56 bd 58 d5 dc 3c
       0.0115083605 -0.09234615 -0.05231367 0.026957199
0002f0 30 64 46 3d 1c 28 8a bd 17 08 1a bd d5 6d 4b bd
       0.04843539 -0.067459315 -0.03760537 -0.04966529
000300 cd a3 b3 bd c8 74 7c bd fc a9 15 bd 9e 64 b7 bd
       -0.08771477 -0.06163481 -0.036539063 -0.08954738
000310 e8 45 37 3d e8 19 ff bc 91 87 09 3c a0 6c 46 bc
       0.044744402 -0.031140283 0.008394138 -0.012110859
000320 ef 95 8b 3d 16 79 d9 bd 35 56 3a bd 5d b0 85 3c
       0.06815707 -0.106187984 -0.04549237 0.016319448
000330 65 9e 35 bd 5d 2f 78 bd fa b0 e6 bd 8a 0a dd bd
       -0.04434051 -0.060592044 -0.11264224 -0.10793026
000340 23 d8 b3 bc 58 0f e8 bd 5c 73 e5 3d 6e e8 0d be
       -0.021953648 -0.113310516 0.11203644 -0.13858196
000350 5d b7 af 3d 74 50 75 3d d7 5c 91 bd c0 a1 62 3d
       0.08579896 0.05989118 -0.07097786 0.055330038
000360 d6 3d e7 3d 1e 0c 4c bd 81 54 11 be c5 e5 0d be
       0.11291091 -0.049816243 -0.14192392 -0.13857181
000370 aa 5e c8 bd ea 22 af 3d 28 e2 e7 bc 06 af a4 bc
       -0.09783681 0.08551581 -0.028306082 -0.020102989
000380 dc 06 9c bd 28 91 69 bd d0 f9 aa bc b0 3e 6d 3d
       -0.07618496 -0.057023197 -0.020871073 0.05792111
000390 4a 66 06 be 2e ee ee bd 94 d2 32 be b3 aa a3 bd
       -0.13124958 -0.11666523 -0.17463142 -0.07991543
0003a0 26 a7 d9 3d eb 1b cd bd 88 72 15 3d 00 bc 94 b9
       0.10627584 -0.100150906 0.03648618 -0.0002836883
0003b0 be 30 ac bd 91 a6 61 bd 50 be 31 3d 20 e2 f8 bb
       -0.08407734 -0.05509049 0.043394387 -0.0075953156
0003c0 f8 66 0a bd d4 91 2e 3d a8 a2 99 3c 48 87 d4 bc
       -0.033789605 0.04261954 0.018754318 -0.025943413
0003d0 02 ee ea 3d e0 37 c5 3c ec 6f fd bd a4 57 0a bd
       0.11471178 0.024074495 -0.12374863 -0.033774987
0003e0 75 57 25 bd 18 d8 44 3d 01 85 0a 3c d9 cd 70 bb
       -0.04036661 0.048057646 0.008454562 -0.0036743789
0003f0 ea 7b 95 bd f4 d3 aa bd 60 43 36 3c 36 93 fe 3d
       -0.07299025 -0.08341208 0.011124462 0.12430422

fc2.weight_hh_l0 f4 [256, 64]
000000 98 fa 7c 3d d0 de 43 bc 90 17 46 3d 14 aa f0 3d
       0.061762422 -0.011954978 0.048362315 0.1175119
000010 3c a5 a4 3d 00 eb a4 bc 38 6c 88 3c 58 3f a3 bd
       0.080393285 -0.020131588 0.016653165 -0.07971066
000020 24 37 b1 bd c8 2f e2 bd 00 47 ac 3b 72 8e e1 3d
       -0.08653095 -0.1104427 0.0052574873 0.110134974
000030 f0 e3 76 bc fc 9f ce bd c0 fe b5 bb 80 54 7e bb
       -0.015068993 -0.10089108 -0.00555405 -0.003880769
000040 e4 90 29 3d 3c d4 00 bd f8 6b 89 3c 04 84 9b 3d
       0.041397944 -0.031452402 0.016775116 0.07593539
000050 20 a2 db bc c0 ca 0b 3c e0 b7 04 3c 40 bc 19 3c
       -0.026810706 0.008532226 0.00810048 0.009383261
000060 d4 94 67 bd 3a 0d 87 bd 8c f0 d4 3d d8 a1 cb bd
       -0.056538418 -0.0659432 0.10397443 -0.099429786
000070 d4 7e 1a bd 74 b7 43 bd c0 fe 08 bd 48 06 4c bd
       -0.03771861 -0.047782376 -0.033446074 -0.049810678
000080 2e ae c0 bd 80 82 d7 bd 14 c9 94 3d 50 1c 56 bc
       -0.09408222 -0.10522938 0.07264915 -0.013068274
000090 14 27 a7 3d da 47 d2 bd e0 46 0b 3d 80 57 83 ba
       0.081617504 -0.10267611 0.03400314 -0.0010020584
0000a0 2a 8b d5 3d 10 37 ca 3c 5e a4 93 3d d4 9f 6a bd
       0.10426934 0.024684459 0.07209085 -0.05728133
0000b0 8a a2 a2 bd 00 1e c5 3c e6 24 b3 bd 68 49 8b bc
       -0.07941158 0.024062157 -0.08747272 -0.017002776
0000c0 2c be 24 3d fa e9 8b 3d 40 8e 88 3b 98 64 6a 3d
       0.040220425 0.06831737 0.004167348 0.05722484
0000d0 3e a2 b1 bd 60 35 fb 3d 8e 28 fa bd 28 8e f7 bd
       -0.08673523 0.1226604 -0.122147664 -0.12087661
0000e0 20 eb fd 3b c2 86 92 3d 24 84 f1 bd b8 e4 15 bd
       0.0077489763 0.07154609 -0.11792782 -0.036595076
0000f0 72 99 ce bd 60 aa d4 3d 98 30 e2 3c 2e dd 95 3d
       -0.10087861 0.10384059 0.027611062 0.07317577
000100 60 26 8e bb 5e c0 fd 3d 90 28 09 3c 82 45 8a bd
       -0.0043380708 0.12390207 0.008371487 -0.06751539
000110 60 d3 ed 3d 88 6d 62 bd 00 6e ec 3d 04 40 74 3d
       0.11612582 -0.05528024 0.11544418 0.059631363
000120 c4 5d 2a bd f0 44 6f 3c 5a df a0 bd d0 73 65 bd
       -0.041593328 0.014603838 -0.07855101 -0.05601865
000130 d0 60 8d 3d e8 9a c4 bc 40 f7 52 3d 28 02 07 bd
       0.06903231 -0.023999646 0.051505327 -0.03296104
000140 b0 2d 23 3c 7e 8c c5 3d 26 0e 9f 3d a0 0a b9 3d
       0.009959623 0.096459374 0.077663705 0.0903523
000150 14 a8 7d 3d 58 1c ff bd 8a 58 9e bd d0 7f bf bc
       0.06192787 -0.12456578 -0.07731731 -0.023376375
000160 f0 d8 ff bc 70 09 37 bc 04 f9 8f bd 58 3e b3 3d
       -0.031231374 -0.011171684 -0.07029918 0.087521255
000170 54 07 0d bd 80 e2 a2 ba 00 c8 a3 bb c0 e0 ab 3b
       -0.034430817 -0.0012427121 -0.004998207 0.005245298
000180 28 2d 5b bd 10 d2 fa bc 84 22 e3 bd a4 28 27 3d
       -0.05350986 -0.030617744 -0.11090568 0.040810242
000190 18 ee b6 3d c0 bf 73 3d b8 2c b2 3d 32 c0 ad 3d
       0.089321315 0.05950904 0.08699936 0.08483924
0001a0 5a 11 d4 3d c0 4f 44 bc 68 1e d2 3d 5e 77 b7 3d
       0.10354872 -0.0119819045 0.10259706 0.08958314
0001b0 98 c0 21 bd 00 f8 c5 b9 30 12 d2 bd e6 5d d1 bd
       -0.039490312 -0.00037759542 -0.10257375 -0.10222988
0001c0 1c 74 4c 3d 26 2b b4 3d 3c c8 38 bd 84 cf 65 3d
       0.049915418 0.087972924 -0.045112833 0.056106105
0001d0 2a 6f c8 3d 38 36 0e bd 1a 07 9e 3d f4 ef 5f bd
       0.09786828 -0.034719676 0.07716198 -0.054672197
0001e0 dc 5b 5a 3d 18 dd 68 3d 34 08 ad bd 98 8d fa bd
       0.05331026 0.056851476 -0.0844883 -0.12234038
0001f0 16 a5 ad bd 92 7c a6 bd 78 b9 a2 bd 90 67 fc 3d
       -0.08478753 -0.08129229 -0.079455316 0.123244405
000200 94 e3 19 3d 7c d2 3d 3d fe 62 ea bd e6 2d e9 bd
       0.03757055 0.04634331 -0.114446625 -0.113857076
000210 10 41 e2 bc 1c da 45 bd 60 a2 d1 bd c8 d4 59 bd
       -0.027618915 -0.04830371 -0.10236049 -0.05318144
000220 80 8b 6b 3b d0 ed 40 3d 20 0d 88 3b 68 bb 8d 3d
       0.0035941303 0.047101796 0.0041519552 0.069205105
000230 22 33 e1 bd 1e 20 d7 3d 8e 3d 85 3d 84 bf a4 bd
       -0.10996081 0.10504173 0.06505881 -0.08044341
000240 98 a9 92 bc 62 d7 92 3d f0 f2 c5 3d 1c 77 c6 3d
       -0.017903134 0.07169987 0.09665477 0.09690687
000250 6c c6 dc bd 20 b0 2f bd 60 ac d6 3d 76 db de bd
       -0.107800335 -0.042892575 0.10482097 -0.108817026
000260 c0 3f 13 3b 5e cb a5 3d 18 ba 81 3c 04 25 1b 3d
       0.0022468418 0.0809543 0.015835807 0.037877098
000270 e8 ba 89 3d be 27 ea bd f8 5d af 3d 68 d1 b3 3d
       0.06725103 -0.114333615 0.08562845 0.087801754
000280 40 7e 95 3c 68 33 83 3d 4c 1d 07 3d f6 31 c0 bd
       0.018248677 0.06406289 0.032986924 -0.09384529
000290 40 44 1a bb d0 ed d0 bd e8 00 57 bd 10 76 78 bc
       -0.0023539215 -0.10201609 -0.0524911 -0.015164867
0002a0 04 46 96 3d 00 79 77 3a f0 eb 33 bc 52 e1 aa bd
       0.07337573 0.00094403327 -0.010981545 -0.08343758
0002b0 d8 96 de bc 38 2a 30 3d 0c 66 06 3d 2c fc 4d 3d
       -0.027171537 0.043009013 0.032812163 0.050289318
0002c0 d6 53 d0 3d 0c 1e 9d 3d fc 80 0c bd 3c 19 3f 3d
       0.101722404 0.076717466 -0.034302697 0.046654925
0002d0 c8 62 c9 3c b6 58 a0 3d 3c 04 ab 3d f4 f7 3f 3d
       0.024583235 0.0782942 0.08350417 0.046867326
0002e0 a0 50 59 bc c0 1f 8c 3c 40 45 0f bb 60 f9 0c bd
       -0.013263851 0.017104983 -0.0021861345 -0.03441751
0002f0 60 35 d9 bd 38 14 c4 3c 70 ac eb bd d6 9e 89 bd
       -0.106058836 0.023935422 -0.11507499 -0.06719749
000300 68 4e 47 3d e0 c5 d1 bd 28 62 94 3d 74 59 3a bd
       0.04865876 -0.1024282 0.07245284 -0.045495465
000310 38 e9 e4 bd a6 0a fd bd 28 94 7a bd a0 83 ec 3c
       -0.111772954 -0.12355547 -0.06117645 0.028871357
000320 90 67 36 bd 70 3e 9c bc c2 05 eb 3d 6c d9 76 bd
       -0.04453236 -0.019072741 0.114757076 -0.060265943
000330 90 69 22 bd c0 7a 35 3b c0 54 d8 3d f8 ac 9c 3d
       -0.039651453 0.0027691573 0.1056304 0.07650179
000340 50 23 07 bc a4 50 18 bd 00 9e 59 3a cc dd 2f 3d
       -0.008248165 -0.03718628 0.0008301437 0.04293613
000350 9a c6 9b bd c4 3c 48 bd 38 1d a3 3d 46 06 fd bd
       -0.076062396 -0.048886076 0.079645574 -0.12354712
000360 e8 0d ea 3c e0 b3 0a bc f0 97 1d bc 64 2c 51 bd
       0.028571084 -0.008465737 -0.009618744 -0.051067725
000370 08 e1 36 3d cc 9a 01 3d 74 3e af bd 6e 00 ed bd
       0.0446482 0.031641766 -0.08556834 -0.115723476
000380 68 c4 a0 3c 30 3f 92 3d 48 4d 00 3d f0 9c 76 bd
       0.019624904 0.07140958 0.0313237 -0.06020826
000390 d8 f4 7e 3d 38 04 a2 bd 84 1e 50 3d f2 25 bb 3d
       0.06224522 -0.07910961 0.050810352 0.09138097
0003a0 60 2a c4 3d d8 9c 56 bd 40 e0 f3 bc 44 91 01 bd
       0.09578395 -0.05239567 -0.029770017 -0.031632677
0003b0 70 74 b0 3c 30 cd 8e 3d ac be e8 bd a0 17 f5 bb
       0.021539897 0.0697273 -0.11364493 -0.007479623
0003c0 f8 41 4b bd cc ee 3b 3d 3a ea c2 bd 70 bf d7 3d
       -0.04962346 0.04588203 -0.095173314 0.10534561
0003d0 64 0c 1e 3d c8 e9 9d bc c2 26 e3 bd 5c e0 cc bd
       0.038586035 -0.019276515 -0.11091377 -0.10003731
0003e0 d0 04 7f 3c 60 e3 32 bc 90 f4 f6 bd e4 67 c8 3d
       0.015565112 -0.010918468 -0.12058365 0.097854406
0003f0 c0 92 68 3b 9e 28 90 3d 44 b8 3c bd d8 c2 dd bd
       0.003548786 0.07038997 -0.046074167 -0.10828179

fc2.bias_ih_l0 f4 [256]
000000 56 d3 98 3d 43 c5 88 bd 4d b6 a8 bd bf c0 06 bd
       0.07462184 -0.0667825 -0.08237896 -0.03289866
000010 85 47 bd bd 36 f1 c0 bd 18 7b cb bc 42 38 4f bd
       -0.09242157 -0.09421007 -0.02483897 -0.05059076
000020 f1 52 a8 3d 2b 88 2d 3e 18 27 00 3e c6 a6 fe bd
       0.08218945 0.16946475 0.12514913 -0.12434153
000030 80 72 2e 3d b1 a4 bf 3c e2 2f 8b bd 5d 13 39 bd
       0.042589664 0.02339396 -0.06796242 -0.045184482
000040 00 c5 8e bd 69 9d ad bb 80 e9 18 3e a2 bd 33 3d
       -0.069711685 -0.005298306 0.14932823 0.04388202
000050 30 ea dc 3c 16 87 ff bd 34 64 17 3d 28 65 98 3d
       0.026967138 -0.124769375 0.036960796 0.07441169
000060 ff fb d5 3d 51 0e ab 3d 3d cf c3 bd 50 4b c9 bc
       0.10448455 0.0835234 -0.09561012 -0.024572045
000070 25 55 a6 bc 58 05 a4 bd 34 18 24 bd 5a 89 b6 bd
       -0.020304272 -0.08008832 -0.040062144 -0.089129165
000080 61 e8 c3 bd 1a 8c c9 3d f9 8d 3d bc 06 4c b1 3d
       -0.09565807 0.098411754 -0.011569493 0.086570784
000090 e1 bb 3c 3d 1a 45 e5 bd 48 da 9a bd 2b 04 ae 3c
       0.046077613 -0.11194821 -0.07561165 0.021242222
0000a0 6d 34 25 3d ee 16 33 3d 4d 60 5f bd 88 dc 12 3c
       0.0403332 0.04372304 -0.0545352 0.008963712
0000b0 36 95 be 3d 35 e6 39 3c 1a de de 3d da 87 d2 3d
       0.093058035 0.01134639 0.10882206 0.10279818
0000c0 3c 49 8f bd f9 87 22 bd e8 8c af bc 7d d6 15 3c
       -0.0699639 -0.039680455 -0.021429494 0.009145376
0000d0 3a 91 cb bc 24 fa 6b bd aa ee b1 bd bb 9c 51 3d
       -0.024849523 -0.0576116 -0.086881 0.05117486
0000e0 60 1b b0 3d 40 52 12 3e 76 ec d8 bd 7e ff 10 3e
       0.08598971 0.14289188 -0.10591976 0.14159963
0000f0 b9 9c e7 bb f4 5e 67 bd 13 50 ed bd 27 29 28 3c
       -0.0070682433 -0.05648704 -0.115875386 0.010263718
000100 d0 79 94 3d cc 2b 13 bd 72 49 f0 bd d8 36 6b 3d
       0.072497964 -0.03593044 -0.117327586 0.05742535
000110 2e 1e 81 bd 88 e8 83 bc 20 11 00 3c 68 97 f6 bd
       -0.063045844 -0.01610209 0.007816583 -0.12040597
000120 58 dc 3d 3d 20 a6 31 bd 34 5b 2d 3d b6 c0 a4 3d
       0.046352714 -0.04337132 0.042323306 0.08044569
000130 a4 79 8e bd 40 ba 83 3d 00 ae 9c 3a ac 89 95 bd
       -0.06956795 0.06432009 0.0011953712 -0.073016495
000140 98 15 d9 bd d8 c2 9f bd 82 8a a3 3d e8 91 82 bc
       -0.10599822 -0.07800835 0.07985403 -0.015938714
000150 d8 ac ee bd 58 11 e4 3d 3c cc d5 3d f0 4e 0a 3c
       -0.11654061 0.111361206 0.10439345 0.008441672
000160 c2 dc aa 3d 46 e0 96 bd c8 40 12 3d 88 ab fc 3c
       0.083428875 -0.073669955 0.03570631 0.030843511
000170 78 eb 14 bd 98 a9 96 3d a0 9d b8 bd e0 2e b2 bc
       -0.036357373 0.07356566 -0.090144396 -0.021750867
000180 70 2f db 3d 90 a4 81 3d 80 aa fe ba 1a 85 92 3d
       0.10702407 0.06330216 -0.0019429475 0.07154293
000190 f0 3c 6f bc 52 9b f4 bd b4 35 59 bd 20 5e b4 bc
       -0.014601931 -0.119436875 -0.05302973 -0.022017539
0001a0 0e 0f d3 3d 86 97 91 3d 80 c3 01 3d 98 9a 98 bd
       0.10305606 0.07108979 0.031680584 -0.074513614
0001b0 20 c7 c2 3b ea 95 d4 bd ba c6 de bd 9e 32 97 3d
       0.0059441477 -0.10380156 -0.10877748 0.07382701
0001c0 be 61 ec bd c8 c8 ce bc 80 97 b3 bb e0 2e 14 3c
       -0.1154208 -0.025242224 -0.0054807067 0.009044379
0001d0 60 64 dc 3b 8a 71 f8 bd 80 1b 8e 3c 4c 8c 1c bd
       0.006725833 -0.12131031 0.017347097 -0.038219735
0001e0 30 42 de bc 7e cb 83 3d 34 16 90 3d 5e 04 ec 3d
       -0.02713117 0.064352974 0.07035485 0.115242705
0001f0 5e 61 a7 bd 1c 5c a3 bd 60 00 e3 bb 48 e8 b5 bc
       -0.08172868 -0.07976553 -0.006927535 -0.022205487
000200 ea 9d ff bd a4 2f 11 3d 2b 8f 80 3b 50 e0 f6 3c
       -0.124812916 0.035445824 0.003923317 0.030136257
000210 d2 c4 25 bd 2c 76 a4 bd 4e 32 ff bc be 1d bd bd
       -0.040470906 -0.08030352 -0.031151917 -0.092341885
000220 61 5d 20 3c a6 ac a9 bd ec 1f 71 bd 71 95 05 3d
       0.009787888 -0.08284883 -0.058868334 0.03261322
000230 9e 70 4e 3d 47 b9 50 bd 77 82 06 3e 20 8f d3 3d
       0.05040037 -0.050957944 0.13135706 0.10330033
000240 ae 0e 33 bd 54 f1 18 be 19 d3 8f 3d 86 29 2d 3d
       -0.04371517 -0.1493581 0.070226856 0.042275928
000250 5e 74 1c bb 30 42 25 3c 6e 17 e4 3d 35 6c 9a bc
       -0.0023873071 0.010086581 0.11137281 -0.018850425
000260 2d 9a e3 3d b1 ae 79 bc 8e 2e e1 bd 38 8c d3 bc
       0.11113391 -0.015239404 -0.10995208 -0.025823697
000270 0b c3 c0 3d 10 04 e6 3c 24 74 9b 3d 3e f2 8b bd
       0.094122015 0.028078109 0.075905114 -0.068333134
000280 90 02 86 3d 2c a1 00 3e 5e b5 97 bd 9c 8a d9 bd
       0.065434575 0.12561482 -0.0740764 -0.10622141
000290 90 56 5f 3d f6 c1 90 bd 02 3e 89 3d 13 bb 1e bd
       0.05452591 -0.07068245 0.0670128 -0.038752627
0002a0 7c 00 29 bd 3b b9 85 3c 0b e3 05 3e 34 fc 08 bd
       -0.041260228 0.016323676 0.13074891 -0.033443645
0002b0 10 2b 59 bc 08 04 eb bd 60 da e6 bb 68 cc a6 bc
       -0.013254896 -0.11475378 -0.0070450753 -0.02036114
0002c0 f9 0a d3 3d c5 a0 a2 3d a8 61 bb bd 10 4b f3 bd
       0.10304827 0.079408206 -0.09149486 -0.118795514
0002d0 46 77 5a 3d fe 46 40 bd 55 9e 82 bd 68 b3 34 3d
       0.053336404 -0.046942703 -0.06377856 0.044116408
0002e0 58 e6 25 3d 26 5c 2e 3e 46 4f d4 bd 73 9c 10 bd
       0.040502876 0.1702734 -0.10366683 -0.03530545
0002f0 b2 d8 8f 3c 93 6a 98 3c 00 72 41 bd 99 00 93 bd
       0.017559383 0.018605506 -0.04722786 -0.07177848
000300 a0 92 76 bd 54 26 ae bd 3a d9 30 bc 12 2a 10 bd
       -0.060198426 -0.08503404 -0.010793978 -0.03519637
000310 f6 b0 0b bd 8c 42 e5 3b a6 aa 56 bd 4c 3e 1c 3d
       -0.03410431 0.0069964584 -0.052408837 0.03814535
000320 7d 06 75 bd 68 d4 40 3d 5d 49 9f bd 42 07 f7 bd
       -0.05982064 0.047077566 -0.07777665 -0.12061931
000330 df 34 5b bc 1a 9a f1 3d 8a 4c a5 3d d8 78 c9 3d
       -0.013379305 0.11796971 0.08071239 0.09837502
000340 f5 90 b4 bd f0 dc 73 3d 28 f4 a6 bc a7 2c af bd
       -0.08816711 0.059536874 -0.020380095 -0.08553439
000350 21 2c 18 be dc a6 ce bd 58 95 c8 bd ed 5c a0 bd
       -0.14860584 -0.1009042 -0.0979411 -0.07830224
000360 27 aa b1 3d ec c1 b3 3c e4 8f 7e 3d 16 da a9 3b
       0.08675032 0.021943055 0.062148944 0.0051834686
000370 73 aa bb 3d 98 9c c0 bc 63 55 04 3e b6 11 9e bd
       0.0916337 -0.02351217 0.12923197 -0.07718222
000380 bb e6 aa 3d ef 67 08 bd 7b 77 80 bd 7a 18 85 bd
       0.083447896 -0.033302244 -0.06272789 -0.06498809
000390 aa 58 c3 bd 70 2b 73 3c 4e c0 71 bd f7 86 b5 bd
       -0.09538396 0.014841899 -0.059021287 -0.08863633
0003a0 89 8a 39 bd 61 ea 44 3d 78 41 2f bd 11 3d 25 be
       -0.045298133 0.048075084 -0.042787045 -0.16136576
0003b0 08 53 4f bc 2a 3e f2 bc c5 71 05 3e c2 78 b8 bd
       -0.012654074 -0.029570658 0.13031681 -0.09007408
0003c0 46 04 00 3e 73 f6 84 bd 3b df 09 be 80 38 ef 3a
       0.1250163 -0.06492319 -0.13464062 0.0018251091
0003d0 8d 48 f5 bc 1b 07 9c bd c7 9c be bc d4 bf f1 bb
       -0.029941821 -0.07618543 -0.023268117 -0.007377604
0003e0 e0 5c 37 bd 63 b1 9f bd cc ab 94 3d df 1d c8 3d
       -0.044766307 -0.07797506 0.0725933 0.097713225
0003f0 0d dd 43 bc 70 47 9d 3d f6 97 fc bd 84 8d 17 3e
       -0.011954558 0.07679641 -0.12333672 0.14800078

fc2.bias_hh_l0 f4 [256]
000000 f0 7b b3 3d f1 29 9f 3d 8b 2b 4c bd 61 45 98 3d
       0.087638736 0.077716716 -0.049846213 0.07435108
000010 72 8b 90 3d 9b 42 c7 3d f0 da df bc bd 1a e4 bd
       0.07057847 0.09729501 -0.027326077 -0.111379124
000020 2f 68 a7 3d 71 9d 1a 3b 57 d2 94 3d 77 0d 63 3d
       0.08174168 0.0023592378 0.07266682 0.055432763
000030 67 78 85 3d b4 ab d6 3d 07 7e 45 3d db e7 e2 3d
       0.065171055 0.104819685 0.048215892 0.11079379
000040 77 9f 38 bd aa 1a 93 3d ec 63 73 bd bc 06 25 3d
       -0.045073953 0.0718282 -0.059421465 0.040289626
000050 2a 3e 26 bd f0 53 4e bd 58 20 05 bd 92 97 9b 3c
       -0.040586628 -0.050373018 -0.03250155 0.018993173
000060 af 6f c8 bb 5c 9f b1 3a ad 18 e0 bd 58 e0 ae bd
       -0.0061168293 0.0013551521 -0.109422065 -0.08538884
000070 de 78 36 be a0 e9 eb 3b 16 90 f9 3d 67 d7 ac bd
       -0.17819545 0.007199481 0.12185685 -0.08439522
000080 90 a5 00 3d 8e be cf bd 55 20 99 3b 20 e1 00 bd
       0.031407893 -0.10143767 0.0046730437 -0.031464696
000090 84 3f 0c 3c 86 15 c6 bd 12 13 20 3c 0f 69 81 bc
       0.008560065 -0.09672074 0.009770172 -0.015797166
0000a0 30 0d 12 3e d8 41 05 3e bc 26 63 bd 0a 4c 82 3d
       0.14262843 0.13013399 -0.05545686 0.063621596
0000b0 fa e1 c1 3d dd 69 50 3d 76 59 8f 3c 94 39 ea 3d
       0.0946693 0.05088221 0.017498713 0.114367634
0000c0 a4 6e db bd 7b a8 8e 3c 4f d9 d0 bd 78 70 fc 3d
       -0.107144624 0.017414322 -0.10197698 0.12326139
0000d0 0e 02 12 bd 32 fe d5 bd 60 42 d2 bc 4e b9 01 be
       -0.03564649 -0.104488745 -0.025666416 -0.12668344
0000e0 dc 5e d9 3d 43 db 94 bd fe 5f 9e bd ea 0e 9d 3d
       0.10613796 -0.07268383 -0.07733153 0.0766886
0000f0 3d ed da bd d2 9f 25 3d ee 30 aa 3a 09 fb cb 3c
       -0.10689781 0.04043562 0.0012984553 0.024899976
000100 b0 b1 2c bc 50 6b 3f 3d 58 f0 9b bc 74 21 95 3d
       -0.010540411 0.0467332 -0.019035503 0.07281771
000110 40 46 44 3d b8 99 dc 3c 8a b2 8d bd e8 8a 50 bd
       0.047918558 0.026928768 -0.06918819 -0.05091372
000120 40 32 81 bc ba 32 bc bd a4 c3 e7 3d 3e e9 ca 3d
       -0.015771031 -0.09189363 0.11316612 0.09907769
000130 d8 8f 1f bd 8c 3a fd bd 00 9c 05 3c ac 1d 9f bd
       -0.03895554 -0.123646826 0.008154869 -0.07769331
000140 38 dd 5d bd 18 65 d7 3c 72 5a e2 bd 36 d6 83 3d
       -0.05416605 0.026293322 -0.11052407 0.06437342
000150 60 48 bf 3b 78 07 87 3d 32 83 90 bd a0 e2 0c 3c
       0.005837485 0.065932214 -0.070562735 0.0085989535
000160 46 37 90 3d 64 0c 7f 3d 5c dc 60 3d e0 c0 90 3b
       0.070417926 0.062267676 0.05489765 0.0044175237
000170 54 72 80 3d f8 fc bc bd 50 5d 28 3d 6e a7 b6 3d
       0.06271806 -0.092279375 0.041104615 0.089186534
000180 c8 f2 8f bd 20 4e e6 bc 20 90 ee bc 68 6f a0 3c
       -0.07028729 -0.028113425 -0.029121459 0.019584373
000190 40 cf f4 bd 52 2c 94 3d 0c 4d 8f 3d f8 70 98 bc
       -0.11953592 0.07235016 0.069971174 -0.018608555
0001a0 4c 47 2a 3d 92 c8 94 bd ae f5 fa bd c8 6e dd 3d
       0.0415719 -0.07264818 -0.12253891 0.108121455
0001b0 20 b9 ad 3b 9c ea 4b bd 10 22 ec 3d a4 d5 8b 3d
       0.0053016096 -0.049784288 0.115299344 0.06827858
0001c0 10 d0 38 3c 00 05 8b 3c d2 57 b3 bd 78 c1 b9 bc
       0.011280075 0.016970158 -0.08756985 -0.02267526
0001d0 08 39 bc bc 94 ef f3 bd 84 a6 70 bd 3c c3 f7 bd
       -0.022976413 -0.1191093 -0.05875255 -0.12097785
0001e0 ee 8a 93 3d c0 83 43 3b a0 59 47 bc 00 f9 ef ba
       0.07204233 0.0029833168 -0.012167364 -0.0018308461
0001f0 42 3d da bd 12 d9 8e bd f0 ac b9 bd 28 51 b2 bd
       -0.10656215 -0.069749966 -0.09066188 -0.087068856
000200 94 a1 4a bd d8 25 eb 3c 89 f4 15 3d 26 c8 cf 3d
       -0.0494705 0.028704569 0.03661016 0.10145597
000210 78 ed 81 bd 49 c4 fd bd 44 b5 88 3d f4 4e 50 bd
       -0.06344122 -0.12390954 0.06675199 -0.050856546
000220 fc 6f f8 bc 0f 03 18 3e e1 88 a7 bd 15 52 91 3d
       -0.030326836 0.14844917 -0.081804045 0.07095734
000230 42 7a d3 bd bc f3 e4 3b d4 1b e7 3c 18 5a 5f bd
       -0.10326053 0.006987063 0.028211512 -0.05452928
000240 e3 fe b6 3c 29 cc 4a bd 91 f7 2b 3c e0 01 a0 bd
       0.022338336 -0.04951111 0.010496036 -0.07812858
000250 2c 22 45 bd d8 c2 cb 3c 00 7a 19 3c 6b aa c5 3c
       -0.048128292 0.024873182 0.009367466 0.024129113
000260 0c 70 f1 3c cb 23 e3 bc 90 bf 91 3d 18 78 57 bd
       0.029472373 -0.027727028 0.07116616 -0.052604765
000270 04 10 13 3e 70 df 6a 3d 46 37 ca bd 54 48 24 bd
       0.14361578 0.057341993 -0.09873824 -0.04010804
000280 80 15 aa bb 27 b5 07 3a f9 62 8d 3c cc 85 cf 3d
       -0.0051905513 0.0005176835 0.017259108 0.101329416
000290 40 f4 53 3d 3e 83 cf bd 88 55 c5 3c 80 0d f8 3d
       0.051746607 -0.10132454 0.024088636 0.1211195
0002a0 2f b6 f0 3c 58 14 90 3d d9 08 b8 bc f8 d6 70 3d
       0.029383747 0.0703513 -0.022465156 0.05879876
0002b0 c0 57 ef bb 16 de fc 3d b7 ee 16 3c d0 0a ce 3d
       -0.007304162 0.12347047 0.0092121875 0.10060656
0002c0 4b 99 84 bd e4 64 8f 3d 8a 42 b8 3d 44 a6 7b 3d
       -0.06474551 0.07001665 0.08997066 0.06143786
0002d0 38 80 b3 3d f0 1c fb 3d 05 f9 b2 3d ee 55 e3 3d
       0.0876469 0.12261379 0.08738903 0.11100374
0002e0 20 00 29 bd 8a 4d 84 3c 02 a4 b8 bd 5a c0 aa 3d
       -0.041259885 0.016150255 -0.09015657 0.083374694
0002f0 81 6f 95 bb dd 3d 78 3d 06 13 b6 3d 3f 2a d6 bd
       -0.0045604114 0.060605872 0.08890347 -0.104572766
000300 96 28 b5 bd 62 77 92 3d ea f8 34 bd bc ad 3f bd
       -0.08845632 0.07151677 -0.044182695 -0.046796545
000310 ce 0a de bd d7 6e 9f bd 7a 15 72 bd b7 1b 4a bd
       -0.108419046 -0.07784813 -0.059102513 -0.049342837
000320 56 05 b6 3d 90 70 97 bd da 22 75 3d bc 6b bb bd
       0.088877365 -0.073945165 0.05984769 -0.09151408
000330 a2 9a be bd 5e e6 48 bd 83 f6 06 be 58 96 66 3d
       -0.093068376 -0.04904782 -0.13179974 0.056295723
000340 29 b6 a4 3d 59 bf 7c bc db b2 84 3d df 86 e2 bc
       0.08042557 -0.01542648 0.064794265 -0.027652202
000350 ae 64 77 3d 5a c8 59 bd c2 86 f5 bd 07 7b a9 3d
       0.06039875 -0.053169586 -0.11988594 0.08275419
000360 71 bf ab 3d b6 95 71 bc 91 a8 e8 3d c4 34 cb bd
       0.08386124 -0.0147451665 0.113602765 -0.099221736
000370 9f ab d5 bd ff 64 ad bc 38 f0 0c 3d b0 56 21 3d
       -0.10433125 -0.021166323 0.034408778 0.039389312
000380 d6 22 0e bd e6 ab 0c be e4 ac 37 3d 5c 39 17 3d
       -0.03470119 -0.13737449 0.044842616 0.036919937
000390 d8 93 e0 bc e5 b5 ec bd 93 b8 96 bd cf 94 c0 3d
       -0.027414247 -0.11558131 -0.073594235 0.09403383
0003a0 ff 56 f3 bc 31 84 21 3d fd 68 22 bd e8 24 a5 bd
       -0.029704569 0.03943271 -0.039650906 -0.0806368
0003b0 b8 7a d4 3d 0c 63 dd 3d 94 ed 83 3c ea 3d 90 bd
       0.10374969 0.10809907 0.016104497 -0.07043059
0003c0 27 4c 90 3d e1 bf b2 3d 41 9c ae bd 8e e8 c4 bd
       0.07045775 0.08728004 -0.08525897 -0.09614669
0003d0 49 30 05 3e c2 2b 76 3c 97 e5 0c bd 80 c5 b9 bd
       0.130067 0.015025081 -0.03439864 -0.09070873
0003e0 54 aa 56 bd 08 36 7d bd 43 6a 46 3c 5d 49 86 3d
       -0.05240853 -0.061819106 0.012110296 0.06556962
0003f0 2c 35 d0 bd fc 0c 3b bd 5c fe df 3d 66 65 16 bd
       -0.10166392 -0.04566668 0.10937187 -0.036717795

fc3.weight f4 [3, 64]
000000 75 8f 0e bd a1 3e 2f bd eb 86 79 bd 76 60 8d bd
       -0.03480478 -0.042784337 -0.060919683 -0.06903164
000010 97 0c 2e bd 87 a3 b5 bd 8a 0e 65 bd 6b 98 cd 3c
       -0.042492475 -0.08869081 -0.05592207 0.025097093
000020 d2 34 a5 ba 7e 8b 8e 40 3a a0 40 3e b0 02 46 be
       -0.0012604243 4.454528 0.18811122 -0.19336963
000030 b5 b8 89 c0 01 b7 c4 3e 03 0b 23 bd cf 7f df bd
       -4.3037972 0.3842087 -0.039805423 -0.109130494
000040 fe 6c 9b 3d 94 d7 d4 3f 32 46 81 c0 db aa 80 c0
       0.07589148 1.6628289 -4.039819 -4.0208564
000050 bf 06 8c bd 68 11 9f bd 40 c4 5a bb c8 16 88 c0
       -0.06837224 -0.07766992 -0.0033381134 -4.252781
000060 74 7e 89 40 06 8e 79 c0 cb 80 c2 bb 9d 35 27 3d
       4.296686 -3.8992934 -0.0059357635 0.040822614
000070 f2 d3 39 3e 2a b4 db 3d 7a d3 8e c0 4c af ca 3d
       0.18147257 0.10727723 -4.463315 0.098967165
000080 27 af 55 3d 86 7f 9c bd 4b 22 84 c0 1c c7 78 3d
       0.05216899 -0.07641511 -4.129186 0.06073676
000090 15 6d 65 be 9f f8 3f 3d d9 53 f8 3d ab e5 86 40
       -0.22404893 0.046867963 0.12125368 4.2155356
0000a0 4e 56 66 40 99 6a 80 c0 2e 35 b9 3f 3e 68 9b 3c
       3.5990176 -4.0130124 1.4469354 0.018970605
0000b0 40 9a 39 3d 41 a2 a3 be a3 1b 8c 40 4a 47 9b bd
       0.04531312 -0.31959727 4.3783736 -0.07581957
0000c0 08 68 71 bf a3 4b 73 3d a8 b0 e3 bb 5b 68 75 3b
       -0.94299364 0.059398305 -0.0069485493 0.0037446234
0000d0 84 31 5e 40 b2 8c 1d be 05 8a b9 bd 03 47 73 c0
       3.4717722 -0.15385702 -0.09059528 -3.8012092
0000e0 6d 31 9c bd 46 68 b9 3f c0 3d fa 3c 4e 68 81 c0
       -0.07626615 1.4484947 0.030547023 -4.0439825
0000f0 d7 18 27 3e 31 0c a7 bd e0 e5 ca bc d8 dc 4d c0
       0.1631807 -0.08156622 -0.024767816 -3.2166042
000100 de a9 ff 3d f9 01 01 bd 2d 65 d1 bd db 64 8a 3d
       0.124835715 -0.031496022 -0.10224376 0.06757518
000110 34 5d 83 3d d9 b4 af 3d d2 1f 6b bc 89 66 ce bd
       0.064142615 0.08579416 -0.014350848 -0.10078151
000120 47 61 11 be d8 0b 83 40 a0 6a f2 be e5 e5 c6 3c
       -0.14197265 4.095196 -0.47346973 0.024279544
000130 d3 96 80 c0 78 28 b7 3e 08 98 91 bd 80 83 f2 3d
       -4.018411 0.35773063 -0.07109076 0.11841488
000140 c8 ea c0 3c 56 c0 57 3f b1 fb 83 c0 f3 e1 81 c0
       0.023549452 0.84277856 -4.124474 -4.0588317
000150 cc f0 f9 3c 63 eb e1 3d 68 51 8d bd bf 43 84 c0
       0.030510329 0.110312246 -0.06900293 -4.13327
000160 bb c3 82 40 e6 ab 81 c0 10 72 b6 bd f1 56 02 3c
       4.086393 -4.0522337 -0.089084744 0.007955299
000170 12 4e ad bc e6 97 d4 3d fb 95 7e c0 74 b2 e5 3d
       -0.02115539 0.10380535 -3.977904 0.11215678
000180 47 ea 16 bd 8b 55 ed 3d 01 a3 80 c0 1c dc 17 3d
       -0.036844518 0.11588582 -4.019898 0.037075147
000190 48 aa 0f 3d fb 83 90 3b 9f 66 b9 bd b3 de 82 40
       0.035074502 0.0044102645 -0.090527765 4.089685
0001a0 f3 2e 82 40 51 45 39 c0 ca 36 b2 3f 13 55 5b bd
       4.068231 -2.8948557 1.392297 -0.05354793
0001b0 d1 e0 b2 3d 7a 21 e4 3d 40 e0 81 40 80 f1 32 3c
       0.087342866 0.11139198 4.0586243 0.010921836
0001c0 f7 2e d4 be ae 53 fe 3d 63 30 28 3d 18 4f 24 bd
       -0.4144208 0.124183044 0.04106177 -0.040114492
0001d0 8f 65 7c 40 5d c6 8a bd 6e 79 42 bd 98 1c 78 c0
       3.9436986 -0.06776116 -0.047479086 -3.8767452
0001e0 f6 ba 89 3d ff ee 57 40 ac 97 f5 bd 19 a1 81 c0
       0.06725113 3.3739622 -0.1199182 -4.0509152
0001f0 6d d3 5f 3c 86 81 e9 3d a8 b1 b7 3d a3 89 5f c0
       0.013661248 0.11401658 0.08969432 -3.4927757
000200 24 dc 05 3d 86 b2 df bd e0 07 35 3d 67 5f b3 3d
       0.032680646 -0.109227225 0.044196963 0.08758431
000210 a1 54 21 3d aa 7e 82 3d 56 34 35 3e b0 9f 9f 3d
       0.03938735 0.063718155 0.17695746 0.0779413
000220 07 0b b7 3b 5f 4e 7f 40 8f b6 69 be 4b 6c 0b bd
       0.0055860314 3.9891584 -0.22823547 -0.034038823
000230 67 5e 81 c0 01 57 12 3d 5f 0c 26 3d 00 70 18 3a
       -4.0427737 0.035727505 0.04053914 0.0005815029
000240 88 f3 06 3e ce ba c8 3e 0f 7e 84 c0 d4 93 06 c0
       0.13178837 0.3920502 -4.140388 -2.1027727
000250 ab c6 12 3d a2 09 8c bd c6 99 88 bd 54 bf 81 c0
       0.035833996 -0.06837775 -0.06669955 -4.0546055
000260 c1 a0 80 40 85 eb 7f c0 c2 06 53 bd 54 5a e0 3c
       4.0196233 -3.99875 -0.051520117 0.027386822
000270 f7 7f 3c bc 00 72 aa 3d cc 80 82 c0 2d 56 aa 3c
       -0.011505119 0.08322525 -4.0782223 0.020793045
000280 1f d2 5b bd 24 81 9d bd 26 08 82 c0 76 35 b7 3d
       -0.053667184 -0.07690647 -4.0634947 0.08945744
000290 34 8d 8d 3d d0 f1 ed bd bb 40 36 bd 1d b1 7c 40
       0.06911698 -0.11618388 -0.044495326 3.9483101
0002a0 a3 9e 6a 40 06 e1 4c c0 0f 75 d8 3f 63 d2 83 3c
       3.6659324 -3.2012343 1.6910723 0.016091531
0002b0 b0 7d be bd 3f c8 33 bd d5 7c 72 40 36 7d d5 bd
       -0.09301317 -0.04389214 3.7888691 -0.10424273
0002c0 84 70 e3 bf 21 61 ac 3d a0 c0 e9 bc 66 0c e9 bd
       -1.7768712 0.08416963 -0.028534234 -0.11379318
0002d0 5c 18 6d 40 51 9f 24 be 06 de 90 3d 2b 0f 82 c0
       3.7046118 -0.160764 0.070735976 -4.0643516
0002e0 b2 f5 ba 3d 96 a4 6e 40 d6 50 fc bd ee 88 9f c0
       0.09128894 3.7287955 -0.12320106 -4.985465
0002f0 09 29 f6 bd 25 88 7c bd d0 22 8b bc 80 81 68 c0
       -0.120195456 -0.061653275 -0.016984373 -3.632904

fc3.bias f4 [3]
000000 f1 7a 8f 40 be 6a 81 40 eb 38 7d 40
       4.4837575 4.04428 3.956599
