Models/LSTM/agentDQN-LSTM_2018-2020_lstm_v1_400_EPS_4.pth (torch, 516131 bytes, 8 tensors)

fc1.weight_ih_l0 f4 [512, 104]
-0.005142212 -0.004083954 -0.029737286 0.057170145 0.0021331608 -0.05918255 -0.057705052 -0.06996828
0.081255175 0.027810037 -0.010759458 0.060202368 -0.023624077 -0.059996113 -0.008674055 -0.0784526
0.009852275 -0.084715605 0.017071001 0.038904704 -0.050328963 0.03308989 0.0029777065 0.0017458051
0.06612394 -0.0869103 -0.015917309 0.03458292 0.04085783 -0.03291378 -0.05018462 -0.043667708
-0.079501376 -0.0008437708 0.029563025 -0.07205939 0.040613763 -0.052792024 -0.05401338 -0.06954501
-0.057099413 0.025019929 0.028624177 -0.059121914 -0.026514012 -0.070585266 -0.046437208 0.0074885488
-0.087110244 -0.07244162 -0.024114907 0.037888147 -0.04839439 0.059437253 -0.006752409 -0.06657244
0.06537602 0.04090806 -0.0074959546 0.07622009 0.025423102 0.070946954 0.015096106 -0.048622783
-0.067614436 -0.086811304 -0.0836949 0.06092929 0.0076529086 -0.04307096 0.011300676 0.06948351
0.04354454 0.033370145 -0.016757503 -0.0355788 0.042628877 0.030946039 0.073560335 -0.027149674
0.07665659 -0.037011117 -0.030144531 0.08239464 0.024981014 -0.018527932 0.014869131 -0.023024485
-0.043722812 -0.06818332 0.069865294 -0.041153066 0.05120244 -0.0023155063 -0.03748416 0.048897274
-0.028464757 0.018123724 0.012689404 0.030201472 -0.007621549 0.083338566 -0.0018012598 -0.065555066
-0.053611487 -0.07939057 -0.055809386 -0.15137956 -0.10567562 -0.035207808 -0.042832717 -0.026982842
-0.16579044 -0.10201001 -0.051240906 -0.0007436243 -0.121577166 -0.14108425 -0.067959026 -0.009871047
-0.013336391 -0.02883575 -0.00031133366 -0.074487336 -0.088225864 -0.047284056 -0.05889649 -0.010315247
-0.033095248 -0.025316183 -0.042336326 -0.07611348 0.109569535 -0.035074376 0.12741822 -0.022246182
0.06614753 -0.063645 -0.10931159 -0.12627755 0.12676337 -0.09460736 -0.030895928 -0.06383567
-0.03496629 -0.14837609 -0.02085483 -0.11969625 0.004571693 0.009350022 0.002702194 0.054667797
0.1528297 0.05569526 -0.11414956 0.00048096068 -0.13560486 -0.05846846 -0.026941478 0.000120705714
-0.1563007 -0.018832037 -0.0866149 -0.115597345 -0.11016101 -0.045202117 -0.05674341 0.02087863
-0.05929493 0.04711546 -0.008491901 -0.14849204 -0.06362868 -0.07223501 -0.03629711 -0.117233135
-0.09623905 -0.03279162 -0.15330139 -0.054068327 -0.06057368 -0.022792317 -0.10637752 -0.15801135
-0.09111619 -0.057218425 -0.16100658 -0.08754779 -0.037955694 0.0095651485 -0.004150398 -0.06757983
0.0022956168 -0.12930806 -0.04883132 -0.039463274 -0.109453715 -0.15068854 -0.0258473 -0.06452008
-0.08374738 -0.13718061 -0.0073284036 -0.0075311637 0.04853221 0.04995292 0.037732475 0.035393693
-0.019900188 0.06788524 0.04505468 0.034646377 -0.015998138 -0.021082856 -0.11319138 0.041678905
-0.039689098 0.023866147 -0.10791485 -0.032085773 -0.016118508 0.039470855 -0.09040763 -0.08662584
-0.004420942 -0.10970602 0.044417698 -0.08136781 0.045515668 0.044796888 -0.020034902 0.022466356
-0.040619668 -0.050986752 0.10045563 -0.08629625 0.026763475 -0.05339595 0.09670931 -0.005182846
-0.09135267 -0.029031022 -0.019098204 -0.064053886 -0.036382727 -0.037030336 0.026337931 0.0018256967
-0.012917514 -0.058694124 0.046021093 -0.033254087 -0.009305452 -0.07993768 -0.06822095 -0.047182683
00000000: 0080 a8bb b0d2 85bb 9c9b f3bc 3e2b 6a3d
00000010: 80cc 0b3b 6769 72bd 225c 6cbd 884b 8fbd
00000020: 1d69 a63d e0d1 e33c 7048 30bc c296 763d
00000030: 4887 c1bc 7cbe 75bd a01d 0ebc c2ab a0bd
00000040: 706b 213c 607f adbd 7cd8 8b3c 8a5a 1f3d
00000050: be25 4ebd 4489 073d a025 433b 80d3 e43a
00000060: fd6b 873d 07fe b1bd 0465 82bc d2a6 0d3d
00000070: 8a5a 273d 9ad0 06bd 638e 4dbd e9dc 32bd
00000080: 9ed1 a2bd 8030 5dba 282e f23c e093 93bd
00000090: 9e5a 263d 733c 58bd 223d 5dbd 9d6d 8ebd
000000a0: 13e1 69bd 98f6 cc3c 407d ea3c d229 72bd
000000b0: ea33 d9bc 028f 90bd f134 3ebd 8062 f53b
000000c0: db66 b2bd 465c 94bd a08c c5bc 9a30 1b3d
000000d0: 3239 46bd 7a74 733d 5043 ddbb 2257 88bd
000000e0: dde3 853d 368f 273d a0a0 f5bb 4719 9c3d
000000f0: 1c44 d03c a34c 913d a855 773c af28 47bd
00000100: 7079 8abd 20ca b1bd 3b68 abbd fe90 793d
00000110: 40c5 fa3b 2d6b 30bd 7826 393c 5f4d 8e3d
00000120: c25b 323d 22af 083d 0847 89bc 13bb 11bd
00000130: 9e9b 2e3d 8c82 fd3c cda6 963d fe68 debc
00000140: 21fe 9c3d f898 17bd aaf1 f6bc 85be a83d
00000150: fca4 cc3c e4c7 97bc a89d 733c d89d bcbc
00000160: b116 33bd b2a3 8bbd 8915 8f3d 1e90 28bd
00000170: a6b9 513d c0bf 17bb fe88 19bd 8248 483d
00000180: ec2e e9bc 3478 943c 38e7 4f3c 1469 f73c
00000190: 30be f9bb 69ad aa3d 4018 ecba bc41 86bd
000001a0: b897 5bbd 8697 a2bd 6298 64bd 3e03 1bbe
000001b0: 766c d8bd 1036 10bd 5c71 2fbd 1f0b ddbc
000001c0: f8c4 29be a0ea d0bd fce1 51bd c8ef 42ba
000001d0: 73fd f8bd 6478 10be 1a2e 8bbd 2cba 21bc
000001e0: e180 5abc f338 ecbc 7f3a a3b9 d18c 98bd
000001f0: c3af b4bd edac 41bd 723d 71bd 4801 29bc
00000200: e28e 07bd e263 cfbc db68 2dbd 62e1 9bbd
00000210: fe65 e03d 26aa 0fbd ec79 023e a03d b6bc
00000220: 5b78 873d 4f58 82bd c1de dfbd e74e 01be
00000230: 42ce 013e 81c1 c1bd 7519 fdbc 47bc 82bd
00000240: d038 0fbd e7ef 17be c0d7 aabc 4f23 f5bd
00000250: 24ce 953b d630 193c 4b17 313b 57eb 5f3d
00000260: 647f 1c3e b720 643d 3fc7 e9bd 7329 fc39
00000270: 00dc 0abe a07c 6fbd 60b4 dcbc 6323 fd38
00000280: 4a0d 20be a545 9abc 2763 b1bd 4dbe ecbd
00000290: 189c e1bd db25 39bd c76b 68bd a909 ab3c
000002a0: 3edf 72bd 24fc 403d 9d21 0bbc 4c0e 18be
000002b0: c14f 82bd f3ef 93bd 47ac 14bd ed17 f0bd
000002c0: fb18 c5bd 8150 06bd 0afb 1cbe c076 5dbd
000002d0: 1b1c 78bd f4b6 babc 75dc d9bd bacd 21be
000002e0: 209b babd de5d 6abd e9de 24be 414c b3bd
000002f0: 6e77 1bbd 24b7 1c3c 1000 88bb 4b67 8abd
00000300: 0f72 163b 5569 04be 5a03 48bd 3ea4 21bd
00000310: 4529 e0bd 194e 1abe b8bd d3bc 1b23 84bd
00000320: bf83 abbd 1379 0cbe 1b23 f0bb fbc7 f6bb
00000330: b6c9 463d 6f9b 4c3d 5e8d 1a3d faf8 103d
00000340: b805 a3bc 6b07 8b3d 428b 383d 5ce9 0d3d
00000350: 870e 83bc f4b5 acbc e2d0 e7bd 80b7 2a3d
00000360: 0991 22bd f082 c33c 7602 ddbd 5f6c 03bd
00000370: f60a 84bc 31ac 213d a327 b9bd e368 b1bd
00000380: 8ddd 90bb 8dad e0bd 55ef 353d 2ba4 a6bd
00000390: a36e 3a3d f17c 373d 3c20 a4bc 5d0b b83c
000003a0: cf60 26bd 7cd7 50bd aebb cd3d 17bc b0bd
000003b0: 133f db3c b6b5 5abd 880f c63d ddd4 a9bb
000003c0: 1c17 bbbd 77d2 edbc d673 9cbc af2e 83bd
000003d0: 0e06 15bd 1fad 17bd a5c2 d73c 374c ef3a
000003e0: fba3 53bc 4069 70bd 9d80 3c3d 7035 08bd
000003f0: e575 18bc 5eb6 a3bd 6db7 8bbd a142 41bd

fc1.weight_hh_l0 f4 [512, 128]
-0.080611385 0.026452586 -0.049938872 -0.059971813 -0.056462627 0.033229224 -0.06357726 -0.016879857
0.087474085 0.023761615 0.06341391 0.020877674 -0.043773275 0.0057472736 0.063996874 0.020201623
0.014440119 0.058713503 -0.026154205 0.037842132 -0.04694295 -0.006416954 -0.016065612 -0.002959095
0.00877925 0.037521638 -0.034697615 -0.019449972 -0.019564219 -0.01722885 -0.068420336 -0.03886054
0.033168674 -0.075003624 -0.045112774 -0.05685183 -0.04531354 -0.042728413 0.0435668 -0.010490507
0.05829131 0.074335314 -0.08643335 -0.028274298 0.035261706 -0.054425415 0.018988922 -0.018190399
-0.04890796 0.051841892 0.03891731 0.06831206 0.03304393 -0.05586489 0.013746835 0.037577607
-0.01949948 0.004364349 0.061339624 -0.048637576 -0.07950798 -0.06811468 -0.040361866 -0.018824138
0.013533846 -0.070785284 0.005067885 0.06482064 0.025732696 0.086163394 0.008846052 0.022659838
0.006416127 0.0800283 0.034077615 0.031160057 -0.0031851754 -0.015890501 0.04391118 -0.046433236
0.011687279 0.055580266 0.08337251 0.056807093 -0.076111875 -0.04796738 0.074035905 0.078490295
0.039713435 -0.07203692 0.084211536 -0.023537457 -0.04145215 -0.07005837 -0.083117485 0.005115658
-0.036066405 -0.07850995 0.026227921 0.02036959 0.039892606 0.080816425 0.056401394 -0.007831663
0.035775326 0.0050671548 0.058472835 0.0024706572 0.05246433 -0.054838844 -0.019696191 0.015887015
-0.039071064 -0.07953991 0.05138462 0.08649532 -0.0635691 0.0699972 -0.05663429 0.04844352
0.036603086 0.008904256 -0.027672157 -0.08389348 -0.08163576 0.06490498 -0.053845663 0.010926932
-0.074212916 -0.010301493 0.08608671 -0.034551848 -0.017727964 -0.050051533 -0.06665532 -0.057954937
0.051944427 0.003537573 -0.07254271 -0.01622793 0.061112203 0.04330737 0.071106754 0.055422373
-0.062251613 -0.061636634 0.015680261 0.073103614 0.031163357 -0.05001165 -0.05342391 -0.07108687
-0.08402137 -0.029884592 0.008628696 0.08581736 0.077198274 -0.083583385 -0.05376923 -0.039328888
0.04940591 0.07388035 -0.03890991 0.04077334 -0.03539684 0.083015375 -0.011274852 0.02824393
-0.031661514 0.020390116 0.005959645 0.08772934 -0.04990912 0.0098717585 -0.046110086 -0.04277927
-0.0340432 -0.04306408 0.017232709 -0.035735164 0.072713755 -0.05628267 -0.07577704 -0.010083236
0.030654117 0.014998913 0.04027825 0.07799079 0.055090867 0.07921218 -0.0025299788 0.03781303
0.054280125 -0.050040647 0.06742076 -0.018135265 0.0038483962 0.024012752 -0.08440239 -0.015259244
0.071414106 0.005869359 -0.01194641 0.03279423 -0.041186783 0.055713616 0.05314409 0.03167779
0.042499386 0.069221444 0.08060809 0.05507011 -0.075637996 0.05739706 0.031079866 -0.0025250167
0.023390502 0.046764694 0.06981974 0.048610546 -0.02762844 -0.06138192 -0.02365417 -0.06677656
-0.06147262 0.02025269 -0.07695229 -0.07811837 -0.028472494 -0.08552911 -0.056647807 0.0054175854
0.044262044 0.009150162 0.049509116 -0.07777551 -0.065052755 -0.04466191 0.046089 0.07398442
0.0070775077 -0.0881284 0.015208542 -0.0049253255 0.029680073 -0.012954213 -0.054197695 -0.011723809
0.020465918 0.06457069 0.021094173 -0.024273321 -0.06712882 0.07264332 0.031852156 -0.05130834
00000000: 9517 a5bd 18b3 d83c b48c 4cbd 01a5 75bd
00000010: 5b45 67bd 5e1b 083d cb34 82bd a047 8abc
00000020: 9d25 b33d b8a7 c23c 27df 813d a807 ab3c
00000030: 9b4b 33bd a053 bc3b cb10 833d e07d a53c
00000040: 4096 6c3c 927d 703d 5841 d6bc 5a00 1b3d
00000050: 4047 40bd 5045 d2bb 089c 83bc 60ed 41bb
00000060: d8d6 0f3c 4ab0 193d 161f 0ebd 8c55 9fbc
00000070: 2445 a0bc 8423 8dbc f61f 8cbd 3b2c 1fbd
00000080: e0db 073d 809b 99bd 2cc8 38bd 77dd 68bd
00000090: b19a 39bd fd03 2fbd 1a73 323d 60e0 2bbc
000000a0: dec2 6e3d 1d3d 983d f803 b1bd 809f e7bc
000000b0: 946e 103d 2fed 5ebd a88e 9b3c 0804 95bc
000000c0: b753 48bd 2a58 543d c267 1f3d 31e7 8b3d
000000d0: 1259 073d 95d2 64bd 683a 613c faea 193d
000000e0: 60bd 9fbc d002 8f3b 423f 7b3d 3238 47bd
000000f0: 14d5 a2bd b67f 8bbd 7c52 25bd 1435 9abc
00000100: 10bd 5d3c e0f7 90bd 8010 a63b afc0 843d
00000110: 60cd d23c 6f76 b03d 08ef 103c 20a1 b93c
00000120: 603e d23b e1e5 a33d f894 0b3d 6043 ff3c
00000130: 60be 50bb cc2c 82bc 36dc 333d c730 3ebd
00000140: 007c 3f3c 22a8 633d 35bf aa3d 8eae 683d
00000150: 8be0 9bbd 7279 44bd 23a0 973d 85bf a03d
00000160: 8eaa 223d 1888 93bd 1977 ac3d a0d1 c0bc
00000170: bbc9 29bd c37a 8fbd 8039 aabd 40a1 a73b
00000180: 5eba 13bd d3c9 a0bd f0db d63c 20de a63c
00000190: 6e66 233d 1583 a53d 2605 673d 6050 00bc
000001a0: 2689 123d 600a a63b 3681 6f3d c0ea 213b
000001b0: d6e4 563d b29e 60bd e859 a1bc 7c25 823c
000001c0: fb08 20bd d2e5 a2bd ae78 523d 7524 b13d
000001d0: 8430 82bd b15a 8f3d 5bf9 67bd b66c 463d
000001e0: 1eed 153d 28e3 113c b8b0 e2bc 58d0 abbd
000001f0: a630 a7bd e7ec 843d 458d 5cbd e006 333c
00000200: f1fc 97bd 98c7 28bc 3b4e b03d 3d86 0dbd
00000210: 3c3a 91bc d602 4dbd 9682 88bd 2862 6dbd
00000220: aec3 543d a0d6 673b 4691 94bd 70f0 84bc
00000230: ca50 7a3d 1263 313d 6ba0 913d 9202 633d
00000240: 8cfb 7ebd b276 7cbd e473 803c 59b7 953d
00000250: 4c4a ff3c 04d9 4cbd 08d3 5abd fe95 91bd
00000260: 6513 acbd 88d0 f4bc 605f 0d3c 03c1 af3d
00000270: 211a 9e3d c42d abbd 203d 5cbd 5417 21bd
00000280: da5d 4a3d 954e 973d ff5f 1fbd f201 273d
00000290: 47fc 10bd f703 aa3d 28ba 38bc d05f e73c
000002a0: 81af 01bd 2c09 a73c 2049 c33b 71ab b33d
000002b0: 816d 4cbd 28bd 213c eedd 3cbd 5139 2fbd
000002c0: e270 0bbd f663 30bd 9c2b 8d3c 095f 12bd
000002d0: f3ea 943d a888 66bd fe30 9bbd 2834 25bc
000002e0: 581e fb3c 00be 753c cefa 243d a3b9 9f3d
000002f0: f6a6 613d ff39 a23d 00ce 25bb d6e1 1a3d
00000300: d654 5e3d 6cf7 4cbd e513 8a3d 6890 94bc
00000310: 6035 7c3b 64b6 c43c 29db acbd e801 7abc
00000320: 8f41 923d c053 c03b e0ba 43bc 3e53 063d
00000330: 79b3 28bd f633 643d 9ead 593d 92c0 013d
00000340: d613 2e3d f9c3 8d3d db15 a53d 3291 613d
00000350: 18e8 9abd 2e19 6b3d 349b fe3c c07a 25bb
00000360: 709d bf3c 568c 3f3d a7fd 8e3d da1b 473d
00000370: 0a55 e2bc 9c6b 7bbd 64c6 c1bc 26c2 88bd
00000380: b7ca 7bbd f8e8 a53c 2a99 9dbd 86fc 9fbd
00000390: 263f e9bc e329 afbd 8807 68bd 0086 b13b
000003a0: 1e4c 353d 90ea 153c 12ca 4a3d c448 9fbd
000003b0: 613a 85bd 68ef 36bd d2c7 3c3d 2585 973d
000003c0: 70ea e73b aa7c b4bd 402d 793c a064 a1bb
000003d0: a023 f33c e83d 54bc 67fe 5dbd 3815 40bc
000003e0: 24a8 a73c a33d 843d b0cd ac3c d8d8 c6bc
000003f0: d67a 89bd 05c6 943d 6877 023d b228 52bd

fc1.bias_ih_l0 f4 [512]
0.021705672 -0.0261026 -0.03276642 -0.01669148 -0.016267769 -0.051685523 0.0482892 0.14248502
0.069251664 -0.12782475 0.024670593 -0.19479047 -0.07764575 0.04697273 -0.05905426 -0.005671829
0.32526323 0.07432295 0.13700981 0.07335112 0.3414137 -0.022957781 0.04613123 0.053199455
-0.12223293 0.041569415 -0.0011743805 -0.042511314 0.06324356 0.015546404 -0.010049452 -0.22916698
0.36616102 0.24918789 -0.034223877 -0.05594869 0.120544225 0.07038305 -0.06912558 -0.03363654
-0.061162993 -0.019226061 -0.041073125 -0.14566821 0.037103202 -0.24653134 0.031852026 -0.049674895
0.13090603 -0.03222175 0.08519132 0.030026326 -0.1469326 -0.020052735 -0.008119085 -0.084038086
-0.038904842 0.022796985 -0.019370988 -0.077357665 0.0920004 0.016349018 -0.07767228 0.0066219196
0.040086024 0.29961511 0.0868342 -0.18510067 0.03907717 -0.039932095 0.012041964 -0.02393232
0.07892912 0.010865041 -0.052247204 -0.024540663 -0.055174865 0.025825065 0.03877605 0.17823574
-0.03662889 0.0038015684 -0.08633254 0.029507633 -0.026755296 0.08438269 0.0066159186 0.08761486
-0.009381906 -0.099995725 0.049078543 -0.09935313 0.004486493 -0.034549337 0.032752182 0.12627473
-0.082164995 -0.030972973 -0.11099294 0.108178295 0.31601956 -0.06769431 -0.13074853 -0.074247554
-0.30409557 -0.026197594 0.10633722 -0.016527139 0.12598434 -0.13858855 -0.08780595 0.054894637
-0.07782833 -0.060241524 0.014675751 -0.08754186 -0.04230182 -0.20397018 -0.009772949 -0.066757984
-0.0951922 -0.2683601 -0.20162721 0.07373894 0.051372033 -0.060078498 0.041099127 0.0873762
0.031337753 -0.025689349 0.013407163 0.06649322 -0.081959754 -0.011740528 0.029889092 0.0023937076
-0.054896004 -0.08155726 0.018719092 -0.076968834 -0.006209366 -0.04246431 -0.052577496 -0.026851892
0.02340804 0.07199266 0.007856049 -0.0684857 -0.085823625 0.04726597 0.011779077 -0.0048692226
-0.07320455 -0.087859295 -0.03382918 0.07617035 0.05315792 0.0051139593 -0.052819137 0.0076078027
0.044050552 -0.06980641 -0.012842365 0.06501403 0.038849853 -0.08596317 0.06334581 0.03891141
-0.013556965 -0.07346679 -0.08701094 0.03686527 -0.044185206 -0.057192147 0.044570632 0.077612974
-0.06656781 0.05069425 0.027620807 -0.053937744 -0.04363024 0.0051295683 -0.048216004 -0.08007182
-0.022464052 -0.05635592 -0.0030343756 -0.070752725 0.08491113 0.056520484 0.015789472 0.074087255
0.0412549 -0.0017040595 0.085398905 0.056160353 0.017540462 -0.05817189 -0.018781118 0.01302401
0.022939213 0.05033218 0.026898116 0.062024392 -0.0038364977 0.041077472 0.04540045 0.053271048
-0.08119667 -0.022912323 0.06453677 0.08309833 0.04527872 -0.056534413 -0.02573441 0.083122484
0.035428062 -0.054967087 -0.032337666 -0.015733674 0.005542256 -0.015576348 -0.06284681 0.023497678
-0.046202883 -0.074234694 -0.0070257857 -0.0045592636 -0.058890335 0.078071214 0.053082474 -0.08612738
-0.03283934 -0.053521007 0.000727959 -0.007944621 0.086868934 0.07404023 0.035555884 0.008284166
-0.06802861 0.029738523 -0.074410185 0.030603386 -0.035913635 0.07110409 0.044533916 0.07853689
0.060803212 -0.04584382 -0.085863516 0.07186883 0.0051714107 -0.07610267 -0.05082087 -0.072860226
00000000: 18d0 b13c 1fd5 d5bc 1536 06bd 92bc 88bc
00000010: fc43 85bc 33b4 53bd e5ca 453d 98e7 113e
00000020: d1d3 8d3d 7ee4 02be fc19 ca3c 2777 47be
00000030: bc04 9fbd 7a66 403d e1e2 71bd c0da b9bb
00000040: e788 a63e a136 983d 4d4c 0c3e 1d39 963d
00000050: c7cd ae3e f511 bcbc 1af4 3c3d ace7 593d
00000060: 4255 fabd b144 2a3d aced 99ba 5820 2ebd
00000070: d785 813d 58b6 7e3c 75a6 24bc c0aa 6abe
00000080: 7579 bb3e 1c2b 7f3e 562e 0cbd 742a 65bd
00000090: e4df f63d fd24 903d b691 8dbd 78c6 09bd
000000a0: 0c86 7abd f97f 9dbc 4b3c 28bd 0c2a 15be
000000b0: 87f9 173d b672 7cbe 4577 023d e777 4bbd
000000c0: 3b0c 063e f4fa 03bd c978 ae3d c5f9 f53c
000000d0: 8075 16be a245 a4bc e905 05bc 291c acbd
000000e0: af5a 1fbd bec0 ba3c e8af 9ebc b26d 9ebd
000000f0: b56a bc3d 60ee 853c a512 9fbd b0fc d83b
00000100: 3e31 243d 2767 993e 21d6 b13d 088b 3dbe
00000110: 620f 203d d68f 23bd a84b 453c b60d c4bc
00000120: 97a5 a13d 4903 323c 2a01 56bd 8009 c9bc
00000130: 0aff 61bd 168f d33c a3d3 1e3d 6e83 363e
00000140: 2d08 16bd bc23 793b 1dcf b0bd feb9 f13c
00000150: ec2d dbbc d5d0 ac3d 59ca d83b 6b6f b33d
00000160: 91b6 19bc 8fca ccbd 9506 493d a779 cbbd
00000170: 6e03 933b 9b83 0dbd 2727 063d 2a4e 013e
00000180: 1f46 a8bd 08bb fdbc 4450 e3bd 958c dd3d
00000190: 51cd a13e 50a3 8abd f1e2 05be 1a0f 98bd
000001a0: 6ab2 9bbe 569c d6bc 54c7 d93d ec63 87bc
000001b0: 0a02 013e 28ea 0dbe 9bd3 b3bd 33d9 603d
000001c0: 7664 9fbd d1bf 76bd 9072 703c 2649 b3bd
000001d0: ac44 2dbd 8fdd 50be b81e 20bc 69b8 88bd
000001e0: 21f4 c2bd 7f66 89be 5d77 4ebe 7104 973d
000001f0: 7b6b 523d df14 76bd 8f57 283d 4bf2 b23d
00000200: 045c 003d 7872 d2bc b8a9 5b3c 992d 883d
00000210: 84da a7bd 585b 40bc f8d9 f43c c0df 1c3b
00000220: a2da 60bd 7e07 a7bd c858 993c d6a1 9dbd
00000230: f077 cbbb 0eef 2dbd 805b 57bd 80f8 dbbc
00000240: 38c2 bf3c e370 933d a8b6 003c 3b42 8cbd
00000250: 4cc4 afbd f699 413d 08fd 403c 008e 9fbb
00000260: 44ec 95bd 93ef b3bd 7790 0abd 33ff 9b3d
00000270: 1ebc 593d 0093 a73b e158 58bd e04a f93b
00000280: 5a6e 343d aaf6 8ebd c868 52bc 1326 853d
00000290: 0621 1f3d 750d b0bd 73bb 813d 9261 1f3d
000002a0: 081e 5ebc c275 96bd cb32 b2bd 0a00 173d
000002b0: 8cfb 34bd 5042 6abd b28f 363d 8df3 9e3d
000002c0: b454 88bd c6a4 4f3d 0845 e23c d3ed 5cbd
000002d0: 9fb5 32bd f015 a83b 257e 45bd b2fc a3bd
000002e0: 8806 b8bc 77d5 66bd 60dc 46bb cee6 90bd
000002f0: e3e5 ad3d 0682 673d ec58 813c 0fbb 973d
00000300: e6fa 283d c05a dfba 9fe5 ae3d 6608 663d
00000310: 04b1 8f3c a645 6ebd dcda 99bc a862 553c
00000320: 04eb bb3c 1e29 4e3d 7059 dc3c 4a0d 7e3d
00000330: c06d 7bbb da40 283d d2f5 393d be32 5a3d
00000340: 714a a6bd a0b2 bbbc db2b 843d 752f aa3d
00000350: 2e76 393d a190 67bd f8d0 d2bc 1f3c aa3d
00000360: 041d 113d 2b25 61bd 8074 04bd e8e3 80bc
00000370: d09b b53b f033 7fbc d4b5 80bd 347e c03c
00000380: 3c3f 3dbd 5c08 98bd 9038 e6bb e065 95bb
00000390: fe36 71bd cde3 9f3d 026d 593d 8d63 b0bd
000003a0: 8b82 06bd d838 5bbd 80d4 3e3a 282a 02bc
000003b0: 57e8 b13d 67a2 973d 0ca3 113d 50ba 073c
000003c0: 9552 8bbd 349e f33c 5e64 98bd f4b3 fa3c
000003d0: 2d1a 13bd 059f 913d 3269 363d f3d7 a03d
000003e0: ca0c 793d bbc6 3bbd 36d9 afbd f72f 933d
000003f0: f074 a93b b7db 9bbd 8b29 50bd be37 95bd

fc1.bias_hh_l0 f4 [512]
0.030713283 -0.085094556 -0.046942413 -0.059391547 0.017337538 -0.16593754 0.11241296 0.22247678
-0.007317092 -0.10799753 0.08300241 -0.16016126 -0.008449577 0.04953801 -0.07812253 -0.06912823
0.32077175 0.049040105 0.09026061 0.0054314956 0.3236481 -0.024529519 0.021944314 0.036612738
-0.20480068 -0.08146716 0.04245027 -0.01389864 -0.02014596 0.006997682 0.04313969 -0.20228748
0.27725166 0.28125888 -0.032562755 -0.12104888 0.11069644 0.030389413 -0.12704153 -0.10145301
0.010404621 0.07888104 -0.038772613 -0.071433246 0.05122524 -0.3868858 0.01048598 -0.002865766
0.119310446 -0.0357455 0.036776546 0.12589477 -0.13791984 -0.036832172 0.09542788 -0.0443023
-0.11794999 -0.05537816 0.0016033277 -0.05860331 -0.02266063 0.06557455 -0.1437688 -0.041118667
-0.011921112 0.20923723 0.0048516346 -0.20281345 0.028647289 0.05903598 -0.081135936 -0.10095054
0.08520602 0.08345755 -0.0513643 -0.0462346 0.027682785 -0.07554564 0.13035907 0.05809999
-0.047770236 0.0037037646 0.009687223 0.03644405 -0.043071777 -0.030458063 -0.12637073 0.0148790255
0.14517376 -0.09181364 -0.0941915 -0.11136981 0.015635068 0.109986015 -0.103624396 0.16075438
-0.06706777 0.021414364 -0.012231849 0.084635265 0.2610772 0.035387166 -0.00033789952 -0.017898712
-0.18768267 0.016598247 0.20466965 0.05860027 0.04061596 -0.09279704 0.07523339 -0.029773144
-0.09748976 -0.08609618 -0.065322414 0.038482513 -0.02459026 -0.15380634 -0.044875298 -0.0063401163
-0.083833165 -0.19109248 -0.24001572 -0.053243168 0.04852512 -0.0668788 0.008334526 0.070672944
-0.076628536 0.04671306 -0.06209802 0.05211211 -0.053410675 -0.07634168 -0.044723433 -0.083714984
-0.051594276 0.044820525 0.065507464 -0.07751313 -0.0066127703 0.038375683 0.0081202835 0.059825145
-0.053190324 -0.042929158 -0.03946831 0.08672609 0.048547737 -0.04963079 -0.0063006133 -0.004756637
0.012123972 -0.08175766 -0.07759681 0.07299084 0.0004924312 0.071766846 0.021039963 -0.014787033
-0.0574498 -0.049382072 -0.053305246 -0.060194697 0.06790427 -0.037847374 0.016675547 -0.027770959
0.021614864 0.002875723 0.08154156 0.009953082 0.087679766 0.043616317 0.016293257 0.061088808
-0.038462244 0.06156484 -0.0057326704 -0.009781979 0.08318617 -0.043657444 0.07973694 -0.077763185
0.017878547 -0.054958582 0.07435686 0.031410374 -0.08316727 0.05827125 -0.041092493 0.06385375
-0.008989207 0.058080696 -0.04980593 0.024350509 -0.009470411 0.05943937 0.070609234 -0.08295506
0.016066507 -0.046972442 -0.05551688 0.06881333 -0.04304584 0.016120419 -0.015323937 0.024398059
0.05125975 -0.022900261 0.056077294 0.04076395 0.054147743 0.036610745 0.023079738 -0.043532353
0.048338182 -0.05489488 -0.00052493066 -0.010313787 0.05834689 0.035510413 -0.061067834 0.07531751
-0.028799605 -0.03794462 0.023443349 -0.02436094 -0.075625345 -0.049186595 -0.00080329925 0.051709615
0.028835617 0.06658714 0.073625945 -0.065012746 -0.029829707 0.03531906 0.027806222 -0.039806265
-0.0677161 -0.004241951 0.04359486 0.024668783 0.015075177 -0.039194986 -0.085701846 0.008676149
0.038000964 0.059374474 0.086527385 0.009306952 -0.029268667 -0.04888574 0.027987815 0.038849764
00000000: 6c9a fb3c 0e46 aebd b046 40bd 8d44 73bd
00000010: 7407 8e3c 88eb 29be c438 e63d f4d0 633e
00000020: 37c4 efbb cf2d ddbd 2bfd a93d 5001 24be
00000030: 1870 0abc 5ee8 4a3d b4fe 9fbd 1a93 8dbd
00000040: 323c a43e 47de 483d 8eda b83d b0fa b13b
00000050: 34b5 a53e 21f2 c8bc 90c4 b33c 3df7 153d
00000060: 45b7 51be 41d8 a6bd 56e0 2d3d 1fb7 63bc
00000070: 2409 a5bc d04c e53b 3eb3 303d 7324 4fbe
00000080: eef3 8d3e 2a01 903e 8660 05bd 7ae8 f7bd
00000090: d1b4 e23d 38f3 f83c 2d17 02be 99c6 cfbd
000000a0: 2578 2a3c 628c a13d 08d0 1ebd 984b 92bd
000000b0: 8fd1 513d e515 c6be 63cd 2b3c 93cf 3bbb
000000c0: 0959 f43d e069 12bd 01a3 163d 8fea 003e
000000d0: dc3a 0dbe 55dd 16bd b16f c33d 5476 35bd
000000e0: c48f f1bd 36d4 62bd c026 d23a 060a 70bd
000000f0: c9a2 b9bc f34b 863d 2138 13be 0c6c 28bd
00000100: c550 43bc 4942 563e 76fa 9e3b 54ae 4fbe
00000110: b8ad ea3c b6cf 713d 992a a6bd 28bf cebd
00000120: 7e80 ae3d cbeb aa3d 5f63 52bd 7e60 3dbd
00000130: 02c7 e23c acb7 9abd d97c 053e 41fa 6d3d
00000140: b9aa 43bd dcba 723b 28b7 1e3c 5b46 153d
00000150: 086c 30bd 3083 f9bc 5467 01be 28c7 733c
00000160: 6ea8 143e ca08 bcbd 79e7 c0bd db15 e4bd
00000170: 1d15 803c 5940 e13d 0739 d4bd cc9c 243e
00000180: d45a 89bd 2d6d af3c 1868 48bc 4155 ad3d
00000190: e9ab 853e 22f2 103d 1b28 b1b9 52a0 92bc
000001a0: e32f 40be 0cf9 873c ec94 513e d606 703d
000001b0: ec5c 263d 600c bebd f713 9a3d cfe6 f3bc
000001c0: b6a8 c7bd 3253 b0bd c2c7 85bd d79f 1d3d
000001d0: 8371 c9bc 697f 1dbe 29cf 37bd c0c0 cfbb
000001e0: b9b0 abbd bfad 43be aec6 75be 8215 5abd
000001f0: 47c2 463d c1f7 88bd 898d 083c fabc 903d
00000200: 6cef 9cbd 3256 3f3d 7e5a 7ebd 8273 553d
00000210: 27c5 5abd 0759 9cbd eb2f 37bd c372 abbd
00000220: 8554 53bd ba95 373d c728 863d 34bf 9ebd
00000230: f0af d8bb d22f 1d3d f00a 053c 360b 753d
00000240: 19de 59bd 7cd6 2fbd 86a9 21bd 739d b13d
00000250: fed9 463d a849 4bbd 6075 cebb 90dd 9bbb
00000260: a0a3 463c 8f70 a7bd 14eb 9ebd 397c 953d
00000270: 8016 013a 7ffa 923d 005c ac3c 5045 72bc
00000280: 7b50 6bbd db44 4abd 9a56 5abd b78e 76bd
00000290: 6511 8b3d d905 1bbd 289b 883c ec7f e3bc
000002a0: a811 b13c a076 3c3b 43ff a63d 4012 233c
000002b0: 7391 b33d 06a7 323d 7079 853c 4238 7a3d
000002c0: 968a 1dbd 6a2b 7c3d 20d9 bbbb 9844 20bc
000002d0: 835d aa3d 26d2 32bd 1f4d a33d 4e42 9fbd
000002e0: 0876 923c 401c 61bd 6948 983d 2aa8 003d
000002f0: 9a53 aabd d6ad 6e3d 9a50 28bd c1c5 823d
00000300: 7847 13bc 06e6 6d3d 4e01 4cbd b87a c73c
00000310: c829 1bbc b276 733d 939b 903d 58e4 a9bd
00000320: e89d 833c 2d66 40bd ab65 63bd 01ee 8c3d
00000330: d650 30bd f80e 843c 4011 7bbc 70de c73c
00000340: bef5 513d 5499 bbbc 4eb1 653d 1af8 263d
00000350: 06ca 5d3d 26f5 153d b811 bd3c fb4e 32bd
00000360: 42fe 453d 74d9 60bd 809b 09ba 28fb 28bc
00000370: 26fd 6e3d 5e73 113d 4422 7abd 1140 9a3d
00000380: 26ed ebbc d16b 1bbd 440c c03c 9890 c7bc
00000390: 76e1 9abd e277 49bd 8094 52ba 76cd 533d
000003a0: ac38 ec3c d75e 883d 33c9 963d 6725 85bd
000003b0: 6e5d f4bc b8aa 103d e0c9 e33c e50b 23bd
000003c0: bdae 8abd 1000 8bbb 8690 323d 3016 ca3c
000003d0: e0fd 763c ec8a 20bd 7384 afbd 6826 0e3c
000003e0: e6a6 1b3d a632 733d 4535 b13d 307c 183c
000003f0: d8c4 efbc 6a3c 48bd b446 e53c ee20 1f3d

fc2.weight f4 [64, 128]
-0.0689809 0.03604121 0.06654244 -0.055129226 -0.20442277 -0.02020952 -0.5855533 -3.7547715
0.1519329 -0.07663169 0.042297572 -0.43019214 0.008111708 0.038765676 0.06884291 -0.035215262
9.44239 -2.6547074 3.0132895 -0.09498574 -1.2491786 -0.048153076 0.014673077 -0.020082414
1.4237697 -0.10474054 -0.081454635 0.09551328 -1.481484 -1.7877982 0.018082943 1.4654872
-3.4756086 0.22607937 0.6816842 0.038863275 2.6759682 0.3123651 0.019195402 0.012708585
0.03546025 -3.8927083 -0.03520732 -0.06671404 -0.0636889 1.1032434 4.4684854 0.027261872
-4.206687 -7.5087748 -1.1258923 1.8025326 3.0043516 -1.0420786 0.416936 2.0860186
-0.029653817 -0.10315152 -0.07121121 -0.0028332674 -1.9241678 0.012562975 0.30840093 0.013773158
0.0013695229 1.4247283 1.2264389 0.36119923 0.065651454 -0.013647974 0.056624718 0.10387283
-0.42024538 0.3143519 0.08339197 0.012338978 -0.028022744 0.65822816 1.4582592 -3.1119516
0.28658652 0.10319075 -0.0030100131 -0.05735583 0.038604252 -2.2427552 -1.3167527 -0.10238266
-0.18897784 0.47191212 -0.047358777 0.55734247 1.8517526 -3.1565938 0.0103066685 0.04302452
0.106413215 -0.09404569 -0.01239485 -1.305447 3.4084942 0.06976914 0.06833826 0.06724347
0.02184295 -0.008385196 -1.1226598 -0.08449738 -3.2034478 -0.28970295 0.06490173 0.5246608
-0.052822452 0.1423118 0.039050758 -0.029831383 0.038012344 0.52922475 -0.0036106333 0.016367914
2.2417383 8.728642 -1.7992048 2.5914295 0.32648364 -0.044214386 0.056439765 0.2007466
-0.05617687 0.0019446458 0.042270847 -0.008581761 0.04179675 0.020886581 -0.07562024 0.08237712
-0.10963076 -0.060891632 -0.01899418 0.040613703 0.0027929991 -0.06862632 -0.0037537143 0.043652527
-0.057569906 0.010777967 -0.018121388 0.059889197 -0.0416185 -0.01832209 -0.03190173 0.04807561
0.006792718 -0.0005422184 -0.014907409 0.05513995 -0.06275921 0.0025566048 0.0205515 0.062295005
0.098848924 -0.06405783 0.05862492 -0.017545944 -0.011270749 0.060483254 -0.03369332 -0.029866854
-0.08161914 0.015564043 0.02764939 0.03536224 0.0006278753 -0.096068814 -0.12509447 0.01871451
0.061456654 -0.05566256 0.030895812 -0.08509792 -0.07436039 -0.06608023 -0.16892107 0.044099685
-0.040632352 0.044485986 -0.008423135 0.110920586 -0.062087428 0.04241637 -0.09420404 -0.023607
0.00433968 -0.0013221991 -0.059209745 0.029703543 -0.003204085 0.029644921 0.06649866 0.07465202
0.096503235 -0.011334928 0.07354783 -0.05540791 -0.05554793 -0.044379424 0.054637723 0.029252104
-0.07238199 -0.022577278 -0.02191638 -0.07651994 0.027122095 0.04306289 0.09353598 -0.011637882
-0.02014792 -0.06643495 -0.05855755 0.0774807 -0.036277693 0.024536084 -0.07509895 0.047186565
0.012567788 0.006314673 0.045720153 0.07278336 -0.0032287333 -0.06188372 0.0005806148 -0.02741979
0.05045833 -0.082585044 0.025479384 -0.025093809 0.10822647 0.014615807 -0.02242311 0.04096897
-0.056858458 0.02743563 -0.04422135 -0.06625183 -0.09911609 -0.039907247 0.055234842 -0.024480216
0.013174132 0.09157917 0.07471223 -0.055811834 -0.10066722 0.106604494 -0.056992125 -0.07724803
00000000: dc45 8dbd f39f 133d 6747 883d 2fcf 61bd
00000010: 3454 51be 6f8e a5bc d2e6 15bf 2d4e 70c0
00000020: 4c94 1b3e 13f1 9cbd 3840 2d3d 2542 dcbe
00000030: f8e6 043c c2c8 1e3d 83fd 8c3d e13d 10bd
00000040: 0814 1741 bae6 29c0 bcd9 4040 e287 c2bd
00000050: 16e5 9fbf 293c 45bd 5867 703c e083 a4bc
00000060: 163e b63f 3582 d6bd b0d1 a6bd 779c c33d
00000070: 45a1 bdbf 92d6 e4bf ae22 943c 1695 bb3f
00000080: 5f70 5ec0 5a81 673e db82 2e3f 192f 1f3d
00000090: 1043 2b40 52ee 9f3e ad3f 9d3c ab37 503c
000000a0: c43e 113d 2222 79c0 8d35 10bd 5fa1 88bd
000000b0: 536f 82bd 1437 8d3f d5fd 8e40 4a54 df3c
000000c0: 2e9d 86c0 e247 f0c0 3d1d 90bf 63b9 e63f
000000d0: 4c47 4040 d562 85bf a378 d53e 5481 0540
000000e0: 90ec f2bc 1b41 d3bd 2fd7 91bd 57ae 39bb
000000f0: 214b f6bf f0d4 4d3c bae6 9d3e d0a8 613c
00000100: 9081 b33a 7f5d b63f f3fb 9c3f 1bef b83e
00000110: 4574 863d c09b 5fbc 52ef 673d 47bb d43d
00000120: 672a d7be bbf2 a03e 69c9 aa3d 6d29 4a3c
00000130: f48f e5bc a481 283f 3da8 ba3f 372a 47c0
00000140: 78bb 923e ac55 d33d a443 45bb f2ed 6abd
00000150: 7e1f 1e3d 4d89 0fc0 5a8b a8bf 00ae d1bd
00000160: 6883 41be 779e f13e 47fb 41bd ffad 0e3f
00000170: 3b06 ed3f a205 4ac0 4ddd 283c 7b3a 303d
00000180: 2cef d93d 079b c0bd c513 4bbc e318 a7bf
00000190: c524 5a40 1fe3 8e3d eef4 8b3d f2b6 893d
000001a0: fcef b23c 1062 09bc 51b3 8fbf f60c adbd
000001b0: 4a05 4dc0 f253 94be 33eb 843d 2c50 063f
000001c0: 5b5c 58bd 2fba 113e b0f3 1f3d f260 f4bc
000001d0: d5b2 1b3d 467b 073f 60a0 6cbb 0116 863c
000001e0: a478 0f40 85a8 0b41 584c e6bf fbd9 2540
000001f0: dd28 a73e 251a 35bd 622d 673d 8490 4d3e
00000200: b819 66bd 7ce3 fe3a 3224 2d3d 849a 0cbc
00000210: 1233 2b3d 561a ab3c c9de 9abd 56b5 a83d
00000220: 1886 e0bd 8169 79bd af99 9bbc 8e5a 263d
00000230: c00a 373b f58b 8cbd e000 76bb fecc 323d
00000240: 6cce 6bbd 1296 303c 4e73 94bc 604e 753d
00000250: 2978 2abd 3518 96bc 63ab 02bd eeea 443d
00000260: 7395 de3b a923 0eba 353e 74bc 6eda 613d
00000270: e787 80bd b68c 273b 9f5b a83c 0c29 7f3d
00000280: 4e71 ca3d c030 83bd af20 703d 83bc 8fbc
00000290: f3a8 38bc 4abd 773d 0202 0abd 55ab f4bc
000002a0: f027 a7bd 5400 7f3c f980 e23c ffd7 103d
000002b0: 0098 243a babf c4bd c418 00be 2c4f 993c
000002c0: f9b9 7b3d 6dfe 63bd 3719 fd3c d147 aebd
000002d0: 434a 98bd 1255 87bd a5f9 2cbe dfa1 343d
000002e0: 1c6e 26bd f036 363d 3001 0abc 552a e33d
000002f0: 634f 7ebd cabc 2d3d 0cee c0bd 7863 c1bc
00000300: e033 8e3b a44d adba eb85 72bd d854 f33c
00000310: a0fb 51bb e8d9 f23c 7330 883d 29e3 983d
00000320: 7da3 c53d 22b6 39bc 3fa0 963d 68f3 62bd
00000330: 3a86 63bd 33c7 35bd cecb 5f3d 1ca2 ef3c
00000340: 023d 94bd fcf3 b8bc fb89 b3bc 7cb6 9cbd
00000350: 282f de3c b762 303d cb8f bf3d d1ac 3ebc
00000360: 400d a5bc 0c0f 88bd 0bda 6fbd 34ae 9e3d
00000370: eb97 14bd e6ff c83c 7acd 99bd b346 413d
00000380: 20e9 4d3c 51eb ce3b 0e45 3b3d 710f 953d
00000390: 2899 53bb c979 7dbd 6634 183a 789f e0bc
000003a0: 65ad 4e3d 5922 a9bd 24ba d03c 8891 cdbc
000003b0: d7a5 dd3d 2377 6f3c acb0 b7bc 14cf 273d
000003c0: 6ae4 68bd b0c0 e03c 7221 35bd 0aaf 87bd
000003d0: 60fd cabd c875 23bd ee3d 623d bc8a c8bc
000003e0: 51d8 573c dc8d bb3d ba02 993d f39a 64bd
000003f0: 9e2a cebd 7553 da3d 9370 69bd 3734 9ebd

fc2.bias f4 [64]
0.2802846 -0.22713831 0.26932585 0.85413975 -0.14756382 0.88475066 0.34565297 1.8186549
-0.095294856 0.6215754 0.3031726 0.2644318 -0.17982173 0.15259466 0.29713142 0.27534944
0.15566377 -0.09503527 0.5757048 -0.17440158 1.5207225 -0.11023117 0.4318908 0.35259083
0.28767717 -0.37971872 0.17943951 -0.14328821 0.25969616 -0.17128712 0.24375656 -0.16889623
0.25804648 0.10485625 0.17515318 -0.3374772 -0.19854738 -0.13786152 -0.08066705 -0.13369234
0.13934225 0.3341501 -0.18709664 0.084264114 0.089762986 0.12836318 0.85153675 0.5002682
-0.17958228 0.07740879 0.486194 -0.100906365 -0.1635276 0.122325934 1.5907339 0.26042098
-0.15147996 -0.18127987 -0.0808744 0.100584686 0.35297528 0.12901369 -0.13045973 0.5039456
00000000: 7781 8f3e f296 68be 14e5 893e e7a8 5a3f
00000010: f81a 17be 057f 623f 6df9 b03e afc9 e83f
00000020: f329 c3bd 911f 1f3f 7039 9b3e 9b63 873e
00000030: 3023 38be c641 1c3e 9c21 983e 9afa 8c3e
00000040: 5366 1f3e daa1 c2bd 6461 133f 5496 32be
00000050: 09a7 c23f e1c0 e1bd ca20 dd3e c986 b43e
00000060: 6c4a 933e 7e6a c2be febe 373e 25ba 12be
00000070: e5f6 843e e465 2fbe 529b 793e 22f3 2cbe
00000080: ab1e 843e e0be d63d 5b5b 333e d0c9 acbe
00000090: 0150 4bbe 922b 0dbe c434 a5bd a5e6 08be
000000a0: bcaf 0e3e b915 ab3e 4396 3fbe aa92 ac3d
000000b0: a8d5 b73d a371 033e 50fe 593f 9411 003f
000000c0: 6be4 37be 8088 9e3d 6cee f83e ffa7 cebd
000000d0: c773 27be 0586 fa3d 2b9d cb3f e655 853e
000000e0: 901d 1bbe 6ea1 39be 7aa1 a5bd 58ff cd3d
000000f0: 2db9 b43e 2a1c 043e 3c97 05be 9402 013f

fc3.weight f4 [3, 64]
7.0553246 0.027576214 6.7861114 3.231575 6.86008 2.999573 4.3822894 -3.6705148
0.028103273 3.3595157 6.505603 7.354043 -0.060722023 6.3870454 5.7304373 6.9842286
6.3907733 0.045659028 4.1750298 -0.03253255 -3.9949148 6.298608 4.099107 6.8309135
4.607521 6.4958787 7.054755 0.060227033 7.053535 -0.040742096 6.8294644 -0.07039994
6.4439516 6.8357854 5.1811633 7.0136175 -0.041779794 -0.049458336 0.02315005 0.0054839393
6.132559 4.250349 0.022638245 6.850748 7.2063136 6.913196 3.1743155 3.7065418
0.025947265 6.9019237 3.486719 0.02079218 0.0300058 7.0766797 -3.8976486 7.1429133
-0.00142234 -0.04686647 0.006054651 7.222403 7.3226833 6.3436384 -0.073747374 3.637242
6.6739435 0.07428766 6.377824 3.7251627 6.433812 3.6323295 4.7373233 -5.1289973
0.0017449857 4.275264 6.04729 6.5276365 -0.06395419 6.5101013 5.720322 6.37667
6.1357665 0.0644826 4.6070514 0.017676935 -5.0641375 5.8909354 4.790628 6.419218
4.994237 6.0673738 6.6920786 0.033995025 6.277867 0.017129056 6.279815 -0.023912609
6.1640005 6.6239457 5.4767685 6.353831 0.072768554 -0.07633316 0.0025765423 0.0040883636
6.160984 5.079015 -0.045966085 6.588937 6.498764 6.5172586 3.6668026 4.4319077
0.118761964 6.5981717 4.5116663 -0.0041787433 -0.018904982 6.6943865 -5.125706 6.7694945
-0.035903525 0.08181917 -0.042992946 6.548577 6.4270034 6.27059 -0.03464143 4.4627852
6.024404 0.0019209399 6.194678 5.4777875 6.2963095 5.650954 6.2140727 -8.362252
0.010751921 5.73875 6.273316 6.023551 0.0032303692 6.0324125 6.19154 6.1033077
6.20768 -0.006528798 6.0274134 0.0104631 -8.525301 6.2047377 5.7571373 6.2651978
6.146929 6.1866403 6.0824385 -0.016675109 6.242215 0.014777375 6.220126 -0.06430593
6.2215967 6.1163745 6.0975084 5.8308816 0.004516625 -0.086667754 0.04109557 -0.010011232
6.155353 5.849978 0.0030686958 6.0010395 6.0733595 6.2448344 5.723385 5.754419
0.050362755 6.1006727 5.7674036 -0.016731337 -0.04143634 6.038207 -8.417598 6.0347514
0.032750815 -0.04224182 -0.011851392 6.0418153 6.1187477 6.1387944 0.07359304 5.717056
00000000: 38c5 e140 83e7 e13c d327 d940 20d2 4e40
00000010: c685 db40 01f9 3f40 b73b 8c40 b7e9 6ac0
00000020: d638 e63c 4e02 5740 e62d d040 5254 eb40
00000030: a8b7 78bd ad62 cc40 be5f b740 cd7e df40
00000040: 3781 cc40 f604 3b3d d899 8540 da40 05bd
00000050: afac 7fc0 328e c940 e22b 8340 d896 da40
00000060: d070 9340 3dde cf40 8ec0 e140 9fb0 763d
00000070: 8fb6 e140 2fe1 26bd f98a da40 d82d 90bd
00000080: da34 ce40 c1be da40 17cc a540 8e6f e040
00000090: 4a21 2bbd d394 4abd 2ca5 bd3c 9eb2 b33b
000000a0: ec3d c440 dc02 8840 d773 b93c 5439 db40
000000b0: 1f9a e640 e738 dd40 fc27 4b40 fb37 6d40
000000c0: 5c8f d43c 8fdc dc40 6726 5f40 5d54 aa3c
000000d0: b9ce f53c 2974 e240 1373 79c0 bf92 e440
000000e0: d06d baba 0ef7 3fbd 1866 c63b ed1d e740
000000f0: 6c53 ea40 16ff ca40 dd08 97bd 93c8 6840
00000100: f290 d540 2124 983d 2217 cc40 1169 6e40
00000110: cae1 cd40 1678 6840 2798 9740 bf20 a4c0
00000120: 01b8 e43a f6ce 8840 6683 c140 66e2 d040
00000130: 6afa 82bd c052 d040 e10c b740 ae0d cc40
00000140: 3358 c440 740f 843d f76c 9340 38cf 903c
00000150: 6a0d a2c0 8b82 bc40 d34c 9940 3c6a cd40
00000160: cad0 9f40 ed27 c240 8225 d640 5e3e 0b3d
00000170: 49e4 c840 3c52 8c3c 3ff4 c840 60e4 c3bc
00000180: 7e3f c540 5df7 d340 b041 af40 9552 cb40
00000190: ae07 953d 8f54 9cbd 35db 283b aef7 853b
000001a0: c826 c540 4a87 a240 ef46 3cbd 92d8 d240
000001b0: e0f5 cf40 628d d040 e5ac 6a40 30d2 8d40
000001c0: 7939 f33d 3924 d340 925f 9040 d7ed 88bb
000001d0: 9fde 9abc 6a38 d640 c905 a4c0 b39f d840
000001e0: 930f 13bd cf90 a73d 5f19 30bd f18d d140
000001f0: 03aa cd40 aca8 c840 2ce4 0dbd 23cf 8e40
00000200: ebc7 c040 0cc8 fb3a cd3a c640 094a af40
00000210: 5e7b c940 9dd4 b440 afd9 c640 c9cb 05c1
00000220: d328 303c d7a3 b740 01bf c840 eec0 c040
00000230: 9ab4 533b 8609 c140 1821 c640 4c4e c340
00000240: 51a5 c640 87ef d5bb 92e0 c040 6c6d 2b3c
00000250: a267 08c1 368d c640 783a b840 807c c840
00000260: a4b3 c440 f5f8 c540 56a3 c240 3d9a 88bc
00000270: 3ac0 c740 ce1c 723c 460b c740 d4b2 83bd
00000280: 5217 c740 57b9 c340 ca1e c340 9596 ba40
00000290: 3200 943b dd7e b1bd d453 283d 2706 24bc
000002a0: a7f8 c440 0533 bb40 2c1c 493b 8408 c040
000002b0: f658 c240 afd5 c740 f825 b740 3324 b840
000002c0: 2d49 4e3d b638 c340 928e b840 2810 89bc
000002d0: 27b9 29bd fe38 c140 7bae 06c1 af1c c140
000002e0: b825 063d c205 2dbd 572c 42bc 8d56 c140
000002f0: c8cc c340 0171 c440 f3b7 963d 1ff2 b640

fc3.bias f4 [3]
0.028774565 -0.7015462 3.3411083
00000000: a3b8 eb3c 8898 33bf b8d4 5540
