Models/LSTM/agentDQN-LSTM_2008-2009_lstm_v5_300_EPS_7.pth (torch, 256291 bytes, 8 tensors)

fc1.weight f4 [128, 104]
0	0x3e58a45f	0.21156453
1	0xbc247321	-0.0100372145
2	0xbd5d448f	-0.05402046
3	0xbe0015e9	-0.12508358
4	0xbd120a2e	-0.03565424
5	0xbcd36d9f	-0.025809107
6	0xbdac3d9e	-0.0841019
7	0xbe00ead1	-0.12589575
8	0xbdfe5e7d	-0.12420366
9	0x3d5c8a75	0.05384298
10	0xbbbb9070	-0.0057240054
11	0xbd751674	-0.059835866
12	0x3bd16d8c	0.006391233
13	0x3c944dc8	0.018103495
14	0xbd8bc957	-0.06825512
15	0xbe1e33cf	-0.15449451
16	0xbd091891	-0.033470694
17	0xbd74f91b	-0.059807878
18	0xbe0aaf39	-0.13543405
19	0xbdda697d	-0.106646515
20	0xbd8eb757	-0.06968563
21	0xbe03dd19	-0.12877311
22	0xbdb58b70	-0.08864486
23	0xbdb902ad	-0.090337135
24	0xbdf12b28	-0.117758095
25	0xbe167a2e	-0.14695045
26	0xbe9c13ab	-0.30483755
27	0xbead281e	-0.3381967
28	0x3da7a027	0.081848435
29	0xbd22744c	-0.03966169
30	0x3c967579	0.018366562
31	0x3db8fec6	0.09032969
32	0xbe99ad81	-0.30015185
33	0xbdae4d24	-0.08510807
34	0xbd4c4a3a	-0.049875475
35	0xbe82097a	-0.25397855
36	0xbe3f3f40	-0.18676472
37	0xbe2a1fa3	-0.16613631
38	0xbe629345	-0.22126491
39	0xbe5e525c	-0.21711105
40	0xbe451523	-0.19246344
41	0xbeaca653	-0.33720645
42	0xb99d0fe9	-0.00029957228
43	0xbdbb07df	-0.09132361
44	0xbe2373ff	-0.15962218
45	0xbd75ec5a	-0.060039856
46	0xbdae09a0	-0.084979296
47	0x3d2e54ba	0.04256127
48	0x3df44558	0.11927289
49	0xbdf084df	-0.11744093
50	0xbb9838dd	-0.0046454505
51	0x3e0e605b	0.13903944
52	0xbdf0c5bc	-0.11756465
53	0xbd677d7f	-0.056516167
54	0xbc49a3bc	-0.012307104
55	0x3c9a40b1	0.018829675
56	0xbe07b559	-0.13252772
57	0x3b8a0194	0.004211614
58	0xbd2c23a9	-0.042026196
59	0xbe1eaf35	-0.15496524
60	0x3cb2656a	0.021776874
61	0xbcf9dca5	-0.03050072
62	0x3d0c2701	0.034216885
63	0xbe98d98d	-0.29853478
64	0xbdcee72a	-0.10102685
65	0x3c15d072	0.0091439355
66	0xbde6d5ae	-0.11271225
67	0x3c9af137	0.018913848
68	0xbe18103d	-0.14849944
69	0xbd76450e	-0.06012445
70	0xbe21cf13	-0.15801649
71	0xbcfcc71d	-0.030856663
72	0xbe2035e5	-0.15645559
73	0xbcc88e21	-0.024481835
74	0x3b972e8e	0.004613704
75	0xbdab6a33	-0.08369865
76	0xbbcde0a0	-0.006282881
77	0xbdcd7e5f	-0.10033869
78	0xbe118d35	-0.14214022
79	0xbddbec5e	-0.10738443
80	0xbd4e62dc	-0.05038725
81	0xbdeeb7e6	-0.116561696
82	0xbca521c7	-0.020157708
83	0xbdc809f6	-0.09767525
84	0xbddf9c29	-0.10918457
85	0xbe1b568b	-0.15169732
86	0xbcddb773	-0.027065014
87	0x3c95576e	0.018230166
88	0xbddc35b5	-0.10752431
89	0xbc51bd7a	-0.012801522
90	0xbbaa871b	-0.005204094
91	0xbe2370e6	-0.15961036
92	0xbd81978b	-0.06327733
93	0xbe1cc509	-0.15309538
94	0xbdf21fe9	-0.11822493
95	0x3df735dd	0.120708205
96	0xbd9470f8	-0.072481096
97	0x3e13b625	0.14424951
98	0xbe1e9465	-0.15486296
99	0x3d2908dd	0.04126822
100	0xbd5c4f84	-0.05378677
101	0x3d8febad	0.070273735
102	0xbdc57528	-0.096414864
103	0xbd2207a1	-0.039558057
104	0xbcb8c073	-0.022552704
105	0xbbb262b1	-0.005443894
106	0xbd919d84	-0.07110122
107	0xbdddfbf4	-0.10839072
108	0xbd08665b	-0.03330074
109	0xbc17eec2	-0.009273233
110	0xbddc7ee9	-0.10766394
111	0xbdb80d63	-0.08986928
112	0x3bf9fb05	0.007628801
113	0xbe07d8f4	-0.13266355
114	0xbe006ea2	-0.12542203
115	0xbdfe938a	-0.124304846
116	0xbddada27	-0.106861405
117	0xbdbdb2cf	-0.09262621
118	0xbcfb2b35	-0.030660251
119	0xbdb0270d	-0.08601198
120	0xbdf5d22b	-0.12002977
121	0xbde5b59d	-0.112162806
122	0xb925ac39	-0.00015799784
123	0xbbe6244e	-0.007023371
124	0xbd97b492	-0.07407488
125	0xbda88989	-0.08229358
126	0xbcf6110f	-0.030037431
127	0xbc5dc3be	-0.013535438
128	0xbd9cbad5	-0.07652823
129	0xbd1ab8b3	-0.0377738
130	0xbd80f3fa	-0.06296535
131	0x3da28587	0.079356246
132	0xbd819b85	-0.06328491
133	0xbcc919a3	-0.024548357
134	0xbcc57ad6	-0.024106424
135	0xbdbfc6dd	-0.09364102
136	0xbd346426	-0.04404082
137	0x3b5c719d	0.0033637055
138	0xbd2adcd1	-0.041714493
139	0xbd418881	-0.04724932
140	0xbcc644bd	-0.024202699
141	0x3d079fde	0.033111446
142	0x3df39e40	0.11895418
143	0x3dc472c4	0.09592202
144	0x3d5ea357	0.05435499
145	0x3dbb6276	0.09149639
146	0xbd472292	-0.048616953
147	0x3d4ce657	0.050024357
148	0xbc5a878b	-0.01333798
149	0x3c932be9	0.017965274
150	0xbd9addcd	-0.075618364
151	0xbdd76fe6	-0.1051939
152	0xbc9e50a3	-0.01932556
153	0xbdf5997e	-0.11992167
154	0xbd672a48	-0.056436807
155	0xbdb73195	-0.08945004
156	0x3ca28092	0.019836698
157	0x3d693d18	0.05694303
158	0xbc8fb67a	-0.017543066
159	0xbe0e2cb1	-0.13884236
160	0xbe06264b	-0.13100545
161	0xbca9e202	-0.020737652
162	0xbe1b8917	-0.15189014
163	0x3d0ed66f	0.03487247
164	0x3ca43c6e	0.020048346
165	0xbda06658	-0.078320205
166	0x3dccb19f	0.09994816
167	0x3d6444bc	0.055729613
168	0xbd0b8bbe	-0.034068815
169	0x3da4a6a0	0.08039594
170	0xbdd8adae	-0.10580002
171	0xbdf7e302	-0.12103845
172	0xbddb741b	-0.10715505
173	0x3cb3d76c	0.021953307
174	0xbe199ee8	-0.15002024
175	0xbe1a6047	-0.1507579
176	0xbd36cf49	-0.044631276
177	0x3a96d0c4	0.0011506309
178	0xbca8973e	-0.02057993
179	0xbdf42a7b	-0.11922165
180	0xbd6d2eb2	-0.05790586
181	0xbd9e80ba	-0.077393964
182	0xbcc437c1	-0.023952367
183	0x3ca970a3	0.020683592
184	0xbe0838bb	-0.13302891
185	0xbda09007	-0.07839971
186	0xbd3b6b6b	-0.04575674
187	0xbd080984	-0.0332122
188	0xbd42ea02	-0.04758645
189	0xbd2c8de8	-0.04212752
190	0xbcdcecc3	-0.026968366
191	0x3ca711c8	0.020394221
192	0x3c0bc7af	0.008531495
193	0xbd19afdc	-0.03752123
194	0xbd5091e8	-0.050920397
195	0x3c2b6754	0.010461647
196	0xbdd5a233	-0.10431328
197	0xbb91869e	-0.0044410964
198	0xbd5cd518	-0.05391416
199	0xbdd6f41e	-0.104957804
200	0x3d648dc5	0.055799264
201	0xbdb776b5	-0.089581884
202	0x3cc802ac	0.024415337
203	0xbd8cbe45	-0.068722285
204	0x3da782dc	0.08179256
205	0x3d795509	0.06087211
206	0xbd6fbd76	-0.058530293
207	0xbcdd997a	-0.027050722
208	0xbd4112a2	-0.04713691
209	0xbc9da80a	-0.019245166
210	0xbce72219	-0.028214501
211	0xbe36a84c	-0.17837638
212	0xbe55f705	-0.20895012
213	0xbdc86f8b	-0.097869
214	0xbe49eddd	-0.19719644
215	0xbdcdc2e2	-0.100469366
216	0xbdfc2300	-0.12311363
217	0xbdcda2eb	-0.1004084
218	0xbd1fa8ab	-0.038979214
219	0xbe152494	-0.14564735
220	0xbd2ae99f	-0.041726705
221	0xbd2957d5	-0.04134353
222	0xbdacf47e	-0.08445071
223	0xbde871c0	-0.11349821
224	0x3ace0a08	0.0015719542
225	0xbd0c8768	-0.03430882
226	0xbe465398	-0.19367826
227	0xbe405408	-0.18782055
228	0xbd6497d3	-0.055808853
229	0xbdca02c9	-0.098638125
230	0xbd81f0c8	-0.063447535
231	0xbda48400	-0.080329895
232	0xbe637379	-0.22212018
233	0xbe187ef7	-0.14892183
234	0xbe24eaa9	-0.16105141
235	0x3d205c08	0.039150268
236	0xbdcab3e0	-0.0989759
237	0x3e5b55cf	0.21419452
238	0x3df8eda9	0.12154705
239	0x3e564091	0.20923068
240	0x3c07be6a	0.008285144
241	0x3c69731d	0.014248637
242	0xbe02cceb	-0.12773483
243	0xbd53f83b	-0.051750403
244	0xbe2b89b8	-0.16751754
245	0xbce81d42	-0.028334264
246	0xbc3f0ff7	-0.011661521
247	0x3dd2a20a	0.10284813
248	0x3dca4e4e	0.09878217
249	0x3d9ac966	0.07557945
250	0x3b9ad177	0.004724677
251	0x3c00a403	0.007851603
252	0xbdc9f0e1	-0.09860397
253	0xbe24bc32	-0.16087416
254	0x3d75578e	0.05989795
255	0xbd30437e	-0.043033116

fc1.bias f4 [128]
0	0xbde72b91	-0.112876065
1	0xbe0e8b7f	-0.13920401
2	0xbda5b41f	-0.08090996
3	0xbd14b8dc	-0.03630911
4	0xbd5917b3	-0.053001117
5	0xbe2b446b	-0.16725318
6	0xbde1788b	-0.1100932
7	0xbe4a1c5e	-0.19737384
8	0xbd9512d6	-0.07278983
9	0x3eef755d	0.4676923
10	0x3e592e89	0.21209158
11	0xbd54eb95	-0.05198248
12	0x3def5991	0.11687005
13	0x3c173f57	0.00923141
14	0xbdc5a291	-0.09650148
15	0x3d3060b5	0.043060977
16	0xbde66abe	-0.11250828
17	0xbe6f8a88	-0.23392689
18	0xbcef4edf	-0.029212413
19	0x3db7ca41	0.08974124
20	0xbdb20ba3	-0.08693626
21	0x3ea59352	0.3233896
22	0x3da45302	0.08023645
23	0x3dee2d2c	0.116297096
24	0x3ca5354b	0.020167014
25	0x3ddef818	0.10887164
26	0xbdb0238e	-0.086005315
27	0x3e1a0bc0	0.15043545
28	0xbd193d81	-0.03741217
29	0xbd22b9f6	-0.039728127
30	0xbe9c2e74	-0.3050419
31	0x3e503c1d	0.20335431
32	0x3d599f84	0.05313064
33	0xbe19db71	-0.15025117
34	0xbde2467f	-0.11048602
35	0xbd2e5d3c	-0.042569384
36	0xbdb22e88	-0.087002814
37	0xbda4066e	-0.08009039
38	0x3e78e4e0	0.24306059
39	0xbe95a37e	-0.29226297
40	0x3e20ebf9	0.15715016
41	0xbba608a5	-0.0050669485
42	0x3ca73f4b	0.020415923
43	0x3dc520f4	0.09625426
44	0xbd2dd396	-0.042438112
45	0xbda657c3	-0.08122208
46	0x3dbc4b78	0.09194082
47	0x3db76a2f	0.089558
48	0x3d64e455	0.055881817
49	0x3e2d7fc7	0.16943274
50	0xbcde47ca	-0.027133841
51	0xbd8df02a	-0.06930573
52	0x3e365296	0.17804942
53	0x3d29fb29	0.04149929
54	0xbd85dba9	-0.065360375
55	0x3a0a5b98	0.0005277931
56	0xbd59dacb	-0.053187173
57	0xbd5a6437	-0.05331823
58	0x3bfd91da	0.007738334
59	0xbe22d385	-0.15901001
60	0xbdf94240	-0.12170839
61	0x3c28d0e3	0.010303709
62	0x3c9a79ee	0.018856969
63	0xbd0de23d	-0.034639586
64	0x3e20dcb3	0.1570919
65	0xbd3f1fc1	-0.046661142
66	0xbdd6f343	-0.10495617
67	0x3e30e414	0.17274505
68	0xbd87554c	-0.06608066
69	0x3bda4a68	0.006661702
70	0x3c9f1c93	0.019422805
71	0xbdc81e77	-0.09771436
72	0x3c37b132	0.01121168
73	0xbd6d3db7	-0.057920184
74	0xbe275341	-0.16340353
75	0x3e08fee2	0.1337848
76	0xbe297b75	-0.16551001
77	0xbd86ed98	-0.06588286
78	0xbdc4e185	-0.09613327
79	0xbdef565b	-0.11686393
80	0xbe07cfa7	-0.13262807
81	0xbdb512c5	-0.08841471
82	0x3ded7cbf	0.11596059
83	0xbdbf0e07	-0.093288474
84	0x3e00d1f4	0.12580091
85	0xbd841985	-0.0645018
86	0x3e0af753	0.13570909
87	0xbd8b75ab	-0.06809553
88	0x3d000534	0.031254962
89	0xbd1da3b8	-0.038486212
90	0x3e772687	0.24135791
91	0xbdf9247c	-0.12165162
92	0xbe105540	-0.1409502
93	0xbd182884	-0.037148014
94	0x3deb96a9	0.115033455
95	0x3e090f7e	0.13384816
96	0xbe10fc0f	-0.14158653
97	0xbe512c29	-0.20427002
98	0x3d8dce76	0.06924145
99	0xbd99f5cf	-0.075175874
100	0xbe296579	-0.16542615
101	0x3eb4afb7	0.3529031
102	0x3e7c78e5	0.24655493
103	0x3dc1e5f3	0.094676875
104	0x3daa3942	0.08311702
105	0x3d64e836	0.055885516
106	0xbcb2ce41	-0.021826865
107	0xbdc9962c	-0.09843096
108	0x3da52708	0.08064085
109	0xbd814c43	-0.06313374
110	0xbca4de2b	-0.02012547
111	0xbd724ac6	-0.05915334
112	0x3ce44540	0.027865052
113	0xbba23c5d	-0.0049510435
114	0xbc69cda1	-0.014270217
115	0x3e2a2fe4	0.16619831
116	0x3d5c1f0c	0.053740546
117	0xbd9e899f	-0.07741093
118	0xbe23f491	-0.16011263
119	0xbde1eb2d	-0.11031184
120	0xbe06b72b	-0.1315581
121	0xbda07d29	-0.078363724
122	0xbd5e787d	-0.054314125
123	0x3c2ad47e	0.010426639
124	0x3dc79b90	0.09746468
125	0x3d54e5fc	0.051977143
126	0xbdd5e488	-0.104439795
127	0x3d77a3fc	0.060459122

fc2.weight_ih_l0 f4 [256, 128]
0	0x3d5a2f5b	0.053267818
1	0x3df1def4	0.11810103
2	0xbdd4c2db	-0.10388728
3	0xbc57d956	-0.0131743755
4	0xbd2fe53d	-0.042943228
5	0xbcf213ca	-0.029550452
6	0x3c23ccc7	0.009997553
7	0xbcd17648	-0.025569096
8	0x3dca1d7f	0.09868907
9	0x3daf39d6	0.08555953
10	0x3d99d864	0.07511976
11	0x3cfc0450	0.030763775
12	0x3d78f13d	0.060776938
13	0xbdb46354	-0.08808008
14	0x3d843b1a	0.06456585
15	0x3d91a3d6	0.07111327
16	0xbcb23a58	-0.021756336
17	0x3c655640	0.013997614
18	0x3d62fd30	0.05541724
19	0xbda2dcc2	-0.079522625
20	0x3ce9d9ec	0.028546296
21	0x3b126500	0.0022338033
22	0x3c20e140	0.009819329
23	0x3da67e38	0.08129543
24	0x3c649100	0.013950586
25	0x3d93f750	0.072249055
26	0x3d304784	0.043036953
27	0xbd9896de	-0.07450651
28	0x3dd64385	0.10462097
29	0x3da88216	0.08227937
30	0xbd8a8c41	-0.067650326
31	0x3d6a0f08	0.05714324
32	0xbd9897e8	-0.07450849
33	0x3ce41870	0.027843684
34	0x3d9142fc	0.070928544
35	0x3c52bf90	0.012863055
36	0x3dcf8756	0.10133235
37	0xbdbd8986	-0.09254746
38	0x3dfc83dc	0.12329838
39	0xbd89819e	-0.06714176
40	0x3df1c334	0.1180481
41	0xbdb06968	-0.08613855
42	0x3d9987b8	0.074965894
43	0xbd78d0b4	-0.06074591
44	0xbd379d6c	-0.044827864
45	0xbcf3ad70	-0.029745787
46	0xbd47c53b	-0.048772078
47	0x3d821e5b	0.06353446
48	0xbd4d7708	-0.050162345
49	0xbcbf5c78	-0.023359522
50	0x3e1155ef	0.14192937
51	0xbd2dc432	-0.042423435
52	0x3d4625bb	0.048375826
53	0x3e03205c	0.12805313
54	0xbd007c68	-0.031368643
55	0xbd0d0ab8	-0.03443405
56	0xbc382c80	-0.011241078
57	0x3da1ece6	0.07906513
58	0x3cb1972a	0.021678526
59	0xbc6f4290	-0.014603272
60	0x3b931351	0.0044883867
61	0xbd092ba8	-0.0334889
62	0xbdcff0b8	-0.10153335
63	0x3c37e55a	0.011224115
64	0xbbad99e0	-0.0052978843
65	0x3ddc532a	0.1075805
66	0xbdcb8e24	-0.099392205
67	0x3b2cf340	0.0026390105
68	0xbde6bf26	-0.112669274
69	0xbc839676	-0.016062956
70	0x3d88312c	0.06650004
71	0xbd599610	-0.053121626
72	0x3c2f7e9a	0.0107113365
73	0xbd162ad4	-0.036661938
74	0x3e01a6cc	0.12661284
75	0xbd2353b0	-0.039874732
76	0xbd5043cc	-0.050845906
77	0xbc9b2090	-0.018936425
78	0x3db5d66c	0.08878788
79	0x3daee11d	0.08539031
80	0xbd0fdbf0	-0.035121858
81	0x3e03eba5	0.1288286
82	0xbc647273	-0.013943302
83	0xbbe0e5a0	-0.006863311
84	0xbdaace85	-0.08340172
85	0xbcb1ebd0	-0.02171889
86	0x3d406c47	0.04697826
87	0xbdfd71ce	-0.12375222
88	0xbd9750d7	-0.07388466
89	0xbcb1f587	-0.021723522
90	0x3da57b62	0.08080174
91	0xbdc2c873	-0.09510889
92	0xbc24c5b0	-0.010056898
93	0xbd9eda52	-0.07756485
94	0xbd763f80	-0.060119152
95	0xbad7e935	-0.0016472699
96	0x3e09674c	0.13418311
97	0x3d524445	0.05133464
98	0xbda06cce	-0.07833253
99	0x3d9effaf	0.077636115
100	0xbd2bce58	-0.04194483
101	0xbd7261b4	-0.05917521
102	0x3c720620	0.014771968
103	0xbd81852c	-0.06324229
104	0x3d80a930	0.0628227
105	0x3d4b6434	0.049656108
106	0x3c1dd810	0.009634033
107	0xbc1a54b0	-0.009419605
108	0x3d1bec96	0.038067423
109	0xbd9ea31e	-0.07745956
110	0x3db50c76	0.08840267
111	0x3dd8a5bc	0.10578486
112	0xbd7234a7	-0.059132244
113	0x3cdb3318	0.026757762
114	0xbda54fee	-0.08071886
115	0x3de59bc3	0.1121135
116	0xbd7d82e0	-0.06189239
117	0x3d40d990	0.047082484
118	0x3dc784c2	0.097421184
119	0x3c1d33e0	0.0095948875
120	0x3d552b18	0.05204305
121	0xbd91cfaf	-0.071196906
122	0xbdfe1b2e	-0.12407528
123	0x3de2b7b1	0.110701926
124	0x3d9e98a2	0.07743956
125	0xbbbc2460	-0.005741641
126	0x3becc1e0	0.00722526
127	0x3cab8bd4	0.020940699
128	0xbd1ef8c0	-0.038811445
129	0x3d46bc61	0.048519496
130	0x3c633afa	0.013869042
131	0xbc940e63	-0.018073266
132	0x3dfa1372	0.1221074
133	0xbb198193	-0.002342318
134	0xbcaa60ba	-0.020798076
135	0x3d1bce45	0.03803851
136	0x3bbf34c8	0.0058351494
137	0xbd4fd8ac	-0.050743744
138	0x3d85e51d	0.065378405
139	0x3dbf2fdf	0.093353026
140	0xbcd98a28	-0.026555136
141	0xbd3230b0	-0.043503463
142	0x3de53bac	0.11193022
143	0xbcb484e0	-0.022036016
144	0x3b203bb3	0.0024449646
145	0xbd2a25b0	-0.041539848
146	0x3d733e0a	0.059385337
147	0xbd598020	-0.053100705
148	0x3d225bb0	0.03963822
149	0xbcfa6e7e	-0.030570265
150	0x3ddf2391	0.10895456
151	0x3da7cb95	0.08193127
152	0x3deb7484	0.11496833
153	0xbb99b38e	-0.004690594
154	0x3bd0bf00	0.006370425
155	0x3dd96917	0.106157474
156	0x3aa5ad52	0.0012640154
157	0xbd884693	-0.06654086
158	0x3c83aaf9	0.016072737
159	0xbd91a1c6	-0.07110934
160	0x3c90d55e	0.017679866
161	0x3d471f48	0.048613816
162	0x3d910880	0.07081699
163	0x3da6bfdc	0.08142063
164	0x3ca02aad	0.0195516
165	0x3ca52c91	0.020162852
166	0x3ce5d3d2	0.028055105
167	0x3d8d65d1	0.069041856
168	0xbdb56a90	-0.08858216
169	0xbcca1790	-0.024669439
170	0xbd4340ce	-0.047669224
171	0x3d9af64e	0.0756651
172	0x3d320f26	0.043471478
173	0x3b13b200	0.0022536516
174	0x3bdb6693	0.0066955774
175	0x3dd42cb1	0.10360087
176	0x3d3a661c	0.045507535
177	0x3b9a0bc6	0.0047011105
178	0x3e252004	0.16125494
179	0xbbdf7c77	-0.0068202573
180	0x3dcb6fcc	0.09933433
181	0xb99c0f29	-0.00029765934
182	0x3df1a99f	0.11799931
183	0x3df01f80	0.11724758
184	0xbd9b3a4b	-0.07579478
185	0x3bc6d807	0.006068233
186	0x3e2e2a1b	0.1700825
187	0x3cb8bac1	0.022549989
188	0x3ce174f4	0.027521588
189	0x3d8aef4a	0.06783922
190	0xbd943bae	-0.072379455
191	0xbd7c9805	-0.061668415
192	0x3d34ac41	0.044109587
193	0x3d35c8a6	0.044380806
194	0x3d169ce4	0.036770716
195	0xbba2e65e	-0.0049713096
196	0xbda44418	-0.080208
197	0xbbe10bdf	-0.00686787
198	0x3d2c2fff	0.04203796
199	0x3cf44bf8	0.029821381
200	0xbcf79e97	-0.030226989
201	0xbddc4e54	-0.107571274
202	0x3d0fc989	0.03510431
203	0x3e2cf13d	0.168889
204	0x3bece936	0.0072299493
205	0xbb12c340	-0.002239421
206	0xbd475a08	-0.048669845
207	0x3da0c0df	0.07849287
208	0xbd88a5ee	-0.066722736
209	0x3d937402	0.07199861
210	0xbd8543ea	-0.06507094
211	0x3d3c5728	0.045981556
212	0x3de90d2c	0.113794655
213	0x3dde5df4	0.10857764
214	0x3d9a1075	0.0752267
215	0xbd79ef3c	-0.061019167
216	0x3e04ba93	0.12961797
217	0x3d2e2e74	0.04252477
218	0x3e279465	0.16365202
219	0x3b5f473c	0.0034069559
220	0x3d16f068	0.036850363
221	0x3de4f247	0.11179023
222	0x3dcecd2a	0.10097726
223	0xbd6e5f0a	-0.058196105
224	0x3de86c3e	0.113487706
225	0xbcc00f0a	-0.023444671
226	0xbc84bbeb	-0.016202888
227	0x3d00a124	0.031403676
228	0x3dbf84b4	0.09351483
229	0xbd911ff3	-0.07086172
230	0x3ca660d0	0.020309836
231	0xbd646fe8	-0.055770785
232	0x3d4f5462	0.050617583
233	0x3d0bf364	0.034167662
234	0x3d9a9bb8	0.07549232
235	0xbca37e10	-0.019957572
236	0x3cd4da7f	0.025983093
237	0x3e2d7a4a	0.16941181
238	0x3d67f697	0.05663165
239	0x3d7af4e9	0.06126872
240	0x3e3e378e	0.1857588
241	0xbd8490d2	-0.06472935
242	0x3d3d610c	0.04623513
243	0x3e3a7579	0.18208875
244	0xbd822e2e	-0.06356464
245	0x3a11f6e2	0.00055680994
246	0xbdac4956	-0.08412425
247	0xbd30ac29	-0.043132935
248	0x3c4c23f0	0.01245974
249	0x3ce3bc31	0.027799698
250	0x3d6f799c	0.058465585
251	0xbbc99244	-0.0061514694
252	0x3d8d3020	0.06893945
253	0x3e1f5284	0.15558821
254	0xbdc53162	-0.0962856
255	0xbd47c1cd	-0.048768807

fc2.weight_hh_l0 f4 [256, 64]
0	0x3cf322a0	0.029679596
1	0xbdb570fe	-0.08859442
2	0x3de2d872	0.1107644
3	0x3d8ea014	0.06964126
4	0x3d4a19d8	0.049341053
5	0x3c4fd060	0.012683958
6	0xbc4845b0	-0.012223646
7	0xbd97f172	-0.07419099
8	0xbdadcd2e	-0.084864005
9	0x3c5ec440	0.013596594
10	0x3dbaa7f0	0.09114063
11	0x3ddf369a	0.10899086
12	0xbcb92270	-0.022599429
13	0xbceacf70	-0.028663367
14	0xbdd154fc	-0.102212876
15	0xbdcbb21e	-0.099460825
16	0x3d9a32e0	0.07529235
17	0x3c336b50	0.010950878
18	0xbdbe978a	-0.093062475
19	0xbd30d97c	-0.04317616
20	0x3df76006	0.12078862
21	0x3d0a3db4	0.03375025
22	0x3dc311ea	0.09524901
23	0xbd98f208	-0.07468039
24	0xbd63509c	-0.055496797
25	0xbd43d0ec	-0.047806665
26	0xbddb10c8	-0.1069656
27	0x3ddccd50	0.10781348
28	0xbdc96dba	-0.09835382
29	0x3df26a42	0.11836673
30	0xbda1d9dc	-0.079028815
31	0x3d36dd7c	0.044644818
32	0x3de60c04	0.112327605
33	0xbdc608a8	-0.0966962
34	0x3db6861a	0.089122966
35	0x3dad1b6a	0.084524944
36	0xbcf7d3f0	-0.030252427
37	0x3dd41f0e	0.10357486
38	0xbc6fc900	-0.0146353245
39	0x3d807704	0.062727004
40	0x3d713418	0.05888757
41	0xbda07d00	-0.07836342
42	0x3dbc3572	0.091898814
43	0x3cdb70d0	0.026787192
44	0x3db639dc	0.088977545
45	0x3d05240c	0.03250508
46	0xbdff97f8	-0.124801576
47	0xbda82fd8	-0.082122505
48	0xbb43c040	-0.0029869229
49	0xbd0c4110	-0.034241736
50	0x3d6e74a0	0.05821669
51	0xbca16650	-0.019702107
52	0x3dc33ea8	0.09533435
53	0x3d2e1194	0.042497233
54	0xbce6ec20	-0.028188765
55	0x3d5173d8	0.051135868
56	0xbdab206c	-0.08355793
57	0xbdada376	-0.08478443
58	0x3d9a6bd2	0.07540096
59	0xbd9131f6	-0.070896074
60	0xbdd5b2e6	-0.10434513
61	0xbdc33fc6	-0.09533648
62	0xb9f26e00	-0.00046239793
63	0xbda08d6c	-0.07839474
64	0x3d8b6432	0.0680622
65	0x3daba82a	0.08381684
66	0xbd8992cc	-0.067174524
67	0xbd0a9404	-0.033832565
68	0x3cee6400	0.029100418
69	0xbde080de	-0.109620795
70	0x3da78728	0.08180076
71	0xbdc7695e	-0.09736894
72	0x3dee3d8c	0.11632833
73	0x3dd16b2e	0.10225521
74	0xbddd2182	-0.10797407
75	0x3b854440	0.004066974
76	0xbddf1760	-0.1089313
77	0x3de455e2	0.11149193
78	0xbde78452	-0.11304535
79	0x3daf4734	0.08558503
80	0x3cedbe80	0.029021502
81	0x3d2c7e00	0.04211235
82	0xbcd55cd8	-0.026045248
83	0xbd2ffd04	-0.042965904
84	0x3d8f4666	0.06995849
85	0x3df1d13e	0.11807488
86	0x3dd9eaf0	0.10640514
87	0xbd3a0188	-0.045411617
88	0xbdedd920	-0.11613679
89	0x3d4f3e74	0.05059667
90	0xbdacc814	-0.084365994
91	0xbd1b2a30	-0.03788203
92	0xbd83fdfe	-0.064449295
93	0xbd8204fa	-0.063486055
94	0xbd7ebc2c	-0.062191173
95	0x3cc1dc98	0.023664758
96	0xbd9d0266	-0.07666473
97	0x3de6df78	0.11273092
98	0x3d742af0	0.05961126
99	0x3dc3a42a	0.09552796
100	0x3db0ee2a	0.08639176
101	0xbcb96d78	-0.022635207
102	0xbda5ab94	-0.080893666
103	0xbdf17226	-0.1178935
104	0x3db75f8c	0.08953771
105	0xbd2a75d8	-0.04161629
106	0x3db029aa	0.08601697
107	0x3ce04da8	0.02738078
108	0x3dbb68f2	0.09150876
109	0x3dd93be0	0.106071234
110	0xbde41b16	-0.11137979
111	0x3d8f8b3c	0.07008979
112	0x3a933b80	0.0011232942
113	0xbd9ba252	-0.075993195
114	0xbdd88bc0	-0.1057353
115	0xbb2cba80	-0.002635628
116	0xbd9f6d48	-0.077845156
117	0xbdee2310	-0.116277814
118	0xbdd79f18	-0.105283916
119	0x3d83e93e	0.06440972
120	0xbde6a920	-0.11262727
121	0xbca40840	-0.020023465
122	0xbc94a830	-0.018146604
123	0xbdd9de0e	-0.10638057
124	0xbb295980	-0.00258407
125	0xbd402118	-0.04690656
126	0xbc0c9bd0	-0.0085820705
127	0xbd651ac0	-0.055933714
128	0xbdb9faf4	-0.09081069
129	0x3d59cb80	0.05317259
130	0xbda0df8e	-0.0785514
131	0xbdef67d6	-0.11689727
132	0xbdab14f2	-0.083536044
133	0x3d1751a4	0.036943093
134	0x3d74edb0	0.05979699
135	0xbd182f24	-0.03715433
136	0xbd5a9360	-0.053363204
137	0x3d01aa0c	0.03165631
138	0xbd414fcc	-0.04719524
139	0xbd8ab630	-0.06773031
140	0xbd5ee678	-0.05441901
141	0xbdd33d76	-0.10314457
142	0xbcc3e6b0	-0.023913711
143	0xbdef902c	-0.116974205
144	0xbdddbcd2	-0.1082703
145	0x3d87dcc2	0.06633903
146	0x3be280a0	0.006912306
147	0xbd80ec5c	-0.06295082
148	0x3ddb3f2a	0.10705407
149	0xbdb7e322	-0.08978869
150	0x3db8ebd6	0.09029357
151	0x3db388a6	0.08766298
152	0xbc7b0490	-0.015320912
153	0xbd4d5744	-0.05013205
154	0xbdfd1fe4	-0.12359598
155	0x3df8e566	0.12153129
156	0xbda817d2	-0.08207668
157	0x3d657bec	0.056026384
158	0x3bcacbe0	0.0061888546
159	0x3bcba340	0.0062145293
160	0xbcdcac50	-0.026937634
161	0x3d90a7da	0.07063265
162	0xbda052c6	-0.07828288
163	0xbd9796a2	-0.07401778
164	0xbb02b980	-0.0019946992
165	0x3df42d12	0.11922659
166	0x3cb05aa8	0.021527603
167	0xbdda698e	-0.10664664
168	0xbbbf50c0	-0.0058384836
169	0xbd9593f6	-0.07303612
170	0xbbdf0600	-0.006806135
171	0x3df8a73a	0.12141271
172	0xbda32dca	-0.07967718
173	0x3bfa4060	0.0076370686
174	0xbdd67918	-0.104723155
175	0xbdeebbac	-0.11656889
176	0x3c188960	0.0093100965
177	0x3dc37d02	0.09545328
178	0xbb792f80	-0.0038022697
179	0x3cd08980	0.02545619
180	0x3db6c60c	0.08924493
181	0x3dadc124	0.08484104
182	0xbd497b3c	-0.04918979
183	0x3d926f8a	0.07150181
184	0x3d907274	0.0705308
185	0xbd9824e8	-0.07428914
186	0xbc35d420	-0.011097938
187	0x3ddf364e	0.1089903
188	0xbda8f3d4	-0.082496315
189	0x3d7378b0	0.05944127
190	0x3d50078c	0.050788447
191	0x3cf46be0	0.029836595
192	0xbcb4f188	-0.022087827
193	0x3d25a008	0.04043582
194	0xbd15e610	-0.036596358
195	0xbd28174c	-0.041037843
196	0x3da6c778	0.081435144
197	0xbbd0d1c0	-0.0063726604
198	0x3d4f0180	0.05053854
199	0xbcd52258	-0.026017353
200	0xbd59f340	-0.053210497
201	0x3dba75e6	0.091045186
202	0xbdf3fdf4	-0.11913672
203	0xbdfe99d6	-0.124316856
204	0x3dac83e0	0.08423591
205	0xbdd11112	-0.10208334
206	0xbdc2ee96	-0.09518163
207	0x3cdf39f0	0.027249306
208	0x3d5fe0f4	0.05465789
209	0xbdd6b812	-0.104843274
210	0x3cd0cc98	0.025488183
211	0xbdebf2aa	-0.11520894
212	0xbc0b1710	-0.008489385
213	0xbdc93d24	-0.09826115
214	0xbd8fdf06	-0.0702496
215	0x3bf13ec0	0.0073622167
216	0xbd4615c8	-0.048360616
217	0x3dd8f0cc	0.10592803
218	0xbd93ac76	-0.07210629
219	0x3c016250	0.007896975
220	0x3c9aa688	0.018878236
221	0xbc3d40c0	-0.011551082
222	0x3dbb5aa0	0.09148145
223	0xbdb2f672	-0.08738412
224	0xbcbd3e48	-0.023100987
225	0xbdde4d68	-0.10854608
226	0x3df641d4	0.120242745
227	0x3c8796b8	0.01655136
228	0xbd643dd0	-0.05572301
229	0xbde5acd6	-0.112146065
230	0x3c902b08	0.017598644
231	0xbd6c461c	-0.05768405
232	0xbdc95350	-0.09830344
233	0x3d803526	0.06260137
234	0x3df930ae	0.12167488
235	0x3d83060c	0.06397638
236	0x3d8b237e	0.06793879
237	0x3d74e610	0.059789717
238	0xbdd407fa	-0.10353084
239	0x3d3a30b0	0.04545659
240	0xbdbc177c	-0.09184167
241	0xbc8cd230	-0.017190069
242	0xbdf07bfa	-0.11742397
243	0x3dc8201a	0.09771748
244	0xbd995f4e	-0.07488881
245	0x3de922f6	0.113836214
246	0xbcd03038	-0.025413617
247	0xbdb5e5ae	-0.088816985
248	0xbda05eaa	-0.07830556
249	0x3dbd87ba	0.092544034
250	0x3afd4900	0.0019324124
251	0x3d8cc174	0.06872836
252	0x3de15626	0.1100276
253	0x3d14ab70	0.036296308
254	0xbdfd4ea0	-0.12368512
255	0xbcb317a8	-0.021861866

fc2.bias_ih_l0 f4 [256]
0	0x3da04022	0.07824732
1	0x3cc8b34c	0.024499558
2	0xbd6a9aa2	-0.057276376
3	0xbdf76c5e	-0.12081216
4	0x3bd1b52c	0.006399771
5	0x3b0c9269	0.0021449572
6	0x3e13ae62	0.1442199
7	0xbd091968	-0.033471495
8	0xbb000af9	-0.001953779
9	0x3e0d8d3a	0.13823405
10	0xbd9b5c21	-0.075859316
11	0xbdbfc1ce	-0.09363137
12	0x3d5e8bc7	0.05433252
13	0xbdadade5	-0.084804334
14	0x3d174403	0.036930095
15	0x3d7933fb	0.060840588
16	0xbda8ebad	-0.082480766
17	0x3dec74b3	0.11545696
18	0xbd4eceef	-0.050490316
19	0x3cf35e93	0.029708182
20	0xbd90f7b0	-0.07078493
21	0x3c884afe	0.016637322
22	0xbd78d359	-0.06074843
23	0xbc8bd769	-0.017070489
24	0xbb8031c2	-0.0039121816
25	0x3d8ab0e8	0.067720234
26	0xbcc91b88	-0.02454926
27	0xbe1f4a32	-0.15555647
28	0x3da0c3f3	0.07849874
29	0xbda2042d	-0.07910953
30	0x3b4c71bf	0.0031195728
31	0x3cce321d	0.02517038
32	0x3d2d8ee4	0.0423726
33	0xbd7e39eb	-0.062066954
34	0xbcedb788	-0.029018179
35	0xbdf994e4	-0.12186602
36	0x3dd1433c	0.10217902
37	0xbca7d772	-0.020488475
38	0x3d6db818	0.058036894
39	0x3d1e0b2f	0.038584884
40	0xbba7c201	-0.0051195626
41	0x3dcf8362	0.10132481
42	0xbd08a6fc	-0.033362374
43	0xbe1f42ba	-0.15552798
44	0xbc30a4a0	-0.010781437
45	0xbd9dbc0c	-0.07701883
46	0xbcd6a1a8	-0.02620013
47	0x3df9de2b	0.12200578
48	0xbd2b2cad	-0.041790653
49	0x3d8634a5	0.0655301
50	0x3bda67fb	0.0066652275
51	0x3ca98490	0.020693094
52	0x3cb8a250	0.022538334
53	0x3cd3f860	0.02587527
54	0x3d96ec72	0.07369317
55	0x3d5ff5bf	0.05467772
56	0xbd59ece4	-0.053204432
57	0xbdca43d0	-0.098762155
58	0x3e1496ec	0.14510697
59	0x3c0e2cab	0.008677642
60	0x3da10d7f	0.07863902
61	0xbdbc1bb3	-0.09184971
62	0xbd3a3ed0	-0.04547006
63	0x3bd03b1b	0.006354702
64	0xbce94178	-0.0284736
65	0xbde4f482	-0.11179449
66	0xbbe5f560	-0.0070177764
67	0xbd8b0752	-0.067885056
68	0x3d16a934	0.03678246
69	0xbdec4698	-0.11536902
70	0x3d25bef0	0.040465295
71	0xbdd0b97a	-0.10191627
72	0x3be653c0	0.0070290267
73	0xbccd56c0	-0.02506578
74	0x3dade490	0.084908605
75	0xbcce9f08	-0.025222316
76	0xbda74d4c	-0.0816904
77	0xbdadffcc	-0.08496055
78	0xbd85b92a	-0.06529458
79	0xbd4300e0	-0.047608256
80	0x3dd6ee00	0.10494614
81	0xbdd3615e	-0.10321306
82	0x3b911260	0.0044272393
83	0xbcebb2d0	-0.028771788
84	0x3d4eb208	0.050462753
85	0xbdfeb3fe	-0.124366745
86	0x3d48b9f0	0.04900545
87	0x3dbd6faa	0.09249814
88	0xb9d5ca00	-0.00040777028
89	0xbcac0200	-0.020997047
90	0x3d7c9210	0.061662734
91	0xbd01e770	-0.031714857
92	0xbdac48b2	-0.08412303
93	0x3d763a44	0.06011416
94	0x3d03ca3c	0.032175288
95	0x3d136cf0	0.035992563
96	0x3df1b55e	0.11802171
97	0xbdb5981a	-0.08866902
98	0x3d9e0a94	0.07716861
99	0xbd530afc	-0.051524147
100	0x3d19cd30	0.037549198
101	0xbd0b4314	-0.033999518
102	0x3c64a3e0	0.0139550865
103	0xbd197de8	-0.03747359
104	0x3dd2065a	0.10255118
105	0xbb3b8640	-0.0028613955
106	0x3d07c3f0	0.033145845
107	0x3d97db16	0.07414834
108	0xbc291790	-0.010320559
109	0xbd6d58b8	-0.057945937
110	0x3bb2a760	0.0054520816
111	0xbc9e83f8	-0.019350037
112	0x3d2c89d4	0.04212363
113	0x3dc597fa	0.09648128
114	0xbd9f0a54	-0.07765642
115	0x3db4b5f8	0.0882377
116	0x3d3b7648	0.0457671
117	0x3dd8c14c	0.105837435
118	0xbd4ff36c	-0.050769255
119	0xbddf9742	-0.10917522
120	0x3d7aaa00	0.06119728
121	0x3dd5c62a	0.104381874
122	0xbd18c0e4	-0.03729333
123	0xbd0516ec	-0.032492563
124	0xbd8f6724	-0.070020944
125	0xbde314ac	-0.11087927
126	0xbdf94026	-0.121704385
127	0x3d75d194	0.060014322
128	0x3e17b9f1	0.14817025
129	0xbe0850cd	-0.13312073
130	0xbd1d0254	-0.0383323
131	0xbdbc5b06	-0.09197049
132	0xbd68103e	-0.056656115
133	0xbdec720e	-0.11545192
134	0x3dd3a6c3	0.10334542
135	0x3d29e990	0.04148251
136	0x3d67f198	0.056626886
137	0x3d9f3cee	0.07775293
138	0x3d1f6858	0.03891787
139	0x3dcd92cc	0.10037765
140	0x3e1cf875	0.15329154
141	0x3c4169b0	0.011804983
142	0x3d4e0374	0.050296262
143	0xbc938511	-0.018007787
144	0x3d63b564	0.05559291
145	0x3da81caa	0.08208592
146	0x3cdce830	0.026966184
147	0x3d91be70	0.07116401
148	0x3ccfe523	0.025377816
149	0x3da68c97	0.08132284
150	0xbc7610e6	-0.015018677
151	0xbc107b19	-0.008818411
152	0xbde1d027	-0.1102603
153	0xbdca54b3	-0.09879436
154	0x3d9b6610	0.07587826
155	0x3cfc3008	0.030784622
156	0x3cd96cb7	0.026541097
157	0x3ccdab5e	0.025106128
158	0xbc7c6bf9	-0.015406602
159	0x3df08454	0.117439896
160	0x3da4f8d7	0.08055275
161	0x3db2977c	0.087202996
162	0x3dbb9d62	0.09160878
163	0x3c046225	0.00808004
164	0xbd1199e4	-0.035547152
165	0xbcece559	-0.028917955
166	0xbccbc258	-0.024872944
167	0x3cb415f0	0.021983117
168	0xbd6b14a6	-0.05739274
169	0xbd6d37d5	-0.057914574
170	0x3dda7214	0.1066629
171	0x3ba970f9	0.005170938
172	0x3da9b0af	0.08285653
173	0xbd548144	-0.05188109
174	0x3dbdd026	0.09268217
175	0xbd3becdf	-0.045880195
176	0xbe06bb4b	-0.13157384
177	0x3e06a658	0.13149393
178	0xbd31eee8	-0.04344073
179	0x3d2007bf	0.039069887
180	0xbddcfb68	-0.107901394
181	0xbdbdf43a	-0.09275098
182	0x3da3ba9d	0.07994578
183	0x3cb43828	0.021999434
184	0xbddc26b2	-0.10749568
185	0xbdbd72fa	-0.09250446
186	0x3e05f8f1	0.13083245
187	0xbdb1d914	-0.086839825
188	0x3c9869ce	0.01860514
189	0xbd9ecd7c	-0.07754037
190	0x3d7c75f4	0.061635926
191	0xbc7d423b	-0.015457685
192	0x3e133197	0.14374386
193	0x3de1e929	0.110308
194	0x3d6ab97e	0.057305805
195	0x3c22ae96	0.00992932
196	0x3c73c18a	0.014877686
197	0xbba798a0	-0.00511463
198	0x3d6da123	0.058015
199	0x3dd591aa	0.10428174
200	0xbda63654	-0.08115831
201	0x3da61729	0.08109886
202	0x3c191fc0	0.009345949
203	0xbc749e70	-0.014930353
204	0x3da15a36	0.078785345
205	0x3dfb9bc0	0.12285566
206	0x3cd1d1e0	0.025612772
207	0xbe394585	-0.18092926
208	0xbde8bd44	-0.113642246
209	0xbe0d65dd	-0.13808389
210	0x3d702e48	0.058637887
211	0xbe0387fd	-0.12844844
212	0x3c3543d5	0.011063536
213	0x3b528421	0.0032122212
214	0xbcc465ce	-0.023974326
215	0xbd7758ee	-0.060387544
216	0x3d0fdb84	0.035121456
217	0x3de55bb7	0.11199134
218	0xbdcd39d6	-0.10020797
219	0xbdbb9086	-0.09158425
220	0x3dd5e920	0.10444856
221	0x3e110bb3	0.14164619
222	0xbcbc9919	-0.023022221
223	0xbdd98c44	-0.10622457
224	0xbd963ea0	-0.073361635
225	0xbd339384	-0.043841854
226	0x3c257618	0.0100989565
227	0x3cfdabef	0.030965773
228	0xbd5ec7fd	-0.054389942
229	0x3d8511be	0.06497525
230	0xbddaca04	-0.10683063
231	0xbdd6402e	-0.1046146
232	0xbcd44f5e	-0.025916751
233	0xbd2711be	-0.040788405
234	0xbdf5a042	-0.119934574
235	0xbd47130c	-0.04860215
236	0x3da141ad	0.07873855
237	0x3dc72e35	0.0972561
238	0xbdc0e823	-0.094192766
239	0x3e1587be	0.14602563
240	0xbd2b8cdc	-0.04188238
241	0xbd79f0e6	-0.061020754
242	0xbe0b6ef1	-0.1361654
243	0x3de0cf44	0.10977033
244	0xbda88392	-0.0822822
245	0x3d71ccec	0.05903332
246	0x3dd497ca	0.10380514
247	0x3def123d	0.116734006
248	0x3c2500f0	0.010071024
249	0x3dd532df	0.104100935
250	0xbd4f8061	-0.05065954
251	0xbdcdc374	-0.10047045
252	0x3e0a13e6	0.13484153
253	0xbd49416e	-0.049134664
254	0xbbadd1ea	-0.0053045647
255	0x3d480c6a	0.048839964

fc2.bias_hh_l0 f4 [256]
0	0x3bed2f0d	0.007238275
1	0x3dbe8b12	0.09303869
2	0x3d8c8d21	0.06862856
3	0x3cce8718	0.025210902
4	0xbdd31ba6	-0.10308008
5	0x3d95a744	0.07307294
6	0xbd1b4fd0	-0.037917912
7	0x3d9c9e0a	0.07647331
8	0x3d872ec2	0.06600715
9	0x3bb8d65f	0.0056407894
10	0xbdfeece6	-0.124475285
11	0xbd452c32	-0.04813785
12	0xbd98f46c	-0.07468495
13	0x3ad9bf62	0.0016612823
14	0x3cb442eb	0.022004565
15	0xbd522dc1	-0.051313166
16	0xbd0d2c57	-0.034466114
17	0x3d0f8cc5	0.035046358
18	0xbd179edb	-0.03701673
19	0x3d556815	0.052101213
20	0xbbdbb159	-0.006704491
21	0x3de04ba7	0.109519295
22	0xbdb2db76	-0.08733265
23	0xbd9b0c3a	-0.075706914
24	0xbdb9444c	-0.0904623
25	0x3d64e7a9	0.05588499
26	0xbd494c64	-0.049145117
27	0xbe01a7b3	-0.12661628
28	0xbc8ce6da	-0.017199922
29	0x3dcc5fe7	0.099792294
30	0x3d252920	0.040322423
31	0x3e769d8b	0.24083535
32	0xbde70fea	-0.11282332
33	0x3ced1d1b	0.028944543
34	0xbdd61931	-0.10454024
35	0x3d7c6c00	0.061626434
36	0x3b6fdf80	0.0036601722
37	0x3d96d5c8	0.07364994
38	0x3c6902d0	0.014221862
39	0x3cfd0e6f	0.030890672
40	0x3dacaa53	0.08430924
41	0x3e4c7573	0.19966678
42	0xbdf437aa	-0.119246796
43	0x3cb7776c	0.022395812
44	0x3d604a7f	0.054758545
45	0x3e09d856	0.13461432
46	0x3dc7fcd0	0.09765017
47	0x3dc35581	0.09537793
48	0xbd8abaf6	-0.06773941
49	0xbd1fba98	-0.03899631
50	0x3ce9380b	0.028469106
51	0x3e1aed60	0.15129614
52	0x3d4ee9e8	0.05051604
53	0xbd989152	-0.07449593
54	0xbc3d8ff0	-0.011569962
55	0x3cdcff85	0.02697731
56	0x3d885a2b	0.06657823
57	0xbd4cd909	-0.05001167
58	0x3e162ce4	0.14665562
59	0x3daf4157	0.085573845
60	0x3d9f2a1d	0.07771704
61	0xbda8c0d7	-0.08239906
62	0xbd6c8fcc	-0.057754323
63	0xbd224c53	-0.03962357
64	0x3dec08e6	0.11525135
65	0xbd0d39f0	-0.03447908
66	0xbb34f200	-0.0027610064
67	0x3df819da	0.12114306
68	0xbdfa4114	-0.12219444
69	0x3def7ca2	0.11693694
70	0x3d04e814	0.03244789
71	0x3dd8ae66	0.10580139
72	0x3d87298e	0.06599723
73	0xbcff7640	-0.031184316
74	0xbdfe9d94	-0.124323994
75	0x3ce85140	0.028359056
76	0xbd8f5dac	-0.07000288
77	0xbd3f9ce4	-0.046780482
78	0xbd072b5c	-0.033000335
79	0xb9f08800	-0.00045877695
80	0xbdfb289c	-0.12263605
81	0xbb87bec0	-0.004142612
82	0xbddfa20c	-0.1091958
83	0x3d8b96ae	0.06815849
84	0x3dd9dd9e	0.10637973
85	0x3dafeca8	0.085900605
86	0xbbe1b760	-0.006888315
87	0x3d3479b8	0.044061393
88	0x3cdf1b18	0.027234599
89	0xbd6aa8b8	-0.05728981
90	0xbdbd481e	-0.09242271
91	0x3db9c156	0.09070079
92	0x3d92b948	0.07164246
93	0xbda68aa6	-0.08131914
94	0xbd9d2478	-0.076729715
95	0xbda37be8	-0.079826176
96	0xbd7d26a0	-0.061804414
97	0xbdf33800	-0.118759155
98	0xbdc8857a	-0.09791084
99	0xbd682be8	-0.056682497
100	0x3d874cec	0.066064686
101	0x3de622c0	0.11237097
102	0x3de776e6	0.11301975
103	0xbdd81bbc	-0.10552165
104	0xbc50c340	-0.012741864
105	0x3d9b0896	0.07569997
106	0xbd707250	-0.058702767
107	0xbd12cc6c	-0.035839483
108	0x3d74ab8c	0.059733912
109	0xbde85354	-0.113440186
110	0xbdc846c4	-0.097791225
111	0x3d26daf8	0.04073617
112	0xbd0a322c	-0.033739254
113	0xbd462f94	-0.048385218
114	0x3d8eef3e	0.069792256
115	0x3cf34fd0	0.029701144
116	0x3c462490	0.012093678
117	0x3c8174f0	0.01580283
118	0xbdb27c84	-0.08715156
119	0x3cc08dc0	0.023505092
120	0x3dad7e52	0.08471359
121	0xbd3312a8	-0.043718964
122	0x3dccbd9a	0.09997101
123	0xbcf6eee8	-0.030143216
124	0xbd4a316c	-0.04936354
125	0xbdf2dca4	-0.1185849
126	0xbdeda6c8	-0.116040766
127	0xbd64d054	-0.05586274
128	0x3dfcc6d0	0.12342608
129	0xbdc29d81	-0.09502698
130	0xbd3162dc	-0.04330717
131	0xbd7d86ac	-0.06189601
132	0xbd944bb6	-0.07241003
133	0xbc4d9ae0	-0.012549132
134	0xbd67bb54	-0.056575134
135	0xbd65a528	-0.05606571
136	0x3c549780	0.012975574
137	0x3d7080d2	0.058716603
138	0xbdc973ea	-0.09836562
139	0x3d902000	0.070373535
140	0x3d69a474	0.0570416
141	0xbdbe5bac	-0.09294829
142	0x3d5c8640	0.05383897
143	0x3df2ce91	0.11855806
144	0xbd84c72a	-0.064833
145	0xbd2d8a90	-0.04236847
146	0x3db4bd48	0.08825165
147	0xbcda5160	-0.02665013
148	0x3d961cea	0.07329734
149	0xbd15f6ce	-0.036612324
150	0xbd6c4d7a	-0.057691075
151	0x3dacdf62	0.084410444
152	0x3adc5b06	0.0016811795
153	0x3d6bd797	0.05757865
154	0x3d544fe4	0.051834002
155	0x3db00468	0.085945904
156	0xbc8ad2c9	-0.016946213
157	0x3da44e15	0.080227055
158	0xbcfe0588	-0.031008497
159	0x3dbe53b6	0.0929331
160	0xbcedc733	-0.02902565
161	0x3dc69d96	0.09698026
162	0xbccff688	-0.02538611
163	0x3d231888	0.039818317
164	0x3de6a62e	0.11262165
165	0xbdeff2af	-0.1171621
166	0x3dd8c88c	0.10585126
167	0x3de69cf2	0.11260404
168	0x3cb122bb	0.021623006
169	0x3d8c2a52	0.068440095
170	0xbd0d1fac	-0.034454033
171	0x3dc66d7c	0.09688851
172	0x3d002c25	0.0312921
173	0x3d40c57c	0.047063336
174	0xbdd31e08	-0.103084624
175	0xbde14ef5	-0.11001388
176	0xbd5039cb	-0.050836366
177	0xbc8fe0e3	-0.017563289
178	0x3cea5710	0.028605968
179	0xbe1a83de	-0.15089366
180	0x3d31fed0	0.0434559
181	0xbd2f0784	-0.042731777
182	0x3e10fc85	0.14158829
183	0x3c252690	0.010079995
184	0xbd97e6c0	-0.07417059
185	0x3df5f558	0.12009686
186	0x3ca046d5	0.019565025
187	0x3b935d60	0.004497215
188	0x3da069a8	0.07832652
189	0x3d63d63e	0.05562424
190	0x3d5c2147	0.053742673
191	0xbc69930b	-0.014256249
192	0x3e112b43	0.1417666
193	0x3dca5bbc	0.09880778
194	0xbd646875	-0.05576368
195	0xbb7060ef	-0.003667887
196	0x3d40e706	0.04709532
197	0xbd2afda0	-0.041745782
198	0x3d4e134f	0.050311383
199	0xbdca9b5a	-0.09892912
200	0xbd761ef7	-0.060088124
201	0xbdb77774	-0.08958331
202	0x3cf4a590	0.029864103
203	0x3dfa393e	0.12217949
204	0x3dfc0f44	0.12307599
205	0x3dcb6fe0	0.09933448
206	0x3cf72dd8	0.030173227
207	0xbd2faa04	-0.04288675
208	0xbd6da606	-0.05801966
209	0x3d12522c	0.035722896
210	0x3de6f832	0.11277808
211	0x3d37a494	0.04483469
212	0x3d00c281	0.031435493
213	0xbbd59f31	-0.0065192212
214	0x3c569f27	0.013099468
215	0x3d03e5b7	0.032201495
216	0xbd8effaa	-0.06982358
217	0xbc350ed3	-0.011050898
218	0x3bcf1567	0.00631969
219	0xbd8d0e2c	-0.06887469
220	0x3ca55a2f	0.020184604
221	0x3e09325b	0.13398115
222	0x3d45afa7	0.04826322
223	0xbd1e60ff	-0.03866672
224	0x3dcf6981	0.10127545
225	0x3dd6c604	0.10486987
226	0xbdc442ef	-0.09583079
227	0x3dc6f369	0.097143956
228	0xbd03ee20	-0.032209516
229	0xbd84c721	-0.06483293
230	0xbcb4feab	-0.022094091
231	0x3d910770	0.07081497
232	0x3d731ed5	0.059355576
233	0x3cfa072f	0.030521004
234	0x3d031479	0.032001946
235	0x3dbb0e35	0.09133569
236	0x3d718085	0.058960456
237	0x3dfad379	0.122473665
238	0xbdf3e835	-0.11909524
239	0x3e300749	0.17190279
240	0x3c920c3c	0.0178281
241	0xbd323292	-0.04350526
242	0xbdb92c20	-0.09041619
243	0xbcd9b487	-0.02657534
244	0xbd823108	-0.06357008
245	0xbd451d14	-0.048123434
246	0x3db56208	0.088565886
247	0xbd25f78b	-0.04051928
248	0x3d2868ec	0.041115686
249	0x3d8d9807	0.069137625
250	0xbdbf4c15	-0.09340683
251	0xbd18c3a4	-0.037295952
252	0xbd4c5066	-0.04988136
253	0x3987d62b	0.00025908774
254	0x3dd43c8b	0.1036311
255	0x3e0076ba	0.1254529

fc3.weight f4 [3, 64]
0	0x3f089f18	0.5336776
1	0xbe0daaeb	-0.13834731
2	0xbdea7b2b	-0.11449274
3	0xbda494d6	-0.08036201
4	0xbf5b71d6	-0.85720575
5	0x3d82b870	0.06382835
6	0x3c8f9eeb	0.017531833
7	0xbd229698	-0.0396944
8	0x3d92746e	0.071511135
9	0x4036a528	2.8538303
10	0xbb91de5d	-0.0044515566
11	0xbd99ad0c	-0.07503709
12	0x3caf9691	0.0214341
13	0xbe05b487	-0.13057147
14	0x3df2c377	0.11853688
15	0xbeea63e7	-0.45779344
16	0x3d8660b5	0.06561414
17	0xbdcada02	-0.09904863
18	0xbdd6d95e	-0.10490678
19	0xbe82e743	-0.25567064
20	0x3d1c0254	0.038088158
21	0x3f0ae8f9	0.5426174
22	0xbc3ca6a0	-0.011514336
23	0xbef18f41	-0.47179607
24	0x3db747e6	0.089492604
25	0xbe67b569	-0.22627796
26	0x3de30c74	0.110863596
27	0xbf14294c	-0.57875514
28	0x3d9e9815	0.07743851
29	0xbe69fb2c	-0.2284972
30	0xbedd0ee2	-0.43175417
31	0xc005c2ee	-2.0900226
32	0xbdd8a112	-0.10577597
33	0x3d6847b4	0.056709006
34	0xbdaacdf3	-0.08340063
35	0xbcf9664e	-0.03044429
36	0x3d6087b8	0.05481693
37	0x3f122b91	0.5709773
38	0xbe157772	-0.14596346
39	0x3d1fb392	0.03898961
40	0xbdfc3764	-0.123152524
41	0x3dc23418	0.09482592
42	0x3d827538	0.06370014
43	0x3cadd435	0.021219352
44	0x3f09f340	0.53886795
45	0xbcccac18	-0.024984404
46	0x3d69ae34	0.0570509
47	0xbf7fd483	-0.9993364
48	0x3dd21190	0.10257256
49	0x3e9d8122	0.30762583
50	0xbea258f7	-0.317085
51	0x3d0fd5c8	0.035115987
52	0xbd56fe09	-0.05248836
53	0xbc9dc8c8	-0.019260779
54	0xc006d3e9	-2.106684
55	0xbe23fced	-0.16014452
56	0x3ddf2c17	0.10897081
57	0xbbd02c9b	-0.0063529736
58	0x3e30de9d	0.1727242
59	0xbda005ee	-0.07813631
60	0x3d08e0ea	0.03341762
61	0xbd31356d	-0.04326384
62	0xbd541396	-0.05177649
63	0xbeb7cf90	-0.35900545
64	0x3f02b0fb	0.510513
65	0xbde12073	-0.10992517
66	0xbd097d5a	-0.03356681
67	0x3db63f3c	0.0889878
68	0xbf76012b	-0.9609553
69	0xbdaf40c0	-0.08557272
70	0xbe627597	-0.2211517
71	0x3d933e37	0.07189601
72	0x3dc2bcf0	0.09508693
73	0x402fbba6	2.7458282
74	0x3e130d26	0.14360484
75	0x3c0e3b00	0.008681059
76	0xbde27bcd	-0.110587694
77	0x3deb0b08	0.114767134
78	0x3e633f02	0.22192004
79	0xbe76f0ce	-0.24115297
80	0x3cf45118	0.029823825
81	0xbe2aaa4a	-0.16666523
82	0xbde3d243	-0.111240886
83	0xbe2803b4	-0.16407663
84	0x3e08f6af	0.13375352
85	0x3f3d8f31	0.7404662
86	0xbe68740e	-0.22700521
87	0xbe94e9a5	-0.29084507
88	0xbe45d133	-0.19318084
89	0xbdc81c7c	-0.09771058
90	0xbc8e61b8	-0.01738058
91	0xbf78815d	-0.9707239
92	0xbb29675d	-0.0025848963
93	0xbe2eb512	-0.1706126
94	0xbf064623	-0.5245077
95	0xc01a0d13	-2.407048
96	0xbd4164c6	-0.047215246
97	0x3df55067	0.11978226
98	0xbdcbd716	-0.09953134
99	0xbe064c36	-0.1311501
100	0x3d9678ca	0.073472574
101	0x3f19593d	0.5990179
102	0x3d397422	0.04527677
103	0x3d49e23a	0.049288012
104	0xbdc41e72	-0.095761195
105	0x3e383f7b	0.17992966
106	0x3c9c0f02	0.019050125
107	0x3c55452f	0.013016983
108	0x3ec99c45	0.39377037
109	0xbd6e28f0	-0.05814451
110	0xbd680198	-0.056642145
111	0xbf8c150b	-1.0943922
112	0x3d20ec3e	0.039287798
113	0x3e826ede	0.2547521
114	0xbe3a745a	-0.18208447
115	0x3df5cc25	0.12001828
116	0x3dd262ab	0.10272726
117	0x3d94ad28	0.072595894
118	0xc009bad3	-2.1520278
119	0xbe107f61	-0.14111091
120	0xbdd19620	-0.10233712
121	0xbb2e9e0b	-0.0026644494
122	0x3e1a2207	0.15052043
123	0x3de034ea	0.109475926
124	0xbda645d1	-0.08118785
125	0xbb8da8c5	-0.0043230974
126	0xbcec7d49	-0.028868334
127	0xbda73a2f	-0.081653945
128	0x3fb418bb	1.4070047
129	0xbf4bff93	-0.7968685
130	0x3e071060	0.1318984
131	0x3de53f5e	0.11193727
132	0xbff1e5da	-1.889827
133	0xbc7b5683	-0.01534045
134	0x3f502ac9	0.81315285
135	0x3d2c4741	0.04206014
136	0x3d2f038d	0.042727996
137	0x4177d135	15.488576
138	0x3c178c9f	0.009249835
139	0x3d189e52	0.03726036
140	0x3e4071ab	0.18793361
141	0xbda02808	-0.07820135
142	0x3d69d4fe	0.05708789
143	0xbf191326	-0.59794843
144	0xbdb94f0c	-0.0904828
145	0xbca4eace	-0.020131495
146	0x3d3b9084	0.045792118
147	0xbf397de5	-0.72457725
148	0x3d9c959d	0.07645724
149	0x3f93f4f5	1.155913
150	0xbf4d5dd7	-0.80221313
151	0xbeb24e95	-0.34825578
152	0xbd889f92	-0.066710606
153	0x3f2df7b1	0.6795607
154	0x3c28a268	0.010292627
155	0xbf299483	-0.66242236
156	0x3d87c288	0.06628901
157	0xbe9a7c09	-0.30172756
158	0xbf7b078d	-0.98058397
159	0xc1455ad0	-12.334671
160	0xbda9b4b2	-0.08286418
161	0xbddaccd6	-0.106836006
162	0xbdf1a7d6	-0.1179959
163	0x3ca71a3f	0.020398257
164	0x3c5baf40	0.013408482
165	0x3f01dbf3	0.5072624
166	0xbdefb862	-0.1170509
167	0x3e26704e	0.16253778
168	0x3cf2aa4a	0.029622216
169	0x3e2c6a3f	0.16837405
170	0x3dca3f7e	0.098753914
171	0xbd84ccf6	-0.06484406
172	0x3f669e55	0.90085346
173	0x3f27cfd3	0.6555149
174	0xbd55d8d4	-0.052208737
175	0xbfc89443	-1.5670246
176	0xbd6acb2f	-0.057322677
177	0x3f16e0fa	0.58937037
178	0xbea2af2f	-0.3177428
179	0x3f2d5829	0.67712647
180	0xbd304779	-0.04303691
181	0xbc85ac20	-0.016317427
182	0xc144f54e	-12.309889
183	0xbd753b25	-0.059870858
184	0x3e110651	0.14162566
185	0xbd005e01	-0.03133965
186	0x3f58a8a7	0.84632343
187	0xbc1c8929	-0.009554186
188	0x3e81fd8b	0.2538875
189	0xbdd243f5	-0.10266868
190	0xbf27a55b	-0.6548669
191	0xbeed146f	-0.46304652

fc3.bias f4 [3]
0	0x3e2eea19	0.17081489
1	0x3e1a80b9	0.15088166
2	0x3f40e4c0	0.75349045
