Models/LSTM/agentDQN-LSTM_2018-2020_lstm_v3_300_EPS_5.pth (torch, 256291 bytes, 8 tensors)

fc1.weight f4 [128, 104]
0	0xbd17ce6d	-0.037062097
1	0xbd33a1fa	-0.043855645
2	0xbd00a67e	-0.03140878
3	0xbe446beb	-0.19181792
4	0xbe4635ec	-0.19356507
5	0xbe10654b	-0.1410114
6	0xbe3d401c	-0.18481487
7	0xbdcf7cf8	-0.10131258
8	0xbe482bc3	-0.19547944
9	0xbe442497	-0.19154583
10	0xbc59adda	-0.013286078
11	0xbe4cdd4d	-0.20006295
12	0xbe20669c	-0.15664142
13	0xbda4b6f1	-0.08042706
14	0xbe4eb0ed	-0.2018468
15	0xbe11a939	-0.1422471
16	0xbe00a84e	-0.12564203
17	0xbd5827c6	-0.052772306
18	0xbdde86d0	-0.10865557
19	0xbdaf83ad	-0.08570037
20	0xbe1417d6	-0.14462218
21	0xbe11adbd	-0.14226432
22	0xbdda9521	-0.10672975
23	0xbc76a971	-0.015055046
24	0xbe45be3c	-0.1931085
25	0xbe02df93	-0.127806
26	0xbdbe3ec3	-0.092893146
27	0xbd193bb1	-0.03741044
28	0x3ded50ac	0.115876526
29	0x3dfb079a	0.12257309
30	0x3dff4f35	0.124662794
31	0x3af92210	0.0019007344
32	0x3da4c2fb	0.08045002
33	0x3d146ad5	0.036234695
34	0xbd5d52c0	-0.054033995
35	0x3c1499c4	0.009069864
36	0xbdb0a7c6	-0.0862575
37	0x3c38a442	0.011269631
38	0xbd6899de	-0.056787364
39	0xbdbe8308	-0.09302336
40	0xbdde190a	-0.108446196
41	0xbe5b631d	-0.21424527
42	0xbe488ab1	-0.19584157
43	0x3d2b4567	0.041814234
44	0xbd8a2d21	-0.06746889
45	0xbe194c9c	-0.1497063
46	0xbe858402	-0.26077276
47	0xbdda735b	-0.106665336
48	0x3e1d7283	0.15375714
49	0xbd8cbc56	-0.0687186
50	0xbcb21f12	-0.021743331
51	0xbd9c04e2	-0.07618119
52	0xbe132451	-0.14369322
53	0xbdc10903	-0.09425547
54	0x3ca075d5	0.019587437
55	0xbdf6c637	-0.12049525
56	0xbcfff459	-0.031244444
57	0xbe4ecd3c	-0.20195478
58	0xbdb358c7	-0.08757167
59	0xbe543b42	-0.2072573
60	0xbd228391	-0.039676253
61	0xbe0af753	-0.13570909
62	0xbd7c717e	-0.061631672
63	0xbe1c58f9	-0.15268315
64	0xbe5499de	-0.2076182
65	0x3e0451a7	0.12921773
66	0xbe12d442	-0.14338782
67	0xbe4cfb82	-0.20017818
68	0xbe28e5cb	-0.16493909
69	0xbd93a18b	-0.07208546
70	0xbe4334ca	-0.19063106
71	0xbe15ca80	-0.14628029
72	0xbe45f727	-0.19332562
73	0xbe5a02ce	-0.21290132
74	0xbd40f2d9	-0.047106598
75	0xbe548b3c	-0.20756239
76	0xbe18950c	-0.14900607
77	0xbe65ff50	-0.22460675
78	0xbd32e47e	-0.04367494
79	0xbe23c9ae	-0.15994903
80	0xbdbe84f4	-0.093027025
81	0xbe0a3b8f	-0.13499282
82	0xbdb05466	-0.08609848
83	0xbe681a72	-0.22666338
84	0xbdba1c22	-0.09087397
85	0xbd2acccf	-0.041699227
86	0xbe321a60	-0.17392874
87	0xbe4d3284	-0.20038801
88	0xbda27de8	-0.07934171
89	0xbd09ffbf	-0.033691164
90	0xbd645d63	-0.055753123
91	0xbe2169b9	-0.15762986
92	0xbda66fec	-0.08126816
93	0xbe57523c	-0.21027464
94	0xbe195794	-0.14974815
95	0x3d89dbec	0.067314
96	0xbdc06a8d	-0.09395323
97	0xbd656fd2	-0.056014843
98	0xbda7c5e0	-0.081920385
99	0xbe1474b6	-0.14497647
100	0x3d70313d	0.058640707
101	0xbd0539f2	-0.032525964
102	0x3d66a3eb	0.056308668
103	0xbdccf1b7	-0.10007041
104	0x3c3aaed2	0.0113942195
105	0xbc100c3b	-0.0087919785
106	0xbdc89bca	-0.097953394
107	0xbd82d4cf	-0.06388246
108	0xbdeb68d3	-0.11494603
109	0xbd9768d9	-0.07393045
110	0xbe3d5c0f	-0.18492149
111	0xbe0a59d7	-0.13510834
112	0xbde70f07	-0.11282163
113	0xbcf2e431	-0.029649826
114	0xbc65412b	-0.013992588
115	0xbdb7c8dc	-0.08973858
116	0xbe2fc3bb	-0.17164509
117	0xbe2619a0	-0.16220713
118	0xbe46677c	-0.19375414
119	0xbe342ecf	-0.17595981
120	0xbdcd69f0	-0.100299716
121	0xbe076f76	-0.13226113
122	0xbe1292f3	-0.14313869
123	0xbd457a6d	-0.048212457
124	0xbde66d49	-0.11251313
125	0xbe19f60d	-0.15035267
126	0xbdf1ac67	-0.11800461
127	0xbe2bd277	-0.16779505
128	0xbe586d0a	-0.21135345
129	0xbe463b4d	-0.19358559
130	0x3d480933	0.048836898
131	0x3dc66fe1	0.09689308
132	0x3e159596	0.14607844
133	0xbcb5ac4a	-0.02217688
134	0xbe22c7db	-0.15896551
135	0xbdd1eaff	-0.102499
136	0xbdc54729	-0.09632713
137	0xbd6d97e2	-0.058006175
138	0xbd045fda	-0.032317974
139	0x3dd3dc87	0.10344797
140	0x3da970bd	0.08273456
141	0x3d8af11d	0.0678427
142	0x3d1d2419	0.038364504
143	0x3d049721	0.03237069
144	0x3ceacb03	0.028661257
145	0x3d951789	0.072798796
146	0x3db7fde0	0.0898397
147	0xbb88bdc9	-0.004173015
148	0xbda26755	-0.07929865
149	0xbe288eb2	-0.16460684
150	0xbe7f76ef	-0.24947713
151	0xbde5514f	-0.11197149
152	0x3c091186	0.008365994
153	0xbe920e97	-0.28526756
154	0xbd8d8012	-0.06909193
155	0x3d3f6c45	0.046734113
156	0xbdcbdaac	-0.09953818
157	0x3e6a5cae	0.22886917
158	0xbdcfb933	-0.10142746
159	0xbe0571aa	-0.1303164
160	0xbe2d0364	-0.16895825
161	0xbcacbdcb	-0.021086594
162	0xbc989d55	-0.01862971
163	0xbe8892e2	-0.26674563
164	0xbe861229	-0.2618573
165	0xbded3fbf	-0.11584424
166	0xbde191f9	-0.1101417
167	0xbdeb05e1	-0.11475731
168	0x3d3a3632	0.04546184
169	0x3e18653f	0.14882372
170	0xbdacf907	-0.08445936
171	0xbdc28d36	-0.0949959
172	0xbc51e968	-0.012811996
173	0xbe01086f	-0.12600873
174	0xbdf2bc49	-0.11852319
175	0xbe4131f3	-0.1886671
176	0xbe13f6f1	-0.1444967
177	0xbd934531	-0.071909316
178	0xbdd6fd7f	-0.10497569
179	0xbd894c09	-0.06703956
180	0xbd27ff49	-0.041014943
181	0xbe3685cb	-0.17824475
182	0xbd687a74	-0.056757405
183	0xbe3c8ab1	-0.18412282
184	0xbe37e99e	-0.17960212
185	0xbe3267d0	-0.17422414
186	0xbd1825a7	-0.037145283
187	0xbd03502c	-0.03205888
188	0xbd4ffffe	-0.050781243
189	0xbb9f2407	-0.0048565897
190	0xbd89062c	-0.0669063
191	0xbda449b4	-0.0802187
192	0xbc63a1f6	-0.013893595
193	0xbe3218f5	-0.17392333
194	0xbe464abf	-0.19364451
195	0xbe0f70f1	-0.14007927
196	0xbe021b2f	-0.12705682
197	0xbe1bc353	-0.15211229
198	0xbd50ea70	-0.051004827
199	0x3cfde285	0.030991802
200	0x3a62a53a	0.00086458365
201	0xbdbb1d27	-0.0913642
202	0xbdb29e80	-0.08721638
203	0xbc86178f	-0.016368655
204	0xbd1af2eb	-0.03782932
205	0xbe1c31de	-0.15253398
206	0xbe2dce2b	-0.16973178
207	0xbdc1c1d7	-0.094608
208	0xbd4cff5b	-0.050048213
209	0xbe14dea7	-0.1453806
210	0x3d4edac8	0.050501615
211	0x3b3e77d5	0.0029063125
212	0x3c5da994	0.0135292
213	0x3d48058b	0.04883341
214	0x3c557643	0.013028684
215	0xbb4a85e3	-0.0030902557
216	0x3dc12f04	0.09432796
217	0xbd96d0a2	-0.07364012
218	0xbd2ef29d	-0.042711843
219	0x3dac32be	0.08408116
220	0x3d8e5ab6	0.069508955
221	0x3cc8fb22	0.024533812
222	0x3d1d8064	0.03845252
223	0xbbf76d6a	-0.007550885
224	0x3e0455ea	0.12923399
225	0x3deb1e21	0.11480356
226	0xbd8feab1	-0.07027186
227	0x3db143af	0.08655488
228	0x3d8041b2	0.062625304
229	0xbd0884cf	-0.03332978
230	0x3c8bf7bb	0.0170859
231	0xbe60be1a	-0.21947518
232	0x3dad6379	0.084662385
233	0xbd172655	-0.03690179
234	0xbd2b0923	-0.04175676
235	0xbd9fa382	-0.077948585
236	0xbbc13d09	-0.0058971685
237	0x3e277f21	0.1635709
238	0xbc4eed29	-0.012629786
239	0xbdef6bbc	-0.116904706
240	0x3e54a78e	0.20767042
241	0x3d9c9033	0.07644691
242	0x3ddc3d01	0.10753823
243	0xbe78af5d	-0.24285646
244	0xbe0a013e	-0.13477036
245	0x3e101847	0.14071761
246	0x3dbdbd8c	0.09264669
247	0xbe2231f8	-0.15839374
248	0x3cb1539d	0.021646315
249	0xbda0613c	-0.07831046
250	0x3e00c473	0.1257494
251	0xbd807e7b	-0.06274124
252	0x3bb3006b	0.0054626963
253	0x3d895a8d	0.06706724
254	0x3cb41344	0.021981843
255	0xbb3feba2	-0.0029284735

fc1.bias f4 [128]
0	0xbd594051	-0.053039853
1	0xbe0b518d	-0.13605328
2	0x3d54af8b	0.051925223
3	0x3e65f086	0.22455034
4	0x3c82839d	0.015931899
5	0xbdb68c9f	-0.0891354
6	0x3d192675	0.03739019
7	0xbdd55b76	-0.104178354
8	0xbe0975e7	-0.13423882
9	0xbc8e01c9	-0.017334836
10	0xbcfa3a03	-0.03054524
11	0xbd559092	-0.052139826
12	0xbc2fc7dc	-0.0107288025
13	0xbd0ae336	-0.03390809
14	0x3db1dd67	0.08684807
15	0xbe45a975	-0.19302924
16	0xbe28c502	-0.16481403
17	0x3e5e219a	0.21692505
18	0xbbaffa73	-0.005370432
19	0xbe04f159	-0.12982692
20	0xbdba4cca	-0.090966776
21	0x3e1e9cb9	0.15489472
22	0x3e1583c8	0.14601052
23	0xbdccfbe7	-0.10008984
24	0xbd972582	-0.07380201
25	0xbd40a36a	-0.047030844
26	0xbcd039dc	-0.025418214
27	0x3e8fc771	0.2808185
28	0xbe0fd475	-0.1404589
29	0xbc774e82	-0.015094401
30	0x3e757c90	0.23973298
31	0xbd88ad39	-0.066736646
32	0x3eb892e9	0.36049584
33	0x3d10ce73	0.035353135
34	0xbdb30947	-0.08742004
35	0xbe267ffb	-0.16259758
36	0xbd7a5e95	-0.061125357
37	0x3bd3821d	0.0064547197
38	0x3e65e8f2	0.22452143
39	0x3eb23daf	0.34812686
40	0xbe00f8d7	-0.12594925
41	0xbd4bec12	-0.04978568
42	0x3be37ef0	0.0069426224
43	0xbdd07ff6	-0.101806566
44	0xbcc61d2c	-0.024183832
45	0xbccb9acc	-0.024854086
46	0xbdf15d5a	-0.117853835
47	0xbd35c0b8	-0.044373244
48	0x3caf16c9	0.02137317
49	0x3c8f78b1	0.017513605
50	0xbc910409	-0.01770212
51	0xbdc5fcea	-0.0966738
52	0xbe267c81	-0.16258432
53	0x3c320769	0.0108660245
54	0x3bd932a4	0.0066283513
55	0x3e67006f	0.22558759
56	0x3e8ecccb	0.2789062
57	0xbd54e67f	-0.05197763
58	0xbe325c06	-0.17417917
59	0xbc48908a	-0.012241492
60	0x3e4028be	0.18765542
61	0xbe0b989a	-0.13632432
62	0x3e61940d	0.22029133
63	0xbd882134	-0.06646958
64	0x3e5e53e7	0.21711694
65	0xbdd2d320	-0.10294175
66	0xbe4a2f64	-0.1974464
67	0xbd55d60e	-0.05220609
68	0xbd6bc8f5	-0.057564694
69	0x3ebc8c33	0.36825714
70	0xbd455110	-0.04817301
71	0x3e4ed43a	0.20198146
72	0xbdfa4c5e	-0.12221597
73	0xbbc642f3	-0.0060504614
74	0x3ebb65c3	0.36601076
75	0xbe681bdd	-0.22666879
76	0x3e3fe3ce	0.18739244
77	0x3cdb990d	0.026806379
78	0xbd9e0d44	-0.07717374
79	0x3e4a696a	0.19766775
80	0xbdeada3e	-0.11467408
81	0x3e972688	0.29521585
82	0xbe46142e	-0.19343635
83	0xbe10672c	-0.14101857
84	0x3cfcf159	0.030876802
85	0x3a027c52	0.00049776316
86	0x3db9bdcf	0.09069406
87	0x3e5751e6	0.21027336
88	0xbdf85f12	-0.12127508
89	0x3c340a25	0.010988747
90	0x3e0fcd3b	0.14043133
91	0xbdf36997	-0.11885374
92	0x3df3ddf1	0.11907566
93	0x3e1200a1	0.14258052
94	0xbd4ea084	-0.05044605
95	0xbe51fc12	-0.20506313
96	0xbc2d5d6f	-0.010581358
97	0xbdf0f149	-0.117647715
98	0x3d97acec	0.07406029
99	0x3d28a0a3	0.04116882
100	0xbdffc1c5	-0.124881305
101	0xbd865d3a	-0.0656075
102	0x3ce3ea02	0.027821545
103	0xbdedcd03	-0.116113685
104	0xbd2e5b0b	-0.042567294
105	0xbdf5e781	-0.120070465
106	0x3d8bd97e	0.06828593
107	0xbd373018	-0.0447236
108	0xbcb0a9a6	-0.02156527
109	0x3c8de6f4	0.017322041
110	0x3db7b20b	0.08969506
111	0xbe288590	-0.164572
112	0xbd745d07	-0.05965903
113	0xbda57be8	-0.08080274
114	0xbe086f8c	-0.13323802
115	0x3e54c0a6	0.20776615
116	0x3bf8c9c9	0.007592414
117	0x3e10f52a	0.14156023
118	0xbe5372a2	-0.20649198
119	0xbd4056cf	-0.046957787
120	0xbe2d97a9	-0.16952385
121	0xbe152bd4	-0.145675
122	0xbd93fbb5	-0.07225744
123	0xbe48b32f	-0.19599603
124	0xbd544b6a	-0.051829733
125	0xbe5ab860	-0.21359396
126	0xbdefc3c4	-0.11707261
127	0xbe1b5ac0	-0.15171337

fc2.weight_ih_l0 f4 [256, 128]
0	0x3b29905f	0.0025873405
1	0x3d528df1	0.051404897
2	0xbd3b61b1	-0.045747463
3	0xbda5c2fc	-0.08093831
4	0xbde1e65a	-0.11030264
5	0x3bd3423c	0.0064471047
6	0x3c214c81	0.0098449
7	0xbd8880e7	-0.06665211
8	0xbbee97a0	-0.0072812587
9	0x3d98b243	0.07455876
10	0x3d653edd	0.055968154
11	0x3c83820a	0.016053218
12	0xbdfa621f	-0.12225746
13	0x3d06510c	0.032792136
14	0xbce398a9	-0.027782755
15	0x3d380d1e	0.044934385
16	0xbce5e3de	-0.028062757
17	0xbdc83f77	-0.0977773
18	0xbce6bfc6	-0.028167617
19	0xbda7b717	-0.081892185
20	0xbdbd49e8	-0.09242612
21	0xbce7ee2e	-0.028311815
22	0xbe094b80	-0.13407707
23	0x3d964fa6	0.073394105
24	0x3cbe1e49	0.0232078
25	0x3cf4ff98	0.029907033
26	0x3d8a54b9	0.06754441
27	0x39bec677	0.00036387492
28	0x3bbacba0	0.0057005435
29	0x3db632c6	0.08896403
30	0x3cb9831a	0.022645522
31	0xbdad7c13	-0.08470931
32	0xbe17fddb	-0.14842932
33	0x3cfe3920	0.031033099
34	0xbd4ad64a	-0.04952077
35	0x3dfa1e2a	0.122127846
36	0xbd9e2233	-0.07721367
37	0xbda36db7	-0.07979911
38	0xbd337404	-0.043811813
39	0x3ca426a8	0.020037964
40	0x3cf53374	0.029931761
41	0xbdd7adfc	-0.10531232
42	0xbd9aa9ee	-0.07551943
43	0x3d712224	0.05887045
44	0xbdbb6bb6	-0.091514036
45	0xbceaccae	-0.028662052
46	0xbd76f7e4	-0.060295
47	0xbda1f44a	-0.079079226
48	0x3d987c76	0.07445614
49	0xbddbd4ff	-0.10733985
50	0x3dc312ab	0.09525045
51	0xbc1a1440	-0.009404242
52	0xbdea5c80	-0.11443424
53	0x3cd295b8	0.025706157
54	0xbdde27a4	-0.108474046
55	0xbd35bb09	-0.044367824
56	0xbdca124e	-0.098667726
57	0xbd421bd3	-0.047389816
58	0xbe23285b	-0.15933363
59	0xbde2a394	-0.11066356
60	0xbd50989d	-0.050926793
61	0xbcc7fef0	-0.024413556
62	0xbd037edf	-0.032103416
63	0x3ded74ac	0.11594519
64	0x3cd04660	0.025424182
65	0x3dc0e730	0.094190955
66	0xbd3f2195	-0.046662886
67	0xbd828e20	-0.063747644
68	0xbdfa0364	-0.12207678
69	0xbcc2f61e	-0.023798998
70	0xbda37c8b	-0.07982739
71	0xbdfb69b3	-0.1227602
72	0xbdb17829	-0.08665497
73	0xbcf1dd53	-0.02952448
74	0xbb230967	-0.002487743
75	0x3dde0e22	0.10842539
76	0xbe07cae1	-0.13260986
77	0x3c042880	0.008066297
78	0x3dd34a0a	0.10316856
79	0xbdcdc8f4	-0.100480944
80	0xbd764c73	-0.0601315
81	0xbcfa82da	-0.030579973
82	0x3d3fcb77	0.0468249
83	0xbd1c0c2e	-0.038097553
84	0xbd1880d0	-0.03723222
85	0x3da1904e	0.07888852
86	0xbe0b601e	-0.13610885
87	0x3bfab1cd	0.00765059
88	0xbdb5315d	-0.08847306
89	0xbd9638ac	-0.07335028
90	0xbd9c4ba8	-0.07631618
91	0x3dddadea	0.10824187
92	0xbcc20337	-0.023683174
93	0xbd8c5af8	-0.068532884
94	0xbe1c4efa	-0.15264502
95	0x3c630e33	0.013858366
96	0xbda536c4	-0.08067086
97	0xbdcbc43e	-0.099495396
98	0xbd512410	-0.051059783
99	0x3bac6734	0.005261326
100	0xbbc4101a	-0.005983365
101	0x3d6d9946	0.0580075
102	0x3d6381f0	0.05554384
103	0xbdfa8b4c	-0.122336
104	0xbd4e75c0	-0.050405264
105	0x3dd110ee	0.10208307
106	0x3dcf168a	0.10111721
107	0xbd619ab2	-0.05507917
108	0xbd770305	-0.060305614
109	0xbd88114d	-0.06643925
110	0xbe02746e	-0.12739727
111	0xbcef6d7e	-0.029227015
112	0x3b423c00	0.0029637814
113	0x3c29cb8d	0.010363472
114	0xbdeba92c	-0.11506876
115	0xbc09e6da	-0.008416856
116	0x3d807fce	0.06274377
117	0xbe05544b	-0.13020436
118	0xbcebbe73	-0.028777337
119	0x3bd65ce4	0.006541835
120	0x3bd3a6f2	0.0064591104
121	0x3da7159e	0.0815842
122	0xbddd8f73	-0.108183764
123	0xbe0d70a4	-0.138125
124	0x3c8bea30	0.017079443
125	0xbe1bfcc8	-0.15233147
126	0xbdcad8fc	-0.09904668
127	0xbde89508	-0.113565505
128	0xbd33e5f0	-0.043920457
129	0xbdb3f62e	-0.087871894
130	0xbb8c0078	-0.004272517
131	0xbb9c9d94	-0.004779527
132	0xbd7070ad	-0.058701206
133	0xbdb42118	-0.08795375
134	0xbdad7ca9	-0.08471043
135	0x3d87a740	0.06623697
136	0xbda3f971	-0.080065615
137	0xbe0b9d55	-0.13634236
138	0x3d38adb2	0.045087524
139	0xbddf2679	-0.1089601
140	0xbd6c88bc	-0.057747588
141	0x3dcd2bdd	0.10018132
142	0xbcae848b	-0.021303436
143	0xbcb8a9c7	-0.022541894
144	0x3c1aa9b3	0.0094398735
145	0xbd6c82c9	-0.057741914
146	0xbcd5b45a	-0.026086975
147	0xbbf6f063	-0.0075359805
148	0xbaed7d0b	-0.0018118931
149	0xbe0f359f	-0.13985299
150	0xbb21f7df	-0.0024714393
151	0x3db54633	0.0885128
152	0xbd2c45a9	-0.04205862
153	0xba2c5900	-0.00065745413
154	0x3cfefcbd	0.031126374
155	0x3d58e758	0.052955
156	0x3cf1a537	0.029497726
157	0xbd836a34	-0.06416741
158	0x3da648cb	0.08119353
159	0x3db2b947	0.08726745
160	0xbe27cd25	-0.1638685
161	0x3c868223	0.016419476
162	0xbbb8f179	-0.00564402
163	0x3d9e81e3	0.07739618
164	0xbdbc9add	-0.09209225
165	0xbd406257	-0.046968784
166	0x3d8ae17c	0.06781289
167	0x3db721d9	0.08942003
168	0x3d809580	0.06278515
169	0x3d69674a	0.05698327
170	0x3ae3003c	0.0017318795
171	0xbdc9948d	-0.09842787
172	0x3dbe2780	0.09284878
173	0xbd8a2277	-0.06744855
174	0x3cace91a	0.021107245
175	0xbdcee34c	-0.10101947
176	0xbc4426e1	-0.01197216
177	0xbd49fe37	-0.049314704
178	0xbe0b722a	-0.13617769
179	0x3ddb92e1	0.10721374
180	0x3d5899ca	0.05288104
181	0x3db63409	0.08896644
182	0x3d877ce7	0.0661562
183	0xbe13be7f	-0.14428137
184	0xb9275bb7	-0.00015960528
185	0x3d6b21ef	0.05740541
186	0xbdf04689	-0.117322035
187	0x3d84a5f1	0.06476963
188	0xbd21cd35	-0.03950234
189	0x3d0b86c8	0.034064084
190	0xbe1cad1f	-0.15300415
191	0x3de44eed	0.111478664
192	0xbd8302eb	-0.06397041
193	0x3db1476d	0.086562015
194	0xbddf5bce	-0.10906182
195	0x3ba018bf	0.0048857625
196	0x3bcf0514	0.006317744
197	0xbe0c302f	-0.13690256
198	0x3d28ccfc	0.041211113
199	0x3d4a012e	0.04931753
200	0x3d8d5d69	0.06902582
201	0xbcff9bec	-0.031202279
202	0xbdc84e73	-0.09780588
203	0x3c7a3919	0.015272402
204	0x3d7dd827	0.061973717
205	0x3d925134	0.071443945
206	0xbd057191	-0.03257901
207	0xbcdb16c0	-0.026744246
208	0x3d6179c3	0.05504776
209	0xbdca5280	-0.09879017
210	0x3d5d3b17	0.05401143
211	0xbd98e116	-0.07464807
212	0x3da0e953	0.07857003
213	0x3de06167	0.10956078
214	0xbc895650	-0.01676479
215	0x3d9ceaa8	0.07661945
216	0x3c04cb92	0.008105176
217	0x3d9bc499	0.076058574
218	0xbdfe6e2f	-0.124233596
219	0x3d3cd6a3	0.04610313
220	0xbdf4a5e3	-0.11945703
221	0xbe0eca84	-0.13944441
222	0x3c76fe1d	0.015075234
223	0x3b2d8ba7	0.0026480944
224	0xbe1365fa	-0.1439437
225	0xbd1122e1	-0.035433654
226	0xbd8bef8c	-0.06832799
227	0xbcd32884	-0.025776155
228	0x3d80cccb	0.06289061
229	0xbdd7b053	-0.10531678
230	0x3d6489c7	0.055795457
231	0xbd6e5a0c	-0.058191344
232	0x3d12cf7a	0.035842396
233	0xbb310444	-0.00270106
234	0xbd71278c	-0.058875605
235	0xbd79d1e5	-0.060991187
236	0x3da10e31	0.07864035
237	0xbc9681bd	-0.01837241
238	0xbd9e8d46	-0.077417895
239	0x3d933564	0.07187918
240	0x3dda9318	0.10672587
241	0xbda22e88	-0.079190314
242	0xbdf4768a	-0.11936672
243	0xbe08b551	-0.13350417
244	0x3dab93bb	0.08377787
245	0x3da3c85b	0.07997199
246	0x3d1f60d9	0.03891072
247	0xbdda0314	-0.10645118
248	0x3daf9b99	0.085746
249	0xbd8feb61	-0.07027317
250	0x3d93f735	0.072248854
251	0xbd07978a	-0.033103503
252	0x3c46e1cd	0.012138796
253	0xbded936e	-0.116003856
254	0x3dcd7e82	0.10033895
255	0x3d482d94	0.04887159

fc2.weight_hh_l0 f4 [256, 64]
0	0xbddb5c40	-0.10710955
1	0x3dc0393a	0.09385915
2	0x3bba09a0	0.005677417
3	0x3d9e4cf6	0.07729523
4	0xbd7f7e70	-0.06237644
5	0xbd661074	-0.056168035
6	0xbdee691a	-0.1164114
7	0xbd71a4d8	-0.058995098
8	0xbdfd581e	-0.12370323
9	0xbdfa2b1c	-0.12215254
10	0x3c49fdf0	0.01232861
11	0x3cafd3e0	0.021463335
12	0x3ca308c0	0.019901633
13	0xbdebae66	-0.11507873
14	0x3d60e0ec	0.054902002
15	0xbdc03a0e	-0.09386073
16	0x3d257c38	0.040401667
17	0xba704600	-0.0009165704
18	0xbd0ed95c	-0.03487526
19	0x3ca7f130	0.02050075
20	0x3dd4a296	0.10382573
21	0x3dd89fd4	0.1057736
22	0x3bb6b820	0.0055761486
23	0x3de2a462	0.1106651
24	0x3d068874	0.032844976
25	0xbd515e54	-0.05111535
26	0xbba39960	-0.004992649
27	0xbdc96418	-0.098335445
28	0x3de834a0	0.113381624
29	0x3d532a10	0.051553786
30	0x3d9c0b7a	0.076193765
31	0x3da7d4ac	0.08194861
32	0xbc895f50	-0.016769081
33	0x3c7ba960	0.015360206
34	0x3dd48ed8	0.10378808
35	0xbd7d02cc	-0.061770245
36	0xbcd20430	-0.025636762
37	0xbdbe66c8	-0.09296948
38	0xbd8dcb42	-0.06923534
39	0xbdb12886	-0.08650307
40	0xba429100	-0.00074221194
41	0xbdb50cbe	-0.08840321
42	0xbdaf336e	-0.08554731
43	0x3d3a200c	0.04544072
44	0xbd9e1a2c	-0.07719836
45	0x3a3a0a00	0.0007096827
46	0xbd002d20	-0.031293035
47	0xbda971d8	-0.08273667
48	0x3d7d6e00	0.061872482
49	0xbd991cb2	-0.07476176
50	0x3dfc518e	0.12320243
51	0x3dac7bf8	0.08422083
52	0x3ca6b9b8	0.02035223
53	0x3d34d7c0	0.044151068
54	0xbc901fb8	-0.01759325
55	0x3dd7cc80	0.10537052
56	0xbd05fc38	-0.032711238
57	0xbd8bd456	-0.06827609
58	0xbdb3a4fc	-0.08771703
59	0x3cf90b48	0.030400887
60	0x3d9b76ee	0.075910434
61	0x3df7882a	0.12086518
62	0xbca0e7a0	-0.019641697
63	0xbd08e464	-0.033420935
64	0xbdf0656e	-0.11738096
65	0x3dbb32b0	0.09140527
66	0x3de93e82	0.113888755
67	0xbd2edc44	-0.04269053
68	0xbd8fa05a	-0.070130065
69	0xbb2d3ac0	-0.0026432723
70	0xbddd0e8e	-0.10793792
71	0xbbf05fe0	-0.007335648
72	0xbdb3957c	-0.08768746
73	0x3a663500	0.00087817013
74	0x3d203fec	0.03912346
75	0x3d3e74c8	0.04649809
76	0xbae2bc80	-0.0017298609
77	0x3c772980	0.015085578
78	0x3d5c688c	0.05381064
79	0xbd81968a	-0.06327541
80	0xbd36dca0	-0.044644
81	0x3dfe40b4	0.12414685
82	0x3dcc4a3c	0.099750966
83	0x3ddf13fe	0.10892485
84	0xbdda8e16	-0.10671632
85	0x3d8c2d48	0.06844574
86	0x3dc6f074	0.097138315
87	0xbdebcd6a	-0.11513789
88	0xbdfd7964	-0.12376669
89	0x3ce8fc98	0.028440759
90	0x3ba8a3c0	0.0051464736
91	0xbd408fb0	-0.04701203
92	0xbd87f75c	-0.06638977
93	0xbdb06c06	-0.08614354
94	0xbb0f2580	-0.002184242
95	0x3df52992	0.119708195
96	0xbd080db8	-0.03321621
97	0x3dd6eb1c	0.10494062
98	0x3daa5384	0.083167106
99	0xbc18d210	-0.009327427
100	0xbdd30f94	-0.10305706
101	0x3bc8d9e0	0.0061294883
102	0xbdb0bc22	-0.086296335
103	0x3c2fd940	0.010732949
104	0x3dd4a760	0.10383487
105	0x3d5051cc	0.050859258
106	0x3b792240	0.00380148
107	0xbd0ecd08	-0.0348635
108	0x3c563c60	0.013075918
109	0xbd5c65b4	-0.05380793
110	0xbd3f3e3c	-0.04669021
111	0xbc14dcd0	-0.009085849
112	0xbd352478	-0.044224232
113	0xbddffd0e	-0.10936938
114	0x3deba576	0.115061685
115	0x3d2a3490	0.041554034
116	0xbdc6d164	-0.09707907
117	0x3d3663c0	0.044528723
118	0xbd610128	-0.054932743
119	0x3d91dbc8	0.07121998
120	0x3d91bdda	0.071162894
121	0xbdd2e12a	-0.10296853
122	0xbcf545e0	-0.029940546
123	0xbd32ad9c	-0.043622598
124	0xbd989bac	-0.07451567
125	0xbc36d8a0	-0.011160046
126	0x3d10cc48	0.035351068
127	0xbcbfcda0	-0.02341348
128	0x3d711720	0.058859944
129	0xbde1904e	-0.11013852
130	0x3d7f0730	0.062262714
131	0xbd7f6898	-0.062355608
132	0x3d7578fc	0.059929833
133	0x3db6b986	0.089221045
134	0x3d91de96	0.07122533
135	0x3d173974	0.036920026
136	0xbd92b574	-0.07163516
137	0xbdb426ca	-0.08796461
138	0xbdcbe96e	-0.099566326
139	0x3ddfad8c	0.10921773
140	0xbdc66e3e	-0.09688996
141	0xbd6ed0ec	-0.058304712
142	0xbd9f0872	-0.07765283
143	0xbcd59e40	-0.026076436
144	0x3dbd9fa0	0.09258962
145	0x3dba57c8	0.09098774
146	0x3dc81278	0.09769148
147	0x3d341dfc	0.043973908
148	0x3dc7e290	0.0976001
149	0xbdb11f42	-0.0864854
150	0x3d41e3b4	0.047336295
151	0x3cf170f8	0.029472813
152	0xbde6b790	-0.112654805
153	0xbdd4c4fe	-0.10389136
154	0x3dbd443e	0.09241532
155	0xbdf0e608	-0.11762625
156	0x3d820332	0.06348266
157	0xbc8aae70	-0.016928881
158	0x3db6c19e	0.08923648
159	0xbc0b4550	-0.008500412
160	0xbdaca590	-0.08430016
161	0xbdd68b1c	-0.10475752
162	0x3d324ba0	0.043529153
163	0x3dd57418	0.10422534
164	0x3dcda716	0.10041635
165	0x3bc91e20	0.0061376244
166	0x3df23a80	0.11827564
167	0x3cbbea40	0.022938848
168	0xbd7d9900	-0.06191349
169	0xbcc58e60	-0.024115741
170	0x3d41e55c	0.047337875
171	0xbce60400	-0.02807808
172	0xbd85b6e6	-0.06529026
173	0x3dce222e	0.10065113
174	0xbc302f30	-0.010753438
175	0xbd5fc938	-0.054635257
176	0x3bd9dcc0	0.00664863
177	0x3ce10788	0.027469411
178	0x3deb501e	0.114898905
179	0x3cfdaba8	0.030965641
180	0xb9d2e200	-0.00040222704
181	0x3d23400c	0.039856
182	0x3c1ebb40	0.009688199
183	0x3c3520a0	0.011055142
184	0xbce2ca98	-0.027684495
185	0xbc1d2890	-0.00959219
186	0x3d8e969c	0.0696232
187	0xbdfa4738	-0.12220615
188	0x3de64b52	0.11244835
189	0x3da3350e	0.07969104
190	0x3d45f52c	0.048329517
191	0xbd74b3d0	-0.059741795
192	0x3c3b12a0	0.011418015
193	0x3d5a092c	0.053231403
194	0x3dc47014	0.0959169
195	0xbbd66180	-0.0065423846
196	0xbd45b6dc	-0.04827009
197	0xbc07f4c0	-0.008298099
198	0xbda8be38	-0.08239406
199	0xbdf9983c	-0.121872395
200	0x3c9a5a38	0.018841848
201	0x3df187de	0.11793493
202	0x3ae5eb80	0.0017541498
203	0xbdb0e0cc	-0.086366266
204	0xbd03e5cc	-0.032201573
205	0x3dbe89f0	0.09303653
206	0xbd3bdaa0	-0.045862794
207	0x3d50bf58	0.05096373
208	0x3d615e64	0.05502166
209	0x3dfcbfae	0.123412475
210	0xbdd45080	-0.10366917
211	0xbdec16d6	-0.11527793
212	0x3cd5e860	0.026111782
213	0xbae2fb80	-0.0017317384
214	0xbda18d78	-0.07888311
215	0xbd6ed5ac	-0.058309242
216	0x3ccf0e28	0.025275305
217	0xbdaa4b3c	-0.08315131
218	0x3dd41c78	0.103569925
219	0xbd5239e0	-0.051324725
220	0xbd5819dc	-0.052759036
221	0xbd802e56	-0.06258838
222	0x3de4e7c2	0.11177017
223	0xbdaf9afe	-0.08574484
224	0x3cacbe98	0.021086976
225	0x3d7a5f10	0.061125815
226	0xbdf44950	-0.11928046
227	0xbd1b777c	-0.037955746
228	0x3dbb8844	0.0915685
229	0x3df22728	0.11823875
230	0xbdd1145e	-0.10208963
231	0x3d847352	0.06467308
232	0xbd8a3132	-0.067476645
233	0xbd2353b4	-0.039874747
234	0xbdfc05d4	-0.12305799
235	0xbde0a82a	-0.10969575
236	0x3dd0871a	0.101820186
237	0xbdc30d34	-0.09524003
238	0xbcab06d0	-0.020877272
239	0x3d025a14	0.031824186
240	0x3c07d5d0	0.008290723
241	0x3d1e4e68	0.038648993
242	0xbc822598	-0.015887067
243	0x3d93d884	0.072190315
244	0xbd15e598	-0.03659591
245	0xbbe69b40	-0.00703755
246	0x3dc1f854	0.09471193
247	0x3c3b2fa0	0.011424929
248	0xbc8ae338	-0.01695405
249	0xbdc175a2	-0.09446265
250	0xbd711e40	-0.05886674
251	0x3d2c8640	0.04212022
252	0xbdde1af4	-0.10844985
253	0xb8677000	-5.5179e-05
254	0xbb933480	-0.0044923425
255	0x3c826d90	0.015921384

fc2.bias_ih_l0 f4 [256]
0	0x3d71b2a6	0.059008263
1	0x3d722603	0.059118282
2	0x3d8ba3f5	0.06818382
3	0x3d8b6aba	0.06807466
4	0xbc2d4400	-0.0105752945
5	0xbd29b9ee	-0.041437082
6	0xbda5b689	-0.080914564
7	0x3dac5f19	0.08416576
8	0x3d9fef27	0.078092866
9	0x3cfbd7b0	0.030742496
10	0x3dba4a9d	0.090962626
11	0x3dd67433	0.10471382
12	0xbde2348b	-0.11045178
13	0xbd6fd9ec	-0.058557436
14	0x3d5fc10d	0.054627467
15	0xbd334fd2	-0.043777294
16	0x3cc421b1	0.023941847
17	0xbc793d70	-0.015212402
18	0xbc98856d	-0.01861831
19	0x3cc764d1	0.024340065
20	0xbdf992b4	-0.121861845
21	0xbd8cde5e	-0.06878351
22	0x3de688d4	0.11256567
23	0x3e136df8	0.14397418
24	0xbd5ca36a	-0.05386678
25	0x3d9a9861	0.07548595
26	0x3c2291ac	0.009922426
27	0xbd820568	-0.063486874
28	0xbd997965	-0.07493857
29	0x3d17d2ef	0.037066396
30	0xbcba53be	-0.02274501
31	0x3e046b4d	0.12931557
32	0x3e2fd481	0.17170908
33	0x3d75e5c8	0.06003359
34	0x3b814eb3	0.0039461493
35	0x3dbb134c	0.0913454
36	0xbdbe5846	-0.092941806
37	0xbdee5f72	-0.116392985
38	0x3d1c95da	0.038228847
39	0xbdf155b8	-0.11783928
40	0x3e12d3b3	0.1433857
41	0x3df1248e	0.117745504
42	0xbe088721	-0.13332798
43	0x3d9194e5	0.071084775
44	0xbd89adbc	-0.0672259
45	0x3da02ccd	0.07821045
46	0xbc0a9bf0	-0.00846003
47	0x3de47b84	0.11156371
48	0xbccf295f	-0.025288282
49	0x3da2bcca	0.07946165
50	0xbca6664a	-0.020312447
51	0x3d8266e2	0.063672796
52	0x37e8c3c3	2.7747714e-05
53	0xbd8e8937	-0.069597654
54	0x3d586750	0.0528329
55	0x3943d800	0.00018677115
56	0x3caa5aeb	0.020795306
57	0x3d805700	0.06266594
58	0xbdfeaf41	-0.12435771
59	0x3dfa1527	0.12211066
60	0x3cc0e08d	0.023544574
61	0xbdb6c25e	-0.08923791
62	0xbdbd6fd8	-0.09249848
63	0x3d0042af	0.031313594
64	0x3dcc6b04	0.09981349
65	0x3d7e6978	0.0621123
66	0xbde831dc	-0.11337635
67	0x3dadbdb6	0.0848345
68	0x3dd968e0	0.106157064
69	0xbd40c280	-0.04706049
70	0xbde650fe	-0.11245917
71	0x3def5c48	0.11687523
72	0x3de7e756	0.11323421
73	0xbc747940	-0.014921486
74	0xbdb5fd34	-0.08886185
75	0xbd047510	-0.032338202
76	0xbd59a690	-0.053137362
77	0x3daf3258	0.08554524
78	0x3defa93e	0.11702202
79	0xbdf79942	-0.120897785
80	0x3d04b8e4	0.032402888
81	0xbdcb759c	-0.099345416
82	0x3c99f378	0.018792853
83	0xbb892840	-0.0041857064
84	0xbd12987c	-0.03578995
85	0x3dcd3770	0.100203395
86	0xbbad6a60	-0.005292222
87	0x3d277f9c	0.040893182
88	0x3ca62eb8	0.02028595
89	0xbb845b00	-0.0040391684
90	0x3cd39fb8	0.025832996
91	0xbdf76078	-0.12078947
92	0xbd19ca44	-0.03754641
93	0xbd327368	-0.04356709
94	0xbd370c04	-0.044689193
95	0x3d0df790	0.034659922
96	0xbd72b274	-0.059252217
97	0xbd908cc8	-0.07058102
98	0x3bcbfa40	0.0062249005
99	0x3d6837a0	0.056693673
100	0x3d308eb8	0.043104857
101	0xbd9b6c0a	-0.07588966
102	0xbdb0334e	-0.086035356
103	0xbd9c04da	-0.07618113
104	0x3c996438	0.018724546
105	0x3d248bd0	0.040172398
106	0x3ddf50f0	0.109041095
107	0x3d4bc740	0.049750566
108	0x3da7ec4c	0.08199367
109	0x3d81896a	0.06325038
110	0x3c1876f0	0.009305701
111	0xbd799df4	-0.06094165
112	0xbdb851b8	-0.089999616
113	0x3dfeb98c	0.12437734
114	0xbd8d50e8	-0.06900197
115	0xbc3256a0	-0.010884911
116	0x3da5d08a	0.08096416
117	0x3d2b2acc	0.04178886
118	0x3d24d9fc	0.04024695
119	0xbdd8aa5c	-0.105793685
120	0x3d898e5c	0.06716606
121	0x3ca23b30	0.019803613
122	0xbdb568fc	-0.08857915
123	0x3d11a8f4	0.035561517
124	0x3dc43226	0.095798776
125	0xbd7b4938	-0.061349124
126	0xbdcb1298	-0.09915656
127	0x3c879b48	0.016553536
128	0xbdac8e4a	-0.08425577
129	0xbcf6b1f0	-0.030114144
130	0xbda70b58	-0.081564605
131	0xbdd2ec2a	-0.10298951
132	0x3d8c4f72	0.068510905
133	0xbb130a96	-0.002243673
134	0x3cb5e5c1	0.022204282
135	0xbddfd409	-0.10929114
136	0xbbd2f020	-0.0064373165
137	0x3e04fee7	0.12987863
138	0x3d2e85e4	0.042608157
139	0xbdd8fece	-0.10595475
140	0x3d09cabc	0.03364061
141	0x3d863478	0.06552976
142	0xbd969020	-0.073517084
143	0x3d0c38b8	0.03423378
144	0x3ce19fa0	0.027541935
145	0x3de6bf54	0.11266962
146	0x3d8df29a	0.06931038
147	0xbcd9ae38	-0.026572332
148	0xbc470220	-0.012146503
149	0xbd89642c	-0.067085594
150	0xbd6c7b70	-0.057734907
151	0xbd4532f4	-0.048144296
152	0x3d61f528	0.05516544
153	0x3d938668	0.0720337
154	0x3d6bd164	0.057572737
155	0xbda8dacc	-0.08244857
156	0x3de0fcfc	0.10985753
157	0xbdae1d17	-0.08501642
158	0x3de35923	0.11100986
159	0xbdd4a878	-0.10383695
160	0xbc9eea99	-0.019398974
161	0x3d77652e	0.060399227
162	0x3d924a0d	0.0714303
163	0x3d29c2f6	0.041445695
164	0x3d87479f	0.066054575
165	0xbcedbf58	-0.029021904
166	0x3d857d3e	0.06518029
167	0x3d524e2a	0.051344074
168	0xbb2d4868	-0.0026440863
169	0x3db4b1a6	0.08822946
170	0xbda1ada6	-0.07894449
171	0xbcd4c15a	-0.025971103
172	0x3e110a85	0.14164169
173	0x3d2c6769	0.042090807
174	0xbcfd3d70	-0.030913085
175	0x3d32e860	0.04367864
176	0x3d6c7c2c	0.057735607
177	0x3d513201	0.051073078
178	0xbcb94043	-0.02261365
179	0x3dccfe56	0.10009448
180	0xbe04ef07	-0.12981807
181	0xbd93f1fc	-0.07223889
182	0xbdb5cb28	-0.088766396
183	0x3db4b147	0.088228755
184	0x3c5fbf22	0.013656409
185	0xbb7be980	-0.0038438737
186	0xbd4bc564	-0.049748793
187	0x3d91a8e0	0.071122885
188	0x3dd35ac7	0.10320049
189	0xbdda1a7c	-0.10649583
190	0x3d70cfa0	0.058791757
191	0xbd8d7cfa	-0.06908603
192	0xbc80e7c0	-0.015735507
193	0xbd900ade	-0.07033323
194	0x3df1ec0d	0.11812601
195	0x3da6f375	0.081519045
196	0x3d2004a0	0.03906691
197	0xbd875b58	-0.06609219
198	0xbdad9c58	-0.08477086
199	0xbcf689db	-0.030095031
200	0x3cd19780	0.025584936
201	0x3d1c7ece	0.038206868
202	0x3b9c53e6	0.0047707437
203	0xbdcad9a0	-0.0990479
204	0xbde8a87e	-0.11360262
205	0x3dfd833c	0.123785466
206	0xbda02975	-0.07820407
207	0xbd965edd	-0.073423125
208	0x3de76c36	0.112999365
209	0xbd24cfec	-0.040237352
210	0x3ddd8b62	0.10817601
211	0x3d904d6e	0.070460185
212	0x3df0fb98	0.11766738
213	0xbce2c5a7	-0.027682139
214	0xbd7c7e9f	-0.061644193
215	0xbe36ab4e	-0.17838785
216	0x3d6c3f4e	0.05767756
217	0xbc8b5cbf	-0.017011998
218	0xbd3f69bc	-0.046731696
219	0xbde26013	-0.11053481
220	0xbd77c890	-0.060494006
221	0xbd9c6938	-0.076372564
222	0x3e1e87a2	0.15481427
223	0xbe03a858	-0.12857187
224	0x3d7ff62c	0.062490627
225	0xbda30e4d	-0.07961712
226	0xbd04725f	-0.032335635
227	0xbda495a3	-0.080363534
228	0x3d0d7862	0.034538634
229	0xbde6c58c	-0.11268148
230	0x3daa6cd8	0.083215415
231	0x3d5672d1	0.05235559
232	0xbc8a8973	-0.016911244
233	0xbdc8e10a	-0.09808548
234	0x3d3f01ec	0.046632692
235	0x3d7df90b	0.062005084
236	0x3d916932	0.071001425
237	0x3daf692a	0.0856498
238	0xbd847ba4	-0.06468895
239	0xbd650ccb	-0.055920403
240	0xbd54f1dc	-0.051988468
241	0xbdd74aa1	-0.10512281
242	0x3e166274	0.14685994
243	0x3db46048	0.08807427
244	0x3dd3cc4f	0.10341703
245	0xbdff2f41	-0.12460185
246	0xbd05a138	-0.032624453
247	0x3ce7c35d	0.028291399
248	0x3cda5e5b	0.02665632
249	0xbdbefe14	-0.09325805
250	0x3ddd1638	0.107952535
251	0xb9f53213	-0.0004676735
252	0xbcca7fa7	-0.024719073
253	0xbd7d1060	-0.061783195
254	0x3c954a48	0.018223897
255	0x3cc8e40f	0.02452281

fc2.bias_hh_l0 f4 [256]
0	0xbd6b170e	-0.057395034
1	0x3c0344e7	0.008012033
2	0x3dbc7323	0.09201648
3	0x3d45925c	0.048235282
4	0xbb81f8a0	-0.003966406
5	0xbd781fc0	-0.060577154
6	0xbd1877af	-0.037223514
7	0x3de03afd	0.10948751
8	0xbd2a771a	-0.04161749
9	0x3e086ae3	0.13322024
10	0x3d5582e6	0.052126788
11	0x3e0d96a0	0.1382699
12	0xbdebe04d	-0.11517391
13	0xbdfbb008	-0.12289435
14	0x3da32c0e	0.07967387
15	0x3df76353	0.120794915
16	0xbcbffe81	-0.023436787
17	0x3d4d137c	0.05006741
18	0xbdfe2d60	-0.12410998
19	0xbc5c1158	-0.013431869
20	0x3dbf9c5a	0.093559936
21	0xbc1c0552	-0.009522753
22	0xbd62fe50	-0.055418313
23	0x3d0b4c7b	0.034008484
24	0x3d73f1e6	0.059556864
25	0xbc8d65e1	-0.017260494
26	0x3cca5c90	0.02470234
27	0xbdbb7fee	-0.0915526
28	0x3b75379e	0.0037417184
29	0x3de48d30	0.11159742
30	0x3e0352e8	0.12824595
31	0x3d8d476a	0.06898387
32	0x3c27db67	0.010245181
33	0xbb5a71ec	-0.0033332063
34	0x3de66d66	0.11251335
35	0x3d87240e	0.06598674
36	0x3e0451ab	0.12921779
37	0xbd9f3770	-0.07774246
38	0x3d3cba1d	0.04607593
39	0xbda0eb79	-0.07857413
40	0xbcfd80f1	-0.030945273
41	0x3c575620	0.013143092
42	0xbe049fc8	-0.12951577
43	0xbd714f64	-0.058913603
44	0xbd390f30	-0.0451805
45	0xbd848223	-0.06470134
46	0xbd0aa25f	-0.033846255
47	0xbd762358	-0.0600923
48	0xbe0ce465	-0.13759
49	0x3c656207	0.014000422
50	0x3e08f6f4	0.13375455
51	0xbdd67898	-0.1047222
52	0x3d81c6d3	0.06336751
53	0x3d4a4785	0.049384613
54	0xbdf9d68e	-0.12199126
55	0xbde7b54e	-0.11313878
56	0x3d5eae8b	0.054365676
57	0xbd8ddb61	-0.06926609
58	0xbdf4d603	-0.11954882
59	0x3d9f329e	0.07773326
60	0x3dbe1a19	0.092823215
61	0xbd95e33a	-0.07318731
62	0x3cc42800	0.023944855
63	0x3d8bb25d	0.068211295
64	0x3db7f012	0.08981337
65	0xbdbba334	-0.09161988
66	0x3d56bcb8	0.05242607
67	0xbdca3932	-0.098741904
68	0xbc1c46a0	-0.009538323
69	0xbda1797e	-0.07884501
70	0xbd864656	-0.06556384
71	0x3cd7e3f8	0.026353821
72	0x3d1f7d84	0.03893806
73	0xbc5883d0	-0.01321502
74	0x3ce69218	0.028145835
75	0xbdaa4a16	-0.08314912
76	0xbc03fd10	-0.00805594
77	0xbd69e388	-0.057101756
78	0xbd2ea218	-0.042635053
79	0xbcebb408	-0.028772369
80	0xbd4a40d4	-0.04937823
81	0xbdc881d8	-0.09790391
82	0xbde0fd3a	-0.10985799
83	0x3de3d9b4	0.11125508
84	0xbdaeb9bc	-0.0853152
85	0x3ca49d88	0.020094648
86	0x3df0ef22	0.11764361
87	0xbd08f310	-0.033434927
88	0x3d7ea220	0.062166333
89	0x3dd6af94	0.104827076
90	0xbd7fc588	-0.06244424
91	0x3c26ae20	0.010173351
92	0x3d936c80	0.07198429
93	0xbce96490	-0.028490335
94	0x3d0cda88	0.034388095
95	0xbd5defa4	-0.054183617
96	0xbd326768	-0.043555647
97	0x3c69c1a0	0.014267355
98	0xbde359ac	-0.11101088
99	0x3d372d38	0.04472086
100	0xbdb5c46a	-0.08875354
101	0xbdcffa16	-0.10155122
102	0xbcc5da80	-0.02415204
103	0x3da1d638	0.07902187
104	0xbd9b8be2	-0.0759504
105	0xbdda8846	-0.10670523
106	0xbde918fa	-0.11381717
107	0x3d1b3d04	0.037899986
108	0x3d3361ac	0.04379432
109	0x3d949550	0.072550416
110	0x3cc0ce78	0.023535952
111	0xbcb76ee8	-0.022391751
112	0xbda6c288	-0.08142573
113	0xbd566dd0	-0.05235082
114	0x3bfde5c0	0.0077483356
115	0x3d9732ea	0.07382758
116	0x3d90ed18	0.07076472
117	0xbdf0ad6a	-0.11751826
118	0x3d5981b0	0.053102195
119	0xbdeaa058	-0.114563644
120	0x3d62be34	0.055357173
121	0xbd4ad788	-0.049521953
122	0xbd7c5274	-0.06160207
123	0x3df49346	0.11942153
124	0x3df3c45c	0.11902687
125	0xbd8c30ce	-0.06845246
126	0x3d8f70c4	0.0700393
127	0x3d09c060	0.03363073
128	0xbcc38d08	-0.02387096
129	0xbcd4d388	-0.025979772
130	0xbd33a5e2	-0.04385937
131	0x3d028ca8	0.03187242
132	0x3db1a26e	0.08673559
133	0xbd24cf4a	-0.04023675
134	0x3d6af1f6	0.05735966
135	0x3d9fa03c	0.07794234
136	0xbd88f72a	-0.06687768
137	0x3ca55cbf	0.020185826
138	0xbbbd2ac0	-0.0057729185
139	0x3d905b60	0.070486784
140	0xbdf7e43a	-0.12104078
141	0xbd9c54ea	-0.076333836
142	0x3dde36be	0.10850285
143	0xbde5d54a	-0.11222322
144	0x3d85845a	0.06519385
145	0x3db38efc	0.087675065
146	0x3d924166	0.0714138
147	0xbd7f18f6	-0.062279664
148	0x3cd80f78	0.026374564
149	0x3d8e0f8a	0.069365576
150	0x3e048752	0.12942246
151	0xbd4c94f9	-0.04994676
152	0x3d2d0108	0.04223731
153	0x3e0b085a	0.13577405
154	0x3c394870	0.011308774
155	0x3d95dbcb	0.07317313
156	0xbdf207da	-0.11817904
157	0x3dc58d25	0.09646062
158	0xbdc145f5	-0.09437171
159	0xbdbcd128	-0.09219581
160	0x3bb56069	0.0055351746
161	0xbdf568d8	-0.11982888
162	0x3d87da37	0.06633418
163	0xbe0c35ca	-0.13692394
164	0x3d8b0ccf	0.067895524
165	0xbd4139fc	-0.04717444
166	0xbd042bc1	-0.03226829
167	0xbdf9080a	-0.121597365
168	0xbd0ec231	-0.034853164
169	0xb8dc8000	-0.00010514259
170	0x3bb496c0	0.005511135
171	0x3c25db54	0.010123093
172	0xbd9ab846	-0.075546786
173	0x3db052a0	0.086095095
174	0x3bb5ce00	0.0055482388
175	0xbccbdf20	-0.024886668
176	0xbd46f2f8	-0.048571557
177	0xbdcb29a1	-0.099200495
178	0xbcfe70ad	-0.031059587
179	0xbb740540	-0.0037234575
180	0x393faae4	0.00018278841
181	0x3cdb3d62	0.026762668
182	0x3dcd29e8	0.100177586
183	0x3db37aaf	0.087636344
184	0xbb9e9820	-0.004839912
185	0xbd8bf32e	-0.06833492
186	0xbdf6be35	-0.12047998
187	0x3b08bcb1	0.0020864422
188	0x3d5c96c1	0.053854708
189	0x3dd178be	0.10228108
190	0x3c19be50	0.009383753
191	0x3cb81c29	0.022474365
192	0xbde6e3f4	-0.11273947
193	0x3c9c28b0	0.01906237
194	0x3b50c0ae	0.0031853127
195	0x3d021e0e	0.031766944
196	0x3d888ce4	0.06667498
197	0x3c2da720	0.010598928
198	0xbd681695	-0.05666216
199	0xbcaf0fc6	-0.021369826
200	0x3dcbdf9c	0.099547595
201	0xbc8b09c7	-0.016972436
202	0x3cffbfbb	0.031219354
203	0xbde59302	-0.1120968
204	0x3d13c158	0.03607306
205	0x3d6e00e4	0.058106318
206	0x3dc48779	0.09596152
207	0xbd0fffdf	-0.035156127
208	0x3dcf25fa	0.10114665
209	0xbd9540cf	-0.07287752
210	0xbdcc97b8	-0.099898756
211	0xbbaedd7e	-0.0053364625
212	0xbdac9264	-0.08426359
213	0xb6981548	-4.5324305e-06
214	0x3d8d642b	0.06903871
215	0x3d1adbdf	0.03780734
216	0x3dda2972	0.10652436
217	0xbdb32a6a	-0.08748324
218	0x3d924708	0.071424544
219	0xbe80de55	-0.25169626
220	0x3dcb012a	0.099123314
221	0x3de0dd32	0.1097969
222	0x3d390ace	0.04517632
223	0x3dc652f7	0.09683793
224	0xbc9ca403	-0.019121176
225	0xbc4cd9e9	-0.012503126
226	0x3d2e76a1	0.042593602
227	0x3d80a551	0.062815316
228	0x3b409d9a	0.0029390813
229	0x3d68fd08	0.056881934
230	0x3d0ab204	0.033861175
231	0xbd96bcdf	-0.07360243
232	0xbe25446e	-0.16139385
233	0x3dcaff0e	0.09911929
234	0x3c7be670	0.015374765
235	0x3e130878	0.143587
236	0x3de598ac	0.112107605
237	0x3dd03182	0.10165693
238	0x3d8ff50c	0.07029161
239	0x3da0a56f	0.07844054
240	0xbd86ba1c	-0.06578466
241	0x3ded0dc3	0.115748905
242	0x3e13a277	0.14417444
243	0xbdacd2ca	-0.08438642
244	0x3d66fbf7	0.056392636
245	0x3d233652	0.039846726
246	0xbdd3f546	-0.103495166
247	0xbd76aaab	-0.060221355
248	0xbd968c9e	-0.07351039
249	0x3dba9d22	0.09112002
250	0xbd8b7006	-0.06808476
251	0x3da07d54	0.078364044
252	0x3c98a121	0.01863152
253	0xbdc23582	-0.09482862
254	0xbd7da008	-0.061920196
255	0xbda25fc8	-0.07928425

fc3.weight f4 [3, 64]
0	0x3c0f4d7a	0.008746499
1	0x3d7bb73d	0.061454047
2	0x40d28ed3	6.5799346
3	0xbc60bbe2	-0.01371667
4	0x3d97da10	0.07414639
5	0x3d8daa75	0.06917278
6	0xbc6bd45d	-0.014393893
7	0xbe81e837	-0.25372478
8	0x3fd760c9	1.6826411
9	0xc02229c4	-2.5337992
10	0x3e0b94e8	0.13631022
11	0xbd16ad1d	-0.036786187
12	0xbc0e443e	-0.008683262
13	0x3cf025d8	0.02931492
14	0xbd049475	-0.032368142
15	0xbdfe0585	-0.124033965
16	0x3d366843	0.044533025
17	0x3d2302ac	0.03979747
18	0x3de280a3	0.11059692
19	0xbe09448e	-0.13405058
20	0x3d8091e2	0.06277825
21	0xbda9695b	-0.08272048
22	0xbd4ff722	-0.050772794
23	0x3e245498	0.16047895
24	0x3d989b94	0.07451549
25	0x3e86e00a	0.26342803
26	0x3ab5ee9f	0.0013880319
27	0xbea401b5	-0.32032552
28	0xbd3293c5	-0.043597955
29	0xbd9faa48	-0.077961504
30	0xc0c0282e	-6.0049047
31	0x3da4d617	0.08048647
32	0x40d2d2a6	6.588214
33	0xc0d8d880	-6.776428
34	0x3ffb9ecb	1.9657835
35	0xc0d3510c	-6.6036434
36	0x3db3f9d2	0.08787884
37	0x3d4f601c	0.050628766
38	0x3c39a6b2	0.011331247
39	0xbfcdb163	-1.6069759
40	0xc09cea83	-4.903627
41	0x3d589278	0.05287406
42	0xbd0c3e10	-0.034238875
43	0xc0c86d40	-6.263336
44	0x40d5d28a	6.6819506
45	0x3f817753	1.011454
46	0x3da5389a	0.080674365
47	0xbd1d4c10	-0.038402617
48	0x3de14978	0.11000341
49	0x40519a46	3.275041
50	0x3feb3321	1.8374978
51	0xbd2ee9ec	-0.042703554
52	0xc0cbd882	-6.370179
53	0x3ebb7af6	0.3661725
54	0x3df39e8c	0.11895475
55	0x40d0e562	6.528001
56	0x3e9cf3fe	0.306549
57	0x3d573a84	0.05254604
58	0xbc89bf45	-0.016814837
59	0xbfe77e13	-1.808535
60	0xc0aff358	-5.498455
61	0x3d12c1cf	0.03582936
62	0xbaeba300	-0.0017977655
63	0xc0b33e68	-5.601368
64	0xbd605bd0	-0.05477506
65	0xbd91fa58	-0.071278274
66	0x40ce77d4	6.4521275
67	0x3dbadeee	0.09124552
68	0xbdffe724	-0.124952585
69	0xbe0b9697	-0.13631664
70	0x3ad18f1e	0.0015988087
71	0x3e240fb4	0.16021615
72	0x3feb4b40	1.838234
73	0xc02dc1ac	-2.7149458
74	0x3cc5a561	0.02412671
75	0x3d1139dc	0.03545557
76	0xbd86488a	-0.065568045
77	0x3de73812	0.112899914
78	0x3dc6e13c	0.09710929
79	0xbd96074e	-0.07325612
80	0x3d37448a	0.0447431
81	0xbd1f40ae	-0.038880043
82	0xbdaff4d2	-0.08591618
83	0xbcd79530	-0.026316255
84	0xbcd0a972	-0.025471423
85	0xbe0c2310	-0.1368525
86	0xbd3a5f71	-0.045501176
87	0x3df3e614	0.11909118
88	0x3c8e1630	0.017344564
89	0x3eae11f9	0.33998087
90	0x3b822fec	0.003972998
91	0xbeb9e837	-0.36309978
92	0xbdf2f808	-0.118637145
93	0x3ded8340	0.115972996
94	0xc0ab196d	-5.3468537
95	0x3dd3f710	0.10349858
96	0x40d569c9	6.669163
97	0xc0d50ed9	-6.6580625
98	0x3fe5f9a6	1.7966812
99	0xc0d008af	-6.50106
100	0xbe270d42	-0.16313651
101	0xbdc1e8f6	-0.09468262
102	0x3d27ece8	0.040997416
103	0xbfe804be	-1.8126447
104	0xc09c8b5c	-4.8920116
105	0x3d339dd9	0.043851707
106	0xbbfff260	-0.007810876
107	0xc0d5e7d9	-6.6845517
108	0x40d2f4fb	6.592405
109	0x3f3e9dbd	0.7445944
110	0x3d9200cc	0.07129058
111	0xbdd47c3b	-0.103752576
112	0x3dec9872	0.11552514
113	0x4049cc79	3.153105
114	0x3fef1e86	1.868119
115	0x3dae528c	0.08511838
116	0xc0d0701d	-6.5136857
117	0x3ea67c4c	0.32516706
118	0xbd9d74b4	-0.07688275
119	0x40d461b7	6.636928
120	0x3e8c22ab	0.273702
121	0xbdc471b4	-0.09592
122	0xbdb83ae1	-0.08995605
123	0xbfdd26e0	-1.7277489
124	0xc0a07b01	-5.015015
125	0x3ac5cdb7	0.0015091215
126	0x3d9fd328	0.07803947
127	0xc0bd11b0	-5.908409
128	0xbdc2f1f7	-0.095188074
129	0x3dc2a79f	0.095046274
130	0x40ed98e7	7.424915
131	0x3ce14c70	0.027502269
132	0x3d411184	0.047135845
133	0xbe4b1371	-0.19831635
134	0x3e35e99a	0.17764893
135	0x41022734	8.134571
136	0x40102447	2.2522142
137	0xc005f153	-2.0928543
138	0x3d6f5bf0	0.058437288
139	0x3dd954dc	0.10611889
140	0xbcdb0205	-0.026734361
141	0x3cc5a7c0	0.024127841
142	0x3db9f677	0.090802126
143	0x3d565f89	0.052337203
144	0x3dcacc25	0.09902219
145	0xbd99be4c	-0.075069994
146	0xbde370e4	-0.111055166
147	0x3e3cc879	0.18435849
148	0x3dd19f47	0.10235458
149	0x3d11f709	0.03563598
150	0xbd88497a	-0.066546395
151	0x3e17d6df	0.1482806
152	0x3d652781	0.055945877
153	0x3f46a403	0.7759401
154	0x3c9ac3a8	0.018892124
155	0xbf752a03	-0.9576723
156	0x3d5be2ad	0.05368297
157	0xbe22630d	-0.15858097
158	0xc15b34fc	-13.700436
159	0x3cfc532c	0.030801378
160	0x40e36e21	7.1071935
161	0xc0eefb63	-7.468187
162	0x40171031	2.3603632
163	0xc0e392b7	-7.1116595
164	0xbc9d31d7	-0.019188805
165	0xbd05afd4	-0.032638386
166	0xbe24c47a	-0.16090575
167	0xbfa2325a	-1.2671616
168	0xc0b33db5	-5.6012826
169	0xbdbccd60	-0.0921886
170	0xbb6ecc5e	-0.003643773
171	0xc0e4ddf9	-7.1520963
172	0x40dce621	6.903092
173	0x41373a9f	11.451812
174	0x3d1515c9	0.03639773
175	0x3e797983	0.2436276
176	0x3c92e734	0.017932512
177	0x407e1916	3.9702811
178	0x402f0051	2.7343943
179	0x3de75b9f	0.11296772
180	0xc0d942e7	-6.789417
181	0x3f1b3176	0.60622346
182	0x3da45dac	0.08025679
183	0x40e37c85	7.10895
184	0x3cc3985a	0.023876358
185	0xbcc308b7	-0.023807866
186	0xbe5831dd	-0.21112771
187	0xc00423ac	-2.0646772
188	0xc131c392	-11.110247
189	0x3dbbbe9f	0.091672175
190	0x3d9c924a	0.0764509
191	0xc0bbc38e	-5.8676214

fc3.bias f4 [3]
0	0x40d46170	6.636894
1	0x40d2c3b7	6.586391
2	0x40ebbd43	7.366853
