Models/LSTM/agentDQN-LSTM_2008-2009_lstm_v3_300_EPS_1.pth (torch, 256291 bytes, 8 tensors)

fc1.weight f4 [128, 104]
00000000: d613 afbc 419c 133e 73e4 4bbd 30f1 ca3c
00000010: 5e90 f33d d8ac d33b d54c 853d c456 ab3d
00000020: 4aac b23c 3696 033e ca16 413e f8e2 203e
00000030: b53c b33d 062c 343e 12fa 043e 4ce4 2a3b
00000040: b23e b33d 9e19 173e f946 a33d 46ba 5c3c
00000050: 4404 5d3c 7c55 fb3c 513a 9d3d cc84 9e3e
00000060: c796 61bd 20f3 84bc dc02 8c3d 48ae 523d
00000070: 79a1 123e 79b2 ba3e f1b6 e53e db2a 263d
00000080: fdfd f93c 4237 abbe b0b6 703d 3e61 bf3d
00000090: 5285 4dbd 64e6 9fbd 4cf6 7abc 2bc6 903d
000000a0: 7a7d cd3c 51ba 4dbd 1a1d 8abe d452 7c3e
000000b0: 7bdd 983c 2245 c03d d010 a23e 9050 173d
000000c0: 5c13 75be 8abd 99bd 6faf ed3d 6d3f c1bd
000000d0: 4e5e 1f3e 37e0 26be 51ac 303e 128f d23b
000000e0: 458f d13b 7d3a 3b3e 848c 9d3d 3e68 e23d
000000f0: fb28 8c3e d24a 093e 50d4 80bc 1a68 373e
00000100: ae48 783e a3c5 943b 4405 493c e94d dc3c
00000110: f4f2 6539 4283 b63c b722 723c 11db 333d
00000120: 6aee 103e 1b84 a93d 7dcf 243d 2ce1 b33d
00000130: 9673 743d fd4c 873d 5c13 353d be76 8d3b
00000140: 208a 023d 54fb 8a3d 6e9d 523d ecf2 cd3c
00000150: ebb7 023e e082 013e eb71 c13d ea38 123e
00000160: c1b2 9d3b 9ec3 1a3e 9fe8 433e 3d56 013e
00000170: 489b 0f3e 9bb5 213e 87fa 883c e845 1dbc
00000180: d4b0 8abc 05f5 afbd 0dc5 813e d08d 08be
00000190: d5c1 4bbe 9186 9b3d 5278 483e 290f c03d
000001a0: db02 383e 028b 6f3e 72d3 fe3b beb3 a43d
000001b0: 6ba2 84ba 52f6 5c3d 9ed4 693d 0169 a63c
000001c0: 8485 0e3e eef6 d53d 4d54 61be dbd6 46b9
000001d0: 9b7b bf3d d81f cb3d 760d 2abd c9f0 003d
000001e0: 23d5 693d 379c c63c 25de 043e 9177 c63d
000001f0: ff1a e33d 12c0 013e 7526 7c39 10c8 e1bc
00000200: 0a6a 273d 1db6 dabb 9959 53be 11e8 213e
00000210: 28d6 373e 3a81 19be bb91 13be 03db 153d
00000220: b438 cd3d d8ba 563d 435b 4abd 2e0c 393e
00000230: 6bb4 323c 86f7 943e 92c2 003e cde9 09bd
00000240: 08f4 633e 9cc4 b23e 0d5d 913e 7001 bd3c
00000250: 23c0 513e 9304 c53d c15a e43d ecf4 b33d
00000260: e63c 0dbc a1e6 c83e 2eca 8b3e d7e5 16be
00000270: d16b 3a3d 1592 ab3d 04e7 803e 3aae 523d
00000280: 8a35 953d 5e6f 4d3c f5b4 b43d dc8d 8d3e
00000290: 3c1f fc3c 272e 2f3d 55c4 393c f4a7 cf3d
000002a0: ead4 9ebc 4b6c f43c 1f72 38bd 1dda 8f3b
000002b0: b855 583d 5908 b53c 52b4 5bbd 8e46 a7bc
000002c0: bc29 ef3c 47e3 8b3b 22de 2fbd 49c5 2ebc
000002d0: 7fa4 41bd 09f2 b4bb 243d 893c 5395 55ba
000002e0: b34f 1a3b 2521 513d 24d3 073e 7142 143d
000002f0: 4b73 ad3a fe3d d73d 3c4c b93d 65ed 8b3c
00000300: 8ad7 d03d 6f0b b439 2111 df3c 89dc eb3d
00000310: 33e1 f63d 3529 a03d a393 ea3c 8cae 903d
00000320: b97f 513d 7157 b73d 9bed 48be fb55 173e
00000330: 3942 963c cf10 a63d 1152 933d 2e81 853d
00000340: 3fa2 703e 3125 d9bd db46 aa3d 1774 0fbe
00000350: 8461 0cbd d74d 643d c94b b53c b222 44bd
00000360: f146 903d a0c4 9d3d f6eb 54be 8500 a2bc
00000370: c1ed abbb d052 423d 0cd9 66bc 03e8 8abc
00000380: 1d8e e1bd bff9 0dbb 6b61 c33c 70f5 18be
00000390: 86ec 17be 73b3 90bd 5db7 813c db4b 2cbe
000003a0: 1c49 edbd 3498 9b3c 786c 0cbe b1e2 96be
000003b0: 9056 9b3e b791 8cbd bcde 7bbe 8506 963e
000003c0: 08d0 0fbd 2145 f23c bbd3 a1be 4223 7bbe
000003d0: a89b fdbd 0a3e 3cbe 9cd1 3dbe a6df c7be
000003e0: 7c1b 8dbe fb51 27be 6aab 6dbd 4d44 a1bd
000003f0: 4c1f 143e 1644 3c3c f260 8b3d f155 033e
-0.021371763 0.14415075 -0.049778413 0.02477321 0.1189277 0.0064598136 0.06508795 0.083661586
0.02181067 0.1285027 0.1885635 0.15711582 0.08751813 0.17594919 0.12986019 0.0026076017
0.087521926 0.14755866 0.07972521 0.013472145 0.013489787 0.03068041 0.076771386 0.3096069
-0.055075433 -0.016229212 0.06836483 0.05143574 0.1431941 0.3646429 0.44866136 0.040568214
0.030516619 -0.33440596 0.058767974 0.09344719 -0.050175972 -0.078076154 -0.015317511 0.070690475
0.025084246 -0.050226513 -0.26975328 0.24640971 0.018660298 0.09388186 0.31653452 0.036942065
-0.23933166 -0.07506855 0.11605727 -0.09435926 0.15563318 -0.16296469 0.17253233 0.0064257467
0.006395253 0.1828403 0.07692817 0.11055039 0.27375016 0.13407448 -0.015726238 0.17910805
0.24246475 0.0045401617 0.012269322 0.02689262 0.00021929649 0.022279385 0.0147787845 0.04391009
0.14153448 0.0827715 0.04023694 0.087831825 0.059680544 0.06606481 0.044207916 0.0043171337
0.031870008 0.06786218 0.051419668 0.025140248 0.12765472 0.12647581 0.09445556 0.14279523
0.004812569 0.15113685 0.19131707 0.12630554 0.14024079 0.15791933 0.016721023 -0.0095991865
-0.016930021 -0.08591656 0.2534565 -0.13335347 -0.1989816 0.07594026 0.19577149 0.093778916
0.1796984 0.23392871 0.007776671 0.080420956 -0.0010119205 0.053945847 0.057087533 0.020313742
0.1391812 0.10447489 -0.22004814 -0.00018962791 0.09349748 0.09918183 -0.041516744 0.03147963
0.05708803 0.02424441 0.12975366 0.09690774 0.110891335 0.12670925 0.00024046919 -0.027561218
0.04087261 -0.0066745416 -0.20639648 0.15811183 0.17952788 -0.14990702 -0.1441106 0.03658582
0.10020581 0.05242428 -0.04940344 0.18071052 0.010907273 0.29095095 0.12574223 -0.033670235
0.2226106 0.34915626 0.28391305 0.023071975 0.2048345 0.09620013 0.111501224 0.087869495
-0.008620476 0.39238456 0.27302688 -0.14736114 0.045512978 0.08377472 0.2517625 0.051435687
0.072856024 0.012538759 0.08823577 0.27647293 0.030776612 0.042768624 0.011338313 0.101394564
-0.019388635 0.029836794 -0.04503071 0.004390015 0.052816123 0.022098707 -0.053638764 -0.020419385
0.029194705 0.004269037 -0.04293645 -0.010667154 -0.047276016 -0.005522017 0.016752787 -0.0008147556
0.002354604 0.051057 0.13264138 0.036196176 0.0013233213 0.10509871 0.09047744 0.017080972
0.10197361 0.00034340794 0.027229847 0.11516673 0.12054672 0.078203596 0.028634852 0.07064542
0.051147196 0.08952225 -0.1962189 0.14778893 0.018342124 0.08108675 0.07193387 0.0651878
0.23499392 -0.10602797 0.08314296 -0.14009129 -0.034272686 0.055738296 0.022130864 -0.04788465
0.07044781 0.07703519 -0.20793137 -0.019775638 -0.0052468483 0.047442257 -0.014089834 -0.016956335
-0.11013434 -0.0021663753 0.023850163 -0.14937377 -0.1483632 -0.07065477 0.015834505 -0.16825812
-0.1158621 0.018993475 -0.13713253 -0.29469827 0.3033948 -0.068637304 -0.24596685 0.2930185
-0.035110503 0.029573979 -0.3160685 -0.24525169 -0.12383205 -0.18383041 -0.18536991 -0.39037818
-0.2756003 -0.16339867 -0.0580248 -0.078743555 0.14465064 0.011490842 0.068056 0.12825753

fc1.bias f4 [128]
00000000: e11f 013d d9e0 d3bc 2ecd 92bd daac 513e
00000010: c9d4 cfbd 7988 973d 3642 213d 3ee1 cc3d
00000020: 7aa8 74bd 3621 603e a85a a23e ae57 fb3d
00000030: 4052 9fbd 5114 673d dbf7 32be 6712 9bbd
00000040: 7f30 6cbe 6933 c3bd e1ea 15bd 847b 773d
00000050: 35e8 04be 3363 84bd 916d 6f3e 8255 83bd
00000060: 269d 063e 8887 f5bd a145 8b3d 6efa 2abc
00000070: 9079 70be a2bd d73d 4a72 943d 3c8d 1abe
00000080: 6982 0f3e 3879 8f3c f630 16bd 47f8 0bbd
00000090: c94e 19be 9cee 23be 7838 11be 0eaa 72bc
000000a0: 9c09 e73d c285 9abd e561 a6bd 8238 5fbe
000000b0: 55d6 d6bd f6ea d33d d6d4 0bbe 443c f6bc
000000c0: 4587 03be 25aa a73d 6376 8fbc 576a 16be
000000d0: d8b2 c4bc 94a6 46be 9135 08bd e736 92be
000000e0: 9c11 75bc 6f75 4cbd a820 a4bd 9c0c 153d
000000f0: 2af6 cfbd 77f8 e3bc bcbc f8bd 7093 a5bc
00000100: f5c1 47bb 48de 4ebb f7fa fdbd a9bb e5bc
00000110: 6f03 103e 33f1 edbd 427b 81bc 9e10 cc3c
00000120: aa95 efbd af9f 853e 21db cebd 0a20 3a3e
00000130: 1443 2f3e de09 4abe cba9 7b3d d55a 9b3e
00000140: 5b12 8f3e d5ac bb3c c8d7 aabc e057 603d
00000150: 1f32 e5bc ab2f bebd 9c30 263c 1f68 b83e
00000160: 1265 523c 53f7 dcbd e3e4 cb3e 088e b2bd
00000170: f008 c9bd 0a57 05be 631d 143e 1e6e 10bd
00000180: d509 8dbc 7dd5 0f3d f9c3 ef3d cb03 6f3d
00000190: f14f 35bd 8138 41be 13ed 43bd cb06 773e
000001a0: 6224 66bd 3cb0 35ba 2990 a93e cac8 18bd
000001b0: 926a 783d f6ec b63d 8cc6 223e cc41 643e
000001c0: 3d9f 0bbe 0dbc 203e b34c fbbd 753c dfbd
000001d0: 2dd8 48bd d53e 56bc 8081 d3bd dfcd 82bd
000001e0: 00c2 64be d951 48be 5f1e 81bd f39e 693c
000001f0: c1f0 a03e 11b0 5fbe 8438 c93d 72f1 873e
0.031524543 -0.025864052 -0.07168041 0.20476094 -0.101480074 0.07399077 0.039369784 0.10003899
-0.059730984 0.21887669 0.3170979 0.12272583 -0.0777936 0.05641586 -0.17477362 -0.07571869
-0.23065375 -0.0953129 -0.03660095 0.060420528 -0.12979205 -0.06464233 0.2338164 -0.06412794
0.13145885 -0.11988741 0.0680039 -0.010435684 -0.23483872 0.105342165 0.072483614 -0.15092939
0.14014591 0.017513856 -0.036667787 -0.034172323 -0.1497146 -0.16008991 -0.14181697 -0.014811052
0.1128113 -0.075450435 -0.08124141 -0.217989 -0.10490099 0.103475496 -0.13655409 -0.030058034
-0.1284457 0.08186749 -0.017512506 -0.14689003 -0.02401106 -0.19399482 -0.03325421 -0.28557512
-0.014957812 -0.04991668 -0.08014041 0.03638898 -0.10154374 -0.027828438 -0.12145373 -0.020211905
-0.0030480598 -0.0031565595 -0.12401383 -0.028043585 0.1406381 -0.11618271 -0.015805844 0.024910267
-0.11698468 0.2609839 -0.10100389 0.18176284 0.17115432 -0.19730327 0.061441224 0.30342737
0.27943692 0.022909561 -0.020854846 0.054771304 -0.027978001 -0.09286436 0.010143425 0.36016938
0.01284148 -0.10789361 0.39823064 -0.087184966 -0.09816158 -0.13021484 0.14464335 -0.035261266
-0.017216602 0.035115708 0.11707301 0.058353227 -0.04426569 -0.18869211 -0.047833513 0.24123685
-0.05618704 -0.0006930863 0.33117798 -0.037300862 0.06064851 0.089319155 0.15896052 0.22290725
-0.13634963 0.15696736 -0.122704886 -0.10900203 -0.049034286 -0.013076504 -0.103274345 -0.06386923
-0.2233963 -0.19562472 -0.06304621 0.014259088 0.3143368 -0.21844508 0.098252326 0.26551396

fc2.weight_ih_l0 f4 [256, 128]
00000000: 7c38 28bd fc61 8cbd 8cba e3bd bd96 aabd
00000010: 9c9b 3abd 80ce 68bb d0c4 403c decb 31bd
00000020: 805a 0c3d 72c6 a93c 9167 06bd 4ac7 b23d
00000030: 6f44 2ebd e0d7 8dbd 2028 393d 6c6f af3d
00000040: 2fc5 19be 082e 563d 84f5 c8bd 3856 f23d
00000050: b119 cbbd 001a dfbb 26da febd 0ed8 1bbe
00000060: 9224 f9bd 2f25 ebbc 4c87 1d3d 04ed 983d
00000070: fa56 f9bd 3012 643c 5e25 d8bd 5c05 513d
00000080: cd4d 343d 68d9 a53c 5ea4 ea3d 30ee 0e3c
00000090: 443c 90bd e654 8ebd 4c50 1bbd 568e 843d
000000a0: e04c 293d 2a32 e2bd 46e6 b13d 4692 cfbc
000000b0: d67f 9cbd a171 1dbe 8640 bd3d 66c9 913d
000000c0: 8e4a 18be 1043 0c3c ac17 313d cd6b 6d3d
000000d0: 4c6e bcbd 6ba8 9f3d 5c9f 8b3d ca99 debd
000000e0: 1247 ed3d 887d 7abd 503e 9d3c da74 8d3d
000000f0: 9d0a e3bd 751b 15be 704d f8bd 4cc3 a7bb
00000100: c051 51bc 347e 6e3d 6061 f83d 0eb2 d0bd
00000110: c42b babc dee0 9bbd c331 0fbe c012 cabb
00000120: e1a6 4c3d 736a 00be 0575 03be b03f 543d
00000130: 88c7 1bbe e8ef f3bd fb83 1f3d 5093 c3bd
00000140: 8a65 adbd 7bcf 8a3d e89b b4bd a00e a2bb
00000150: 7425 1abd be06 87bd 68ef 923d e056 a7bc
00000160: a106 15be c89c e33d c37c 07bd 9898 f8bc
00000170: b0a6 13bc b008 733d f930 793d ea88 cb3d
00000180: deed f8bd 369c 943d b24b fdbd c04e 623b
00000190: 92f3 683c f83b f6bc 2e46 ac3d 20ea 90bb
000001a0: c93e c7bd 3b7d 3dbc 283d 843d 8693 65bd
000001b0: 5e7c 8fbd c0c2 f4bc 4a41 bf3d b41c a4bd
000001c0: e171 6fbc 5a1d debd 4972 4d3d a84a adbd
000001d0: 420b aebd e9c9 c0bc 3caf 813d 2e68 693d
000001e0: 031c 1cbe 1b64 b53d 7030 5f3c 50cd ef3d
000001f0: d418 f5bd fedb cb3d 0e9c c6bd b37c 54bd
00000200: 4cde c7bc 2246 13bd f4c6 093e d357 95bc
00000210: e690 833d 3b91 d0bd a637 52bd 515d 3dbb
00000220: 2ee8 f83c d24f cbbd 797b 28be 6e02 003e
00000230: 41ba 07be b2dd 5abd f6ca c6bd aae4 973d
00000240: 19f1 f63b 9614 863d cab8 b03d 2c65 32bd
00000250: 0047 823c a881 4bbd 73d5 2dbd 14e3 cc3d
00000260: e3c0 14be 9a7b 953d a0cc 603d 9003 bc3c
00000270: e2bd 4f3d ad10 873c 962f 9b3d 503b 33bc
00000280: 0dbc f4bc 047e 8d3d 846b c3bd cc0d 1ebd
00000290: f86c 653d a04a b6bb 7665 0d3e c063 8b3b
000002a0: e6db 2d3c a219 b93d 3c31 dbbd 1417 c33d
000002b0: 21c0 04ba 2309 9dbc 7dcd eabd 7eca 91bd
000002c0: eb78 0fbd 76d2 5f3d 86db ddbd af87 48b9
000002d0: 126d f5bd f8a7 85bc 804b 7f3d 64ea 93bd
000002e0: b44c 16bd 86e7 b13d 7cea 233d 5d2d 23bd
000002f0: 9842 903d 7886 d2bd 0879 9abd 603e cd3b
00000300: aa6f cd3d e3ca 653b 3a9b da3d c693 04be
00000310: 06d6 bf3d a6e6 2ebd 8043 f23c ea31 913d
00000320: 2719 dbbc 2aff 18be a4a5 fd3d 0677 353d
00000330: 39fb 59be c374 ecbc 6ecc 573d a191 53be
00000340: ce43 f0bd 57b9 3abe c474 e23d 047f 8f3d
00000350: b0b4 30bc 2997 72bd 5ed4 ff3d 3796 e6bc
00000360: 20a5 5ebe e2a6 163e a4db b2bd be8d 993d
00000370: f4c0 7d3d 36c6 f0bd 9129 aabd dc1e e53d
00000380: f631 b7bd ef0a 383c 40c6 d93d 227d 953d
00000390: 6e50 fe3d f78d b1bd d1fd 8bbc 9a44 c43b
000003a0: b05d 173d 1c3d b3bd 9dca 60be 062c ad3d
000003b0: 5153 203d 6df0 05be 46a4 163e 89e4 52bc
000003c0: ac3b 90bd fd00 a9bd aa36 a63d ca7a 923d
000003d0: 00cf cabd 5e85 8b3d 02fc 61bd 20f1 84bd
000003e0: d3a3 24be 4839 623d 4339 1b3e 1e44 d5bb
000003f0: 208e adbd f726 bf3d ab54 1cbe 4293 7fbc
-0.041069493 -0.068546265 -0.11119565 -0.08329532 -0.045558557 -0.0035523474 0.011765674 -0.043407314
0.034265995 0.020724509 -0.032813612 0.087294176 -0.042545732 -0.069259405 0.04520428 0.08566174
-0.15016626 0.052289993 -0.098124534 0.11832851 -0.099170096 -0.0068085194 -0.12443952 -0.15219137
-0.12165178 -0.028704254 0.038459107 0.07467082 -0.121747926 0.013920352 -0.10554002 0.0510305
0.04401951 0.020245269 0.11457132 0.0087237805 -0.07042745 -0.06949787 -0.037918374 0.06472461
0.04133308 -0.11044724 0.08686499 -0.025338303 -0.0764157 -0.15375377 0.092408225 0.07118492
-0.1487219 0.008560911 0.043235466 0.057964135 -0.09200725 0.07795795 0.06817505 -0.10869177
0.11585821 -0.061154872 0.019194752 0.06907053 -0.11086009 -0.14561255 -0.12124145 -0.0051197167
-0.012775838 0.058225825 0.12127948 -0.10190211 -0.022725947 -0.076112494 -0.13983826 -0.006166786
0.049963836 -0.12540607 -0.12837608 0.05181855 -0.15212834 -0.11910993 0.038944226 -0.09549582
-0.08466633 0.06777855 -0.08818799 -0.004945591 -0.037633374 -0.06593083 0.07174569 -0.020427167
-0.1455331 0.11113888 -0.033077966 -0.0303462 -0.009011909 0.059334457 0.06083772 0.09938224
-0.121547446 0.07256357 -0.12367953 0.0034531802 0.014218228 -0.030057892 0.08411823 -0.004422441
-0.09728772 -0.011565502 0.06456977 -0.056048892 -0.07006143 -0.02987802 0.09338625 -0.08013287
-0.014614553 -0.10845442 0.05015782 -0.08461505 -0.08498241 -0.023533778 0.063322514 0.05698412
-0.1524506 0.08856984 0.013622388 0.11709082 -0.11967626 0.099540696 -0.09697734 -0.051876735
-0.024397992 -0.035955556 0.13454801 -0.018230354 0.064241216 -0.101839505 -0.0513226 -0.0028894732
0.03038415 -0.09927334 -0.16453351 0.12500927 -0.13254644 -0.05343408 -0.097066805 0.07416661
0.0075360653 0.06546895 0.08628996 -0.043553516 0.015902996 -0.049684197 -0.04243989 0.10004249
-0.14526705 0.07298966 0.054882646 0.022950917 0.050718196 0.016487444 0.07577436 -0.010939434
-0.029874826 0.06908801 -0.09541991 -0.038587376 0.056012124 -0.005563095 0.13808236 0.0042538345
0.01061151 0.09038092 -0.1070275 0.09525886 -0.000506403 -0.019169396 -0.11464975 -0.071187004
-0.035027426 0.05464407 -0.108328864 -0.00019124032 -0.11983694 -0.016315445 0.06232786 -0.07222441
-0.036694244 0.08686738 0.040018544 -0.039838184 0.07043952 -0.10279554 -0.07542616 0.006263539
0.10031064 0.0035063557 0.10674138 -0.12946996 0.093669936 -0.042700432 0.029573202 0.070895985
-0.026745392 -0.14941087 0.12385109 0.044302963 -0.2128724 -0.02886427 0.052685194 -0.20661022
-0.11731683 -0.18234764 0.110574275 0.07006648 -0.010785267 -0.05922619 0.12491678 -0.0281478
-0.21742678 0.14712098 -0.087332994 0.07497738 0.061951593 -0.11756556 -0.083087094 0.111875266
-0.08945076 0.0112330755 0.10633516 0.07299258 0.124176845 -0.08669656 -0.017088803 0.0059896233
0.03695458 -0.0875189 -0.21952291 0.084556624 0.039141957 -0.13079996 0.14711103 -0.01287187
-0.070426315 -0.082521416 0.08115895 0.071523264 -0.09902763 0.06812547 -0.055171974 -0.064913034
-0.16078119 0.05523041 0.15158562 -0.0065083643 -0.08474374 0.09333604 -0.15266673 -0.015599074

fc2.weight_hh_l0 f4 [256, 64]
00000000: 68ed 9cbd 5c3b 793d 08bd 92bc d41b 7b3d
00000010: 10cc 56bd 7ab6 953d 00f4 9839 4291 95bd
00000020: 9007 43bc 6019 8e3c d8eb 86bd 3027 19bc
00000030: 507c e23c 602f c6bc 6c58 613d d893 d6bd
00000040: 1862 333d 88c4 16bd 6c6f 893d 5ca6 f53d
00000050: d807 95bc 5cba 453d 9e39 c43d 78bd 13bd
00000060: 98d5 ef3d 94ca f43d b468 813d aa58 ef3d
00000070: d03b d6bc d448 86bd fcc7 75bd 2ef7 fa3d
00000080: 2e92 b4bd 387e 943d 9c98 3ebd a011 44bc
00000090: 808c eeba 7ee0 d93d ceb7 f03d 92fb 8c3d
000000a0: f61d c63d 367a dabd 60fb 4d3c f84b a6bd
000000b0: bcda cd3d 50f4 0bbd c00b 62bd 78ce 9d3d
000000c0: 8881 8a3c 32f0 c3bd 742f cb3d 485a fe3c
000000d0: 4c5a 773d c06c 4c3c 28b4 fd3d e854 e13d
000000e0: a0ff 9cbd 4e69 9abd d0f5 ed3c 569b 853d
000000f0: 406c 1d3c b671 9cbd 1e90 c03d 4080 593b
00000100: a6f2 ec3d 2825 363d 5ea8 f83d 9aed 8bbd
00000110: f0f6 6ebc f4a5 6c3d e869 a8bd 86e1 e7bd
00000120: 50e2 2e3d 245d 41bd 0020 f53d 18fd 1dbd
00000130: c05c 6e3d 88b5 983d 9c58 b4bd a893 b83c
00000140: 3e1a c43d 42d1 983d decd e13d a8eb 903c
00000150: c8d2 dabd fc93 2b3d 3670 ea3d 94f0 8c3d
00000160: f01c f83c 2274 d63d 2c1b 413d 88c2 40bd
00000170: e0d4 80bb d4df 213d 4024 bcbb 385f cb3d
00000180: c065 7bbd 8491 f8bd 3a0b aebd b2c3 87bd
00000190: d0e0 613d 9459 8a3d 6efb cbbd dc98 64bd
000001a0: 368d a0bd 2807 9bbd 0a77 cd3d 6657 a4bd
000001b0: f6af d4bd b0cf db3c 5c35 4bbd 90e6 333c
000001c0: ecab e0bd 2421 84bd daab 84bd 9057 ea3c
000001d0: ee14 f8bd c0b3 ebbb 9cce 273d 5a9e 91bd
000001e0: 9255 ec3d e831 ff3c 321a c13d 60f4 9abc
000001f0: c0b4 2cbc 987f dcbc b06f 723d 52f2 cabd
00000200: 5043 7fbd 5082 50bc c86a 27bd 902c 103d
00000210: acd2 01bd 6649 aabd dae4 c93d 8233 b8bd
00000220: aa32 a63d 5823 fe3d 4a57 bd3d f0e5 a73d
00000230: 5c78 a5bd 60ef cc3b 2a41 8dbd 00fd db3d
00000240: e663 95bd ac5b 8dbd cef2 b53d b47d d83d
00000250: 689a b73c 08a1 89bc 84c1 62bd 4851 a4bc
00000260: fc69 a03d 8048 d6bb 2676 a23d c8cb f43d
00000270: 20a8 d3bd 6460 e4bd ee4c 89bd 6cc5 713d
00000280: 58bb c5bc e07a fabc 8c84 afbd 24f3 e33d
00000290: 56f7 a5bd a0ff ed3b 7c0b b7bd e44f 05bd
000002a0: 3cff 2d3d 5071 fc3c 107b 8dbd e836 8d3d
000002b0: 5052 813c 6671 b03d 200d 0dbc 7c52 06bd
000002c0: 2824 01bd 302d ce3c 4814 f53d 7822 8ebc
000002d0: e868 a23d 8c1d 69bd 9abf d6bd 2256 dd3d
000002e0: 4a7b ad3d 0496 c63d 4c16 aabd 6ea0 9d3d
000002f0: 6acc c9bd c673 f73d 5c1e 6dbd 2852 ec3c
00000300: 40de d93c 6a20 e9bd 94db a3bd 361e 94bd
00000310: 9a7a 9d3d 9c66 d33d 3c1e cd3d fc53 9abd
00000320: 223c ae3d 905b 473c 28ce 943d 786d b9bd
00000330: 1022 063d c06d 463c 1c94 0ebd 9631 e5bd
00000340: 90b9 4e3d f87e 833c 0010 a43d 5a11 f83d
00000350: 3896 e4bd 2067 473d 7af0 a43d e848 8ebd
00000360: e4d3 713d 084e 4cbd 1e6f a03d b074 9dbc
00000370: 7871 f03d b81a a1bd 8496 01bd e674 95bd
00000380: cc30 8abd 8404 6b3d c433 13bd b87b 80bc
00000390: 6800 e1bc 50e4 92bd 04ed 513d be85 b03d
000003a0: ec33 2fbd 2ab8 ce3d f0dd 563c ac0c 5d3d
000003b0: 90b7 b7bd d023 f0bd bc5a 2b3d 1893 2cbd
000003c0: fca4 b4bd 9868 d93d c06f 6e3c d063 c73d
000003d0: a805 843d 4a00 c1bd 9c54 c93d 1653 afbd
000003e0: c0ac fd3b 0eba 9f3d aead b6bd 7e01 dfbd
000003f0: 8892 f1bc 58ad d0bc c88d bf3d 40da 903b
-0.07662469 0.060847625 -0.017912403 0.061305836 -0.052440703 0.07310195 0.00029173493 -0.07303096
-0.0119036585 0.017346084 -0.065879524 -0.009347722 0.027647167 -0.024192512 0.055015966 -0.10477418
0.04379472 -0.03680852 0.06710705 0.11994621 -0.018192217 0.04827343 0.09581302 -0.036069363
0.11710662 0.11952701 0.06318799 0.11686833 -0.026151568 -0.065568596 -0.060005173 0.12254177
-0.08816944 0.07250637 -0.04653226 -0.011967093 -0.0018199831 0.106385216 0.11753808 0.06883921
0.09673683 -0.10667841 0.0125721395 -0.08119959 0.10051486 -0.03416854 -0.055186987 0.077053964
0.016907468 -0.09567298 0.0992116 0.031048909 0.06038885 0.0124771 0.12387878 0.11002523
-0.07665944 -0.075396165 0.029047877 0.065237686 0.009608328 -0.07638876 0.09402488 0.0033188015
0.11569719 0.04446903 0.121414885 -0.06832428 -0.014585242 0.057775453 -0.08223325 -0.11322312
0.042696297 -0.047207966 0.11968994 -0.038571447 0.058193922 0.07456499 -0.088059634 0.022531345
0.09575318 0.07461788 0.11025594 0.017690495 -0.106847346 0.041889176 0.11447184 0.06881824
0.030287236 0.10471369 0.047145054 -0.04706052 -0.0039316267 0.0395201 -0.005741626 0.09930271
-0.061376333 -0.1213713 -0.08498235 -0.06629123 0.05514604 0.06755367 -0.09960066 -0.05580984
-0.07839434 -0.07569724 0.100324705 -0.080244824 -0.103851244 0.026832432 -0.049611434 0.010980263
-0.109702915 -0.064516336 -0.064780906 0.028606206 -0.12113367 -0.0071930587 0.040968522 -0.07110281
0.11539759 0.031151727 0.094288245 -0.018915355 -0.010541141 -0.02691631 0.059188545 -0.099095
-0.062320054 -0.012726381 -0.04087332 0.035198748 -0.031695053 -0.08314781 0.09858103 -0.08994199
0.08115132 0.12409085 0.09245165 0.08198154 -0.08079597 0.0062541217 -0.06897195 0.10741615
-0.07294445 -0.06902251 0.08884202 0.10570851 0.022412494 -0.016800418 -0.055360332 -0.02005829
0.07832715 -0.0065394044 0.07932691 0.11952931 -0.10334802 -0.111511976 -0.06704126 0.059026167
-0.024137184 -0.03057617 -0.08570203 0.1113036 -0.08103816 0.007263139 -0.08937737 -0.032546893
0.04247974 0.03081575 -0.06908238 0.06895238 0.01578632 0.08615379 -0.008609086 -0.032793507
-0.031528622 0.025168031 0.11966759 -0.01735042 0.079301655 -0.056912944 -0.10485764 0.10807444
0.08470781 0.09696582 -0.08305034 0.07696615 -0.09853442 0.12082629 -0.05789028 0.028847769
0.026595235 -0.113831356 -0.080008656 -0.07232325 0.076894 0.103223056 0.100155324 -0.0753555
0.08507563 0.012167826 0.07265884 -0.09054083 0.03274733 0.012111127 -0.034809217 -0.111910984
0.050469935 0.016051754 0.08010864 0.121126845 -0.111614645 0.048682332 0.0805368 -0.069474995
0.059039965 -0.049879104 0.07833694 -0.01922068 0.117403924 -0.07866424 -0.031637684 -0.07297687
-0.067475885 0.057377353 -0.03593804 -0.015683994 -0.027466014 -0.071724534 0.051251426 0.08619259
-0.042774126 0.1009372 0.013114437 0.053967163 -0.08970559 -0.11725581 0.041834578 -0.042132467
-0.08820531 0.10615653 0.01455301 0.097358346 0.06446391 -0.09423883 0.09830591 -0.08560769
0.0077415407 0.07799159 -0.089198455 -0.108889565 -0.029488817 -0.025473282 0.093532145 0.0044205487

fc2.bias_ih_l0 f4 [256]
00000000: 749c 19bd 2e14 ddbd e958 ba3d 660e 0abe
00000010: 76a1 b6bd 0cde a7bd 8c9b 2ebd a100 88bd
00000020: 4c8f 49bd 7054 7d3d cc79 a53d efa2 5b3d
00000030: ba10 a0bd 79e0 c8bd a821 bd3c 0006 a1bd
00000040: d3bf d83d 9aa4 93bd 8c26 4abc 2466 a23d
00000050: 550b 493d 4304 3db9 81b1 c53d c538 debd
00000060: d44c 6ebd 6762 633d b4d9 dabd 52ff ef3c
00000070: fe8c e03d 71e6 eb3d 5f5c 1abd 2abb d03d
00000080: 0c56 dabd 9478 e63d b40b 01bd 310c 143d
00000090: 610a 483b 327c 1dbd 1e5b 933c 1930 eb3d
000000a0: 8193 ec3c 426b c23d f625 a2bd e612 a3bd
000000b0: e2b7 a93d 151d 593d 927c 8a3d 3c6a b53d
000000c0: b4f1 91bd 2523 02bd 4d4a 23bc d5f6 f23c
000000d0: 9482 0d3e af26 05bc 0dc1 3dbd a14c 05be
000000e0: e043 b83d 6010 a7bb 88ab 4f3e 8391 d2bd
000000f0: 4c1e ea3d 30ec 8f3c 60ee 53bc 67f0 23bd
00000100: 68f1 b03d fa39 bb3d 4849 cbbd bac8 c33d
00000110: e875 aebd 3074 3abc 74fc c1bd 888f c7bd
00000120: 6e1b 853d 58e0 f8bc e40d 9d3d 3076 7dbd
00000130: c80a fd3c 848b b2bd ac15 42bd 0cc5 083d
00000140: a060 363d a80a 3a3d 00a0 09b9 f0fb 5dbd
00000150: ec09 a8bd 206a cf3d d0ea 073d 0c74 27bd
00000160: 94aa 743d c818 f23c c013 683d b8d3 dfbc
00000170: c050 583c 28b4 e73d 7865 24bd 1ac3 e3bd
00000180: ca14 b83d 5e73 893d e8a8 aebd 104c 7a3d
00000190: a016 6cbc 7cbd 343d 6ca7 e4bd beda ac3d
000001a0: 0ec2 f5bd 94ac 28bd bce0 f3bd 14f6 43bd
000001b0: fa49 d1bd dc3b 133d ea81 843d a8eb 8b3c
000001c0: f648 d03d 7c57 dc3d c4af 8e3d 901c fdbc
000001d0: 7a20 b2bd ae39 d33d e851 75bd 2c7a 75bd
000001e0: dcf9 4d3d b62a a6bd ee2b dcbd 44b3 f13d
000001f0: 9ccc af3d 0e0d afbd 58d2 9c3d 8091 cebc
00000200: 56ac afbd f226 de3d b23e b53d 8c83 603d
00000210: 40a2 b13c fb8e 4a3c d164 70bd 62fe 70bd
00000220: c13f 293d f239 8a3d c8d0 e83d c017 f2bb
00000230: 0b81 a2bd 2468 42bd 4c1d 7a3d 4018 583c
00000240: 0afe e33b 8546 a63d aa51 eabd 807e 6d3b
00000250: e4d5 82bd cf5f b6bd a941 13bd c022 183e
00000260: 1a75 b43d 01ac f03d 483e 50bd 5625 3bbd
00000270: 5ceb 41bd 491c a73c 4204 0abe 78c4 5ebd
00000280: bab3 e9bd 24a7 cf3d dc87 debb 2058 f6bb
00000290: 6589 43be 01d8 ebbd 77da b8bc f080 bebd
000002a0: b623 f5bd 1463 8fbd 9ccc da3c 581f a23d
000002b0: d049 ac3c c9d3 0d3e ee67 f33d 9e60 85bc
000002c0: edb6 143c 781b 453d 9e91 c2bd 4831 103d
000002d0: b528 043d 8056 fb3c 8a76 f1bd 1350 8dbd
000002e0: a037 4ebd 7cbc 62bd 9932 c5bd 6584 843d
000002f0: a818 e53d 169c d7bd 4ca4 6c3d d416 95bd
00000300: 2cec f237 c7c0 463e 549c ba3d d4cb d03d
00000310: 3bd8 163d c967 9b3d 6a9b 433e 10f2 8c3c
00000320: 5d1c 6bbd b7e0 79bd 9024 da3c 5be5 e7bd
00000330: ff55 f23c fad2 5ebc fe1a f5bd 786d d83d
00000340: b4c5 efbb fd82 ed3d 2fb1 113d 72db 1ebe
00000350: 08a1 b53d 82bd 223d 3621 1fbe d4db 54be
00000360: f88e 263d b3b0 063e 68ad db3b a466 62bd
00000370: 0012 a3ba c3b3 50be dcd1 443e 2430 25bc
00000380: 50ab 0dbe 789c 383d 81c7 213e b080 7dbd
00000390: 0692 c63d c044 69bc afb4 9ebd 8bb9 c33c
000003a0: 34f4 173d 4dc2 47bd 4e23 e8bb 47e9 523c
000003b0: e4a5 a3bd 8af8 f4bd c02f ba3d 51cf ba3d
000003c0: 6eea ca3d 4c81 dbbc 27ca ce3d 4c86 e3bd
000003d0: b178 8cbd 48f3 533d f3eb 26bb 7c8b c03d
000003e0: 49d1 8b3d 595a f1bd 3036 b23d 8c63 e73d
000003f0: 1360 d3bd ea78 d4bd 2e93 eebc 0931 9f3d
-0.03750272 -0.107948646 0.090989895 -0.13482055 -0.08917515 -0.08196649 -0.04262881 -0.06640745
-0.049208924 0.061848104 0.080798715 0.053622182 -0.0781569 -0.0980844 0.023087338 -0.078624725
0.105834626 -0.0720913 -0.012338292 0.07929638 0.049083073 -0.00018026032 0.09652997 -0.10850672
-0.058178738 0.055513766 -0.10686055 0.02929655 0.10964392 0.115185626 -0.03768575 0.10191949
-0.106609434 0.11253467 -0.0315053 0.03614444 0.0030523764 -0.03844852 0.017987784 0.11483783
0.02887893 0.09493114 -0.07917397 -0.07962589 0.08287026 0.05300625 0.06762041 0.08858153
-0.07126179 -0.031771798 -0.009966445 0.029658714 0.13819343 -0.008126899 -0.046326686 -0.13017513
0.08997321 -0.0050983876 0.20280278 -0.102816604 0.1143156 0.017568678 -0.012935251 -0.040024187
0.086397946 0.091419175 -0.09926087 0.0955977 -0.085185826 -0.01138024 -0.0947198 -0.09744173
0.064993724 -0.030380413 0.07668665 -0.06188029 0.03088893 -0.08718017 -0.04738395 0.033391044
0.044525743 0.04542032 -0.00013124943 -0.054195344 -0.082050174 0.101276636 0.03318292 -0.040882155
0.05973299 0.029552832 0.05665946 -0.027322635 0.013202846 0.11313659 -0.04013583 -0.11121197
0.0898834 0.06711458 -0.0852831 0.061107695 -0.014409691 0.04412602 -0.11164746 0.08440159
-0.119999036 -0.04118021 -0.11908099 -0.0478421 -0.10219188 0.03594576 0.06470092 0.017080143
0.10170166 0.10758874 0.069671184 -0.030897409 -0.08697601 0.10313736 -0.059892565 -0.059930965
0.050287113 -0.08113615 -0.107505664 0.1180177 0.08583948 -0.08547412 0.076573074 -0.025215864
-0.08577792 0.10847272 0.08849849 0.054812953 0.021683812 0.012363191 -0.058689896 -0.05883635
0.041320566 0.067493334 0.11367947 -0.007388085 -0.07934769 -0.047462597 0.061063096 0.013189375
0.006957774 0.08118919 -0.114413574 0.003623873 -0.06388453 -0.08904993 -0.03595129 0.14857006
0.08811398 0.11751557 -0.050840646 -0.045689903 -0.047343597 0.02039923 -0.13478187 -0.054386586
-0.11411233 0.101393014 -0.006791098 -0.0075178295 -0.1909538 -0.11515809 -0.02256511 -0.093019366
-0.11969702 -0.070013195 0.026708893 0.079161346 0.02103129 0.13850321 0.118850574 -0.016281422
0.009076816 0.0481219 -0.095004305 0.03520325 0.032265384 0.030680895 -0.11790188 -0.069000386
-0.050346017 -0.055355534 -0.09628791 0.06470565 0.111863434 -0.10527818 0.057773873 -0.07279745
2.8958624e-05 0.19409476 0.091118485 0.10195127 0.036827307 0.07588155 0.19102255 0.017205268
-0.057400096 -0.06100532 0.026628762 -0.11323043 0.029582022 -0.013600105 -0.11968039 0.105677545
-0.007317269 0.1159725 0.035569366 -0.15513399 0.08868605 0.03973151 -0.15540013 -0.20786983
0.04066369 0.13153343 0.0067040212 -0.055273667 -0.0012441278 -0.20381074 0.1922068 -0.010082278
-0.13834882 0.045071095 0.15798761 -0.061890304 0.096958205 -0.014237583 -0.077493064 0.023892185
0.037098125 -0.048769284 -0.007084287 0.012873 -0.079906255 -0.119614676 0.09091139 0.09121574
0.09907995 -0.026795052 0.10097151 -0.111095995 -0.068589576 0.051745683 -0.0025470227 0.094016045
0.06827027 -0.117848106 0.08701742 0.11298284 -0.10321059 -0.10374625 -0.029122915 0.077730246

fc2.bias_hh_l0 f4 [256]
00000000: 817e 66bc 5135 02bd c736 01bd 9cb2 443d
00000010: 0ad5 a03d 3d08 6f3d 58a6 c83d 15f4 d6bd
00000020: 27a2 1bbe e052 a33d 107d 4cbd 3c65 813d
00000030: 6b69 ff3c 45d9 8bbd 5c3e f7bd b3a3 60bd
00000040: d8b3 093e 6912 e5bc ef2d 913d f0c5 833c
00000050: 4adc 80bd 338d b03d c725 28bd 374b a9bd
00000060: 245b 0d3d 450c c1bb 42be 8dbd ed0b 5c3c
00000070: e833 b63c d4cf ddbc 2ebe 443d 6409 6ebd
00000080: fae4 91bd 2895 aa3c 1c60 53bd b7c5 84bd
00000090: 54a8 823c 74ff 033c 87e5 e8bb 9fb1 17bd
000000a0: b31a b63d 2cea d83d 346a 053d dd4a 12be
000000b0: be14 e43d 874f 2b3e 64b2 3dbd fe49 b8bc
000000c0: e7cb 8b3d 479e af3d 1a7b 0fbd 2eb1 03bd
000000d0: 79d7 b2bc ee37 1bbe eead f33d 93f8 02bd
000000e0: 1253 833d c0ac 12bc 4002 463e bd9d 21bd
000000f0: 8883 dd3d b81c dc3c aa83 e6bd 6e89 c9bc
00000100: 82ef ba3d b616 bb3d 5c4a 913d c2bd c6bd
00000110: b670 d4bd 1833 9b3d e05a 943b d03d 13bc
00000120: 68cc b43d bec4 ee3d eac7 cebd d40f d0bd
00000130: 14e1 a23d 405e b4bb 5824 993c 3eda 85bd
00000140: 000f d93d 1e5b acbd c8db 7cbd 6c8c 5ebd
00000150: cc77 113d e804 9d3d e406 12bd f4fe e4bd
00000160: 94ac 93bd 007d 513b 6c37 2cbd b034 59bd
00000170: 2065 18bc 88bc 14bd 9c44 acbd c4f0 71bd
00000180: b26d 9f3d 5e65 8dbd c409 ec3d f0b4 cabc
00000190: 8448 c3bd 0a27 9ebd b4c2 eb3d 1474 07bd
000001a0: 40c9 703b f2c5 ecbd 84fd 113d 0019 293b
000001b0: 4a1e 9d3d 5085 c1bc 38f5 5e3d 988c cabc
000001c0: 08c7 6bbd c0f6 203c a896 bebc 5a88 e93d
000001d0: d22d 8bbd 30fb 8cbc 1cbf 34bd 9c30 033d
000001e0: 58ba 9ebc fc77 0abd b8f9 da3d 0056 9bbc
000001f0: 2cfc f4bd 60d8 ddbb 10d8 59bc 24a2 483d
00000200: f0e8 8f3d 17ec 77bd a84c 443d 3891 fd3d
00000210: d091 5e3d 7b31 90bc 6ef4 253c 8779 163e
00000220: fbaf cb3c 98fa 5ebd 6679 9a3d 68aa f2bc
00000230: a192 d43c 6871 673d f02b 923d d4f5 d33d
00000240: 8939 3e3d 6e7f 99bc 11ee f93b 061c 9b3d
00000250: f0da 81bc 2a0a 033d 13af a8ba 22e0 163e
00000260: bce5 7cbd 3fbe d4bc 04e7 54bd 6f5f ee3a
00000270: 5cb8 1abd 40ad 81bd 50b5 9c3d 52d9 b2bd
00000280: 9558 0abe 2202 dfbd 0894 bfbd 701f c5bd
00000290: 3305 bdbd 3fe3 87bc 3a19 efbd f218 583b
000002a0: b096 63bd c413 683d 5141 733d 75f3 103d
000002b0: 3016 0fbc f53d 85bd c076 83bc c4bf b0bd
000002c0: e986 e9bc 7cca ff3d 90f8 9a3d 00b0 7fb8
000002d0: 1043 063e d0ad b6bc 2414 5f3d 4a24 78bd
000002e0: 1452 9b3d 787f a3bd ee2d fdbd f517 8f3d
000002f0: 4a6d ae3d f6a1 f0bd 86f6 8fbd 006d 05ba
00000300: d967 24bd 6489 8d3b 703e bebd 40d9 c0bc
00000310: 60c1 6a3d 6adf 2f3e a727 2b3e afd8 943c
00000320: 433b 2c3d 9624 ad3c c05a 06bd db73 aebc
00000330: b1bf d83c 7457 ac3d 8010 4bbd 6c4c 41bd
00000340: bbf0 803c 3172 903c 108e c33b f6ac 18be
00000350: 2a4a 8a3d f947 303c 4beb 163c 690d bc3c
00000360: a153 cd3c 7523 aabc fa68 98bd f026 123d
00000370: 1641 e4bd cd27 01be d16a 863d c6fe acbd
00000380: aeab 963d 1d79 60bc 401c 95bd 1a70 ca3d
00000390: bad6 9d3d 303f b33d 4522 e7bb 5a05 babd
000003a0: 98dd 263d fa99 d0bd a80c d93d d31c 823d
000003b0: c009 9a3c d68e d13d 96a3 13bc 5c11 b93d
000003c0: 97e8 8b3d 51a9 6abd afe9 6c3d 081a e5bd
000003d0: 758b 7ab9 5c48 c6bd 9e8b a7bc 9350 b83d
000003e0: d78c 9c3c f2f3 9abd 5463 853d e029 2ebd
000003f0: 4183 2e3d d8f6 a9bd 7006 c6bc 6624 b0bc
-0.014068247 -0.031789128 -0.03154638 0.048021898 0.07853134 0.058357466 0.097973526 -0.10495774
-0.15198575 0.079747915 -0.049923956 0.06318137 0.031178197 -0.0682855 -0.12072441 -0.054843616
0.13447511 -0.02796288 0.07088839 0.016085595 -0.06292017 0.086206816 -0.041051652 -0.08266299
0.034510747 -0.005891355 -0.069210544 0.013430578 0.022241548 -0.02707664 0.048032932 -0.058114424
-0.07123752 0.020823076 -0.05160533 -0.064830236 0.015949406 0.00805651 -0.00710744 -0.037034627
0.08891811 0.1059154 0.032571986 -0.1428637 0.11136769 0.16729556 -0.046312705 -0.02249622
0.06826001 0.08575111 -0.03502951 -0.032151394 -0.021831261 -0.15158054 0.11898409 -0.03197534
0.06412329 -0.00895232 0.19336796 -0.03945707 0.10816103 0.026869163 -0.11255582 -0.024601664
0.09127714 0.09135191 0.07094261 -0.09704162 -0.103730604 0.07578105 0.0045274347 -0.008986905
0.0882805 0.11658619 -0.10096724 -0.10159269 0.079530865 -0.0055043995 0.018694088 -0.06535767
0.10598564 -0.08415817 -0.061733037 -0.054333135 0.035514638 0.076669514 -0.035651103 -0.11181441
-0.07210651 0.0031965375 -0.042045042 -0.053028762 -0.009301454 -0.03631261 -0.08411524 -0.059067503
0.077845946 -0.069041 0.115253 -0.02474448 -0.09535316 -0.0772229 0.11511746 -0.033069685
0.0036741048 -0.115611926 0.035642162 0.0025802255 0.07671793 -0.023623139 0.054433078 -0.024725243
-0.057562858 0.009824455 -0.023265198 0.1140296 -0.06795849 -0.01720962 -0.04412757 0.03202878
-0.019375965 -0.033805832 0.10692161 -0.018961906 -0.119621605 -0.0067701787 -0.013296142 0.048982754
0.07026851 -0.060527887 0.047924668 0.12381214 0.054338276 -0.01760172 0.010129077 0.14694797
0.024864187 -0.054438204 0.07542686 -0.029622272 0.025948824 0.056504637 0.07137287 0.10349622
0.04644159 -0.018737521 0.0076272567 0.075737044 -0.015851468 0.031992115 -0.0012869559 0.14733937
-0.06174253 -0.025969623 -0.051978126 0.00181864 -0.037773475 -0.06331873 0.0765177 -0.08732857
-0.13510354 -0.10889079 -0.093544066 -0.09625137 -0.09229507 -0.016587852 -0.116747335 0.0032973853
-0.05556363 0.056659475 0.059388462 0.03538843 -0.008733317 -0.06505958 -0.016047835 -0.086303264
-0.028506713 0.12489793 0.07566941 -6.096065e-05 0.1311152 -0.022299677 0.054462567 -0.060581483
0.075840145 -0.07983297 -0.12362276 0.06986991 0.08516939 -0.117496416 -0.070294425 -0.00050897896
-0.0401381 0.0043193568 -0.09289253 -0.023541093 0.057313323 0.1717507 0.16714345 0.018169729
0.042048704 0.02113561 -0.03280139 -0.021295479 0.026458593 0.08415118 -0.049576283 -0.047192022
0.01573979 0.017632576 0.005967863 -0.1490973 0.06752427 0.010759347 0.009211372 0.022955613
0.025064291 -0.02076886 -0.07441898 0.035681665 -0.11145227 -0.12612839 0.06563342 -0.08447032
0.07356964 -0.013700751 -0.07280779 0.09884663 0.077069715 0.087522864 -0.007053646 -0.09083052
0.040738672 -0.10185619 0.10598117 0.06353154 0.018803477 0.10232322 -0.00901117 0.09036514
0.06831472 -0.05729038 0.057840046 -0.11186606 -0.0002389381 -0.0968177 -0.020452317 0.08999743
0.019110126 -0.0756606 0.06513086 -0.042520404 0.042605642 -0.08299035 -0.024172992 -0.021501731

fc3.weight f4 [3, 64]
00000000: d3f0 0cbd e5ce 243f 6f76 6f3c a1a3 d4bc
00000010: bfeb f2bc 3738 abbe ffd4 97c0 44ba a93f
00000020: dd09 71bf b94f bd3f 803c cf3d 0bf1 d53c
00000030: b048 9ebe 19b2 0dbe 7c6f f33d 6aec fa3c
00000040: bd6d b33f 316d 7abf 948b 893e 26d8 36be
00000050: 175e b93c 3134 84bc 1141 9f3d e59c bc3d
00000060: d473 35bc 2bc9 453d e798 573d a398 55be
00000070: e6dc f93d 4791 3740 ece1 acbf 8365 68bd
00000080: 0461 10ba a873 73bd 658e c53f ea02 1e3d
00000090: 07b5 9040 c60e 8c3e dd1a 56c0 0370 96bf
000000a0: 0d4e db3c ab85 f5bd 5388 06be 2a52 96bd
000000b0: 00b2 453b 19ec d13f 596e ac3c c353 593f
000000c0: 807c 473e 2db2 c83e 0ddf 1e3b fa60 81bd
000000d0: 96f4 6fbe beae b3bd 0202 cebe 09d2 003e
000000e0: 8ca2 933f 3d3a b6bc b0fa b0be 4990 9b3d
000000f0: 3b84 643c 3cdb 243e cea7 7fbd e016 8b3e
00000100: 75aa 983d 46f1 dfbd 1b54 02bd 4e9f 123b
00000110: c815 dfbd 66d9 27bd a8b0 41bf c6ae 9f3e
00000120: 5b5d 97be fc20 4b3f 0a3b d8bd 119b a93d
00000130: 8f6b d1be 809e 58bd 94eb 1d3d 3be8 afbc
00000140: 42c7 253f 0e1d 2abf f125 fd3e a18e 2cbd
00000150: 9219 9ebd 86c9 3cbd f3d9 1f3e 2a3b b2bd
00000160: 3057 893c 7ee0 0f3d 0a59 c23d 3633 ccbc
00000170: 1c55 0c3d 5269 0a3f cd38 cbbe a8de 36bd
00000180: fc6e 01be 2646 e2bd 96a1 3a3f b05d 463c
00000190: 5148 8d3f 70c2 423e e20e 4ebf ecc6 eebe
000001a0: 80e0 413b fc1f 30bd e12e d1bc 8eda c2bd
000001b0: 0806 863c 35ef 8a3f 3eed 983d fa59 063f
000001c0: 167d 313e 1888 c53d 9577 073e a806 903c
000001d0: 5d93 a13d 4a37 af3d 80d4 2bbe ab19 92bd
000001e0: b2ce 2fbe 40ec 673c bc09 fdbe 4f27 bc3e
000001f0: a05b 37bc fcd7 c1bd 6065 333c fb54 423e
00000200: 21b7 73bc 2e57 6cbd 08af 7d3d e81d d3bd
00000210: 764b 8dbd f45a 09be a9ae 27bf ee2e fa3e
00000220: 3c80 5abe ba91 fc3e 71eb df3c 694e 143e
00000230: 674b 7cbe 9682 36bd 4c98 4b3d 70bd bdbd
00000240: 834c 183f 95fd d4be 8ecf a73e d72e 4cbd
00000250: f190 dabd 861f 1dbe c3f9 113d 490f 2b3d
00000260: f809 c03c 7e12 14be 68cc 00bd fa66 423d
00000270: e0b5 f8bb 3596 683f c093 1cbf c823 b6bc
00000280: 4c61 4abe fc1f 84bd 0547 003f 0395 b3bd
00000290: 0961 d33f 41da 813e ca36 a2bf 21ab cfbe
000002a0: 0c2f c1bd 5ddd fc3d 93b0 a33c e72b afbe
000002b0: 1030 58bd 478c 593f 5811 f23d cb81 b23e
000002c0: c972 043f a4eb ea3d 808d 8a3d 33b4 8cbd
000002d0: a0f1 603d c309 94bd 4c50 d6be 17cb ebbd
000002e0: e71a 4e3f c868 8e3d b9b0 11bf c8dd b03d
000002f0: 8886 ad3c 461b 9d3d 6a7e c2bd 5754 3c3e
-0.034409355 0.64378196 0.014615639 -0.02595693 -0.029653428 -0.33441326 -4.7447505 1.3259969
-0.94155675 1.4789954 0.10118961 0.026115915 -0.3091483 -0.1383747 0.11886498 0.03063031
1.4017864 -0.9782286 0.26864302 -0.17855892 0.022627873 -0.016138168 0.07776082 0.09209613
-0.011074979 0.04828755 0.052636053 -0.20859008 0.12200336 2.868242 -1.3506446 -0.056737434
-0.00055076205 -0.05943647 1.543408 0.038576998 4.522098 0.2735502 -3.3453896 -1.1752933
0.026770616 -0.11988386 -0.13137941 -0.0733989 0.003016591 1.6400176 0.021048712 0.84893435
0.19481087 0.39198437 0.0024241835 -0.06317325 -0.23433146 -0.08773564 -0.40235907 0.12580122
1.153398 -0.022244567 -0.3456626 0.075958796 0.013947542 0.16099256 -0.06241589 0.2716589
0.07454387 -0.10934691 -0.03181849 0.0022372785 -0.10892826 -0.04097881 -0.7566018 0.3118803
-0.29563412 0.79347205 -0.10558136 0.0828153 -0.40902373 -0.052885532 0.038554743 -0.02147304
0.6475717 -0.66450584 0.4944301 -0.04212821 -0.07719721 -0.046090625 0.15610485 -0.08702691
0.016765207 0.0351262 0.09489639 -0.024926763 0.034260854 0.54066956 -0.39691773 -0.044645935
-0.12639993 -0.11048536 0.7290281 0.012107298 1.1037694 0.19019485 -0.8049146 -0.4663614
0.0029583275 -0.042999253 -0.025535049 -0.09514342 0.016360298 1.085425 0.07467125 0.52481043
0.17332873 0.096450984 0.1322921 0.017581299 0.078894354 0.085554674 -0.16780281 -0.07133802
-0.17168692 0.0141554475 -0.4942149 0.3674874 -0.011191279 -0.09465024 0.010949463 0.1897773
-0.014875204 -0.05770033 0.0619345 -0.103084385 -0.06899159 -0.13413602 -0.65500885 0.4886393
-0.2133798 0.4932993 0.027333947 0.14483036 -0.24638139 -0.04455813 0.04970579 -0.09264648
0.5949175 -0.41599718 0.3277554 -0.049849357 -0.10672177 -0.15344056 0.035638582 0.041762624
0.023442253 -0.14460179 -0.031444937 0.047461487 -0.0075900406 0.908542 -0.6116295 -0.022233859
-0.19763678 -0.06451413 0.5010837 -0.08768656 1.6513988 0.25361827 -1.267297 -0.40560248
-0.094328016 0.12346909 0.019981658 -0.34213182 -0.05278021 0.8497967 0.11819714 0.3486465
0.5173765 0.11470726 0.0676527 -0.06870308 0.05491793 -0.072284244 -0.41858137 -0.11513346
0.805098 0.06953579 -0.5691028 0.086360514 0.021182314 0.076712176 -0.09496768 0.18391548

fc3.bias f4 [3]
00000000: 0181 a03f 917e e93e 7c77 c53e
1.2539369 0.45604375 0.38567722
