Models/LSTM/agentDQN-LSTM_2020-2022_lstm_v4_300_EPS_1.pth (torch, 256291 bytes, 8 tensors)

fc1.weight f4 [128, 104]
0.014643932 0.25487158 0.09447108 -0.14222945 -0.032183707 -0.05574432 -0.04633891 -0.068979256
-0.08553885 -0.06748669 -0.07084978 -0.04006985 0.011953692 -0.021147024 -0.0499918 0.0010503443
-0.009051689 0.005181578 -0.0723801 -0.13659047 -0.12938593 -0.06308979 -0.012032265 0.021893248
-0.03707876 -0.15404284 -0.025205525 -0.18159147 0.129882 -0.17943057 -0.17596948 -0.050621625
-0.11611708 -0.09221206 -0.21806525 -0.07811744 -0.17969559 -0.05919616 -0.13531157 -0.15951577
-0.10196305 -0.10823271 0.117612615 -0.10341131 0.0865245 0.036877982 -0.091764085 -0.017258668
-0.01947938 0.09310775 0.11841028 -0.00022686743 -0.04926044 -0.18490835 0.330651 0.02762947
-0.060589284 -0.088949166 -0.1020386 0.0850726 0.044265743 0.28036037 0.20105171 -0.23084058
-0.07346089 0.07318233 -0.09197967 0.039707035 -0.007775823 -0.0028310686 0.028251879 0.04348537
-0.025432177 -0.14294115 -0.049935732 -0.023962317 -0.041167844 0.024716822 -0.05658669 -0.022265043
-0.019452544 -0.050641365 -0.015274529 0.014512547 -0.0032506206 -0.07438953 0.041016154 -0.044853695
-0.10615952 0.05341774 0.017113186 -0.09592936 0.040569562 -0.118626244 -0.036460023 0.025037201
0.10012888 -0.16676691 0.13649759 0.093394384 0.106031165 -0.08098683 0.04084904 -0.112959065
0.08784111 0.07463606 0.063298784 0.25607595 0.31260148 0.17625557 0.09668364 0.16754447
0.17093076 0.16592172 0.092542 0.18089435 0.16521694 0.2422335 0.32138398 0.1926761
0.14097112 0.29338646 0.17832185 0.17434604 0.38672227 0.3048833 0.35850695 -0.18465456
0.16350432 0.09508475 0.15906109 0.40628806 -0.20153087 0.2375002 0.16264495 -0.21394785
0.43081242 0.26198465 0.3511259 0.43941098 0.36141312 0.39994663 0.15993266 0.24159522
0.4426485 0.35891166 0.19621812 0.5775948 0.35587177 0.27644148 0.15729547 0.24403086
-0.35871822 0.1321251 0.30221152 0.04769633 0.17950805 0.19377914 -0.10553833 0.32172182
0.18407705 0.22528917 0.21426524 0.030545024 0.09016295 0.01526063 0.22076637 0.14384802
-0.023919601 -0.25612912 0.34028307 0.28170353 0.2886421 0.15885098 0.2110538 0.28570327
0.28312764 0.20693228 0.2466415 0.28484482 0.20905979 0.15773518 0.23816516 0.17481199
0.31361142 0.3195876 0.32206097 0.1594551 0.17449747 0.22000767 0.25591782 0.10907052
0.16300337 0.16213344 0.14748111 0.20167552 0.17203139 0.12984154 0.05304341 -0.11667731
0.029434476 -0.029998995 -0.07034847 0.07776953 0.06874754 0.2172827 0.025063822 -0.015800023
-0.036369868 -0.011783143 -0.09502467 -0.13421026 -0.10737886 -0.08446009 -0.032196168 -0.11613903
-0.039197575 -0.10477107 -0.09307536 -0.2201882 -0.061713986 -0.08792128 -0.028008712 -0.1611856
-0.20853592 -0.030874807 -0.124333836 -0.11064679 -0.16728036 -0.09899894 -0.17223841 -0.071960874
-0.08743419 -0.051279787 -0.06641571 -0.20687354 -0.012023884 0.0065509146 -0.06622143 0.16252342
-0.05092801 -0.05694921 0.00243845 -0.20321123 -0.10920227 -0.24986835 -0.07275987 -0.07354074
-0.052007966 -0.16691144 -0.048492685 -0.20692952 -0.08011393 -0.189764 0.014194596 -0.08264708
00000000: 1aed 6f3c 877e 823e 0e7a c13d 99a4 11be
00000010: 10d3 03bd 2854 64bd decd 3dbd ff44 8dbd
00000020: fe2e afbd 7636 8abd b119 91bd 4820 24bd
00000030: 6bd9 433c 863c adbc 34c4 4cbd b5ab 893a
00000040: 894d 14bc 3aca a93b 053c 94bd 5fde 0bbe
00000050: bf7d 04be 3835 81bd fa22 45bc 7859 b33c
00000060: e6df 17bd 68bd 1dbe d17b cebc 1df3 39be
00000070: c9ff 043e a6bc 37be 5831 34be 9f58 4fbd
00000080: cbce edbd add9 bcbd 7f4c 5fbe 09fc 9fbd
00000090: 1f02 38be ac77 72bd 1e8f 0abe 1a58 23be
000000a0: 01d2 d0bd 1ca9 ddbd e2de f03d 4fc9 d3bd
000000b0: c233 b13d 5e0d 173d cfee bbbd 0d62 8dbc
000000c0: 3993 9fbc 47af be3d 1781 f23d 43e3 6db9
000000d0: 51c5 49bd 9d58 3dbe 164b a93e 3357 e23c
000000e0: 782c 78bd fb2a b6bd 9df9 d0bd 8b3a ae3d
000000f0: ff4f 353d 658b 8f3e 80e0 4d3e 7961 6cbe
00000100: aa72 96bd 9ee0 953d d65f bcbd d8a3 223d
00000110: 55cc febb 7389 39bb 7c70 e73c b71d 323d
00000120: 2457 d0bc 2a5f 12be 6989 4cbd 9f4c c4bc
00000130: 9d9f 28bd ef7a ca3c 72c7 67bd 2e65 b6bc
00000140: f15a 9fbc 526d 4fbd 0542 7abc 09c6 6d3c
00000150: 5d08 55bb 8a59 98bd 8e00 283d 82b8 37bd
00000160: 2a6a d9bd 8fcc 5a3d f430 8c3c 9d76 c4bd
00000170: 452c 263d 51f2 f2bd 1b57 15bd d11a cd3c
00000180: 5f10 cd3d f2c4 2abe 06c6 0b3e 8e45 bf3d
00000190: de26 d93d 6cdc a5bd 5351 273d 1557 e7bd
000001a0: 0ae6 b33d cada 983d cba2 813d 631c 833e
000001b0: 4d0d a03e 577c 343e 1202 c63d c790 2b3e
000001c0: 7908 2f3e 62e7 293e a986 bd3d 5e3c 393e
000001d0: a12e 293e 0f0c 783e 718c a43e e24c 453e
000001e0: bc5a 103e c036 963e 019a 363e c587 323e
000001f0: 7600 c63e aa19 9c3e 398e b73e 1616 3dbe
00000200: ad6d 273e cbbb c23d e9e0 223e fd04 d03e
00000210: 1c5e 4ebe 4133 733e 668c 263e 2515 5bbe
00000220: 7293 dc3e da22 863e c6c6 b33e 7afa e03e
00000230: 240b b93e cec5 cc3e 63c5 233e bd64 773e
00000240: d3a2 e23e 45c3 b73e 67ed 483e 41dd 133f
00000250: d334 b63e bd89 8d3e 1012 213e 3ae3 793e
00000260: eaa9 b7be cd4b 073e 78bb 9a3e 3a5d 433d
00000270: f5d0 373e 0a6e 463e 7b24 d8bd b9b8 a43e
00000280: b27e 3c3e 34b2 663e 5968 5b3e 8f39 fa3c
00000290: 5aa7 b83d b907 7a3c 9410 623e e54c 133e
000002a0: 0af3 c3bc 5b23 83be 9539 ae3e 723b 903e
000002b0: e6c8 933e d5a9 223e 7d1e 583e b347 923e
000002c0: 1bf6 903e 0ee6 533e 978f 7c3e 2ed7 913e
000002d0: c513 563e 5585 213e 91e1 733e ea01 333e
000002e0: ad91 a03e fca0 a33e 2de5 a43e 3348 233e
000002f0: 77af 323e b149 613e a907 833e 5d60 df3d
00000300: 5bea 263e 4f06 263e 4a05 173e 0784 4e3e
00000310: ff28 303e 2ef5 043e 0c44 593d 83f4 eebd
00000320: 9220 f13c 74c0 f5bc dc12 90bd a245 9f3d
00000330: 83cb 8c3d 5b7f 5e3e a552 cd3c 0d6f 81bc
00000340: 92f8 14bd 150e 41bc 4b9c c2bd 6a6e 09be
00000350: 73e9 dbbd 69f9 acbd 21e0 03bd 4dda edbd
00000360: a38d 20bd 3792 d6bd 4b9e bebd 0479 61be
00000370: cec7 7cbd 1210 b4bd 8772 e5bc d70d 25be
00000380: 718a 55be 2aed fcbc bda2 febd c99a e2bd
00000390: 8b4b 2bbe f5bf cabd 445f 30be 3960 93bd
000003a0: b210 b3bd c10a 52bd f604 88bd a8d6 53be
000003b0: d3ff 44bc 0ea9 d63b 1a9f 87bd 8a6c 263e
000003c0: e499 50bd 9343 69bd 67ce 1f3b 9b16 50be
000003d0: 71a5 dfbd 7ddd 7fbe 2003 95bd 879c 96bd
000003e0: 4e06 55bd d5ea 2abe 44a0 46bd 55e5 53be
000003f0: c612 a4bd 7e51 42be 7390 683c df42 a9bd

fc1.bias f4 [128]
-0.07900327 0.24115553 -0.11199933 -0.11723107 0.03746837 0.18967511 -0.010777012 0.05132212
-0.042499304 0.14863324 0.0935827 -0.10750135 0.28540936 0.2929726 0.1362773 0.21591587
-0.019243613 0.2772065 -0.04052681 0.05631653 -0.067060776 0.0028210094 -0.025344273 0.02644959
-0.17317091 -0.037398968 -0.06091793 0.31337124 -0.056303754 0.021953002 -0.08556107 -0.14628437
-0.124770135 -0.17467007 0.056970127 -0.1340791 -0.048542775 0.048446238 -0.035864037 0.10120744
0.19548063 -0.08276875 0.02207805 -0.06452595 0.19033371 -0.1023911 0.082335494 0.06853147
0.016290117 0.059054617 -0.057364933 -0.06077558 0.024479024 0.19792737 -0.081055336 0.18457393
-0.12777798 -0.082490504 0.14357527 -0.12138074 0.03731277 0.029901428 0.03122515 -0.010997343
-0.019583078 0.12804712 -0.07349035 -0.14566289 -0.011798411 0.049302753 0.12999226 -0.033168886
-0.060834486 0.26862603 -0.022350747 -0.10217649 -0.06363481 0.0034361496 0.25047338 0.14105046
-0.010348007 0.10675903 -0.08190068 -0.026834106 -0.01963146 0.120371684 0.15606774 0.23537385
-0.09576852 -0.1163748 -0.014856973 0.3249638 -0.04955116 0.023957105 0.071880415 0.26088217
0.13363686 -0.093547516 -0.18793812 0.041666284 -0.07553531 -0.08246359 -0.014999121 -0.14366701
-0.0049891267 0.21666962 -0.1608136 -0.12421902 0.21927199 -0.16553149 -0.061489318 -0.06813001
0.057764716 -0.03978418 -0.035039604 -0.134031 0.12830622 0.10072271 0.036156897 -0.023787053
-0.06035226 -0.084238224 0.0081789605 -0.12360755 0.004459153 -0.044572316 0.12272875 -0.005797291
00000000: 77cc a1bd 7af1 763e e85f e5bd d816 f0bd
00000010: 6f78 193d 313a 423e 1192 30bc 2537 523d
00000020: c013 2ebd 5033 183e 49a8 bf3d ab29 dcbd
00000030: 2d21 923e 8100 963e 478c 0b3e 0d19 5d3e
00000040: c8a4 9dbc 03ee 8d3e 71ff 25bd 29ac 663d
00000050: 2957 89bd afe0 383b cb9e cfbc d0ac d83c
00000060: b753 31be a92f 19bd 1485 79bd 3272 a03e
00000070: c49e 66bd c8d6 b33c a43a afbd 92cb 15be
00000080: 7c87 ffbd b6dc 32be 8259 693d 084c 09be
00000090: cad4 46bd 906f 463d 2be6 12bd d945 cf3d
000000a0: 132c 483e aa82 a9bd 07dd b43c 2e26 84bd
000000b0: d7e6 423e 6db2 d1bd 839f a83d 3a5a 8c3d
000000c0: da72 853c 41e3 713d 7ef7 6abd d1ef 78bd
000000d0: 3c88 c83c 79ad 4a3e 5700 a6bd f300 3d3e
000000e0: 3bd8 02be c8f0 a8bd 6505 133e 7796 f8bd
000000f0: 46d5 183d d7f3 f43c e3cb ff3c 332e 34bc
00000100: b16c a0bc c91e 033e 1c82 96bd a728 15be
00000110: 1f4e 41bc aff1 493d b11c 053e 19dc 07bd
00000120: 952d 79bd 5a89 893e ea18 b7bc e841 d1bd
00000130: f852 82bd 0631 613b 0c3e 803e 886f 103e
00000140: b08a 29bc 7aa4 da3d 8bbb a7bd 33d3 dbbc
00000150: 28d2 a0bc 6e85 f63d 39d0 1f3e d805 713e
00000160: 4922 c4bd e955 eebd a96a 73bc a861 a63e
00000170: 28f6 4abd b141 c43c 0a36 933d 5992 853e
00000180: 1ad8 083e d795 bfbd da72 40be 44aa 2a3d
00000190: 42b2 9abd ace2 a8bd e0be 75bc 721d 13be
000001a0: d47b a3bb a4de 5d3e 52ac 24be 8b66 febd
000001b0: d688 603e 1681 29be 39dc 7bbd bf87 8bbd
000001c0: b29a 6c3d bcf4 22bd b085 0fbd 6c3f 09be
000001d0: b562 033e b547 ce3d 4119 143d 11dd c2bc
000001e0: ee33 77bd 1785 acbd 0c01 063c f525 fdbd
000001f0: 161e 923b 7691 36bd 3659 fb3d 34f7 bdbb

fc2.weight_ih_l0 f4 [256, 128]
0.06395879 0.08566001 -0.0640156 -0.031687662 0.047302634 0.03699918 0.09162137 0.10830144
-0.011627659 -0.07575175 -0.08249542 0.040761173 0.11337684 0.01989659 0.09064606 -0.0016598403
0.0017022192 0.072602734 0.09126456 -0.069553554 -0.029436767 -0.0029756483 -0.0889688 0.08160129
0.107273236 -0.03436105 0.10625526 -0.039301082 0.009750411 0.02054052 0.03629288 -0.06880927
0.10201451 0.037416965 -0.11501783 -0.100538835 -0.09892063 0.12180425 -0.11963239 -0.057225406
-0.002045235 0.0745057 0.13763547 0.010590076 0.016806088 -0.03746587 -0.08096607 0.0974313
-0.069748566 0.11497359 -0.026292041 0.106101826 0.04575619 0.04970347 -0.038133495 0.07529888
0.0809782 0.09130394 -0.117688656 -0.0860662 0.10058061 0.061903503 0.108662024 -0.004591629
-0.008394197 -0.023266347 0.14331128 0.059951 -0.05529785 0.023888558 0.002420351 -0.059412464
-0.0006289631 0.092582226 0.04145072 0.06432822 -0.029517824 0.12380347 0.046236306 0.07042694
-0.010167499 0.14059488 -0.045135826 -0.06002431 0.024140075 0.110479765 0.028777516 -0.022184104
-0.0836947 0.009174794 0.071761236 0.082722485 -0.050560746 0.066654645 -0.060640853 0.02008598
0.08746947 0.008468964 0.11437026 -0.0449747 0.029248849 0.09695383 0.07062644 0.07304528
-0.052100718 0.13764408 -0.012839466 0.043799713 0.023734912 0.122854754 0.04189415 0.083501846
-0.088335976 0.060462326 -0.119720414 0.09043232 0.03920975 0.13728184 -0.025686722 -0.10736655
-0.06361106 -0.06026238 0.108855486 -0.08741583 0.011370988 -0.07845737 0.034258753 0.15593047
0.13723065 0.010151997 -0.073179856 0.08270572 -0.01658696 -0.06094479 -0.02268231 -0.063571684
0.06435588 0.13604611 -0.00324261 -0.0429011 0.033042673 0.038785096 0.016372114 0.07979694
0.11799331 -0.04436755 -0.03173457 -0.037233174 0.12475009 0.107946485 -0.10412882 0.022715664
0.037987843 0.019716451 -0.041638732 0.13452424 -0.11115016 0.107916534 -0.11151762 0.0029013157
0.07234025 -0.039397568 0.027411968 -0.08651927 0.012407824 0.026356257 -0.01919745 0.10222254
0.11251025 0.01700886 -0.018407173 0.024869114 0.1413211 0.035105795 0.08053988 -0.03966762
0.08384657 0.0034963042 0.092723474 -0.0023968208 0.029215828 0.09796841 -0.041646663 0.059691947
0.08044964 0.023345977 0.074795365 -0.07470237 0.07602993 -0.046471592 0.061012913 -0.10518384
-0.071502656 -0.060403712 -0.029982578 0.028353557 -0.11240056 -0.07766484 -0.0718783 0.010278776
-0.084807046 0.08719532 0.050059766 -0.034160774 0.09843911 0.053416863 -0.005339731 0.0969684
-0.090351894 0.06504652 0.10700518 -0.0054981112 0.07305147 0.088554084 0.097631276 -0.047937915
-0.10303955 0.031599775 -0.06325616 0.05147573 0.05965525 -0.043919377 -0.04463774 0.102485836
0.039888024 -0.11996581 0.0039877594 -0.08452125 0.03354098 -0.05854851 0.098159194 -0.07085258
-0.05282445 -0.0044907886 -0.0073527396 0.070612505 0.03389872 0.00039985857 0.0567807 0.036889777
0.0448986 0.043198302 -0.029983267 0.023825943 0.13504826 0.004168016 0.09592229 0.057212267
-0.05317089 -0.06919017 -0.04592794 0.0070771654 0.10828915 0.054731935 0.022613307 0.03902656
00000000: d3fc 823d 846e af3d 9c1a 83bd ecca 01bd
00000010: 68c0 413d 748c 173d fca3 bb3d 25cd dd3d
00000020: f081 3ebc bc23 9bbd 5cf3 a8bd 30f5 263d
00000030: 1e32 e83d 2cfe a23c a4a4 b93d 008f d9ba
00000040: 001d df3a beb0 943d eae8 ba3d 1872 8ebd
00000050: 6025 f1bc 1803 43bb 4635 b6bd 941e a73d
00000060: 12b2 db3d 2cbe 0cbd 5c9c d93d 2cfa 20bd
00000070: 30c0 1f3c 9844 a83c d8a7 143d e0eb 8cbd
00000080: fcec d03d 8842 193d 788e ebbd 4ee7 cdbd
00000090: e696 cabd 8274 f93d d401 f5bd 3065 6abd
000000a0: 5909 06bb 7296 983d 50f0 0c3e 0082 2d3c
000000b0: ecac 893c d075 19bd 8ad1 a5bd 108a c73d
000000c0: 56d8 8ebd 4677 eb3d 6862 d7bc ea4b d93d
000000d0: d86a 3b3d de95 4b3d de31 1cbd 4d36 9a3d
000000e0: e6d7 a53d 8ffd ba3d c006 f1bd 7a43 b0bd
000000f0: 35fd cd3d 878e 7d3d 328a de3d 6075 96bb
00000100: d087 09bc 1199 bebc 31c0 123e 2e8f 753d
00000110: 0080 62bd f0b1 c33c c09e 1e3b 7c5a 73bd
00000120: 00e1 24ba c09b bd3d 3bc8 293d 84be 833d
00000130: 5dcf f1bc ac8c fd3d 4862 3d3d 003c 903d
00000140: 9595 26bc 1bf8 0f3e 58e0 38bd 0ddc 75bd
00000150: 68c1 c53c 3743 e23d d3be eb3c 70bb b5bc
00000160: 2068 abbd e051 163c 8ef7 923d 686a a93d
00000170: c918 4fbd 3b82 883d 8b62 78bd 5a8b a43c
00000180: 3223 b33d 69c1 0a3c f43a ea3d 6437 38bd
00000190: 489b ef3c bb8f c63d 98a4 903d c498 953d
000001a0: 9067 55bd 92f2 0c3e a05c 52bc 5467 333d
000001b0: b86f c23c 469b fb3d 3399 2b3d 0403 ab3d
000001c0: 7ee9 b4bd 58a7 773d fa2f f5bd 9534 b93d
000001d0: 679a 203d 9c93 0c3e f66c d2bc fee2 dbbd
000001e0: 8446 82bd afd5 76bd a0ef de3d 1207 b3bd
000001f0: 614d 3a3c 42ae a0bd e852 0c3d 3dac 1f3e
00000200: 3186 0c3e 9054 263c 52df 95bd 9e61 a93d
00000210: 60e1 87bc 3ea1 79bd 40d0 b9bc df31 82bd
00000220: 04cd 833d ac4f 0b3e f881 54bb 10b9 2fbd
00000230: c157 073d 1fdd 1e3d d01e 863c 946c a33d
00000240: 7aa6 f13d c0ba 35bd 1cfc 01bd d081 18bd
00000250: fa7c ff3d 0c13 dd3d 7e41 d5bd 3316 ba3c
00000260: 2499 1b3d 6584 a13c 608d 2abd b9c0 093e
00000270: b2a2 e3bd 5803 dd3d 5a63 e4bd 0024 3e3b
00000280: 2027 943d 585f 21bd 108f e03c 0431 b1bd
00000290: 304a 4b3c 14e9 d73c f843 9dbc 0d5a d13d
000002a0: c66b e63d 2a56 8b3c a4ca 96bc 50ba cb3c
000002b0: 7ab6 103e 18cb 0f3d 18f2 a43d 847a 22bd
000002c0: c0b7 ab3d 4022 653b cee5 bd3d fb13 1dbb
000002d0: 0856 ef3c a9a3 c83d b195 2abd 8b7f 743d
000002e0: c8c2 a43d 1040 bf3c 502e 993d 8efd 98bd
000002f0: 94b5 9b3d ff58 3ebd ade8 793d a06a d7bd
00000300: fc6f 92bd e269 77bd 069e f5bc b845 e83c
00000310: 4432 e6bd be0e 9fbd ee34 93bd 5068 283c
00000320: 51af adbd 7693 b23d 780b 4d3d 2bec 0bbd
00000330: 729a c93d a4cb 5a3d e9f8 aebb 5e97 c63d
00000340: 6a0a b9bd 1c37 853d 8825 db3d 8029 b4bb
00000350: 029c 953d d85b b53d e8f2 c73d 8c5a 44bd
00000360: 6606 d3bd c46e 013d 728c 81bd 37d8 523d
00000370: 1059 743d cee4 33bd 10d6 36bd 18e4 d13d
00000380: a061 233d a2b0 f5bd c0ab 823b 7a19 adbd
00000390: 4462 093d 90d0 6fbd b007 c93d 281b 91bd
000003a0: 735e 58bd 7727 93bb 40ef f0bb 4a9d 903d
000003b0: 62d9 0a3d 1ca4 d139 e192 683d bc19 173d
000003c0: 98e7 373d b4f0 303d 789f f5bc a02e c33c
000003d0: 174a 0a3e da93 883b e872 c43d 6957 6a3d
000003e0: b8c9 59bd 93b3 8dbd f01e 3cbd 91e7 e73b
000003f0: b4c6 dd3d 982e 603d 8b3f b93c 50da 1f3d

fc2.weight_hh_l0 f4 [256, 64]
-0.11698572 -0.0060254782 0.052342266 -0.0026555955 0.0755828 -0.031961992 0.05614619 0.075445846
-0.02159372 0.023770794 -0.108387396 0.04153852 -0.06955019 -0.03581983 0.015140012 0.0727025
0.046042815 0.10546753 -0.03956282 -0.058401227 0.11202814 -0.10910967 0.0842928 -0.0007454306
0.029250234 -0.05623333 -0.045852125 -0.032462835 0.11254731 -0.0453379 0.046639457 0.06990945
-0.04846245 -0.116236866 -0.10880588 -0.06494588 0.048177123 -0.010419801 0.12070398 -0.040187478
-0.0011281222 0.06693821 -0.10587843 0.025406122 0.06461789 0.084964275 -0.123659864 -0.07328476
0.09121302 0.0055758506 0.00089247525 0.06133479 0.11475006 -0.06530376 -0.09061545 0.11603385
-0.094945714 -0.077368736 0.12131308 0.097958416 0.088066384 0.11624603 0.10536048 0.041730553
0.05656433 0.112490416 -0.1005459 0.0925073 0.011350676 -0.035620853 0.007742986 0.11230892
0.065651625 0.110921845 -0.036265254 -0.03817728 -0.09775545 -0.079765886 0.040297672 0.05101919
0.005887851 -0.030973881 -0.025305778 -0.09621681 -0.0818758 -0.07110673 -0.09038225 -0.0061746836
-0.096732065 0.08838199 0.08557916 0.05170913 -0.09389685 -0.02519679 -0.08028293 0.03897977
-0.0634674 0.10691768 -0.09854409 0.089623794 0.023575544 0.097430885 0.103906065 -0.08306047
0.09786235 -0.00047180057 -0.032801002 -0.083626226 0.0440526 -0.08937842 0.07831623 -0.041575313
-0.0006635785 0.08641635 0.005929604 0.109868586 0.09552784 -0.019956812 -0.097660884 0.035117626
0.07629275 0.03753993 -0.012415871 -0.11879426 0.017370433 0.050601706 -0.07641025 0.10537982
-0.0806815 -0.024864316 0.07827698 0.04535471 0.09576678 -0.08469668 -0.10375342 -0.058030978
0.021858543 0.112447694 0.054584444 -0.04452522 -0.086438134 -0.087078825 -0.11708556 0.055015773
-0.061314777 0.03775993 0.10810484 0.091414824 -0.013445154 0.061849892 0.09272662 -0.077074796
-0.030219883 0.091402784 0.0972147 0.0069479495 0.05434218 -0.010646105 -0.004407704 0.098003924
0.032618374 0.11648533 -0.10807201 0.047871158 -0.037828624 0.07878898 0.11711067 -0.12157425
-0.10517199 -0.024340779 0.01032196 0.001089409 -0.095724255 0.11344756 0.075516924 0.07951076
0.05696076 -0.009944007 0.08699669 0.09693907 0.030536443 -0.066956386 -0.10061641 -0.093508884
0.0003773123 -0.08259401 -0.010902107 0.10020396 -0.039183825 0.08118808 -0.12360662 0.067574695
-0.041409925 0.06369507 -0.07619691 0.007913694 -0.1205385 -0.090017915 -0.09303084 -0.060728356
0.05037783 -0.05876568 -0.11035301 0.0020212084 -0.10144465 -0.062465847 0.021645293 -0.113162234
-0.03677599 0.038947195 -0.008505657 0.04255414 -0.079667956 -0.09266591 -0.104379684 -0.09244119
-0.067874804 0.0443476 -0.026471406 -0.07673347 -0.08623418 0.08714849 -0.03723277 -0.092657804
0.047339723 -0.09710015 0.09971997 -0.103774875 0.06799732 -0.05916275 0.062641144 -0.031848088
0.048653945 -0.1242429 -0.05883895 -0.061778516 -0.027641475 0.04672976 0.044048205 0.09505668
0.025842384 0.0346231 0.02946657 -0.030939981 -0.043089896 0.045243964 -0.08673139 -0.11731689
-0.090511814 0.051403016 0.0148046315 0.10800876 -0.03384784 -0.07185982 -0.10526456 -0.06918007
00000000: 3696 efbd 6071 c5bb d864 563d 8009 2ebb
00000010: 28cb 9a3d 94ea 02bd 8cf9 653d 5a83 9a3d
00000020: 50e5 b0bc f8ba c23c 36fa ddbd 4c24 2a3d
00000030: 5470 8ebd d0b7 12bd d00d 783c 0ce5 943d
00000040: 6497 3c3d 5cff d73d a00c 22bd 2036 6fbd
00000050: 026f e53d e474 dfbd b4a1 ac3d 0069 43ba
00000060: 309e ef3c ec54 66bd 70cf 3bbd c0f7 04bd
00000070: 347f e63d 3cb4 39bd 0409 3f3d b02c 8f3d
00000080: 9080 46bd 980d eebd 9ed5 debd 5802 85bd
00000090: 6055 453d d0b7 2abc a633 f73d a09b 24bd
000000a0: 80dd 93ba e616 893d cad6 d8bd 8020 d03c
000000b0: 6256 843d c001 ae3d 6241 fdbd 5216 96bd
000000c0: e4cd ba3d a0b5 b63b 00f5 693a 303a 7b3d
000000d0: 1402 eb3d fabd 85bd 9894 b9bd 28a3 ed3d
000000e0: e672 c2bd 8073 9ebd fe72 f83d 6c9e c83d
000000f0: 265c b43d 6612 ee3d 3cc7 d73d a8ed 2a3d
00000100: 00b0 673d 6061 e63d 02eb cdbd 7874 bd3d
00000110: 30f8 393c 2ce7 11bd e0b8 fd3b 3802 e63d
00000120: 5c74 863d fe2a e33d e08a 14bd c85f 1cbd
00000130: 0234 c8bd 4c5c a3bd 2c0f 253d 80f9 503d
00000140: e0ee c03b f0bc fdbc 104e cfbc 520d c5bd
00000150: 80ae a7bd 68a0 91bd 541a b9bd 0055 cabb
00000160: 761b c6bd 9e01 b53d 2044 af3d f4cc 533d
00000170: fe4c c0bd 8069 cebc 606b a4bd 40a9 1f3d
00000180: 32fb 81bd a8f7 da3d 7cd1 c9bd ae8c b73d
00000190: 8021 c13c d889 c73d b4cc d43d 9c1b aabd
000001a0: 0e6c c83d 005c f7b9 585a 06bd 3a44 abbd
000001b0: 8070 343d 080c b7bd 4264 a03d e04a 2abd
000001c0: 00f4 2dba 0efb b03d 204d c23b c802 e13d
000001d0: 1aa4 c33d 787c a3bc 6e02 c8bd 80d7 0f3d
000001e0: 603f 9c3d 78c3 193d f06b 4bbc 684a f3bd
000001f0: 704c 8e3c bc43 4f3d fa7c 9cbd 60d1 d73d
00000200: 583c a5bd 40b0 cbbc ae4f a03d dcc5 393d
00000210: 6021 c43d 7475 adbd ac7c d4bd e4b1 6dbd
00000220: b010 b33c fa4a e63d f093 5f3d 1460 36bd
00000230: 7a06 b1bd 6256 b2bd 8eca efbd 3858 613d
00000240: 3425 7bbd 28aa 1a3d 1266 dd3d b237 bb3d
00000250: 1049 5cbc 5056 7d3d 74e7 bd3d 64d9 9dbd
00000260: b08f f7bc 6231 bb3d 8018 c73d a0ab e33b
00000270: e895 5e3d 006d 2ebc 806e 90bb 48b6 c83d
00000280: d89a 053d dc8f ee3d dc54 ddbd 8c14 443d
00000290: 30f2 1abd 1e5c a13d b8d7 ef3d ecfb f8bd
000002a0: 6a64 d7bd 5066 c7bc 701d 293c 80ca 8e3a
000002b0: 140b c4bd 3257 e83d 9ea8 9a3d 8ad6 a23d
000002c0: b04f 693d 30ec 22bc 522b b23d fe87 c63d
000002d0: 9027 fa3c 6e20 89bd fa0f cebd 9681 bfbd
000002e0: 00d2 c539 0c27 a9bd c09e 32bc bc37 cd3d
000002f0: 387f 20bd f045 a63d 7825 fdbd 9a64 8a3d
00000300: 749d 29bd 9072 823d 200d 9cbd 70a8 013c
00000310: e4dc f6bd 505b b8bd f486 bebd 4cbe 78bd
00000320: fc58 4e3d 48b4 70bd c200 e2bd 4076 043b
00000330: 36c2 cfbd 30dc 7fbd 7851 b13c 9ac1 e7bd
00000340: 6ca2 16bd 1887 1f3d 505b 0bbc 404d 2e3d
00000350: f428 a3bd a0c7 bdbd 04c5 d5bd ce51 bdbd
00000360: f201 8bbd d4a5 353d 90da d8bc 7026 9dbd
00000370: 8c9b b0bd e87a b23d 6481 18bd 60c3 bdbd
00000380: 4ce7 413d 72dc c6bd fc39 cc3d ec87 d4bd
00000390: 2e42 8b3d a454 72bd 004a 803d 2473 02bd
000003a0: 5c49 473d 1073 febd 1c01 71bd 780b 7dbd
000003b0: 6070 e2bc b467 3f3d e46b 343d 14ad c23d
000003c0: 68b3 d33c f4d0 0d3d e063 f13c d875 fdbc
000003d0: 087f 30bd bc51 393d 3aa0 b1bd d643 f0bd
000003e0: 425e b9bd f88b 523d 208f 723c b233 dd3d
000003f0: 08a4 0abd 3e2b 93bd f294 d7bd 48ae 8dbd

fc2.bias_ih_l0 f4 [256]
-0.038323488 0.05174438 0.08953184 0.09106374 -0.14648555 0.09303027 0.019284565 -0.050320175
0.010565871 -0.1675521 0.0680074 -0.08205292 -0.09189102 0.11169386 -0.10958837 -0.06192371
0.11286443 0.03858283 0.04460022 -0.051368415 -0.027300388 -0.12508604 -0.019435972 0.064585745
-0.062696494 0.08504793 0.06485984 0.118096694 0.06779959 -0.026739242 -0.08764745 -0.07270464
-0.0346719 0.114283636 0.11514641 0.04029122 0.062715985 -0.024391938 -0.075695 -0.060773116
0.02456358 0.063156396 0.047747422 0.031514168 0.05543752 0.06879488 0.039310914 0.09847968
0.040557384 -0.08683281 -0.008661911 0.0032113285 0.032064892 -0.030898005 -0.09055446 0.108520284
-0.14011092 -0.002475724 -0.13480373 0.11284955 0.10391052 -0.016984148 0.08376621 0.0916875
-0.11841038 0.121884 0.016358644 0.07794814 0.015387341 0.021293953 -0.05763641 -0.08172375
-0.028474897 -0.1045323 0.07266332 -0.027635247 0.031459868 -0.06614572 -0.117559016 0.09364052
-0.048350304 0.025938526 0.054576293 -0.06582759 0.008365497 0.087022424 0.045825854 -0.098336294
-0.009039238 0.0014283657 -0.040862232 -0.06829916 0.09765729 -0.06649634 -0.108054206 0.07793203
-0.030341402 0.08174595 -0.049571678 -0.015392467 0.04383734 0.047960237 -0.08731286 0.117208764
-0.06163907 0.075063854 0.089411706 0.045910135 -0.08902688 -0.014790744 0.11975357 0.102571905
0.109714404 0.069837674 -0.054053262 0.0035848767 0.07807109 -0.07705988 0.03543727 0.035599545
0.0088377595 -0.1222392 -0.026039094 0.10314876 0.06996398 -0.017214596 0.042349994 -0.07312435
-0.090021335 -0.008608878 0.029826432 -0.115153715 0.11831772 0.05227074 -0.04662402 0.04524611
0.077280656 -0.027884526 0.10575937 0.08542554 0.065768294 0.11060718 0.055328026 0.0697127
0.13750306 0.04164748 -0.02858764 -0.0622513 -0.054176375 -0.06132543 0.06586784 0.0068786014
-0.08422765 0.005499907 0.006717652 0.10406099 -0.0794502 -0.033132292 -0.083465174 -0.054221377
-0.047512706 -0.077283405 0.12262629 0.012101576 -0.11115994 -0.011004129 0.060215592 0.010939345
0.009119847 -0.030069903 -0.12801883 -0.16785556 -0.058641344 -0.022726223 0.10497332 0.12550755
-0.013860807 0.08579072 0.0028480291 0.1206221 0.025198981 -0.043170154 -0.027393544 -0.08752897
-0.009002924 -0.06874016 0.054683283 0.07618973 0.019453794 -0.07846871 0.06397928 -0.0068253353
-0.033204187 0.13396552 -0.014460342 -0.116985425 0.038964596 -0.0608986 0.06550276 0.047624364
-0.036707304 -0.103267215 -0.04041426 -0.084759325 0.14537604 -0.030081503 0.003786464 -0.08871919
0.15363418 0.07977959 -0.00495182 -0.1080067 0.030768242 -0.1053233 0.0688872 0.018602131
-0.0060332566 -0.09072527 0.083799906 0.022428405 0.003125654 0.06269563 -0.03496702 0.07232237
-0.06501886 0.10311677 0.026364729 0.088308856 -0.08692551 0.022785015 -0.10351447 0.05813916
0.12994358 0.044592373 -0.042815637 0.01011169 -0.047168083 0.041553672 0.024042802 0.012389427
-0.13766901 -0.028450835 -0.053317785 0.1514755 0.043194264 0.012987164 -0.011640975 0.022521466
0.10721696 0.049270093 -0.07732903 0.0041174754 0.1205322 0.0014682561 -0.052934688 0.10474744
00000000: 17f9 1cbd eaf1 533d 785c b73d a07f ba3d
00000010: 4f00 16be a786 be3d aafa 9d3c 871c 4ebd
00000020: 7a1c 2d3c c792 2bbe 7747 8b3d 5c0b a8bd
00000030: 5c31 bcbd c0bf e43d de6f e0bd b7a3 7dbd
00000040: 7725 e73d 0809 1e3d b8ae 363d b067 52bd
00000050: 10a5 dfbc 8e16 00be 3038 9fbc 8845 843d
00000060: 0567 80bd 9c2d ae3d 3cd5 843d aedc f13d
00000070: 83da 8a3d 410c dbbc 8280 b3bd 2ce6 94bd
00000080: 1f04 0ebd 8a0d ea3d e2d1 eb3d 6808 253d
00000090: 3d71 803d 9ad1 c7bc fb05 9bbd 3bed 78bd
000000a0: 9039 c93c 2458 813d cd92 433d 0015 013d
000000b0: 7412 633d 54e4 8c3d 7b04 213d b7af c93d
000000c0: 801f 263d 66d5 b1bd b0ea 0dbc 2775 523b
000000d0: 7a56 033d d01d fdbc 9e74 b9bd e23f de3d
000000e0: 3d79 0fbe c23f 22bb fd09 0abe aa1d e73d
000000f0: 0acf d43d 5722 8bbc 9e8d ab3d a8c6 bb3d
00000100: 2481 f2bd 529e f93d 9002 863c 46a3 9f3d
00000110: 301b 7c3c a870 ae3c 2814 6cbd c85e a7bd
00000120: 3044 e9bc 0815 d6bd 82d0 943d 5063 e2bc
00000130: 10dc 003d 6877 87bd c8c2 f0bd 9ac6 bf3d
00000140: f80a 46bd 087d d43c 648b 5f3d 9ed0 86bd
00000150: 700f 093c d038 b23d e4b3 3b3d 8a64 c9bd
00000160: 5019 14bc 0038 bb3a 285f 27bd 6ee0 8bbd
00000170: 8c00 c83d 3c2f 88bd 864b ddbd d49a 9f3d
00000180: 888e f8bc 6c6a a73d ac0b 4bbd b030 7cbc
00000190: c88e 333d f471 443d 16d1 b2bd 260b f03d
000001a0: 4079 7cbd 14bb 993d 7c1d b73d 440c 3c3d
000001b0: ba53 b6bd e054 72bc 5c41 f53d 3811 d23d
000001c0: f2b1 e03d 0e07 8f3d f466 5dbd 40f0 6a3b
000001d0: bce3 9f3d 92d1 9dbd ac26 113d d4d0 113d
000001e0: 40cc 103c 8c58 fabd f04f d5bc a83f d33d
000001f0: 4649 8f3d a005 8dbc 3077 2d3d 38c2 95bd
00000200: 1b5d b8bd 400c 0dbc 9056 f43c b6d5 ebbd
00000210: 9050 f23d d819 563d d4f8 3ebd fc53 393d
00000220: 5245 9e3d 176e e4bc 5e98 d83d 96f3 ae3d
00000230: 87b1 863d 0486 e23d a49f 623d 88c5 8e3d
00000240: 9acd 0c3e 8c96 2a3d a030 eabc 38fb 7ebd
00000250: 0ce8 5dbd 6030 7bbd b8e5 863d e465 e13b
00000260: 8c7f acbd 9038 b43b c01f dc3b ee1d d53d
00000270: c9b6 a2bd bab5 07bd caef aabd 3c17 5ebd
00000280: af9c 42bd c346 9ebd 7e23 fb3d b045 463c
00000290: d3a7 e3bd aa4a 34bc a0a4 763d f03a 333c
000002a0: 696b 153c 2855 f6bc 5e17 03be 54e2 2bbe
000002b0: e831 70bd 582c babc 41fc d63d 0d85 003e
000002c0: 7018 63bc 0cb3 af3d 00a6 3a3b b808 f73d
000002d0: 186e ce3c 30d3 30bd 6d68 e0bc 6342 b3bd
000002e0: 0081 13bc a4c7 8cbd 94fb 5f3d 5c09 9c3d
000002f0: 905d 9f3c 34b4 a0bd 9207 833d 10a7 dfbb
00000300: 1d01 08bd 422e 093e 12eb 6cbc 0e96 efbd
00000310: 5799 1f3d cf70 79bd 5026 863d c411 433d
00000320: 665a 16bd c37d d3bd 6c89 25bd 4c96 adbd
00000330: 75dd 143e 7c6d f6bc 5326 783b 68b2 b5bd
00000340: 4752 1d3e 7b63 a33d e042 a2bb 9e32 ddbd
00000350: ae0d fc3c beb3 d7bd bb14 8d3d 7f63 983c
00000360: a0b2 c5bb 2cce b9bd 499f ab3d c6bb b73c
00000370: c6d7 4c3b 9166 803d 9439 0fbd c01d 943d
00000380: 9c28 85bd e32e d33d d8fa d73c 46db b43d
00000390: 0006 b2bd a4a7 ba3c 65ff d3bd 5423 6e3d
000003a0: ee0f 053e 7ea6 363d 735f 2fbd 80ab 253c
000003b0: 5233 41bd 2f34 2a3d 69f5 c43c 06fd 4a3c
000003c0: 1bf9 0cbe ba11 e9bc c063 5abd 651c 1b3e
000003d0: 78ec 303d 1dc8 543c cab9 3ebc f07e b83c
000003e0: 9194 db3d 70cf 493d af5e 9ebd e3eb 863b
000003f0: 96d9 f63d 8072 c03a 0bd2 58bd d385 d63d

fc2.bias_hh_l0 f4 [256]
-0.06488374 -0.0060050287 0.109863214 0.11679195 0.07215903 0.006381683 0.068902254 9.979544e-05
0.1721811 -0.09088217 0.0711594 0.048201174 0.03193791 -0.020397648 0.079815365 -0.121888384
0.0055057425 0.077968955 0.075080514 0.050777093 0.04356441 -0.12336549 -0.08772002 0.02727283
-0.16578308 -0.09486978 -0.041825354 0.019099217 -0.09140923 -0.0049179043 0.09469095 0.02670573
0.08203086 0.07151493 0.07583028 -0.078486495 0.025446774 -0.007917607 0.013780892 0.043783125
0.009774685 -0.07345244 -0.047770053 -0.044083685 0.008878286 0.028721116 0.06759109 -0.030591758
-0.123820126 0.10107261 0.120851114 0.11416148 0.03707155 0.06340754 0.06985012 0.047516838
0.029709626 -0.048163787 0.09451629 0.09718135 0.003962338 -0.12705944 0.06543104 0.065894455
0.097187 0.058669224 0.09282979 -0.029668659 -0.035990834 0.0048491955 0.0360799 -0.029564023
-0.06425804 -0.029243141 0.007487312 0.0535478 0.029489398 -0.02585183 -0.0046049803 0.08213076
0.01573947 -0.088287756 0.035957307 0.033536002 0.0048048943 0.088057324 0.11621204 0.11810444
-0.10575175 -0.009794593 0.025518537 0.06114906 -0.033836037 -0.08914314 -0.09137949 -0.07031424
0.0713875 0.052359328 0.11352044 -0.111304685 0.043482423 0.10061394 -0.035782754 0.10126023
0.10862547 -0.058480173 -0.10755119 -0.105584264 -0.039616004 -0.032564968 0.12294458 -0.09938067
-0.1006643 0.083184764 -0.00807929 -0.07974021 -0.066723004 0.089251086 0.11991969 0.058322266
0.12011643 -0.05135201 -0.012743846 0.017383814 0.11830194 -0.066799045 0.09089424 0.10842468
-0.08674131 0.0536483 -0.031873718 0.10492517 -0.013161657 -0.031689763 -0.03975955 0.04023251
-0.028835567 -0.09501759 -0.054685954 -0.07211761 0.08652048 0.009132579 -0.00097415096 0.04304476
0.07268947 -0.109618396 0.032065526 -0.11945175 -0.039153367 0.0983748 0.042114522 -0.0021791733
0.09404844 0.0068444964 0.00309667 -0.06251399 -0.05497489 0.020700898 -0.115035236 -0.07108463
-0.053982336 -0.085360415 0.046019137 0.00023047626 -0.076477915 0.13851455 0.08302508 0.008852363
-0.011422359 0.075449765 -0.08798485 -0.049806386 0.04835233 -0.03922032 0.08492661 -0.060945403
-0.08627498 0.04396029 -0.09256959 -0.026080707 -0.0529782 0.10797097 0.13304983 0.07470092
-0.06726493 0.09795786 0.07288478 0.099665225 -0.08899613 -0.10984801 0.011515126 -0.12568857
0.14349778 -0.055337753 0.07568455 -0.02036418 0.09039261 -0.06763821 -0.015678704 -0.041393206
0.0636718 0.05445564 0.08979902 0.048754115 -0.050247673 0.059505746 0.02807334 -0.018961057
-0.035487194 0.07651953 0.119602054 0.09659009 -0.04298106 -0.09751104 -0.14859146 0.10983805
-0.118395686 0.056981727 -0.111865945 -0.097333774 0.11729342 0.16849288 0.047387004 0.060670033
-0.076879025 -0.07152582 0.10519368 -0.1105628 0.0081261685 -0.012794059 -0.06068092 -0.044393644
0.063846424 -0.08921467 0.06264758 0.09866123 -0.047349803 -0.061941225 0.08104661 0.08819834
-0.059219062 -0.13748701 -0.062412947 0.032844145 -0.035158284 -0.09808866 -0.064838156 -0.09646937
0.06422686 0.1158037 -0.07660938 0.03772228 -0.0071805716 0.020544201 -0.048429724 0.007587837
00000000: c4e1 84bd d5c5 c4bb f7ff e03d 9e30 ef3d
00000010: 1dc8 933d 701d d13b a01c 8d3d 4549 d138
00000020: 3e50 303e 6e20 babd 05bc 913d 986e 453d
00000030: 53d1 023d f818 a7bc 3d76 a33d 9ea0 f9bd
00000040: 8469 b43b 30ae 9f3d d0c3 993d a4fb 4f3d
00000050: 9870 323d 0ca7 fcbd 8ea6 b3bd 456b df3c
00000060: 0ac3 29be 164b c2bd 1051 2bbd f675 9c3c
00000070: c334 bbbd 5f26 a1bb 54ed c13d fac5 da3c
00000080: ccff a73d 6b76 923d e84c 9b3d 87bd a0bd
00000090: c175 d03c dab8 01bc 40c9 613c ef55 333d
000000a0: 0026 203c 3c6e 96bd 88aa 43bd 1891 34bd
000000b0: 3b76 113c 8c48 eb3c 336d 8a3d 919b fabc
000000c0: 6895 fdbd 28ff ce3d ca80 f73d 7ecd e93d
000000d0: 56d8 173d d0db 813d 940d 8f3d 04a1 423d
000000e0: 9a61 f33c 6447 45bd c291 c13d 0407 c73d
000000f0: 80d6 813b df1b 02be b600 863d acf3 863d
00000100: fa09 c73d 244f 703d 8c1d be3d b00b f3bc
00000110: 206b 13bd 00e6 9e3b 84c8 133d 4030 f2bc
00000120: b899 83bd 508f efbc 2058 f53b f054 5b3d
00000130: c093 f13c 38c7 d3bc 60e5 96bb 2c34 a83d
00000140: 10f0 803c 36d0 b4bd f847 133d 0c5d 093d
00000150: 6072 9d3b 6657 b43d 9400 ee3d bee0 f13d
00000160: 6094 d8bd 8079 20bc 400c d13c 7077 7a3d
00000170: a897 0abd ae90 b6bd 2c25 bbbd ea00 90bd
00000180: 9c33 923d bc76 563d 687d e83d b6f3 e3bd
00000190: a01a 323d ae0e ce3d f090 12bd 8661 cf3d
000001a0: 0877 de3d e888 6fbd cc43 dcbd 903c d8bd
000001b0: 6444 22bd d862 05bd 5eca fb3d 1888 cbbd
000001c0: 1629 cebd c65c aa3d 005f 04bc d64e a3bd
000001d0: 12a6 88bd 46c9 b63d 7498 f53d 54e3 6e3d
000001e0: 9aff f53d 7c56 52bd 90cb 50bc 8068 8e3c
000001f0: 4a48 f23d f0cd 88bd c226 ba3d c20d de3d
00000200: 6ea5 b1bd 52be 5b3d 048e 02bd 02e3 d63d
00000210: fea3 57bc 20cd 01bd e9da 22bd d8ca 243d
00000220: 9138 ecbc 9598 c2bd 61fe 5fbd 66b2 93bd
00000230: a631 b13d d0a0 153c 2a5e 7fba b44f 303d
00000240: 38de 943d 9c7f e0bd 2457 033d 1ea3 f4bd
00000250: 485f 20bd ba78 c93d 4780 2c3d 76d0 0ebb
00000260: 789c c03d cc47 e03b 80f1 4a3b 5607 80bd
00000270: 5a2d 61bd ee94 a93c 9897 ebbd d294 91bd
00000280: 951c 5dbd 71d1 aebd 907e 3c3d 00ac 7139
00000290: 74a0 9cbd c2d6 0d3e 0e09 aa3d 8009 113c
000002a0: d924 3bbc 6885 9a3d 6731 b4bd c801 4cbd
000002b0: 180d 463d 7ca5 20bd 01ee ad3d e3a1 79bd
000002c0: f0b0 b0bd b40f 343d 2095 bdbd 35a7 d5bc
000002d0: abff 58bd e21f dd3d 373e 083e ccfc 983d
000002e0: 32c2 89bd 219e c83d 9e44 953d 481d cc3d
000002f0: 9a43 b6bd fef7 e0bd f0a9 3c3c 81b4 00be
00000300: 15f1 123e d7a9 62bd 8000 9b3d c8d2 a6bc
00000310: c31f b93d e785 8abd a070 80bc ec8b 29bd
00000320: 5c66 823d e10c 5f3d 8ce8 b73d 65b2 473d
00000330: 81d0 4dbd 4cbc 733d 10fa e53c 3854 9bbc
00000340: 055b 11bd 45b6 9c3d ecf1 f43d 06d1 c53d
00000350: e80c 30bd deb3 c7bd 5c28 18be c6f2 e03d
00000360: 7079 f2bd ac65 693d f919 e5bd ee56 c7bd
00000370: 8837 f03d 6689 2c3e e018 423d 2481 783d
00000380: c072 9dbd 217c 92bd c96f d73d c06e e2bd
00000390: 9f23 053c 2c9e 51bc 8e8c 78bd 1cd6 35bd
000003a0: eac1 823d 2eb6 b6bd 604d 803d e60e ca3d
000003b0: def1 41bd 15b6 7dbd c4fb a53d 55a1 b43d
000003c0: b08f 72bd 65c9 0cbe b8a4 7fbd 9587 063d
000003d0: 2202 10bd b5e2 c8bd dec9 84bd bc91 c5bd
000003e0: 5f89 833d 7e2a ed3d 61e5 9cbd ad82 1a3d
000003f0: 004b ebbb 504c a83c 3f5e 46bd 64a3 f83b

fc3.weight f4 [3, 64]
-5.2811427 -1.127895 -0.5004347 0.080150366 -0.04666622 0.015628511 -0.024835622 -0.026460253
8.235998 0.16663441 0.025232274 -0.09488926 7.0038047 -0.24523468 1.6741873 -0.07632825
-0.27282712 -0.073660016 0.045896187 0.063847214 -0.041402847 0.10717981 -0.22105415 5.008966
-0.117739595 0.0035460612 0.052907825 -0.1181164 -0.13399398 -3.2991633 -0.045525763 0.045217197
-7.0127664 0.013424035 0.054038566 5.2637105 -7.8947396 1.2439773 0.12323801 0.09342664
8.153143 0.028490119 -0.48318177 -8.291983 0.71156234 -0.09102862 6.366528 1.0539541
-0.053480204 -0.0509461 0.026697308 8.18388 0.34210595 -0.048959773 8.124915 1.0527538
-0.11074004 -0.14463836 0.12446297 -8.19626 -0.004744932 0.049418848 -0.0066316943 -0.31852844
-5.3948703 -1.4435681 -0.16003865 -0.07275419 -0.089583695 0.0986673 0.031911016 0.13548711
6.72366 0.04628298 0.09478937 -0.05771704 6.412377 0.0003066659 0.68455344 0.10601043
0.9704981 0.10305959 -0.045374468 -7.5146556e-05 -0.08015522 -0.05719126 0.105412684 3.4758165
-0.06291578 0.1315748 0.066732936 -0.037812557 -0.045619432 -1.7391734 -0.05922239 0.03506975
-5.975035 -0.117468536 -0.15930961 5.181363 -6.562511 -0.23059738 0.08108362 -0.10672801
6.853807 0.015925974 2.3530378e-05 -6.7264543 0.16836783 -0.034632817 5.6243863 0.44343266
0.022792371 -0.05833582 0.019233957 6.7154174 -0.0037954329 -0.033165235 6.7277236 1.41177
0.0003369988 -0.08959428 0.016409256 -6.6311107 -0.041352794 0.044581324 -0.079388246 -0.087237224
-5.5200624 -1.1548256 -0.15511096 -0.032191798 0.09689516 0.07433409 0.033903193 0.017610263
6.8202386 -0.03788533 0.1263426 -0.092370555 6.400147 -0.07903164 0.6752898 0.045652807
1.0110725 -0.032898292 -0.024436146 0.039210767 -0.11599848 -0.10804501 -0.0032418738 3.3235567
0.06752349 -0.08541071 -0.04956846 -0.12518194 0.009731714 -1.41903 -0.059292022 -0.06614498
-6.0948615 -0.09101356 0.0009427377 4.582465 -6.2367578 -0.44150347 -0.046184644 -0.05190656
6.7694545 -0.07847709 -0.1897271 -6.7123036 0.22665353 -0.057724044 5.8001075 0.35821626
0.07372646 -0.08334263 0.039744034 6.7763257 0.09619785 -0.08358633 6.6620917 1.2945633
-0.09955607 -0.03160124 0.083005674 -6.5630918 0.03678818 0.042192683 0.117143184 0.051177185
00000000: 1fff a8c0 dd5e 90bf 7d1c 00bf e025 a43d
00000010: 1425 3fbd 5d07 803c 1374 cbbc 2cc3 d8bc
00000020: a6c6 0341 36a2 2a3e eab3 ce3c 4d55 c2bd
00000030: 2b1f e040 cd1e 7bbe c54b d63f fc51 9cbd
00000040: ffaf 8bbe 10db 96bd a4fd 3b3d 54c2 823d
00000050: 0896 29bd 1781 db3d 055c 62be 7349 a040
00000060: 7521 f1bd 0965 683b e0b5 583d 03e7 f1bd
00000070: b835 09be 7e25 53c0 3979 3abd ab35 393d
00000080: 9568 e0c0 7cf0 5b3c 8b57 5d3d 5170 a840
00000090: b5a1 fcc0 a63a 9f3f 3664 fc3d 7756 bf3d
000000a0: 4673 0241 1c64 e93c 9a63 f7be f6ab 04c1
000000b0: f328 363f 376d babd 99ba cb40 f8e7 863f
000000c0: 0f0e 5bbd dcac 50bd 50b4 da3c 2cf1 0241
000000d0: 8328 af3e 0b8a 48bd a7ff 0141 a3c0 863f
000000e0: adcb e2bd 141c 14be 71e6 fe3d e223 03c1
000000f0: 607b 9bbb 6b6b 4a3d af4e d9bb 2916 a3be
00000100: c7a2 acc0 d7c6 b8bf 2ce1 23be 2600 95bd
00000110: a877 b7bd 1512 ca3d 20b5 023d 22bd 0a3e
00000120: 3928 d740 3993 3d3d ee20 c23d b468 6cbd
00000130: 3132 cd40 00c8 a039 e53e 2f3f ff1b d93d
00000140: 9072 783f e810 d33d 94da 39bd 0098 9db8
00000150: 6c28 a4bd 6241 6abd 9be2 d73d c773 5e40
00000160: fdd9 80bd 8bbb 063e 47ab 883d 57e1 1abd
00000170: 71db 3abd 3c9d debf 2d93 72bd 4ca5 0f3d
00000180: 7d33 bfc0 5893 f0bd 0f22 23be bacd a540
00000190: 1700 d2c0 b821 6cbe 2b0f a63d 3794 dabd
000001a0: 6352 db40 3077 823c 1a63 c537 1d3f d7c0
000001b0: 9e68 2c3e 24db 0dbd f9fa b340 9b09 e33e
000001c0: 11b7 ba3c 8af1 6ebd 8890 9d3c b3e4 d640
000001d0: ccbc 78bb 45d8 07bd 8349 d740 e1b4 b43f
000001e0: 37af b039 357d b7bd b46c 863c 0f32 d4c0
000001f0: 8c61 29bd e89a 363d 4e96 a2bd 6ea9 b2bd
00000200: 5aa4 b0c0 53d1 93bf 68d5 1ebe 8cdb 03bd
00000210: f870 c63d 793c 983d 13de 0a3d 6643 903c
00000220: 653f da40 a62d 1bbd f45f 013e c62c bdbd
00000230: 01ce cc40 57db a1bd cbdf 2c3f 70fe 3a3d
00000240: d36a 813f 5cc0 06bd 502e c8bc 789b 203d
00000250: 9c90 edbd b446 ddbd 9e75 54bb 27b5 5440
00000260: c149 8a3d cfeb aebd 4c08 4bbd b22f 00be
00000270: c471 1f3c c6a2 b5bf 31dc 72bd 0577 87bd
00000280: 1b09 c3c0 5165 babd 0e22 773a 8ea3 9240
00000290: 8593 c7c0 be0c e2be 1c2c 3dbd f99b 54bd
000002a0: 5f9f d840 99b8 a0bd d247 42be 31cb d6c0
000002b0: dd17 683e 0c70 6cbd 7b9a b940 1f68 b73e
000002c0: e6fd 963d 8aaf aabd a4ca 223d a9d7 d840
000002d0: 6103 c53d 4f2f abbd db2f d540 40b4 a53f
000002e0: 0ee4 cbbd 4d70 01bd e1fe a93d d904 d2c0
000002f0: 34af 163d 3cd2 2c3d c4e8 ef3d 2b9f 513d

fc3.bias f4 [3]
8.253068 6.8146586 6.658397
00000000: 910c 0441 af11 da40 9711 d540
