Models/LSTM/agentDQN-LSTM_2012-2014_lstm_v4_300_EPS_8.pth (torch, 256291 bytes, 8 tensors)

fc1.weight f4 [128, 104]
000000 82 b7 33 be b1 f6 c2 3d 58 f0 f3 bd 43 2a c8 bd
       -0.17550471 0.09519709 -0.11911076 -0.09773686
000010 e2 02 c3 3c 07 7c b4 3d 98 ba 89 3d be f3 6f bc
       0.023805086 0.08812719 0.06725043 -0.014645515
000020 f3 14 c9 3c e5 eb d7 bb 2b c7 65 3d 14 4c c6 bc
       0.024546122 -0.0065894 0.056098145 -0.024206199
000030 62 2e a7 bd 13 ff 9c bd 2b ee a9 bd 72 13 10 3d
       -0.08163144 -0.07665839 -0.0829738 0.035174794
000040 fd 40 12 3d 98 b8 42 bd 5f 31 89 bc a9 4d 9c bb
       0.03570651 -0.047539324 -0.016747175 -0.00477
000050 8f da 2b 3d ae f5 3d bd c8 e2 9b 3b e9 58 61 be
       0.04195648 -0.046376877 0.004757259 -0.22006573
000060 4c 0e d0 bd 48 7f 1c 3d 28 99 50 be 1a 26 51 be
       -0.10158977 0.038207322 -0.20370924 -0.20424691
000070 3f 60 4c 3e 21 71 fb bc 21 64 80 3e da 05 e9 bd
       0.1995859 -0.030693593 0.25076392 -0.11378069
000080 16 5e 1c 3d ad a4 68 3d f1 a3 9b 3d a8 2b 66 be
       0.038175665 0.056797672 0.07599629 -0.22477591
000090 10 6c 18 bd f7 74 3f bc 91 88 5b 3d f0 02 1e 3e
       -0.03721243 -0.011685601 0.053597037 0.15430808
0000a0 ed 2b 67 bd b3 34 e6 bd 6d c3 13 be 44 ab 3d be
       -0.056438375 -0.1124052 -0.14430018 -0.18522364
0000b0 43 18 4c 3d 12 ce 85 bd d0 6b f7 3d bc 6e 81 bd
       0.049827825 -0.065334454 0.120811105 -0.06319949
0000c0 a7 23 47 bc ad 66 b3 bd 9a d8 ad 3d f5 11 b4 3c
       -0.012154496 -0.08759818 0.08488579 0.021981219
0000d0 54 61 6c bd 63 a5 cc 3d b6 da 9e 3d 96 79 f1 3b
       -0.057710007 0.099924825 0.077565596 0.0073692305
0000e0 8a 21 98 bd 09 d9 c1 3c da b6 9b 3d aa 7b ba 3c
       -0.07428272 0.02366306 0.076032355 0.022764046
0000f0 53 e3 45 bd dc 84 5c 3d da 39 12 3d 8d 8a b5 3b
       -0.048312496 0.053837642 0.035699703 0.005540198
000100 52 1f 09 3e 65 7f c5 bd 44 eb 90 bc 43 de e8 3c
       0.13390854 -0.09643439 -0.017690308 0.028426295
000110 b8 91 5d bd b7 46 8e bd 3e 7c 40 bc 4d 6f c1 bd
       -0.054094046 -0.069470815 -0.011748372 -0.09445057
000120 5e ae 8b 3d c0 86 d9 bd 57 4a 86 3d 1c 9c 92 bd
       0.06820367 -0.10621405 0.06557148 -0.07158682
000130 e1 3c d0 bd da 4d 8c 3d 9f 5b 95 3d 94 ad 83 bd
       -0.10167862 0.068507865 0.07292866 -0.06429592
000140 24 88 1a 3d 4a 35 20 3c 60 e4 19 bd 13 b3 5f 3d
       0.03772749 0.00977833 -0.03757131 0.054614138
000150 94 2b ad 3d f6 b2 df bd 7a c1 b3 3c 50 07 ba 3d
       0.084555775 -0.10922806 0.021942843 0.09083426
000160 1d 2a 95 3d f6 37 2b bd f5 06 60 bc 3d 2a 88 bd
       0.07283423 -0.041801415 -0.013673534 -0.06648681
000170 30 02 28 3d 4d 81 d8 bd 15 0e 36 bd aa 69 5f 3d
       0.04101771 -0.10571537 -0.044447023 0.05454413
000180 2a d0 63 bd b9 35 9b 3d 2a 0c eb bd d6 dd 2b be
       -0.055618443 0.07578606 -0.114769295 -0.16783842
000190 4b 5c ef 3d 95 7e ce 3c 74 ba 6f bd cd 3c d2 bc
       0.11687525 0.025206843 -0.058527425 -0.025663758
0001a0 b6 98 87 3d f1 db be bc 2d 48 33 3e b8 16 25 3e
       0.06620924 -0.023298236 0.17508002 0.16121948
0001b0 37 52 84 3e b3 ac ee 3d d0 22 60 3e 37 cc 64 3e
       0.25843975 0.116540335 0.2188828 0.22343527
0001c0 09 5d 3c 3e f5 20 16 3e 09 c9 41 3e 13 f1 99 3e
       0.18394865 0.1466101 0.18924345 0.30066738
0001d0 6f fa 28 3e 52 4c 7c 3e 41 0a 1d 3e d7 f5 2d 3e
       0.16501783 0.24638489 0.15335943 0.16988312
0001e0 76 1d 6c 3e 3a 8d 47 3e 82 69 53 3e 95 e5 96 3d
       0.23058113 0.19487467 0.20645717 0.07368008
0001f0 b3 1f 0d 3d 22 74 23 3e 16 7e 1f 3e 83 a7 e2 bd
       0.03445406 0.1596227 0.15575442 -0.110671066
000200 45 de 7d 3e 90 0a 58 3e 71 88 8b 3e 00 d4 32 3d
       0.2479182 0.2109778 0.27252534 0.04365921
000210 5b 8a a8 be 7c 9c c7 3d f7 db 74 bd 7b ca 70 bd
       -0.32918057 0.09746644 -0.059780087 -0.05878685
000220 2e 22 45 3d 51 be af 3a c2 29 a6 bd d7 74 b2 3d
       0.0481283 0.0013408159 -0.081134334 0.08713692
000230 30 e7 14 3d b9 ad 7f 3d 2b 8c 84 3d 15 59 0e 3e
       0.03635329 0.062421534 0.064720474 0.1390117
000240 a6 eb 25 3e 41 f3 5d 3d 20 43 31 3c f4 7a 7b 3e
       0.16203174 0.054187063 0.0108192265 0.24558622
000250 0f 99 ad 3e 3a 6b 2d 3e 39 2b b6 3e ea 8d a1 3d
       0.33905837 0.16935435 0.3557985 0.07888396
000260 40 07 81 be 5e 88 6a 3e 75 66 60 3e e0 6a 68 3e
       -0.25200844 0.22903582 0.21914084 0.2269702
000270 71 36 98 3e 62 2e 9c bc 50 44 c2 3d e9 84 d9 3d
       0.29729035 -0.019065086 0.09485686 0.10621054
000280 c1 e7 d8 3d d7 06 51 3e 81 ae 6f 3e 2a e2 84 3d
       0.105910785 0.20412765 0.23406412 0.0648845
000290 89 23 e8 bb fa ec 84 3d 50 fa 06 be ee c7 5a 3e
       -0.0070843142 0.06490512 -0.13181424 0.2136533
0002a0 7b 52 93 3d 80 8f 0e be 88 dc 14 3e 74 b9 d2 3d
       0.07193466 -0.13921928 0.14537251 0.102892786
0002b0 1f 33 fc 3d cb 90 88 3e 19 77 2a 3e f7 9e 72 3e
       0.12314438 0.26672968 0.16646995 0.23693453
0002c0 18 c3 4f 3e ff 05 f1 3d 52 22 13 3e 72 58 95 3e
       0.20289266 0.11768722 0.14368561 0.2916904
0002d0 76 f0 78 3e b1 02 77 3e c5 ef 8f 3e c9 87 59 3e
       0.24310479 0.2412212 0.28112617 0.21243204
0002e0 43 50 eb 3d 7a 02 4b 3e 12 ab 05 3e a9 15 7a 3e
       0.11489918 0.19825163 0.1305354 0.24422325
0002f0 d5 45 80 3e d6 40 57 3e c3 8e 66 3e a3 1a 4e 3e
       0.25053278 0.21020827 0.22515397 0.20127349
000300 51 0e 91 3e 55 ab 00 3e 4d 56 38 3e 6b f1 34 3e
       0.28331235 0.12565358 0.18001671 0.17670219
000310 92 e4 75 3e 86 7e 73 3e 9c 4f 56 3e dc a6 eb 3d
       0.24012974 0.23778734 0.20928806 0.11506435
000320 26 d1 12 3e 6a c4 a5 bc 6c c0 82 3e b0 90 18 3e
       0.14337596 -0.02023526 0.2553743 0.14898944
000330 dc e4 c8 bc 8e a5 26 3e 9a ad 56 3e 99 f6 56 3e
       -0.024523191 0.16274092 0.20964661 0.20992507
000340 ae dd 1c bd af ee b2 bc 9e e3 1a be 02 cd 16 be
       -0.038297348 -0.021842329 -0.15125892 -0.14726642
000350 87 37 ea bb 31 af a8 bd 3c 28 bc 3b 66 be 0f be
       -0.0071477327 -0.0823654 0.005742101 -0.14037475
000360 4d 68 07 bc f0 04 71 bc d7 01 20 be ac 4e f5 3b
       -0.008264613 -0.01471065 -0.15625702 0.007486185
000370 82 bf e2 bd bc 32 28 be 43 5d 03 be 39 02 16 be
       -0.110716835 -0.16425604 -0.12828545 -0.14649285
000380 ba 6f 21 be 4d 04 26 bd 49 81 ce bc 9b 73 5b 3c
       -0.15765277 -0.040531445 -0.025208132 0.013394262
000390 a1 21 6e bd 1e 96 00 bd 63 21 a7 bd 1a 86 e0 bd
       -0.05813754 -0.031393163 -0.08160665 -0.10963078
0003a0 0e b5 aa bd 35 a9 d9 bd e9 ff b8 3d 18 36 bd bd
       -0.08335315 -0.10627977 0.09033186 -0.09238833
0003b0 5c 06 71 3d f6 f4 17 bd 54 ad 24 bd 1d 75 97 3d
       0.058843955 -0.037098847 -0.04020436 0.073953845
0003c0 2f 13 a1 3c cb 4e f2 bd 97 5c 9a 3c 3f 22 70 3d
       0.019662468 -0.11831435 0.018842978 0.05862641
0003d0 c4 f6 95 bd 56 a7 29 3c 5a a3 b6 bc 37 da cf bd
       -0.073224574 0.010354837 -0.022294689 -0.10149043
0003e0 de 4c d4 bc ad 4f 52 bc c0 0c 4c bd 13 d5 56 3d
       -0.02591556 -0.012836379 -0.049816847 0.052449297
0003f0 70 35 a6 bd 4a 3c df bd 13 bf b0 bd e8 0c cf bd
       -0.08115661 -0.10900171 -0.086301945 -0.101098835

fc1.bias f4 [128]
000000 a5 7b 1d bb 75 6d 28 3e 08 4f c6 3c 27 61 2b bc
       -0.0024029997 0.16448005 0.024207607 -0.010460175
000010 e5 35 58 3e 9d 1b 27 be 02 aa 91 bd b0 41 7e bd
       0.21114309 -0.16319127 -0.071125045 -0.062074363
000020 1b 89 24 be 31 ee 3e 3e 3e 39 6e bd bd 45 db bd
       -0.16067927 0.1864555 -0.05816006 -0.10706661
000030 91 4f 26 bd 3c c3 df 3d 84 65 28 be 99 aa 55 bd
       -0.040603224 0.1092591 -0.16444975 -0.052164648
000040 25 d6 48 be 33 09 6d 3c 6f 10 a0 3d f6 82 7b 3d
       -0.1961294 0.014467525 0.078156345 0.06140419
000050 4a b5 28 be 69 bf 8d 3c 8f c7 f7 3c 8d 33 1a be
       -0.16475406 0.017303186 0.030246524 -0.15058728
000060 ea e9 e7 bb 74 41 15 3e 79 32 50 bd 07 4d 2b bd
       -0.0070774453 0.1457575 -0.050829384 -0.041821506
000070 a9 76 41 be 23 79 d8 bc 3b 98 b2 bd d4 33 d9 bd
       -0.18892922 -0.02642495 -0.08720442 -0.106055886
000080 54 41 49 bb 58 de 9a bc 4b ba 68 bb 28 11 05 be
       -0.0030709105 -0.01890485 -0.003551143 -0.12994826
000090 a1 14 fc bd 82 a1 3e be 70 d8 f3 3b 19 92 88 bd
       -0.12308622 -0.18616298 0.007441573 -0.06668491
0000a0 c1 7e e4 bd 53 06 0c 3d 11 65 2b be 4d 94 65 bc
       -0.11156989 0.03418572 -0.16737773 -0.014012408
0000b0 95 5d cb 3c 07 42 22 3d e3 dd 60 bd d1 3f 87 3d
       0.024824897 0.03961375 -0.054899108 0.06603969
0000c0 da 03 59 3d 04 6f 90 bc 18 4e a0 3e 5a 56 75 bd
       0.05298219 -0.017631061 0.3130958 -0.059896804
0000d0 84 76 9e 3c c1 b7 a4 bd 6f cb e8 bd e0 44 a3 bd
       0.019343622 -0.08042861 -0.11366927 -0.07972121
0000e0 9d dc d6 3e 46 5a ba bd 63 6d 46 3d 19 11 d2 bd
       0.4196519 -0.090992495 0.048444163 -0.10257167
0000f0 2c 92 5a 3d e9 e2 79 3d 3c 61 ea 3d e2 1b 82 3e
       0.053362057 0.061007414 0.11444327 0.25411898
000100 fd f9 32 3b e9 56 fb bd e0 b2 3e be 49 97 d2 3e
       0.002730965 -0.12272436 -0.18622923 0.41131046
000110 c0 27 90 3d 9f 40 0b 3e c1 31 b0 3d 52 43 23 bd
       0.07038832 0.1359887 0.0860324 -0.039859124
000120 97 d2 47 be 31 80 d9 3d 87 9c 10 bd 9a 16 11 be
       -0.19513927 0.10620154 -0.035305526 -0.14168778
000130 9f d6 ee bc e6 35 76 bd 7c 78 a8 3e 28 c2 7b 3d
       -0.029155074 -0.060109995 0.32904422 0.06146446
000140 92 e2 e8 bc ac db cd bc 24 5c 37 ba df fb a1 3d
       -0.02842835 -0.025129162 -0.0006994626 0.07909369
000150 95 4a 50 bd 3e 40 84 bb ee ba 10 be 22 bc ae 3c
       -0.050852377 -0.0040359786 -0.14133808 0.021329943
000160 ab 3f 18 3e e4 d4 e4 bd e8 a1 19 be 20 a8 4a bc
       0.14868037 -0.11173418 -0.15003169 -0.012369186
000170 84 25 e1 bb 4f 43 5d 3e 67 2c a9 3d 45 65 3d be
       -0.0068709273 0.21607707 0.08260422 -0.18495663
000180 f2 2b 9b bd 1f 50 a9 bc 27 ca 8f 3e 82 6b 60 3d
       -0.07576741 -0.020668088 0.28083917 0.054790027
000190 8a 3a b4 bd cd 10 dc bd 68 d9 4a 3e b7 22 e4 3d
       -0.08800228 -0.10745392 0.19809496 0.11139434
0001a0 e8 dd 13 3d 63 69 89 3e b8 98 7a 3e d1 56 95 3d
       0.0361003 0.26838216 0.2447232 0.072919495
0001b0 24 d4 5e bd 33 d2 45 3c 82 c4 30 3e dd f7 b5 3b
       -0.05440153 0.012074041 0.17262462 0.0055532292
0001c0 33 c3 19 be d9 d8 24 3d a6 a0 ab bc bc b3 61 3c
       -0.15015869 0.040245865 -0.020950627 0.013775762
0001d0 89 bf 4d 3e 78 68 d8 bd 74 28 8e bd 92 d6 9e bc
       0.20092596 -0.10566801 -0.069413096 -0.019389424
0001e0 6c 5f d3 3d 19 90 ad 3e 2f a5 56 ba a7 3d fc 3d
       0.10320935 0.33899 -0.00081880664 0.12316447
0001f0 1b be cd bd e0 77 87 3e 1d 69 0f 3d 7a 35 54 3e
       -0.10046025 0.26458645 0.035012353 0.20723525

fc2.weight_ih_l0 f4 [256, 128]
000000 1e 10 1c be ee 32 1a be a3 d2 36 bc 32 d3 0a 3c
       -0.15240523 -0.1505849 -0.011158618 0.008473204
000010 ad e1 87 bd 48 7b a3 3d c2 1c 8e 3d 67 60 9e bd
       -0.06634841 0.079824984 0.06939079 -0.07733231
000020 38 a4 1d bd e4 97 20 be 73 26 9b bd f9 aa 2c be
       -0.03848669 -0.15682942 -0.07575693 -0.16862096
000030 c8 7d fb 3c 7e d4 20 be 65 42 05 be 77 9a 05 be
       0.030699626 -0.1570606 -0.13013609 -0.13047205
000040 67 43 cb 3d 5b 1f 05 be d1 ce a7 3c 60 73 f4 bd
       0.09924965 -0.13000242 0.02048436 -0.119360685
000050 42 4e 0b bd 8e c7 4e 3c 35 68 f0 bd bd a5 3b bd
       -0.03401018 0.01262082 -0.11738626 -0.045812357
000060 76 2d fe bd 75 c1 98 bd 15 9d 36 bd ce db 1c be
       -0.12411015 -0.07458774 -0.0445834 -0.15318224
000070 12 0a 45 bd 79 5c 85 3c aa ca 8b 3d 4a 0d 8d bd
       -0.048105307 0.016279446 0.068257645 -0.068873
000080 55 f7 14 be 0a d2 23 be 70 8d c0 3d 06 44 9f 3c
       -0.14547475 -0.15998092 0.09401977 0.019441616
000090 40 40 e0 3c de b4 49 bd 3a 57 b7 3d af 47 6d bd
       0.027374387 -0.049244754 0.08952184 -0.05792969
0000a0 c1 4d cb 3d e9 b4 b7 bd 86 df 9e bd f6 18 bc bd
       0.0992694 -0.08970053 -0.077574775 -0.091844484
0000b0 88 5f d9 bc 91 51 1a be 90 c0 b5 bd 15 3f 1e 3e
       -0.02653481 -0.15070178 -0.08874619 0.15453751
0000c0 87 92 57 3d c6 b6 0e 3e 19 4f d1 bd 8c e5 e1 3d
       0.052629974 0.1393691 -0.10220165 0.11030111
0000d0 c8 b2 f7 bd b6 4f d7 ba a6 60 ba 3b cc b2 76 bd
       -0.12094647 -0.0016426954 0.005687791 -0.060229108
0000e0 e9 19 e2 3c 73 6a b3 bd 4b 7b 3c bd 5f a0 b5 3c
       0.027600246 -0.08760538 -0.04601602 0.022171197
0000f0 db 52 fa bc 51 10 05 be 44 fb 12 bc 0b 97 d6 bd
       -0.030557087 -0.12994505 -0.008971039 -0.10478028
000100 27 75 10 bd ad 85 40 bc 58 dd 00 3e a4 d4 02 3e
       -0.035267975 -0.011750621 0.12584436 0.12776428
000110 f5 31 05 be 39 5d 00 be d8 35 f7 3d 97 ba aa bd
       -0.13007338 -0.12535562 0.12070817 -0.083363704
000120 2e 21 2a 3d c5 eb 55 be 57 f9 1c 3c fb c9 b4 3d
       0.04153555 -0.2089072 0.009580932 0.08827587
000130 f8 a2 12 be 6e 3d 4f bc 1c e8 45 be 10 20 51 3d
       -0.1431998 -0.012648923 -0.19326824 0.051055968
000140 5b 10 e2 bd aa f2 04 bd 5e d8 d5 bd b0 07 2e be
       -0.11038276 -0.032457985 -0.104416594 -0.1699512
000150 40 b6 c0 bd 14 bf 87 bd fb e3 3f 3d c4 3c 81 3d
       -0.094097614 -0.06628242 0.04684828 0.06310418
000160 86 9d ce bb bc 3c eb bd 1e 48 fc bd a0 8f 55 3c
       -0.0063053994 -0.114861935 -0.12318443 0.013034731
000170 e2 e0 37 3d dc b4 18 bd e8 43 a6 3c 33 64 94 3d
       0.0448922 -0.037281856 0.020296052 0.07245674
000180 b8 8b 63 3d 91 43 c7 3d 2d 75 02 be 0f 52 2b bc
       0.055553168 0.09729684 -0.12740012 -0.010456576
000190 d8 18 2b bd 14 03 fb bd 23 84 9d bc 95 35 27 bd
       -0.04177174 -0.122564465 -0.019228047 -0.040822584
0001a0 1b de f7 bd 27 e2 0d be d2 73 24 be 80 78 d8 bd
       -0.1210291 -0.13855802 -0.16059807 -0.105698586
0001b0 d7 fb 77 3d 47 3c 80 3a f2 61 10 be 05 45 d9 bd
       0.060542908 0.0009783589 -0.14099863 -0.106088676
0001c0 ff a4 64 3d eb 89 95 bd 56 79 5e bc 60 b6 9b bb
       0.055821415 -0.073016964 -0.013578733 -0.0047519654
0001d0 9b 05 40 bd 3f 6c f1 bd 14 fb 9a 3d 44 a6 f7 bc
       -0.046880346 -0.117882244 0.075674206 -0.030230649
0001e0 ff 85 b4 3c a9 55 bd bd b5 d2 c3 bd 7f 01 f4 3d
       0.02203655 -0.09244854 -0.095616736 0.11914348
0001f0 03 04 74 bd 32 78 b0 3d b2 63 95 3d 88 e0 30 bd
       -0.05957414 0.086166754 0.07294406 -0.04318288
000200 2d 32 64 3d 05 f5 84 bc 7e 25 e2 bd 82 64 c3 3d
       0.055711914 -0.016230116 -0.11042307 0.09540655
000210 af 9d 23 3d a0 c1 e8 3c 75 36 1d bd b8 b7 f8 bd
       0.0399453 0.02841264 -0.038382012 -0.121444166
000220 0d 7e d9 3c 63 e4 51 3c eb 88 92 bb 4f 0f da bd
       0.026549364 0.012810799 -0.0044718883 -0.10647451
000230 ce 5e 5b 3d 41 99 20 be 42 61 0e be af 9e b6 bd
       0.05355721 -0.15683462 -0.13904288 -0.08916985
000240 95 c1 0f be ef db 9d 3c 16 7e b1 bd 0a d9 d2 3c
       -0.1403869 0.019269912 -0.08666627 0.025738258
000250 5b 9a e6 bd c5 10 b4 bd d1 44 96 bd 63 84 8d bc
       -0.1125991 -0.08792261 -0.073373444 -0.017275041
000260 51 ef 28 bc 58 3a eb bd 5f 62 d5 bd 04 e3 c8 bc
       -0.010310964 -0.114857376 -0.104191534 -0.024522312
000270 c6 70 2f bd ba fc 43 bc 41 c6 f9 3c e0 5a c7 bd
       -0.04283216 -0.01196211 0.030490043 -0.0973413
000280 f5 bb aa 3c 09 6a a7 bc ff 50 ff 3c be 86 f4 3c
       0.020841578 -0.020436304 0.031166552 0.029849406
000290 c0 6d 99 bd b9 72 b2 bd dc f5 dd bd 74 a6 b7 bd
       -0.07491636 -0.08713288 -0.108379096 -0.08967295
0002a0 b2 79 1d be c8 52 e6 3c 6e 06 aa bd a6 e6 ec bd
       -0.15378454 0.028115645 -0.083020076 -0.1156743
0002b0 64 e2 07 bd a2 de c6 bb c0 10 1f 3b 63 26 72 bd
       -0.033174887 -0.0060690204 0.0024271458 -0.05911864
0002c0 ba 89 14 3b aa 8a bd bd 37 72 9c bd 28 b7 9f bd
       0.00226651 -0.09254964 -0.07638972 -0.07798606
0002d0 f6 5e ec bd e8 f6 13 bd 3e 2f e4 bc 2a ed 95 3d
       -0.1154155 -0.03612414 -0.027854558 0.07320626
0002e0 34 06 d1 bd a3 22 58 bd bb bd c4 bd fc c7 34 3c
       -0.10206261 -0.052767407 -0.09606501 0.011034008
0002f0 20 fb 85 3c eb 51 c4 bd de 1d 43 bd 20 73 db bd
       0.016355097 -0.09585937 -0.047635905 -0.10715318
000300 a9 db 23 be 1a 6a 3f bd 0e 02 a4 3d ec 3a a3 3d
       -0.16001762 -0.046732046 0.080082044 0.07970223
000310 cc a1 00 bd 71 8e 8d bd 00 e2 81 3c 8b 76 31 bd
       -0.0314043 -0.06911934 0.015854836 -0.043325942
000320 76 7b 6c 3d 20 af 71 3d 65 46 c2 bd bb 59 4e bd
       0.05773493 0.059004903 -0.09486083 -0.050378542
000330 e7 be 87 3d b6 90 aa bd 92 6e b5 bc be a5 e3 bd
       0.066282086 -0.08328383 -0.02214745 -0.11115597
000340 3b 2f 28 be 17 b8 66 3c 78 fb fe 3c 7a 95 f4 bd
       -0.16424267 0.014081976 0.031125769 -0.11942573
000350 d8 da 80 bc 33 98 02 3d 7f 33 39 bc a0 86 ef 3c
       -0.015729353 0.03188343 -0.0113037815 0.029238999
000360 ce 87 ea bc 3c 0c fd bd c5 25 9b bb e0 16 5b bd
       -0.02862921 -0.12355849 -0.004734727 -0.053488612
000370 b5 72 8d 3d e8 73 05 be 33 65 d1 bd f9 7d 4b bd
       0.06906644 -0.13032496 -0.1022438 -0.049680684
000380 4c fa 05 bd c1 1c 9d bd 99 67 82 bd bb 31 76 bd
       -0.032709405 -0.076715 -0.06367416 -0.06010602
000390 52 4e 1d bd 6e c7 67 3d f2 50 d8 bd fd e5 84 bd
       -0.03840477 0.056586675 -0.10562314 -0.06489179
0003a0 65 11 bf 3b 74 dd 9e 3d d6 bf 6f bd 40 8b 55 3c
       0.005830931 0.077570826 -0.05853256 0.013033688
0003b0 40 a4 f3 bc 9d 47 dd bd 10 91 82 3d da 9c d7 bd
       -0.029741406 -0.10804675 0.06375325 -0.10527964
0003c0 13 3d a8 bc bf 24 48 3b 73 ff 80 bd 10 a6 4f 3c
       -0.020536935 0.003053948 -0.06298723 0.01267387
0003d0 1f be 90 3c 60 cb 69 3d 50 2b d7 3d 7d 79 89 3d
       0.017668782 0.05707872 0.10506308 0.06712625
0003e0 df 1c 8f 3d 37 7e 11 3d 28 6b 57 3d 56 9f 83 bd
       0.069879286 0.03552076 0.052592427 -0.06426875
0003f0 8e 43 b5 bd a6 7c bb 3c 7a db cf bd 6d b5 fc bd
       -0.08850776 0.022886585 -0.10149284 -0.12339292

fc2.weight_hh_l0 f4 [256, 64]
000000 a4 70 22 3d 12 b8 a4 bd 32 66 96 bd 28 71 d2 3d
       0.039658204 -0.08042921 -0.07343711 0.10275489
000010 ee af c2 bd 3c ed 4f 3d e0 63 ee 3b 7a c5 dd bd
       -0.09506212 0.050763354 0.0072750896 -0.10828681
000020 60 35 f9 bc 30 ab 12 3c 36 35 bd bd 0e 09 a8 3d
       -0.030420959 0.008951947 -0.09238665 0.08204852
000030 70 13 4e 3c 30 ae ab bd e8 d8 42 3d 90 40 75 bc
       0.012577876 -0.08382833 0.04757014 -0.014969006
000040 90 5e 39 3d fe ae a4 bd a8 6b 15 3d 90 28 39 3c
       0.045256197 -0.080411896 0.036479622 0.011301175
000050 b6 b7 bb 3d 28 69 f4 3c a2 99 a7 3d c8 17 cd 3d
       0.091658995 0.029835299 0.081836 0.100143015
000060 92 ce f7 bd a0 a0 2d bc a0 69 57 3c 40 87 60 bc
       -0.12099947 -0.010597378 0.013147742 -0.013704121
000070 e0 8c ad bd 80 3f 2d bb a0 06 f9 bc 94 9a e2 3d
       -0.084741354 -0.0026435554 -0.030398667 0.1106464
000080 6c 3f 15 bd ec f6 c4 3d 60 2b c9 3d 42 fa bf 3d
       -0.036437437 0.09617409 0.09822726 0.09373905
000090 68 3f a1 bd 56 f1 f8 bd 78 24 d9 bd 06 bb cf 3d
       -0.07873422 -0.12155406 -0.10602659 0.10143094
0000a0 a4 b4 95 bd ba 6d 87 3d 38 d5 0d 3d c4 e6 7a bd
       -0.07309845 0.066127256 0.03462717 -0.06125523
0000b0 ec 8e ff 3d 00 97 4e 3d 4c fd c6 bd 6e 81 b8 bd
       0.12478432 0.050436974 -0.09716281 -0.09009062
0000c0 80 7e ff bc 76 16 f0 bd 6c ee 6b 3d 56 e0 d2 bd
       -0.03118825 -0.11723034 0.057600424 -0.10296695
0000d0 60 c7 c1 bd 3e 8b b8 bd e6 2d 83 bd 10 9f 3c bd
       -0.09461856 -0.09010933 -0.06405239 -0.04605013
0000e0 32 9c 86 3d b2 f1 fe 3d 9e aa 8e bd 60 48 0d 3d
       0.06572761 0.124484435 -0.069661364 0.03449285
0000f0 70 56 08 3d 6e bd aa 3d 48 bf f3 3c e8 0e 95 bc
       0.03328556 0.08336912 0.029754296 -0.018195584
000100 8c ee 5d bd 14 ea f5 3d 30 15 fd bc 60 07 98 bc
       -0.054182574 0.120075375 -0.030893892 -0.018558204
000110 88 ba 86 3d 24 34 1e bd b4 1a 8a 3d b0 b8 6a 3c
       0.06578547 -0.038623944 0.067433745 0.0143262595
000120 d8 96 86 bc 50 3a 78 3c f8 32 ef 3d a0 3a 49 bc
       -0.01642935 0.0151506215 0.116796434 -0.012282044
000130 ce 9b b3 bd 00 56 93 ba 04 13 2d bd 84 6d 53 3d
       -0.08769952 -0.001124084 -0.042254463 0.051618114
000140 20 06 8c 3b b0 60 7f 3d 8c 3a dc 3d ae ee ea 3d
       0.004273191 0.062348068 0.107533544 0.11471306
000150 c0 3d 2d 3c 90 ec a2 3d 4a 11 85 bd b0 bf ac bc
       0.010573804 0.07955277 -0.06497438 -0.021087497
000160 7a 2a eb 3d 60 b9 9a 3d 84 8e 97 bd 0c f6 83 bd
       0.11482711 0.07554889 -0.074002296 -0.06443414
000170 88 fc cd 3c a4 49 b6 3d 80 3b 14 bd ae 25 8c bd
       0.02514483 0.089007646 -0.036189556 -0.06843124
000180 fc 7f d7 3d 6c 4a f8 bd f0 ba 89 bc 76 c1 fe 3d
       0.10522458 -0.1212357 -0.016812772 0.124392435
000190 e0 e7 d4 bd 14 19 87 3d 50 19 ec 3c 70 b4 51 3d
       -0.10395789 0.0659658 0.028820664 0.05119747
0001a0 e8 4c 92 bd 20 e2 8b 3c d8 34 88 3c b6 bb 97 3d
       -0.07143575 0.017075598 0.01662676 0.0740885
0001b0 c4 40 ae bd 36 62 d5 3d 3c 50 d0 3d 40 c4 d4 bc
       -0.08508447 0.10419123 0.101715535 -0.025972486
0001c0 70 78 ba bd 28 7e c4 3d 26 b8 f3 bd dc 90 a0 3d
       -0.09105003 0.09594375 -0.11900358 0.0784013
0001d0 5c 87 9a bd ce 8b e3 3d ac a7 21 bd dc c2 c4 3d
       -0.07545349 0.1111065 -0.039466545 0.09607479
0001e0 7c b4 9b 3d 3c d9 8a 3d e2 65 d7 bd 00 b6 4a 3b
       0.07602784 0.067797154 -0.105174795 0.0030931234
0001f0 48 a0 0d 3d 5c 1e cd 3d ee 2d 9d bd a0 55 9c bd
       0.034576684 0.10015556 -0.07674776 -0.07633519
000200 a0 4b a3 bb 40 a6 76 bb c0 3f 9a bc 0a 96 91 bd
       -0.0049833804 -0.0037635714 -0.018829226 -0.07108696
000210 cc df 1e 3d a0 c6 c7 bd ac d8 c5 bd b6 0b b2 3d
       0.038787648 -0.097546816 -0.096604675 0.0869364
000220 a0 9d 1e bd 4e 39 90 bd 24 1a f2 3d 86 66 d9 bd
       -0.03872454 -0.0704218 0.11821392 -0.10615258
000230 7a 56 ad bd ea 66 b8 3d ac fa 9b 3d 3c fa 6a 3d
       -0.0846376 0.09004004 0.07616171 0.05736755
000240 3c 4f e0 bd cc c3 3f bd d4 1f e4 3d 32 f8 f2 3d
       -0.10952613 -0.046817586 0.11138883 0.11863746
000250 8c 81 5a bd 60 cc c0 bd a4 bf 82 bd 08 ec 5b 3d
       -0.0533462 -0.094139814 -0.06384209 0.053691894
000260 ac ae 1a bd bc d3 50 bd de 2e a9 3d 7c 0b 38 bd
       -0.037764236 -0.050983176 0.08260892 -0.044932827
000270 c0 8b 80 3b 12 08 a4 bd c4 c0 fa 3d a6 04 9d 3d
       0.0039229095 -0.08009352 0.122437984 0.07666902
000280 ae 9b 9c 3d 9e 69 9c bd f0 fb 45 bc 56 c1 a7 bd
       0.07646881 -0.076373324 -0.012083992 -0.08191173
000290 e4 1d c3 3d a4 f3 b1 bd 5c 6e dc 3d 7e 31 d6 3d
       0.095271856 -0.08689049 0.10763237 0.10458659
0002a0 f0 23 e6 3d 4c 36 af bd 84 c1 24 bd 18 26 e5 bc
       0.11237323 -0.08555278 -0.040223613 -0.027972266
0002b0 a0 24 73 bc 22 77 99 bd 8e 13 cf 3d 80 c9 cc bc
       -0.014840275 -0.07493426 0.10111152 -0.024998426
0002c0 cc 5b 58 bd f0 2e ba 3c 04 50 45 bd 00 00 24 35
       -0.05282192 0.02272746 -0.048172012 6.109476e-07
0002d0 7e 35 c9 3d 84 90 0b bd 62 69 91 bd d0 05 a4 bc
       0.09824656 -0.034073368 -0.07100178 -0.020022303
0002e0 40 6a 8d 3b 80 55 99 3c 84 ca 9b bd 90 4f 67 bc
       0.0043156445 0.018717527 -0.07606986 -0.01411809
0002f0 f0 95 d7 3d 96 2a 8b bd 6c 18 1e 3d ec e9 f8 bd
       0.10526645 -0.06795232 0.03859751 -0.12153992
000300 d8 5f d2 bd d8 7b 31 bd 48 e2 5b bd dc 10 df bd
       -0.10272187 -0.043330997 -0.053682595 -0.108918875
000310 40 23 f3 bb d8 9e ad bc 4e 9d 89 bd a0 d8 2e bd
       -0.0074199736 -0.021193907 -0.067194566 -0.04268706
000320 aa 05 d3 3d 20 03 a4 3c 80 de 15 bb d4 b3 e9 bd
       0.10303815 0.020021021 -0.0022868216 -0.114112526
000330 f0 cd b7 bc 98 b5 f1 bd e4 89 67 3d 54 5a d7 3d
       -0.022437066 -0.118022144 0.056527987 0.105152756
000340 f4 94 c6 bd 4c 0b ae bd 08 a4 af bd bc f2 cc bd
       -0.09696379 -0.084982485 -0.08576208 -0.100072354
000350 b8 c0 fd 3c ec 2a 54 3d 20 30 df bd 10 fa 70 3c
       0.030975685 0.051798746 -0.10897851 0.014708057
000360 3a 15 bf bd a0 5a d0 3d bc 45 47 bd 72 3a bb bd
       -0.093302205 0.10173535 -0.04865049 -0.09142007
000370 ba c3 c6 3d 64 35 99 bd c8 cf d9 bc f4 e0 b4 bd
       0.09705301 -0.074808866 -0.026588336 -0.08831969
000380 c0 14 d6 3c d0 94 ee bd 98 31 86 bd d8 08 7f 3d
       0.026132941 -0.116494775 -0.06552428 0.062264293
000390 f8 c8 81 3d 4c 39 91 bd fc c1 df 3d e8 0a af bc
       0.0633716 -0.07091007 0.109256715 -0.021367505
0003a0 a8 80 ff 3c ce 3f c4 bd 38 1e f9 bd 1c 16 01 3d
       0.031189278 -0.09582482 -0.12163967 0.031515226
0003b0 e0 1e 3b bd d4 40 95 bd 66 2f db bd 40 1b dd bc
       -0.04568374 -0.072877556 -0.107024 -0.026990533
0003c0 44 9d 0e bd 84 d2 43 bd 68 ae fe 3d 2c 3e 88 3d
       -0.03481795 -0.047808185 0.12435609 0.06652483
0003d0 00 80 42 b8 5e 34 f3 3d a0 9c a1 3d b0 d7 0e bc
       -4.6372414e-05 0.118752226 0.07891202 -0.008718416
0003e0 d0 64 70 3d 30 50 94 bc 0c cb bd 3d ca 3a 9b 3d
       0.058689892 -0.018104643 0.09267244 0.075795725
0003f0 2c 77 a6 3d 34 cb b4 3d a0 de ea bc c0 ce 03 3c
       0.08128199 0.088278204 -0.028670609 0.0080448985

fc2.bias_ih_l0 f4 [256]
000000 7f da af bd 90 22 16 bd b6 35 a2 3d bf 7a 24 3e
       -0.08586597 -0.036654055 0.07920401 0.16062449
000010 85 f3 61 bd e0 b3 f9 bd 19 cf d9 3d a4 52 5b 3d
       -0.05516388 -0.121925116 0.10635204 0.05354561
000020 00 f9 a6 3d 88 cc b4 bc f0 cf 41 3d 88 88 bc 3d
       0.08152962 -0.022070184 0.047317445 0.09205729
000030 5d 3b c6 bd 45 28 84 3d 17 fa 5e 3b 9c 34 45 3d
       -0.096792914 0.06452993 0.0034023577 0.048145875
000040 9e f9 24 bd 52 cb b9 3c 57 6b be 3c ac 9d 26 3d
       -0.040277116 0.022679958 0.023244543 0.04067771
000050 ed 93 81 39 81 5d 70 3d b4 f6 ce bc a8 e8 f7 3c
       0.0002471501 0.058682922 -0.025264122 0.030262306
000060 00 16 f2 bb f2 1a fd bd fc 3c d6 3d 0c 9d d6 bd
       -0.0073878765 -0.12358655 0.104608506 -0.10479173
000070 fb bc cb 3d a1 21 b0 3d 15 6a 6e bc f3 76 91 3d
       0.099481545 0.08600164 -0.014551659 0.07102766
000080 ea c8 4d 3c e0 9f c8 3c 98 25 e8 3d 60 e2 a9 bd
       0.012560109 0.024490297 0.113352954 -0.08295131
000090 7f 85 26 3e 31 ca 1e 3e 9f 23 ee bc 00 23 c9 ba
       0.16261862 0.15506817 -0.02906972 -0.0015345514
0000a0 90 f2 c4 bd e6 8d 24 3d ff d8 cf 3d 85 3d d9 bd
       -0.096165776 0.040174387 0.101488106 -0.10607437
0000b0 06 f3 d4 3d 06 6c 37 3a b1 f4 8e 3b d2 77 ba 3d
       0.103979155 0.0006996993 0.0043626656 0.09104885
0000c0 79 c5 82 bd b7 32 84 3d fa 28 ce bd ac a5 a6 3d
       -0.06385321 0.064549856 -0.100664094 0.08137068
0000d0 9e 94 a3 bd a6 47 09 3e 70 55 63 bc 2e 87 9a bd
       -0.07987331 0.13406238 -0.01387535 -0.07545315
0000e0 6a f2 14 3e c3 e1 ae bd d0 73 00 bc 40 9b 17 3d
       0.14545599 -0.085391544 -0.007840112 0.037013292
0000f0 ce d8 29 3d 39 36 04 3c 9e 7f 9d 3c 7b 5e 04 3d
       0.041466527 0.008069568 0.019225892 0.032316666
000100 f8 5b dd bd 14 b5 d1 bd 80 64 f9 3a 80 a6 a0 3b
       -0.10808557 -0.10239616 0.0019027144 0.004902661
000110 54 d1 e6 bd 6c 6f b3 bd 7e 67 95 bd 40 a5 fa 3c
       -0.11270395 -0.087614864 -0.0729513 0.030596375
000120 f6 1b e7 bd 40 57 66 3b 26 d3 d1 bd 00 ed c7 bb
       -0.1128463 0.003514722 -0.102453515 -0.0061012506
000130 50 7f 70 3c 30 aa 4b 3d aa 43 8b bd 08 1d fa bd
       0.014678791 0.04972285 -0.06800015 -0.122125685
000140 00 b5 b4 3c c0 25 3d 3c 94 7c b7 3d 40 72 ed bb
       0.022058964 0.011544645 0.08959308 -0.0072462857
000150 24 38 50 3d 8e 3c f6 3d b4 6a cf 3d 1c 38 84 3d
       0.05083479 0.12023269 0.10127774 0.064560145
000160 d4 33 96 3d 9c 3c 96 bd 80 4e ea ba d8 71 6b bd
       0.07334104 -0.07335779 -0.0017876178 -0.057481617
000170 ce 26 d2 3d 34 19 a3 3d 6e a4 b2 bd d2 c7 f5 bd
       0.10261308 0.079637915 -0.08722769 -0.12001003
000180 b0 fa 1a 3d a0 23 38 3d ac cb 46 bd c4 98 f0 bd
       0.03783673 0.04495585 -0.04853408 -0.11747888
000190 ea 0a f4 3d 1c 40 60 bd d8 5c e3 3c ae 0e 95 3d
       0.11916144 -0.05474864 0.027754232 0.072781906
0001a0 10 47 8a bd b8 e7 c6 3d 80 89 bf bd a8 26 a9 bc
       -0.06751835 0.097121656 -0.09352398 -0.020648316
0001b0 b8 00 b4 bc ee ef bd bd e0 da e9 bd 30 6c 53 bd
       -0.021972999 -0.092742786 -0.114187 -0.051616848
0001c0 cc 05 4c bd 48 d3 5f bd 6c 25 f8 bd 44 f3 90 bd
       -0.049810216 -0.054644853 -0.12116513 -0.07077649
0001d0 78 c4 9a bc 20 67 e1 bc f4 05 0c bd 2c 9f f6 3d
       -0.018892512 -0.027514994 -0.034185365 0.120420784
0001e0 a4 0e e1 bd 90 29 ba 3d c0 31 98 3d a2 44 96 3d
       -0.109891206 0.09089959 0.07431364 0.073373094
0001f0 ae 51 d6 bd 9c 4f 44 3d 26 4e 9d bd ec ac 7a bd
       -0.10464798 0.047927484 -0.07680921 -0.061200067
000200 ab 2a 01 bd 56 c9 d8 bd 7c e5 5a bd 73 0c da 3c
       -0.031534832 -0.10585277 -0.05344151 0.026617264
000210 67 57 d1 3d 1b 50 6b bd 3d 7f 94 3d a4 d7 d6 bd
       0.10221749 -0.05744944 0.07250831 -0.10490349
000220 ad 9f 02 3d 40 34 f8 3d 80 3a 26 3b e1 79 3f bd
       0.03189056 0.12119341 0.0025364459 -0.046747092
000230 14 af d0 3d a2 2b 8a bd 70 07 65 bc f0 cf 62 bd
       0.101896435 -0.067466035 -0.013978824 -0.055374086
000240 c0 d3 d1 3c 53 4a f2 3c c2 8f df bd 20 a2 75 3d
       0.025613666 0.029576456 -0.109160915 0.059969068
000250 02 9e a7 3d 2a 57 a3 bd 0f 9e 51 bd 4e 25 3b bd
       0.081844345 -0.079756096 -0.051176127 -0.045689873
000260 34 30 b5 3d 60 d2 f8 3b bc bc 7c 3d 9a 4f a4 3d
       0.08847085 0.007593438 0.06170343 0.08022995
000270 a9 ed aa bd f0 79 d6 bc 4c 0f ca bd 70 55 d7 3d
       -0.08346111 -0.026181191 -0.09866199 0.10514343
000280 a0 7b ae 3d da 4e ab bd e2 bb aa bd 68 d5 bb bc
       0.08519673 -0.08364649 -0.08336617 -0.022928908
000290 bf bb f7 3d 44 54 34 bd f8 9e ad 3d a4 a2 ff 3d
       0.120963566 -0.044025674 0.084775865 0.12482193
0002a0 54 37 ed bd f6 2e a2 3d 98 43 0b 3d c7 2b f2 bb
       -0.115828186 0.07919113 0.03400001 -0.0073904726
0002b0 66 2f e8 bd 28 bf f9 3c af 99 73 bd f8 cd 96 3c
       -0.113371655 0.030486658 -0.059472736 0.01840876
0002c0 64 4d 67 bd 8e 84 9a bd 20 43 57 bd 02 2f 1b be
       -0.05647029 -0.07544814 -0.05255425 -0.15154651
0002d0 ea 2f a9 3d 66 e7 d4 3d 54 cf 98 3d df 19 61 3d
       0.08261092 0.10395698 0.0746142 0.054956313
0002e0 52 80 da 3d 74 5e 89 bc 1a 0d ba bd 24 ff 6f 3d
       0.106690064 -0.016768672 -0.0908453 0.05859293
0002f0 b9 99 28 bd b0 2c 8d 3d 7a fd 8a 3d ed 4d 18 be
       -0.041162226 0.06893289 0.06786628 -0.14873476
000300 6c 02 c5 3d e0 91 43 3c 20 7d eb 3c 76 00 ec 3c
       0.096196026 0.011936635 0.028746188 0.028808814
000310 1d 5b bb 3d 89 4d 42 bc 1b 3e d0 3c 39 c6 0d be
       0.09148238 -0.011859306 0.02542024 -0.13845147
000320 51 fd b3 bd 13 85 96 bd fc 66 e5 3d ee 3f d5 bd
       -0.08788551 -0.07349601 0.11201283 -0.10412584
000330 ab ee a3 3b 2a 45 51 bd e0 a7 37 be 7f 49 b6 3c
       0.0050028167 -0.05109135 -0.17935133 0.022251843
000340 2b bc 94 bd 91 86 f5 bd a5 a8 f8 bd ab f1 86 3c
       -0.07262453 -0.11988557 -0.121415414 0.016472658
000350 a8 26 af bc 0e 98 e3 bd 66 d1 1f 3e 19 0a 01 be
       -0.021380737 -0.111129865 0.15607223 -0.12601508
000360 04 76 a5 3d 0e 19 a7 3d 0e ed 0f 3d d2 b6 00 3e
       0.0807915 0.08159076 0.035138182 0.1256974
000370 20 85 2f 3d 69 0e 67 bd a4 57 ed 3d d8 4f b7 3d
       0.042851567 -0.056410227 0.11588982 0.08950776
000380 04 98 bc 3d 9f 78 0a be 53 42 f1 bc 88 f6 b8 3c
       0.09208682 -0.13522576 -0.029450571 0.022578493
000390 a1 33 b0 bd d4 b6 2f be ae e8 75 bc f7 60 dd bd
       -0.086035974 -0.17159587 -0.015009088 -0.1080951
0003a0 e6 3f d8 bc 7b 5f 31 3e 65 84 a7 bd bf e2 9d 3d
       -0.026397657 0.17321579 -0.08179549 0.07709264
0003b0 fa f1 29 be a2 22 81 bd a6 68 cc bd fe 82 fb 3d
       -0.16596213 -0.06305434 -0.099808976 0.12280844
0003c0 ea e9 40 bd 67 9d 03 3e b0 d6 72 bd ae 87 ab 3d
       -0.047098078 0.12853013 -0.059286773 0.08375488
0003d0 2b cd 89 bc c5 0f 83 bd c8 39 2b bc be ee bf 3d
       -0.016821465 -0.06399492 -0.010450788 0.09371708
0003e0 60 af 9e 3d 24 43 5b 3d e3 43 95 ba cc 82 25 3d
       0.07748294 0.053530827 -0.001138803 0.04040794
0003f0 d0 4b b3 3d 5c 2f cc 3d 23 8c 04 3e 52 0c 15 3d
       0.087546945 0.099699706 0.12944083 0.036388703

fc2.bias_hh_l0 f4 [256]
000000 b0 e5 45 bd d8 c0 1b 3d 56 62 c2 bd a7 ed 9e 3d
       -0.04831475 0.038025707 -0.09491412 0.07760172
000010 42 a8 b3 3d c4 f8 80 3d 4a 21 be 3c 81 b2 b5 bd
       0.08772327 0.06297448 0.023209233 -0.088719375
000020 92 c3 8f 3d 08 d9 86 bd c4 de 9a 3d 6e 4c a3 3d
       0.07019724 -0.06584364 0.075620204 0.07973562
000030 4f 50 23 be ec 3a 17 3d 29 9d 84 3b c0 35 cd 3d
       -0.15948604 0.036921427 0.0040470553 0.100200176
000040 fc fa d5 3c 2d 6e 06 be 89 ca fb bc 44 66 8f 3d
       0.026120655 -0.13127966 -0.030736225 0.070019275
000050 14 51 d5 3c 44 36 bd 3d 9c a2 11 bd d0 73 60 3c
       0.026039638 0.09238866 -0.035555467 0.013699487
000060 78 a7 32 bd 64 10 5e bd 03 5c 8e bc 78 b8 0e bd
       -0.043616742 -0.05421485 -0.017377859 -0.03484389
000070 9a 08 d0 bc 78 a6 e5 3c b4 7f 05 bd ee 2a f6 bc
       -0.025394727 0.02803348 -0.03259249 -0.030049767
000080 24 65 ef bd 3c 82 7f 3d d2 0e 82 bc c8 d6 02 be
       -0.11689213 0.06238006 -0.015876208 -0.12777245
000090 6a b3 b6 3d 50 1f 17 3e 6b d6 8d 3d 76 33 d0 bd
       0.08920939 0.14758039 0.069256626 -0.101660654
0000a0 70 f6 14 3d 2b 4e 0e 3e e3 eb a1 bd cd 1b 9b bd
       0.036367834 0.13897006 -0.0790632 -0.07573662
0000b0 9b c7 2e bd 51 6d 67 bd ce 9a 1c 3e 78 b4 b9 3d
       -0.042670827 -0.056500737 0.15293428 0.09067625
0000c0 11 70 f4 bd 9a a3 48 bd 28 07 90 3d f8 35 9f 3d
       -0.119354375 -0.048984148 0.07032615 0.077739656
0000d0 94 63 ae bd ba 06 9e 3d 48 ed b6 bc 6d b7 2d 3d
       -0.08515087 0.07716127 -0.022329941 0.042411257
0000e0 0f 98 35 3d e0 68 1f bd 40 6c 6d 3c 3f 58 d9 3c
       0.044334468 -0.038918376 0.014491141 0.026531337
0000f0 21 b4 d7 3d 6c db 36 bd 29 76 6e 3d 7b dd a7 bd
       0.10532404 -0.04464285 0.058218155 -0.08196541
000100 cc 09 9e 3d e8 64 b0 bd 7a 5c 82 bd 8e 12 89 3d
       0.07716712 -0.08612996 -0.06365295 0.06692992
000110 d2 54 ba 3d ce f9 80 bd a8 87 6c 3d 64 29 fd 3d
       0.090982094 -0.062976465 0.05774656 0.1236141
000120 fe 91 95 3d 08 02 04 3d fc 1a c6 3d e8 41 c4 bc
       0.073032364 0.0322285 0.096731156 -0.023957208
000130 c0 7e d5 bb a8 1e a9 3c bc 46 a1 3d 60 be 32 3d
       -0.006515354 0.0206445 0.0787482 0.043638587
000140 2c 59 e8 bd 34 2f 62 bd 04 3d 04 3d 90 70 17 3d
       -0.11345133 -0.055220798 0.03228475 0.036972582
000150 20 39 0a bd 20 bf 4a 3c f8 42 5c bd 20 f6 74 bc
       -0.033745885 0.012374669 -0.053774804 -0.014951259
000160 50 00 3c 3d 50 18 6b 3d d0 c5 35 bc a0 f5 87 bc
       0.045898736 0.057396233 -0.011094525 -0.016596615
000170 2e a0 97 3d 80 a7 99 ba 88 5f c7 bd ca 08 94 bd
       0.07403599 -0.0011722893 -0.09735018 -0.07228239
000180 88 56 be bc 68 21 86 3d 28 5f 4f bd 40 f6 2c bc
       -0.02323462 0.065493405 -0.050627857 -0.010556757
000190 ae 71 de bd 08 20 65 3d c0 6e b0 bd 3a 0f ab 3d
       -0.108615264 0.05593875 -0.08614874 0.083525136
0001a0 a0 b3 77 bd 58 e9 b4 3d 40 8c 74 bd 22 f8 f3 3d
       -0.060474038 0.08833569 -0.059704065 0.11912562
0001b0 ee 4f 86 3d 00 84 5f 3d d0 95 00 bc c0 f8 fc 3c
       0.06558214 0.054569244 -0.007848218 0.030880332
0001c0 6c 4d a5 3d 5c b1 b7 3d f6 ff d0 3d a0 af 06 bd
       0.08071408 0.089693755 0.10205071 -0.032882333
0001d0 50 ce 80 3d 2c b1 38 3d f4 23 54 3d 00 7a 89 b9
       0.06289351 0.04509084 0.0517921 -0.00026221573
0001e0 e6 7e 91 3d 64 a1 03 3d 9c 68 2e 3d 16 3f bc 3d
       0.07104282 0.032136336 0.042580232 0.0919172
0001f0 38 c1 f8 bc f4 ef a6 3d 78 12 94 3c a0 6f da 3c
       -0.030365571 0.08151236 0.018075213 0.026664555
000200 3e 1c 7a bd d2 89 b8 3d ba 7b c8 bd f3 74 8d bd
       -0.06106209 0.09010662 -0.09789224 -0.06907072
000210 7b 51 c0 3d 4b cc 05 bd eb 8f 99 bd 39 2f 10 3e
       0.09390541 -0.032665532 -0.07498153 0.14080514
000220 8b 2b b9 3d 08 e9 ea bc 78 18 92 3c e4 d5 64 3d
       0.09041508 -0.028675571 0.017833933 0.055868044
000230 a4 30 10 bd 11 3f 1f 3e 70 ff 3d bd 48 50 e9 bc
       -0.035202637 0.15551402 -0.046386182 -0.028480664
000240 36 50 a6 3d 44 45 84 bd 84 2d 63 3d 08 45 d9 3d
       0.08120768 -0.06458524 0.05546333 0.1060887
000250 7d cc 64 3b 50 7b 00 3c 5d 64 7c bd 7f 07 81 3d
       0.0034911924 0.0078419 -0.06161915 0.06300258
000260 24 27 4a bd 7c 4a 5f 3d 50 dd fa 3d f0 71 76 3d
       -0.049353734 0.054514393 0.12249243 0.060167253
000270 9a ff 81 3d b0 01 a5 3d 8e 6d b4 3d 98 83 9b bc
       0.0634758 0.080569625 0.088099584 -0.018983647
000280 fc fa 4d bd 6c 85 27 bd 3c fd 63 3d 64 8c ca bd
       -0.050288185 -0.040898725 0.055661425 -0.09890059
000290 a1 ca a2 3d 00 0a 0f be 85 14 ac bd c6 0d b9 bd
       0.07948805 -0.13968658 -0.08402351 -0.0903583
0002a0 6a b1 ad bd be c1 e4 3c b4 36 2d bd 30 36 21 bd
       -0.08481105 0.027924415 -0.042288497 -0.039358318
0002b0 86 5f 0c be 20 39 a8 bd b1 a5 f9 bd fc 7f 41 bd
       -0.13708314 -0.08214021 -0.12189806 -0.047241196
0002c0 3a 3c 96 3c ef 35 06 3c 88 b3 b0 bd 14 d0 a2 bd
       0.018339265 0.00819157 -0.08627993 -0.07949844
0002d0 02 04 5e bd 90 62 69 3d 00 05 2d bc d8 88 f7 bd
       -0.05420304 0.056978762 -0.010560274 -0.12086648
0002e0 04 13 34 3c fd ee ae bd 5e ba b7 bd fe ee e4 bc
       0.010990862 -0.08541677 -0.089710936 -0.027945992
0002f0 3a 58 b0 bd e8 99 dc bc 86 be 8a 3d 24 70 14 3d
       -0.08610578 -0.026928857 0.06774621 0.036239758
000300 62 ef ee 3d 84 d7 fa 3d 94 61 7c 3d 0e bf da 3d
       0.116667524 0.122481376 0.061616495 0.10680972
000310 e6 c9 5f 3d 32 65 ed bd 8b 4e 92 3d 06 57 98 bd
       0.054635905 -0.11591567 0.07143887 -0.074384734
000320 9b 7d e4 bd ee 33 85 3d 46 93 88 3d 84 4a ca 3d
       -0.1115677 0.065040454 0.06668715 0.09877494
000330 91 16 27 bd 87 65 12 bd 98 43 61 bd 61 fb 92 bd
       -0.040793005 -0.035741355 -0.054996103 -0.07176853
000340 ce de c4 3c fe 77 8e 3c 19 18 b9 3d 16 47 06 bd
       0.024032023 0.017391201 0.090377994 -0.032782637
000350 ab 37 37 bd 30 64 46 bd 53 2b 78 3d e0 f8 7b bd
       -0.044730823 -0.04843539 0.060588192 -0.061516643
000360 a0 33 a7 3d c8 0c b9 3d 51 7a 94 bc 6e fc 9b bd
       0.081641436 0.09035641 -0.018124731 -0.076165065
000370 7c 7c 86 3d 7c 81 b7 3d d6 c3 26 3e e8 b4 b1 bd
       0.06566712 0.08960244 0.16285643 -0.08677083
000380 60 22 d0 3c bb 18 f5 bd a7 6c 13 3c d2 91 82 bd
       0.025407016 -0.119676076 0.008998073 -0.06375469
000390 df bd f8 bd fb b0 bf 3c 22 29 f5 3d 5f 28 df bd
       -0.1214559 0.02339982 0.11970736 -0.10896372
0003a0 c9 98 f0 bd be 0b 52 bd d0 d3 01 3d 5d 32 95 3d
       -0.117478915 -0.05128073 0.03169614 0.07284997
0003b0 0a 54 1f 3d ad 88 15 be ae 4f 1d bd 2a 34 df bd
       0.038898505 -0.14602919 -0.038406067 -0.108986214
0003c0 d2 34 26 bd 4e 7f 8b 3d 40 3a 12 3b 26 10 89 bd
       -0.040577717 0.06811391 0.0022312552 -0.06692533
0003d0 8a 98 4b 3d 41 f2 88 bd 6f cb 5f bd c0 28 83 bd
       0.04970602 -0.06686831 -0.05463737 -0.06404257
0003e0 26 36 91 3d 0c 4d c0 3d 27 37 9a bd a7 1b 91 bc
       0.07090406 0.093896955 -0.07530051 -0.017713381
0003f0 bb 95 34 3b 78 10 90 bd b0 6a 06 bc 48 2b 5d bc
       0.0027555067 -0.07034391 -0.008204147 -0.013499089

fc3.weight f4 [3, 64]
000000 1c 70 4c 3e f8 a2 5c bd 68 44 49 3d f9 c8 d0 be
       0.19964641 -0.053866357 0.049137503 -0.4077833
000010 38 f6 15 bf fc 4e 0c 3e cb 01 b8 3e 8a cc 38 3e
       -0.58578825 0.13702005 0.35938868 0.18046775
000020 94 f7 03 3e 68 e9 9b be 3c 53 a7 3d 29 d2 62 bd
       0.12887412 -0.30451512 0.081701726 -0.055376206
000030 fd be 37 bd bb 39 fa 3f da 07 9a bd 72 7e cf bd
       -0.044859875 1.9548868 -0.07521029 -0.101315394
000040 c3 cd 27 3d b2 e7 00 3d 41 4a ad 3d d6 e6 fa 3d
       0.040967714 0.031470962 0.084614284 0.1225106
000050 c6 e0 f9 bc 9b 92 45 bd 93 5f d5 3e ab a6 92 bd
       -0.030502688 -0.048235517 0.4167448 -0.07160696
000060 3c 98 91 3d c0 80 a0 3c d5 99 bc 3e b6 9f df 3d
       0.071091145 0.019592643 0.36836115 0.10919134
000070 f2 df 10 3f 77 13 69 3c 14 3d 26 bf 9c ae cf bd
       0.56591713 0.014225832 -0.6493695 -0.10140726
000080 00 08 11 ba c4 d3 22 bd dd 4b 8e 3d 8c c8 a5 3c
       -0.0005532503 -0.039752737 0.069480635 0.02023723
000090 dc 09 26 3e 50 3f 16 bf 98 77 0d bf 8c be bf bd
       0.16214699 -0.5869036 -0.5526061 -0.09362516
0000a0 fb 3a 4b 3d 14 11 52 bf 40 1b 62 3e d3 7c f4 3c
       0.049616795 -0.8205731 0.22080708 0.029844677
0000b0 8b a9 c4 bd b0 42 b1 3d 38 78 0c bf dc 1d 4c bd
       -0.0960265 0.08655298 -0.5487094 -0.049833164
0000c0 ae 5c 13 3f 5a 4b 30 bd 62 b0 aa 3d e4 6e 2a bf
       0.5756329 -0.04304061 0.083344236 -0.66575456
0000d0 99 73 bf 3d 94 4e 0e 40 c8 ae e3 bd 41 df e8 3c
       0.093482204 2.223546 -0.11117321 0.028426768
0000e0 18 75 3b 3b 6c ee 25 3f ca cf d8 3d aa 94 61 3e
       0.002860373 0.6481693 0.105865076 0.22029367
0000f0 d2 32 d7 bd 36 33 f6 bc 7d db 05 c0 db a6 c8 be
       -0.1050774 -0.030053716 -2.0915215 -0.391898
000100 28 5f a3 bc 77 01 9f 3c a8 cf 2b 3d 43 51 16 bf
       -0.019942835 0.019409878 0.041946083 -0.58717746
000110 a7 c8 0d bf 71 70 4d be d5 fa 0b 3f cf 93 35 3e
       -0.55384296 -0.20062424 0.54679614 0.17732166
000120 94 ca 52 bd d1 ab 81 3e ee c3 81 bd 27 5a 8b bd
       -0.051462725 0.25326398 -0.06336199 -0.068043046
000130 55 84 aa 3c 52 d0 38 40 35 56 09 3e 81 25 e4 bd
       0.020815054 2.8877149 0.13411792 -0.11139966
000140 3f 2a f4 3d e8 78 b0 bd a4 49 4e 3e fc 04 9a 3c
       0.1192212 -0.08616811 0.20145279 0.018801205
000150 2b cc a6 bc 4a 3f 56 bd 8d ab 3c 3f ee f8 37 bc
       -0.020361027 -0.05230645 0.73699266 -0.011228783
000160 94 1d 04 bd 48 b2 c6 3d f2 f8 93 3e 54 e6 e9 bd
       -0.03225477 0.09701973 0.28900868 -0.11420885
000170 ad 0c 20 3f 06 f3 a2 bc 25 6c 06 bf 17 e1 5a 3c
       0.6251934 -0.019891273 -0.52508765 0.01335933
000180 41 74 cc 3d d4 27 30 3c f0 1d 2a 3d dc 96 3c bc
       0.09983111 0.010751683 0.041532457 -0.011510577
000190 2b 86 89 bc 49 0f 52 bf 15 89 4a bf 02 9b 58 3d
       -0.01678761 -0.82054573 -0.7911542 0.052882202
0001a0 f1 d0 00 3e ef 53 19 bf 26 53 8e 3c b3 b4 87 3d
       0.12579705 -0.598937 0.017373633 0.066262625
0001b0 96 20 bb 3d 38 b3 c7 bc 58 5d a8 be 5a 84 ae bd
       0.09137075 -0.02437745 -0.32883716 -0.08521338
0001c0 0d 21 1f 3f 01 a9 c8 bc 80 ca cd ba d3 b0 2d bf
       0.62159806 -0.02449465 -0.0015700608 -0.6784794
0001d0 f7 4f 12 bc 3c a1 4f 40 d8 ca da bc 33 2a 44 be
       -0.008930198 3.244216 -0.026708052 -0.19156723
0001e0 92 bb be be 41 87 18 3f 72 c2 c6 3d 23 8f 91 be
       -0.3725248 0.5958138 0.09705056 -0.28429517
0001f0 d2 95 bb 3d 48 33 16 3d e4 29 52 c0 97 7e 35 bf
       0.09159435 0.03667 -3.2838068 -0.70896286
000200 3d a1 ac 3e b6 89 ff bd e8 4b 40 3d ff f5 15 bd
       0.33716765 -0.12477438 0.04694739 -0.036611553
000210 d7 84 da be 1b 00 bd bd 5d 54 9f 3f 8a fc 2b 3e
       -0.42679474 -0.09228536 1.2447621 0.16795555
000220 a9 fd f8 3d 19 07 c2 3c f0 91 86 bc 6c 25 54 bd
       0.12157757 0.023685025 -0.01642701 -0.0517935
000230 18 bb a7 bb 80 fa 9c 41 e7 06 96 be 1b 1e 9f 3c
       -0.005118739 19.622314 -0.2930214 0.019423535
000240 61 ef 97 3d 08 05 fb bd 69 72 31 3f 56 53 aa bc
       0.07418705 -0.12256819 0.693152 -0.02079169
000250 4f 16 05 c0 6e 96 a6 bd 1a cc 61 3f fb d3 d2 3e
       -2.0794866 -0.08134161 0.8820206 0.41177353
000260 de 77 af 3d 26 a7 e6 3d 06 04 12 be e5 4c 77 bb
       0.08567785 0.1126235 -0.14259347 -0.0037735042
000270 94 05 66 3f 79 32 20 3d 3a 6d 48 bf d9 d4 a5 3d
       0.8985226 0.039110634 -0.78291667 0.08097238
000280 87 ed b8 bd 70 da be 3d 6e 4e 86 3d 49 cf 0b 3d
       -0.0902968 0.093190074 0.06557928 0.03413323
000290 be 25 91 3a 66 98 f2 bf 2d 70 84 bf df a2 ec 3c
       0.001107387 -1.8952758 -1.0346733 0.028886257
0002a0 6f 85 62 bd 10 b4 3a bf 73 23 99 bf e6 b6 ba 3b
       -0.055303033 -0.72931004 -1.1963943 0.0056980727
0002b0 2d 29 c2 bd 84 18 eb 3c a2 34 1c bf 47 0d 32 bd
       -0.0948051 0.028698213 -0.6101781 -0.043469694
0002c0 b8 aa 4d 3f 07 e7 8c bd 80 d8 7c 3b 36 7d 73 bf
       0.8033862 -0.068800025 0.0038581192 -0.9511293
0002d0 ab a7 2d bb aa cc a0 41 f1 90 29 bd a5 d0 84 be
       -0.0026497643 20.099934 -0.041397993 -0.25940433
0002e0 27 df 13 3e 8e 05 f1 3e 60 56 d3 bd ef 93 d3 bf
       0.14440595 0.4707455 -0.10319209 -1.6529521
0002f0 af a3 21 3e 79 0e 22 bd 70 5b a5 c1 31 ea 22 c0
       0.15785097 -0.039564583 -20.669647 -2.545544

fc3.bias f4 [3]
000000 c0 68 0b 3f bc 96 f1 3e e7 46 46 3f
       0.5445671 0.47185314 0.7745194
