Models/LSTM/agentDQN-LSTM_2018-2020_lstm_v1_400_EPS_1.pth (torch, 516131 bytes, 8 tensors)

fc1.weight_ih_l0 f4 [512, 104]
00000000: f5ec 37bd 801d 2b3c 0069 5f3c ffd3 9cbd
00000010: eaa9 193d 34c4 97bd 2971 22bd 47b1 b2bd
00000020: ea90 503d 7a07 393d 88d4 94bc 80f6 68bb
00000030: 9846 95bc 6c28 a2bc a816 1fbc d807 adbc
00000040: c0e3 23bc 8aa3 f8bc 8e18 3a3d 607b 75bb
00000050: ae5d 5dbd 0607 653d 586c 00bc 7afe a9bd
00000060: f8ee b23c 48f9 75bd c0fe 8dbd 5cb2 063d
00000070: d4e3 86bc 3dbc 25bd aa02 1a3d 7ac6 00bd
00000080: bbf5 913d f0be 93bd 8168 a83d cbe7 aa3d
00000090: bfa6 9f3d e0f3 fd3c 6787 ac3d c5a5 51bd
000000a0: 8032 70bd eca9 f5bc d13b 923d ba8a 6ebd
000000b0: 5b55 49bd 30c6 ff3b d674 05bd 6e2a 6e3d
000000c0: 7c94 bebc dc5b 94bc dc82 cbbc 212a ab3d
000000d0: b946 a63d 4d62 a33d 45a9 9fbd a2c7 b1bd
000000e0: 9ded 913d 08bc 5bbc 068c 08bd b980 90bd
000000f0: 2086 a63c acdd c23c 8b2a a73d ada7 b0bd
00000100: ffb0 48bd e318 5ebd 31a7 27bd 6b1c 28bd
00000110: b3c8 08bd da24 f1bc 29ee afbd f400 9c3c
00000120: 6a82 98bd 47d8 92bd 3d60 4bbd e3fb 9c3d
00000130: e6fe 433d 2681 a6bd 2100 a5bd fe81 5b3d
00000140: a07a dbbb 06ed 2e3d 5017 19bc f819 bbbc
00000150: 97ef a8bd 2476 aebc 4121 48bd 65a0 a43d
00000160: 4a6f 013d 5032 00bc a839 143d 2376 813d
00000170: 928d 5cbd fb2e 28bd 102f e03b a514 0cbd
00000180: 5fc5 b4bd d5b9 5ebd 56fc 333d d050 963b
00000190: 48ac 4d3c 40f9 f0bb 882c 6cbc 824a 223d
000001a0: dd5a 0f3d 04f1 a6bc dd55 433c 0243 ad3d
000001b0: 0136 a9bc 182f 3dbc 19e0 d5bc 989d 133c
000001c0: 2766 353d a828 633d bff3 e3bc 3cc1 d8bb
000001d0: 4c20 e43c eec0 8b3d a132 623d c9b0 a63d
000001e0: e501 93bd 3e93 4b3c 77db 3dbd a18a a43c
000001f0: a32a 0a3d 4019 b03d 4a1e ce3d 1163 65bd
00000200: 9879 fc3c f6c2 acbc 5127 d23c b60f 02bd
00000210: 69f0 e93c 4f8d 12bd c313 99bc 9086 40bd
00000220: 6646 43bc 2f48 533d 063f 4cbd 2a95 a7bb
00000230: 4dd5 09bd cd99 fe3c 5f16 7e3c bfd7 64bd
00000240: d040 7fbd ca93 6cbc 454d 603d 20af a53d
00000250: 5d5b 583d dbd0 083d 3e06 1cbd c306 963d
00000260: 2dd0 b2bc 6621 71bd 6e4f 3bbd ef89 72bd
00000270: 87c7 8d3d a05e 023d 1657 8c3d 3d11 fa3c
00000280: 9777 7cbd 007e 8fbd 2482 bbbc 85a8 2f3d
00000290: 96aa 11bc 0c43 a23c 2922 2dbd b926 cabc
000002a0: 9198 803d b797 59bd b9e1 8abb 9e14 23bd
000002b0: 81ac 26bd 460c 64bd 440c 86bd 80cf a33c
000002c0: e8f2 2c3d 4308 0cbc b1fa 1ebd e4b6 f1bc
000002d0: 2bbe 5fbd ef88 b53d 1aef c93d 1086 113d
000002e0: 1569 653d 207d 24bd 0611 dc3b 0cad 9b3d
000002f0: 2146 a53d 6e38 bb3d 1337 5b3c f41b a13d
00000300: b284 9a3d 8d67 9a3d c192 d23d c9de 8abd
00000310: c11c 1dbc 829a 433d 35eb b43d 0833 823c
00000320: 0f58 32bc 77df 163b edbb 603d 18ff 0ebd
00000330: c68b 41bc 00cc 693c ac95 a73c 9d63 c2bc
00000340: 2c15 64bd 9540 d3bb 1a66 3bbd cbdb 043c
00000350: d46f 6dbd 64ad f5bc d1d5 f43c 0dec f6bc
00000360: 5564 39bd eb36 1aba 277c d2bd dd7f 6bbd
00000370: 42be 3abd 2893 51bd a765 a5bd 7023 543c
00000380: 9ff3 e63c 268b 673b 594f e83b 605a 71bb
00000390: 2e6f 893b 3201 e3bd 88ad 16be af8a 05bd
000003a0: bed0 b7bd a348 e5bd 9545 8cbd 85e7 8b3c
000003b0: 4111 8abd e3ba d9bc f649 c3bd ade5 483d
000003c0: f40f 563b 1b42 c3bd 3884 f13c f4a1 ba3d
000003d0: b0f9 993c 1428 7fbd f04e 17bd 1813 95bd
000003e0: 5f0b d03c 7fb6 92bd a185 93bd a3c4 71bd
000003f0: d7c2 5a3d ba52 37bc 9d03 22bc 3b1c 15bd
-0.044903714 0.010444045 0.013635874 -0.076576225 0.03751556 -0.0741047 -0.0396587 -0.08725219
0.05091945 0.045173146 -0.018167749 -0.0035547316 -0.018222138 -0.019794665 -0.0097099915 -0.021121904
-0.01000303 -0.030351419 0.045433573 -0.003745757 -0.054044418 0.0559149 -0.007838331 -0.08300491
0.021842465 -0.060052186 -0.06933355 0.03288494 -0.016466059 -0.04046272 0.037600197 -0.031439282
0.071269475 -0.07214153 0.082230575 0.08344992 0.07795476 0.031000078 0.084242634 -0.05118348
-0.05864191 -0.029988252 0.07140315 -0.05823777 -0.049153667 0.007805608 -0.032582127 0.058145933
-0.023264162 -0.018110208 -0.024842672 0.08357645 0.08118958 0.07977734 -0.077959575 -0.08680655
0.07125399 -0.013411529 -0.03333666 -0.07055802 0.020327628 0.023787342 0.08162411 -0.086257316
-0.04899692 -0.054222953 -0.04093093 -0.041042726 -0.033394527 -0.029436518 -0.08590347 0.019043423
-0.074467495 -0.07170158 -0.049652327 0.07665231 0.047850512 -0.08130102 -0.08056665 0.053590767
-0.0066979676 0.042706512 -0.009343937 -0.022839531 -0.08248823 -0.021296568 -0.04885984 0.08038405
0.031600274 -0.007824495 0.036187798 0.06321361 -0.05384595 -0.04106043 0.006841548 -0.034199376
-0.08826708 -0.054376442 0.04394182 0.0045872703 0.012553282 -0.0073539317 -0.014414914 0.039621837
0.034998763 -0.020378597 0.011922327 0.08460046 -0.020655634 -0.011546873 -0.026107835 0.009009741
0.044286873 0.055458695 -0.027826188 -0.006614832 0.027847432 0.06823908 0.055224065 0.08139188
-0.07178096 0.012425242 -0.046351876 0.020085635 0.033732068 0.08598566 0.10064371 -0.05600268
0.0308197 -0.021089058 0.025653513 -0.031753264 0.02855702 -0.035779294 -0.018686181 -0.04700333
-0.01191864 0.05158251 -0.04986479 -0.0051142173 -0.033650685 0.031079197 0.015508263 -0.055869814
-0.06231767 -0.0144395325 0.05476119 0.08090043 0.052821506 0.033402305 -0.03809189 0.073255084
-0.021827782 -0.05886974 -0.045730047 -0.059213575 0.069228224 0.031828523 0.06852548 0.030525798
-0.061637487 -0.070064545 -0.022889204 0.042885322 -0.0088907685 0.019807361 -0.042268906 -0.024676668
0.062791 -0.053123202 -0.004238334 -0.039814584 -0.040691856 -0.055675767 -0.06545308 0.019996405
0.04222384 -0.008546892 -0.038813297 -0.029506154 -0.054624718 0.08864009 0.09860058 0.035528243
0.056008417 -0.04015839 0.0067158965 0.076013654 0.08070017 0.091416225 0.01337983 0.0786666
0.07544841 0.07539282 0.10281897 -0.06780774 -0.009589375 0.047754772 0.08833925 0.015893474
-0.010885253 0.002302138 0.05486672 -0.034911245 -0.01181311 0.014269829 0.020457111 -0.02372914
-0.055684254 -0.0064469078 -0.04575167 0.008109043 -0.057967976 -0.029989906 0.029887112 -0.030141855
-0.0452617 -0.0005882817 -0.102775864 -0.057494987 -0.0455916 -0.05116573 -0.08076029 0.012947902
0.02819234 0.0035330742 0.007089537 -0.003682755 0.004194162 -0.11084212 -0.14714634 -0.032602962
-0.08975361 -0.11195495 -0.06849209 0.01707817 -0.06741572 -0.026578372 -0.09535591 0.04904716
0.0032663317 -0.09534093 0.029481992 0.09112921 0.018795818 -0.06229408 -0.036940515 -0.072790325
0.025396047 -0.071637146 -0.07203222 -0.059025418 0.05340847 -0.011189157 -0.009888557 -0.036403876

fc1.weight_hh_l0 f4 [512, 128]
00000000: 5155 b4bd 8827 153c 68e1 cbbc b0ca 63bd
00000010: 508e 033d 808e 9f3a 2988 6abd 6034 8ebd
00000020: 1c34 f73c d8cd 0a3c b0ef 763c c182 0abd
00000030: c87e 5e3c 2d13 903d 80b5 8abd 80c9 053a
00000040: ce93 783d 9ecb f6bc fccc 0f3d aaca 543d
00000050: c0a8 e33c bb0a 5abd 7523 84bd 8c75 80bc
00000060: 6b9d a43d ec89 9fbd 4a8f 78bd 6c96 ffbc
00000070: 80a7 b8ba 025d 6e3d 4156 adbd 25f8 823d
00000080: 82ac 533d 7431 cbbc ec94 eabc e690 18bd
00000090: fd57 adbd 46ee 8fbd b85b 40bc da6d 203d
000000a0: 2693 583d e9fc 87bd ae58 e6bc 55f7 b03d
000000b0: d038 97bc f48f af3c 12d2 183d 5303 48bd
000000c0: 1bb1 81bd 9ef9 7a3d abe7 8f3d 7a33 093d
000000d0: 0024 beb8 5bc4 913d 518e ae3d c866 3cbd
000000e0: a748 6abd c19c 883d bf47 abbd d89a 96bd
000000f0: 1a9c 1abd 9c43 a1bd dd2d 9c3d ba10 5d3d
00000100: ea70 22bd 5863 f43c 8188 ae3d 188b cabc
00000110: 3846 7ebd 95b5 0fbd c744 ab3d 2e3c 4a3d
00000120: 3e7d 6fbd 39d6 8b3d c893 743c 5782 3dbd
00000130: 7313 45bd d234 b3bd 07ef a63d dbfc b23d
00000140: e03b f83b 3326 19bd e627 84bd 0fc1 ae3d
00000150: 563c 483d 5dc9 a63d 1a58 ebbc 0061 e239
00000160: 8062 71bc 3aa6 543d ac2b ffbc 1e2f 6e3d
00000170: 562c 573d 9568 68bd 88f1 13bc bf65 9fbd
00000180: e928 b0bd 9f7e 30bd e8dd 9bbd 525f b4bd
00000190: 14f0 1dbd 3247 213d ebbc 37bd d8da 9cbd
000001a0: 2e34 383d 4036 2e3b 0301 9b3d 5a9b 073d
000001b0: d41d 8fbc de1a 683d a052 153c 634b 6bbd
000001c0: 869e 59bd 671e b43d d91d 9a3d 43fc 953d
000001d0: 8368 a53d 3b83 8f3d 1091 c73b 2682 a4bd
000001e0: ad53 973d 9140 adbd 9e3e 483d e0c7 913b
000001f0: 2b5d b03d 887d 533c 3f3f 23bd 390d 9fbd
00000200: f125 ab3d 2037 f5bc 1e37 253d 3e2b 213d
00000210: 4401 62bd 806d 0a3a a436 883c e0a6 77bb
00000220: 4078 bfba a036 56bd 983b 5d3c adf0 0cbd
00000230: c2f0 073d 3299 84bd 68cb ce3c 3048 8bbb
00000240: ec82 cf3c 3066 9f3c 023a 3e3d 8237 2f3d
00000250: b8b9 b3bc 3034 e0bc c739 843d 2aac 60bd
00000260: e0c4 353c aaeb 623d 06cc 553d 00e4 c7b8
00000270: 32e4 1b3d 0f0c b33d 30a3 ebbb 3973 b2bd
00000280: a0e9 7bbc 50b1 4bbc f8d5 d6bc 5ea0 253d
00000290: 5159 9a3d 3956 0fbd a826 1abc 9a40 093d
000002a0: b54b 8f3d 0a5e 92bd 446b afbc ec18 a43c
000002b0: 4825 adbc 6c8a 77bd 3b87 a63d 2032 09bc
000002c0: 8c20 133d ecbd 91bc 3089 a13c ea7a 123d
000002d0: ca57 433d 003e fe39 785a d73c c9f7 9a3d
000002e0: 7a86 763d 38a1 31bd 0694 283d 63d0 9a3d
000002f0: 8de1 49bd 3173 8f3d f4af ec3c b147 833d
00000300: f876 94bc 299d 0abd a51a 3cbd aa91 033d
00000310: 79ab 953d 38ff 84bd 686c 8fbd a68f 383d
00000320: bab3 5c3d 7992 56bd 60fe a43c 709d a0bb
00000330: d629 2a3d df00 a63d 36b7 88bd 6814 1cbc
00000340: 4aca 2f3d 68c6 9b3c a156 913d 2658 7b3d
00000350: be71 9abd 1c66 bebc 5cba aabc 811a 05bd
00000360: 9b82 26bd bd02 37bd 809b 5cbb f71b a3bd
00000370: 4ae9 d5bc 0afe 4c3d 1cde f33c 31e8 96bd
00000380: 045e 19bd b109 b13d 5cd5 5fbd 9af5 063d
00000390: 17c3 ab3d efb7 1cbd f004 d9bc 3568 84bd
000003a0: 2839 b1bd 70a5 c1bc 831f a73d c066 5fbc
000003b0: f319 a53d 8ad8 703d df50 91bd 34d7 b53c
000003c0: a0d0 0f3c 5407 83bd 961e 263d 37b3 b13d
000003d0: c389 8d3d 87d6 a0bd a82b f63c 60f3 be3c
000003e0: 0f16 71bd e4bf bebc b7d8 913d 403b 75bb
000003f0: 807e 883b e531 863d 934f 67bd 68d1 2bbc
-0.08805335 0.009103663 -0.024887756 -0.05561322 0.03211814 0.0012173206 -0.05725876 -0.069435835
0.030176215 0.008471929 0.015071794 -0.033816103 0.013580032 0.070349075 -0.067729 0.0005103573
0.060687833 -0.03012639 0.035107598 0.051951088 0.027790427 -0.05323289 -0.064520754 -0.01568105
0.080378376 -0.077899784 -0.060683526 -0.031199656 -0.0014088005 0.058194168 -0.08463717 0.06394986
0.05167819 -0.024803855 -0.028635465 -0.03724756 -0.08464048 -0.07027869 -0.011740617 0.039167263
0.052874707 -0.06640036 -0.028118458 0.08640925 -0.018459707 0.021430947 0.037309714 -0.048831295
-0.06332608 0.06127321 0.07026609 0.033496358 -9.0666115e-05 0.0711753 0.085232385 -0.045996457
-0.057198193 0.066705234 -0.08363294 -0.07353753 -0.037746526 -0.078742236 0.07625935 0.05397103
-0.039658464 0.029832527 0.0852213 -0.024724528 -0.062078685 -0.03508528 0.083627276 0.049373798
-0.05846905 0.06827969 0.014927812 -0.04626688 -0.04811425 -0.08750309 0.081510596 0.087396346
0.007575497 -0.037389945 -0.064529225 0.08532917 0.048885666 0.08143876 -0.028728534 0.0004317835
-0.014732957 0.05191634 -0.031148754 0.058150403 0.052532516 -0.056740362 -0.0090297535 -0.077830784
-0.08601553 -0.043089505 -0.07610685 -0.088072434 -0.038559034 0.039374538 -0.0448579 -0.07658929
0.044971637 0.0026582628 0.07568552 0.03310714 -0.017470278 0.056666248 0.009113938 -0.05744494
-0.053129695 0.08794861 0.07525224 0.07323506 0.08076575 0.07007452 0.006090291 -0.08032636
0.07389007 -0.08459581 0.04888784 0.004448876 0.086115204 0.012908347 -0.039855238 -0.07766194
0.08356846 -0.029933512 0.040335767 0.03934788 -0.05517699 0.0005280599 0.016627617 -0.0037788674
-0.0014607981 -0.05229819 0.013502978 -0.034409214 0.03318859 -0.06474532 0.025243476 -0.004250549
0.025330983 0.019457906 0.04644204 0.042777546 -0.021939144 -0.027368635 0.06456333 -0.05485169
0.011094302 0.055400528 0.052196525 -9.531528e-05 0.03805942 0.08742534 -0.0071910843 -0.08713383
-0.015375525 -0.012432411 -0.026225075 0.04043614 0.07536567 -0.034994338 -0.00940863 0.033508874
0.06996862 -0.07146843 -0.021413453 0.020031415 -0.021135941 -0.060434744 0.08131262 -0.008373767
0.03591971 -0.017790757 0.019718736 0.03576175 0.047691144 0.0004849285 0.026288256 0.075667925
0.06018684 -0.04336664 0.04115679 0.07559278 -0.049287368 0.07004393 0.028892495 0.064101584
-0.018123135 -0.033841286 -0.045923848 0.032121338 0.073080964 -0.064939916 -0.07003099 0.04505887
0.053882338 -0.05238578 0.020140827 -0.0049015805 0.041543804 0.08105635 -0.0667557 -0.00952635
0.042917527 0.019015506 0.07096601 0.06136336 -0.07541226 -0.023242049 -0.020840816 -0.03249598
-0.0406519 -0.044680346 -0.003366202 -0.07964318 -0.026112217 0.050046958 0.029768996 -0.07368506
-0.037443176 0.086444266 -0.054646835 0.032949068 0.0838682 -0.03826135 -0.026491612 -0.064651884
-0.0865348 -0.023638457 0.08160307 -0.013635337 0.0806159 0.058800258 -0.07095503 0.022197343
0.008777767 -0.06397882 0.040556513 0.08676761 0.069110416 -0.07853418 0.030050114 0.02330941
-0.058858927 -0.02328486 0.07121413 -0.003741935 0.0041654706 0.065524854 -0.056472372 -0.010486938

fc1.bias_ih_l0 f4 [512]
00000000: eee2 0abd 219a 963d 7c2c 9c3c 08d4 423e
00000010: 3bba 2f3e bbd9 433e 7b97 a1bd 5d43 0a3e
00000020: e83f f3bc 23ca 853d e0df 96bb 14b8 cc3c
00000030: d8c7 49bd d4e0 b4bc 9622 dd3d c09a e23d
00000040: f088 6d3c a580 353e 4843 45bc 0324 023e
00000050: 624f 4a3d a8db 7ebd 602d 27be 84de a5bd
00000060: 2a67 8d3d 0017 95b9 cedd 673d a864 163b
00000070: 96cf 91bc 8e9b f93d 3da0 a03d 67d9 0bbd
00000080: 2b8b 783d 9429 84bc d92e b6bc 3553 9c3c
00000090: 70ae 37bd d152 1a3e cc46 e0bc a411 973c
000000a0: 07ff 51be ea8b 003c e8c1 92bd 3e6c 223c
000000b0: 00b2 62bb 5aa4 5f3d 6a1a ccbd f378 bb3e
000000c0: 09cb 3ebd 5088 f63d 388f 0d3e c921 aabc
000000d0: bf40 113d 2c1f 22bc 0537 2bbe 8223 973d
000000e0: 1cc1 8f3d 4bc2 973c 7551 f9bd 6ffb 813d
000000f0: 87ab 913d 909a f9bb 9c9e c5bb d346 433e
00000100: 7017 133e 40eb 293b 0b80 433c 0474 3c3d
00000110: 0775 973b 8b22 b6bd 18fa 183e 0115 42bd
00000120: 2ca5 d0bd 907d 5ebc f2d7 9abd ea6a 783d
00000130: b771 dfbd 3c98 5f3d 6ca7 cfbd 1256 a63d
00000140: 1db3 c73d 29fe bd3d 4584 4b3e 4035 cc3d
00000150: 9883 debd 197d a9bd d8ba 3a3c a877 603e
00000160: fee2 b43d 818d 4cbe e662 e6bc 6212 dcbd
00000170: 775b 59be 077b 8dbe d75b c73d 191b 55bc
00000180: 96be 20be ceec ab3e e63a 1b3d d91e 1dbe
00000190: 125d 0bbd 0479 5fbd e8ab 1fbe 5b65 8c3d
000001a0: 438d 74be 2837 603d 3956 8e3c d752 173e
000001b0: e0f5 183e ea01 b9be 4871 2cbd d0c4 ed3d
000001c0: bebc 833d b8a7 c03c f590 07be 7e53 393d
000001d0: 9c3b e53d e2ca 613d d0db 81bd ab20 dfbd
000001e0: a0f7 133c 66dd 6abe 20a7 0ebe d380 153e
000001f0: 50a2 f33d 293a 88bd e04b 43bd 2d0c 0c3d
00000200: 7846 83bc ce04 8ebd 09fb 4ebd 48db e43c
00000210: b86e d8bc 78dd 893c 120d eebc c0e9 f43c
00000220: ea2d 173d 409f fb3a 356a 933d beb6 443d
00000230: a222 8bbd 0041 1cbc ec94 a73c 16f2 643d
00000240: 8a77 e4bc 78b8 3abc 5905 50bd fcc5 08bd
00000250: 7e52 313d 816f abbd c831 4ebc 2eea 1b3d
00000260: c8f4 3f3c 66fb 50bd 8e4b 58bd a00f 9abd
00000270: f754 af3d f2ce 353d 4c66 c5bc 388e 4ebd
00000280: 0667 703d 912c 853d 985d 923c f849 abbd
00000290: 0350 8a3d 37ce a0bd 19ba 833d 2e93 7ebd
000002a0: cf54 ac3d c925 953d 8ad9 743d 27df 60bd
000002b0: f46c 00bd 4836 bbbc 4e45 703d 0abb 7dbd
000002c0: c106 b43d f236 67bd a008 303b 41eb 913d
000002d0: d279 dbbc b04e 35bd f86f 86bc b27d 79bd
000002e0: 1a00 83bd 0307 883d 705e febc 9b36 8f3d
000002f0: 5ae2 313d 2c73 d53c d048 ba3c 33d4 17bd
00000300: 107a 74bd 8c97 90bd 9a6e 3ebd 1c6e d83c
00000310: b8ce 1abc d029 2a3c 9e29 1c3d 485d a2bd
00000320: aaf8 073d bd2a 2cbd 85f9 1ebd 8e1e 773d
00000330: eae9 08bd ea7b 193d 7455 aabd 5836 a83c
00000340: 6d65 b13d 0ae2 5c3d 59b8 b43d 9c38 b73c
00000350: fe6f 2b3d 6cc4 fc3c e4c0 873c e1aa 24bd
00000360: 6d18 843d 9d3a 94bd 4043 0b3d f5ce 82bd
00000370: f083 da3b fe2f 5c3d 9808 723c f002 90bb
00000380: a01b 143b 4c90 bdbc aa18 b1bd 1034 043d
00000390: 0470 893c a053 72bc 28b5 0c3d 51e2 993d
000003a0: cef2 313d 92a9 d7bc 5401 86bc 0394 9f3d
000003b0: ce93 29bd 5f61 a83d 6821 a03c c82b 27bd
000003c0: b1a4 a93d 4856 85bc 18d2 1dbd d883 b8bc
000003d0: 7a01 73bd 1293 4b3d 9cc1 8abd f4b6 fd3c
000003e0: 62e9 4e3d 96fd 6ebd 655f 873d dea2 083d
000003f0: d964 ab3d 70a3 b8bc 975d a83d 3ca0 20bd
-0.033907823 0.073536165 0.01906418 0.19026196 0.17160885 0.19126026 -0.07890221 0.1350226
-0.029693559 0.06532695 -0.0046043247 0.024990119 -0.04926285 -0.022079863 0.10797612 0.110646725
0.0144979805 0.17724855 -0.012039967 0.1270905 0.04939211 -0.0622212 -0.16325903 -0.08099082
0.069044426 -0.0002843663 0.056608014 0.002294818 -0.01779918 0.12187873 0.07843063 -0.034142878
0.060679596 -0.016133107 -0.022239136 0.019082645 -0.04484409 0.15070654 -0.027377509 0.018441029
-0.20507441 0.007845858 -0.07165891 0.009913502 -0.003459096 0.054600097 -0.099659756 0.36615714
-0.04658035 0.12037718 0.13824165 -0.020768063 0.035462137 -0.009895127 -0.16720207 0.073798195
0.070192546 0.018525263 -0.1217374 0.06346785 0.07112794 -0.0076173022 -0.0060308706 0.19069986
0.1436441 0.0025927573 0.011932383 0.04600908 0.004622105 -0.08893307 0.14939153 -0.047383312
-0.10187754 -0.013579741 -0.075607195 0.060648836 -0.10910361 0.05458854 -0.10139355 0.08121885
0.0975096 0.09276993 0.19874676 0.09971094 -0.10864943 -0.082758136 0.011397086 0.21920645
0.08832358 -0.19975854 -0.02812333 -0.10745694 -0.21226297 -0.27632925 0.09734314 -0.013006949
-0.15697703 0.33579105 0.037897967 -0.15343799 -0.034024306 -0.05455877 -0.15592921 0.068552695
-0.23882012 0.0547401 0.017375099 0.14777695 0.14937544 -0.36134273 -0.04210022 0.11609805
0.06432484 0.023517475 -0.1323889 0.04524564 0.1119301 0.055125125 -0.06340754 -0.10894903
0.009031206 -0.2293602 -0.1393094 0.14599924 0.11896193 -0.06651718 -0.047679782 0.0341913
-0.016024813 -0.0693451 -0.050532375 0.027936593 -0.026419982 0.016829237 -0.029058967 0.029896617
0.03690902 0.001919724 0.07197992 0.04802584 -0.06793715 -0.009536982 0.020456754 0.055894934
-0.027889032 -0.01139652 -0.05078635 -0.033391938 0.04329156 -0.08370877 -0.012585111 0.038065128
0.011716075 -0.051021002 -0.05280643 -0.075225115 0.08561128 0.04438681 -0.02409663 -0.0504286
0.058692 0.06502641 0.017866895 -0.08363718 0.06753542 -0.07851832 0.0643198 -0.06215208
0.084146135 0.072825976 0.059777774 -0.054900315 -0.031353906 -0.022853032 0.058659844 -0.061945952
0.08790351 -0.056448884 0.002686061 0.07124949 -0.026791487 -0.044264495 -0.016410813 -0.060910888
-0.06396504 0.066419624 -0.03105089 0.06992837 0.043428756 0.026055895 0.022739798 -0.037067603
-0.05968672 -0.07060155 -0.046492197 0.026419692 -0.0094487 0.010385945 0.038125627 -0.07927948
0.03319613 -0.042032946 -0.03881218 0.060331874 -0.033426203 0.03747169 -0.0831708 0.020533726
0.086619236 0.053926505 0.08824224 0.02236586 0.04185485 0.03085538 0.01657147 -0.040202025
0.06449971 -0.07237742 0.03399968 -0.0638713 0.00666856 0.053756706 0.014772557 -0.0043948814
0.0022599474 -0.023140095 -0.086472824 0.032276213 0.016777046 -0.014790446 0.03435245 0.075138696
0.043444447 -0.026325975 -0.016358055 0.07791903 -0.041400723 0.08221697 0.01954718 -0.040813237
0.082833655 -0.016276494 -0.03853044 -0.022523805 -0.05932758 0.049700804 -0.06775209 0.030971028
0.05051554 -0.058347307 0.06609992 0.033358447 0.083688445 -0.02253887 0.08220976 -0.03921531

fc1.bias_hh_l0 f4 [512]
00000000: fa66 233d 5366 a63d da56 14bd 3ca3 163e
00000010: 9df7 163e 6108 043d 92c8 9ebd 0abc d4bc
00000020: 8c1a 03bd 4c88 91bd e715 923d f623 473d
00000030: 8033 a73c b673 ffbc 608a e53d e337 3c3c
00000040: 72ef d6bc b1c1 a43d 5645 1b3d 4290 1c3e
00000050: a02e de3c 7297 c9bd 3964 90bd f9d7 eabd
00000060: a870 7b3d dda7 b43d 876f d13d fed0 803d
00000070: cc06 edbb c414 233e 2517 97bd 9bf8 00bd
00000080: 5466 d23d e485 d5bd 87a9 8abd 7568 e53d
00000090: 984c 0a3d b029 f53d 94a5 e2bc 7179 a13d
000000a0: 0c2a 7dbe 6673 273e 5442 af3c 0c91 b3bc
000000b0: f9b9 913d 4037 fb3c 4619 8cbd 3759 b53e
000000c0: 3cbe ba3c ea25 393d 81ea 953e 5550 fa3d
000000d0: 3114 703c 0c82 f6bc fdfd 5dbe 5128 84bd
000000e0: db7a 71bd 9085 873d 479d 10be 06f3 293d
000000f0: 8de1 953d 82d0 f63c 9a31 eabc 3f71 4e3e
00000100: 8cb7 543e 81fa a1bd 996d 04be 3739 3dbd
00000110: 7de9 0e3e 8774 31bc 28ab 753e 82ac 96bb
00000120: 1331 8dbd 9976 afbc 5441 59bd e4e3 9abc
00000130: d454 de3b 81b5 3d3d 0105 18be 31fc 503d
00000140: 5ec5 0c3d 3734 663d f575 3d3e c0c7 bc3d
00000150: 0020 aabd 92c5 713d 92c3 92bd 4f41 1c3e
00000160: 3fd4 f3bc 87db 16be b8df 12bd 7a4a acbd
00000170: 19b4 9cbe 167c 3abe b83c a03d a9de b53c
00000180: 0756 3dbe dd0a 853e 8cb5 c13c 1824 37be
00000190: 65a3 ab3d 46d9 563d 0863 a8bc bc40 ee3c
000001a0: 7861 6abe 523c f13d ce3b a13d 6985 133e
000001b0: 2920 703d bb61 6abe d5d9 ddbc 092d 853c
000001c0: c237 853d e0f4 2bbc 6b98 32be 7425 edbc
000001d0: 0382 8dbc 543a d73c 1884 013c 1d1b 0dbe
000001e0: ee7f 343d 6c7b 73be 7b34 63bd bded 1c3e
000001f0: b019 9cba 9f85 86bd 7aeb 243d d8c7 c03d
00000200: bbf1 843d 68e2 903c 8ed0 0a3d e1d7 8a3d
00000210: 1ab3 04bd a0f4 8dbc e8c8 cd3c dcf9 79bd
00000220: 5bd8 a83d 3a2a 5a3d c28f 393d baae 0ebd
00000230: 309b cabb 1849 38bc b058 d13c 929d 623d
00000240: 9ca3 b9bc 10fb 5ebc a01f 293c 882e 09bc
00000250: aecf 263d 983e e5bc 8a91 3b3d 0056 a539
00000260: e2d6 91bd 1bc8 1bbd 6a10 363d ee12 fabc
00000270: 8ad1 d4bc 0623 a1bd 7f18 37bd bf06 96bd
00000280: 70e5 c13c 306e 4ebd 77ea 87bd 5f34 ad3d
00000290: 73d9 afbd 7e30 383d bdf1 9c3d 4734 64bd
000002a0: 890a 9b3d dc57 7cbd f09b ae3b 42c8 acbd
000002b0: f2bf 583d f604 90bd 6603 733d f6a6 643d
000002c0: 82da 8bbd f065 e83b b7da a53d 7459 91bd
000002d0: acba a43c 00c8 55ba ccc9 813c dc4c 71bd
000002e0: 2029 423b 0078 0f3a 162a 5b3d 5aab 743d
000002f0: 5e09 98bd 59aa 65bd fa81 303d 3409 fabc
00000300: fc63 053d 16ca 68bd 9412 a2bc 4c45 d33c
00000310: 600a 4abd f351 7ebd 5c83 f13c a0f6 aebc
00000320: 70aa 0c3d 59bf 8d3d 196f 47bd 77d0 813d
00000330: b090 4a3c 4241 213d c22e 76bd 40ee 32bc
00000340: f06a c6bb 09e7 9abd d864 80bc 656b a7bd
00000350: 3ab1 2b3d 4407 51bd 2536 81bd 5913 883d
00000360: 4325 ab3d 52db f7bc e85a cdbc 3790 863d
00000370: e866 3bbc b928 9bbd 7b8f 85bd 9801 8fbc
00000380: 2f96 b23d 0710 3abd 2817 7e3c 40cb 3c3b
00000390: 4b8c a83d 93f1 b43d 68eb 4f3c 5401 9bbc
000003a0: 98fa a9bc f6ff 7dbd 5e4d 543d 7220 723d
000003b0: 1049 7a3c cae3 15bd 0e8d 213d 2a45 233d
000003c0: e885 83bd c09a 6c3b b3fa 923d 71f0 a63d
000003d0: 4523 a33d ea7e 753d 6048 b6bb c8df 7abd
000003e0: e839 5a3c 9e3f 703d a376 aa3d ee63 23bd
000003f0: 431d 23bd 870f a93d b21c 2f3d 0a99 4d3d
0.039893128 0.081249855 -0.03621564 0.14710706 0.14742894 0.032234553 -0.077530995 -0.02596857
-0.03200774 -0.07106075 0.07133084 0.04861828 0.0204103 -0.031183105 0.112080336 0.011487934
-0.026237223 0.08044756 0.03790792 0.15289405 0.027121842 -0.09843339 -0.07050366 -0.11466975
0.061386734 0.0882108 0.1022635 0.06289862 -0.0072334763 0.1592589 -0.07377461 -0.03148709
0.10273424 -0.10425928 -0.06770616 0.11201564 0.03376445 0.11970842 -0.027666844 0.07884491
-0.24723071 0.16352615 0.021393932 -0.02191975 0.071155496 0.030665994 -0.06840758 0.35419628
0.022795789 0.045202173 0.29280475 0.12222353 0.0146532515 -0.030091308 -0.2167892 -0.06453002
-0.058955055 0.06617272 -0.14122497 0.04149153 0.07318411 0.030128721 -0.028588105 0.20160387
0.20773143 -0.07909108 -0.12932433 -0.046197142 0.13956256 -0.010831005 0.23991072 -0.0045982013
-0.06894126 -0.021418856 -0.053040817 -0.018907495 0.0067850146 0.046315674 -0.14845659 0.05102176
0.03436791 0.05620214 0.18502028 0.09217787 -0.08306885 0.05902631 -0.07166208 0.15259288
-0.029764293 -0.1473218 -0.035857886 -0.08412643 -0.30606154 -0.18211398 0.07824081 0.0222009
-0.18489848 0.2598485 0.023646139 -0.17884862 0.083807744 0.0524533 -0.020555034 0.029083602
-0.22888744 0.11779083 0.07872735 0.1440636 0.05862442 -0.22888844 -0.02708141 0.016256826
0.065047756 -0.0104953945 -0.17440955 -0.028948523 -0.017273908 0.02627293 0.007905029 -0.13779874
0.044067316 -0.2377755 -0.05546997 0.15325065 -0.0011909511 -0.06568455 0.04026363 0.09413117
0.06491419 0.017686084 0.0338903 0.06779457 -0.032397367 -0.01732856 0.025120214 -0.0610293
0.082443915 0.053262927 0.045303114 -0.0348346 -0.0061830506 -0.011247896 0.025554985 0.055326052
-0.022661023 -0.013609663 0.010322481 -0.00837291 0.040725403 -0.027983949 0.045793094 0.00031535327
-0.07121064 -0.038032632 0.044449247 -0.030526605 -0.025978822 -0.07868008 -0.044701096 -0.073255055
0.023668975 -0.05039805 -0.066365175 0.084572546 -0.08586397 0.04496812 0.076632954 -0.055713918
0.07570369 -0.061607227 0.005328648 -0.08436634 0.05291743 -0.07032196 0.059329413 0.05582329
-0.068287864 0.00709223 0.08098357 -0.0709714 0.020108543 -0.00081551075 0.015843295 -0.05891119
0.0029626563 0.00054728985 0.053506933 0.059733726 -0.07423662 -0.05607066 0.043092705 -0.030521967
0.032566056 -0.05683335 -0.01978425 0.02578988 -0.0493263 -0.06208987 0.029481582 -0.021357834
0.03434223 0.06921262 -0.048689935 0.0633859 0.012363598 0.039368875 -0.060103185 -0.010921061
-0.0060552284 -0.07563598 -0.015673086 -0.08174781 0.041917063 -0.05103232 -0.063091554 0.06644315
0.083567165 -0.030255947 -0.025067762 0.065704755 -0.011438109 -0.075761266 -0.06521507 -0.017456815
0.087200515 -0.04542544 0.015508451 0.002880767 0.08229884 0.08835139 0.012690403 -0.018921532
-0.020749375 -0.06201168 0.051831596 0.059112974 0.0152762085 -0.03659419 0.03944116 0.039860882
-0.06422025 0.003610298 0.07176723 0.08151329 0.079657115 0.059935488 -0.005562827 -0.06124857
0.01331947 0.05865442 0.083234094 -0.039890222 -0.039822828 0.08254915 0.042751975 0.050194778

fc2.weight f4 [64, 128]
00000000: b00f 5ebc c38a 91bb b797 b03d 94ee edbd
00000010: 7cab 843c c8ef e73d 5d7d a93d 8b9c d2bd
00000020: 58f3 c3bc 4c42 c13c 304e 043c bcd3 bd3c
00000030: 6a67 b4bd 486b 873c 6df0 debc 87b5 213d
00000040: fe5e 6ebd 14e0 473c f61a 74bd cb07 1fbd
00000050: 0d66 2d3d 20b2 2c3b 06d3 73bd 9c2b 59bd
00000060: 366d 123e f488 663c c661 50bd 453e c03d
00000070: ca28 353d 487c 84bd 5e5f a1bd 07c4 1dbd
00000080: 796b 15bd 52ae 8a3c 2d1d 1cbd b0c8 413b
00000090: b361 c1bd c787 1d3c 9e17 193d a085 edbb
000000a0: 1682 9fbc 9157 a4bc b857 16bc c47a 503b
000000b0: 605c 16bc b4ff 06bd c746 d1bd 61c3 8ebc
000000c0: 2596 93bd f8b5 0e3d 6b7f 9b3d 8127 3cbd
000000d0: 95bb 23bd fdc3 823b 6a75 ed3c 10d7 b2bb
000000e0: 80a4 c53c 17b8 22bd b03a d43d edb4 92bd
000000f0: 6035 5a3b de52 303d 5ccf dfbc d235 0e3d
00000100: 46a2 053e b421 9b3c 0021 97bc 4092 253c
00000110: 6283 4e3d fa5b 1b3d 501c 053e 007b c63c
00000120: 33c7 aebd 73b5 093d 4839 10bc b4dc 51bd
00000130: 4f3c afbd 8cfc 603d be56 b4bc ca1e 103d
00000140: 5add a83d 0bea a43d 390e c6bc da41 97bb
00000150: 6ee3 783d 54a2 be3c f82c 92bc 981f d1bd
00000160: bb54 293d a0c4 35bd ed27 8c3d 6499 06bd
00000170: 577a 00bd 12db 363d 612d c8bd 3c7c c73b
00000180: b29c 8c3d c471 8b3c 2023 ddbb 7c63 ca3c
00000190: 102d 10bc d8f7 d839 2897 733d f4e5 aebc
000001a0: c51d 19bd 992d 89bc d3de 8bbd c86d 6fbd
000001b0: e8a2 75bd 5e7d 0c3d e0d4 aebd 0189 a2bc
000001c0: 26df 17bd 4cc3 b1bd 0013 aeb9 db6f 843d
000001d0: ffd4 203d a3a0 b43d 5a6f 2cbd 71ae 8b3d
000001e0: a00a 94bd 6a80 953d 84fd 85bd 0643 d3bc
000001f0: d30b 283d e5c7 88bd 04db 8e3c 2c31 c7bd
00000200: f2c4 313d c91e a9bd 461e 97bd 659e e5bd
00000210: 5bf2 a0bd ee4c c03d 7df5 3fbd dd74 91bd
00000220: 8e2b 1a3d e61f 13bd 14f9 40bb 159b 823d
00000230: de8a 93bd f8b9 153d f34e 85bd 49d4 87bd
00000240: e5dc 55bd 3d8d 293d 8a27 5f3d 7c8b 6e3c
00000250: 89b5 dc3c b44c a5bd 03c4 4ebd b311 093c
00000260: ba84 b33d 4b20 abbd e70b 66bd b41f 4d3d
00000270: 63f1 1f3d cd71 5ebc 4b4f b43d a3e0 66bd
00000280: 68d8 23bd ff28 e83d e663 543d 0316 acbb
00000290: 56c7 e8bc 5708 44bb 80e4 7c3c 1348 ab3d
000002a0: f743 d43b 0eab 36bc 000d 5fbb 98ac 3b3c
000002b0: 10ef ff3c 9120 123d 2039 42bd 2a14 f13d
000002c0: 1f72 11bd d42e 84bd 6a2b 84bd 558b af3d
000002d0: ffb5 90bd 3133 d6bc c290 0b3d bf91 a73d
000002e0: aabb 503d 7749 49bd b022 a53c 0ee0 a2bd
000002f0: a0ee 57bd 66c2 70bd 6e31 71bd 505d e43c
00000300: e4ad 5c3d f28d 033d 47ee e3bd be4d 0a3a
00000310: b7c4 803d 0b85 763d 0379 8c3a 18c2 673d
00000320: e73d 633d 2b50 633d eb1d d6bd 481e d83c
00000330: bb53 643c 3078 d5bc 5852 bf3c 8f43 103d
00000340: aa8c f43d 07ff 773d 404c 70bc c3eb 963d
00000350: 72eb 35bd 78af 2b3c db53 af3d fb1d d4bd
00000360: 3089 c6bd 68bc 4e3d 087a f2bc d953 853d
00000370: 433f 2cbd b69c fcbc ea03 80bd ab67 83bd
00000380: 30d2 473b 0738 0e3c 5af7 2b3d ad1b 2ebb
00000390: a8a1 883c 5285 d73d 0c3d 6ebb 988a e33c
000003a0: 998a f83c fd94 0fbd c9bb abbd 5250 693d
000003b0: 0e29 443d 0015 ffba 3ff1 293c 7782 01bd
000003c0: 0ae2 583d 9ecb 2d3d c221 ef3c 26bc 3c3d
000003d0: 3f64 18bd 9036 7d3c 0665 84bd c0c2 fa3a
000003e0: c27f 15bd bb11 113e b3a6 44bd 2cc4 023c
000003f0: 420a 12be f4cf 29bd 9c33 b1bc 9c0f 8cbd
-0.013553545 -0.0044415905 0.08622687 -0.11617771 0.016195051 0.113250315 0.08275864 -0.102837645
-0.023919746 0.023591183 0.008075282 0.023172252 -0.08808787 0.016530648 -0.027214253 0.03947976
-0.05819606 0.0121994205 -0.059596024 -0.03882579 0.04233365 0.0026351288 -0.05952742 -0.053020105
0.14299473 0.014070738 -0.050874494 0.09386877 0.044228353 -0.06469017 -0.07879518 -0.038517024
-0.036479447 0.016928826 -0.03811376 0.0029569082 -0.09442463 0.009614891 0.03737604 -0.0072485954
-0.01947121 -0.020061286 -0.009176187 0.0031811455 -0.009177297 -0.0329587 -0.10218578 -0.017427148
-0.07206372 0.034841508 0.075926624 -0.04593611 -0.039973814 0.003990649 0.028986651 -0.0054577664
0.024126291 -0.039726343 0.10362756 -0.07163415 0.0033295974 0.04304778 -0.027320556 0.034719296
0.13050184 0.01893697 -0.018448353 0.0101056695 0.050418265 0.037929513 0.12999082 0.024228573
-0.08534088 0.03362031 -0.008802719 -0.05123587 -0.08556425 0.054928347 -0.022014018 0.035185613
0.082453445 0.08052453 -0.024176704 -0.0046160044 0.06076377 0.023270763 -0.017843708 -0.10211104
0.04134057 -0.04437697 0.06843553 -0.03286113 -0.031366672 0.044642515 -0.0977428 0.006087808
0.06865825 0.017022021 -0.006748572 0.024705641 -0.008799806 0.00041383388 0.059470326 -0.021349885
-0.037381906 -0.016745375 -0.0682961 -0.058454305 -0.059969813 0.034299247 -0.085366964 -0.01984072
-0.037078045 -0.08679828 -0.00033202022 0.06466647 0.03926563 0.088197015 -0.04209838 0.068203814
-0.07228589 0.07299884 -0.06542495 -0.025788795 0.0410269 -0.06678752 0.01743842 -0.09726176
0.043400712 -0.08257825 -0.07378821 -0.11211852 -0.07858726 0.09389673 -0.046864975 -0.07102368
0.037639193 -0.035919093 -0.0029445337 0.06377236 -0.07204221 0.036554307 -0.06509199 -0.06632287
-0.052212615 0.04139446 0.054481067 0.014559623 0.026942031 -0.080712706 -0.0504799 0.008366036
0.0876555 -0.08355769 -0.056163695 0.050079063 0.039048564 -0.013576937 0.088041864 -0.056366574
-0.040001303 0.113359444 0.051853083 -0.0052516474 -0.028415363 -0.0029912197 0.015435338 0.083633564
0.0064778286 -0.011149181 -0.0034034848 0.011454724 0.031241924 0.03567559 -0.04741776 0.11771424
-0.035509225 -0.06454244 -0.06453593 0.08571497 -0.07065963 -0.026147457 0.0340736 0.08182096
0.05096022 -0.049142327 0.020158142 -0.07952891 -0.052717805 -0.058779143 -0.05888503 0.027876526
0.053876773 0.03211779 -0.11129432 0.0005275867 0.062875204 0.060185473 0.0010717217 0.056581587
0.055478957 0.055496376 -0.10454925 0.026381627 0.0139359785 -0.026058286 0.023354694 0.03522068
0.11940892 0.060545947 -0.014666617 0.07369187 -0.04441399 0.010478847 0.08560916 -0.10357281
-0.09694135 0.050472647 -0.029599205 0.06510133 -0.04205252 -0.030836444 -0.062507465 -0.064162575
0.0030490272 0.00868035 0.04198394 -0.002656679 0.016678646 0.10523476 -0.0036352305 0.027776048
0.030339526 -0.035054196 -0.083854266 0.056961365 0.047890715 -0.0019461215 0.010372459 -0.03161856
0.052949943 0.042430513 0.029190902 0.04607787 -0.037204977 0.015454903 -0.06464581 0.0019131526
-0.036498792 0.1416692 -0.04801054 0.007981341 -0.14261726 -0.041458085 -0.021631055 -0.06838915

fc2.bias f4 [64]
00000000: 525f 2cbe 087d e1bc c93f 753f b835 693f
00000010: 0cbd 5c3f 52b0 80bd e59d 9bbd cc25 cabd
00000020: 5372 bcbd df1b 763f b579 6a3f 760a 763f
00000030: d6c4 5d3f df33 5f3f 162d 633f cb18 64bc
00000040: 17a8 603f 30e6 b23f 44eb 7c3f d847 7c3f
00000050: 6644 5b3f 8bfd 833f d207 6a3f 2018 383e
00000060: b5c1 d5bd 66c5 2c3f edb3 90bd b304 92bd
00000070: 59a1 523f 244f 753f 01d2 08bd fc67 6e3f
00000080: a17a 11be 9b44 5d3f 37b4 833f 421d e4bd
00000090: ce04 a7bd bf05 4dbd 5563 1abe cea9 2e3f
000000a0: 905f 793f 4650 813f b057 4d3f 98df 54bd
000000b0: 5bf8 b03f 437f 19be 6160 4f3f d0d3 6d3f
000000c0: f0a9 b33f 3624 01be f1eb 06be fa81 7a3f
000000d0: ade3 6b3f 5506 723f 7e9e 633f b041 723f
000000e0: 4f36 dabd 8799 a5bc 8e59 e1bc b2d4 3a3f
000000f0: 1c44 1c3f 9d33 553f 65d8 0abe 3ee6 f4bd
-0.16833237 -0.02752544 0.95800453 0.91097593 0.8622596 -0.062836304 -0.07598475 -0.098704904
-0.09201493 0.9613628 0.9159196 0.9610971 0.8662847 0.87188524 0.8874067 -0.013921927
0.87756485 1.3976498 0.98796487 0.98547125 0.8565124 1.031175 0.9141818 0.17977953
-0.10437337 0.67488706 -0.07065568 -0.071298026 0.82277447 0.95823884 -0.0334034 0.9312742
-0.14206935 0.8643281 1.0289372 -0.11138393 -0.08155213 -0.050054308 -0.15076955 0.6822785
0.9741144 1.0102623 0.80211926 -0.051971048 1.3825792 -0.14989953 0.8100644 0.92901325
1.4036236 -0.1261147 -0.13175942 0.9785458 0.9214428 0.9454091 0.88913715 0.9463148
-0.1065489 -0.02021481 -0.027508523 0.729808 0.61041427 0.8328188 -0.1355911 -0.11957978

fc3.weight f4 [3, 64]
00000000: 97f3 e8bc 182f 5d3c a1d9 d840 9700 da40
00000010: bdd7 dd40 f9b1 8abc ec4a 273b 98f4 4d3d
00000020: 7f8c c83c 39c4 db40 f11b dc40 ba71 db40
00000030: f76b d140 5214 e040 3144 d740 1511 823c
00000040: 79ab dc40 630e b040 ef91 da40 af24 db40
00000050: 5d43 d940 a0db d940 8362 d640 6b92 4e3e
00000060: 7343 693c a57f cd40 4e19 a23d e325 8abc
00000070: 7c9b 81c0 9d0b dd40 7375 003d 93dd d240
00000080: 51b2 7a3c b5b2 de40 f271 d840 dd7f b5bd
00000090: 3b46 c1bd 9f43 833d a8f5 2a3d 6c3e d740
000000a0: 1d45 dd40 2d7a d940 27b8 dd40 1b87 3fbd
000000b0: 7ea2 aa40 f85e 6e3d 55c0 d440 d2ba db40
000000c0: 1113 ad40 4cf3 773c 4a48 5a3c 7a5c d740
000000d0: 954c d440 86ff dd40 b959 d940 3b90 dd40
000000e0: 658a d13d 4353 28bc a759 92bc d8ed 43c0
000000f0: 3dc5 c440 baef dd40 5d7f 8ebc 6d08 1bbd
00000100: 3233 1f3c 92dd 903c 5ec0 dc40 47c8 e840
00000110: 667f e440 fda5 c1bc 5a76 7b3c c83f c5bd
00000120: b599 17bd 5a28 d940 527b e540 89da df40
00000130: 59d5 d340 21a0 de40 3015 e240 c9ac f3bc
00000140: 90a0 e640 9a8f 9840 92a1 e240 747a da40
00000150: b793 e140 9a75 e240 0cd9 e340 73de 5dbe
00000160: 8241 cf3d 4b97 da40 28e0 023e 3765 06bd
00000170: b08f 3dc0 5983 da40 1bb9 4fbd f7b9 e240
00000180: 78ab 6fbd c6dc e240 ee14 db40 9e93 a5bc
00000190: 2d53 0fbd 38f9 85bc 7e43 78bd 2f53 e940
000001a0: 4915 e140 4302 e140 b595 e840 fa7e 25bd
000001b0: 9f35 9740 31d0 f2bc b22e db40 3ea2 e440
000001c0: a252 9840 f757 1a3d a10d 2f3d 4f77 e240
000001d0: 2e4c e940 0e21 de40 85fe dd40 6e6a e840
000001e0: d367 5dbd e605 2bbd 3ad0 1cbc 6ed6 40c0
000001f0: 9a20 da40 5b60 e040 ac84 a8bb 68ac d7bc
00000200: 5b89 843b dccd b23c 2a39 d740 3db0 d840
00000210: 0a4f db40 8c4a 983d a332 c3bd 315d f23c
00000220: fa3d 793d 03b9 d040 6352 d040 8a2c d440
00000230: 77d3 e240 d512 d440 2cff d840 1c35 fabc
00000240: 9003 d040 db76 c440 880e d540 3f62 d740
00000250: eaaa d840 5383 d940 9564 d740 dbe5 a5ba
00000260: bb99 2dba 093b cf40 42bc 003d a4c2 3e3d
00000270: 2f39 83c0 2f9d d040 b700 c9bc c199 dc40
00000280: b656 8e3d 6b6d d240 e3ed ce40 9523 f5bb
00000290: ad70 bb3d 4dfc 2ebc d7cd b639 fef9 d740
000002a0: 0a9f d740 5153 d340 149a df40 c1d2 6abd
000002b0: f19a c240 2d5f 99bd 2426 d240 90b6 d540
000002c0: 9833 c140 fde6 a2bc ea02 e0bb 181a d440
000002d0: 2651 dd40 ee98 da40 ca1e e340 8ea6 d440
000002e0: 9602 dcbd 69db d63d 74cb 8c3c 8b63 88c0
000002f0: cc24 cc40 988b de40 c804 49bd 8df6 3b3c
-0.028436465 0.013499998 6.776566 6.812572 6.9325852 -0.016930567 0.0025526835 0.05028209
0.024481056 6.867703 6.878411 6.8576326 6.5444293 7.0024805 6.727074 0.015877286
6.8959317 5.501756 6.830314 6.848228 6.789473 6.8080597 6.6995254 0.20173042
0.014237273 6.4218316 0.07914983 -0.016863769 -4.05023 6.9076676 0.03136201 6.5895476
0.015301303 6.959315 6.7639093 -0.088622786 -0.094372235 0.06409382 0.041738182 6.72637
6.9146867 6.796164 6.9287295 -0.046759706 5.3323355 0.058196038 6.648478 6.866555
5.4085774 0.01513369 0.013322899 6.7300386 6.6343484 6.937442 6.7922025 6.9238563
0.10231475 -0.010273757 -0.017865015 -3.0613918 6.149077 6.9355135 -0.017394716 -0.037849832
0.009716796 0.017683778 6.8984823 7.274448 7.1405516 -0.02363872 0.015348041 -0.09631306
-0.03701182 6.7861757 7.1713037 6.9954267 6.6197934 6.957047 7.0650864 -0.029745476
7.2071 4.7675295 7.082223 6.827448 7.0492816 7.0768557 7.120245 -0.21666889
0.101199165 6.8309684 0.12780821 -0.03281137 -2.961895 6.8285336 -0.05071364 7.085201
-0.058513135 7.08945 6.846305 -0.02021199 -0.034991432 -0.016354188 -0.06061124 7.2914042
7.0338483 7.031526 7.268275 -0.040404297 4.7252955 -0.029640289 6.84945 7.144805
4.760087 0.037681546 0.042737607 7.077064 7.2905493 6.941535 6.9373193 7.262992
-0.054054093 -0.041753672 -0.009571129 -3.0130877 6.8164797 7.011762 -0.005142769 -0.026327327
0.0040446944 0.021826677 6.725728 6.7715135 6.8533983 0.07436094 -0.095311426 0.029585453
0.06085012 6.5225844 6.510057 6.630437 7.0883136 6.627299 6.781149 -0.030542903
6.500435 6.1395087 6.658024 6.730743 6.7708635 6.797281 6.731028 -0.0012657003
-0.0006622334 6.4759564 0.031429537 0.046572343 -4.1007304 6.5191875 -0.024536474 6.893769
0.069501325 6.5758567 6.466539 -0.0074810483 0.091523506 -0.01068027 0.00034867108 6.7492666
6.738164 6.6039205 6.9875584 -0.057329897 6.0814137 -0.074888565 6.567156 6.6785355
6.037548 -0.019885534 -0.006836285 6.6281853 6.916156 6.831168 7.0975084 6.6453314
-0.10742681 0.10491068 0.017186858 -4.2621512 6.379492 6.9545403 -0.049076825 0.0114723565

fc3.bias f4 [3]
00000000: 4fe8 0340 3df0 9d3f 9ce2 fd3f
2.061054 1.233894 1.9834781
