Models/DQN/agentDQN_2018-2020_dqn_v1_200_EPS_3.pth (torch, 90039 bytes, 6 tensors)

fc1.weight f4 [128, 104]
0.0011709379 -0.00039426744 -0.09567703 -0.15825845 -0.12279633 -0.09009624 -0.10361252 -0.06472595
-0.10358729 -0.12907621 -0.08456007 -0.047481775 -0.09178565 -0.033764042 -0.20745468 -0.17154248
-0.031280678 -0.06046124 -0.122343734 -0.14062947 -0.04486234 -0.07323799 -0.22772774 0.016749617
-0.16670269 -0.07950483 0.14601868 0.076342285 -0.019653533 -0.11081981 -0.014366494 0.021114197
-0.11767906 -0.0051289196 0.0331257 0.13038096 0.16659854 -0.093976066 0.19021235 0.14532147
-0.012157208 0.03967351 0.2761606 -0.09005742 0.17836435 -0.068062164 -0.005813506 -0.15669835
0.045421753 -0.18285707 -0.1302541 -0.3385718 -0.103181966 0.13730232 0.02353865 -0.08896288
-0.16752495 -0.24987184 -0.16709903 0.08403649 0.11265928 -0.16829368 0.21805114 -0.1836482
-0.06502551 0.07100225 -0.15568428 -0.19232033 -0.115032144 -0.13341804 -0.09678298 -0.16583562
-0.2181996 -0.18679933 -0.1768109 -0.07047404 -0.1732625 -0.0581999 -0.23061574 -0.041445486
-0.193777 -0.12988263 -0.08909064 -0.11607745 -0.24027187 -0.15479901 -0.1550301 -0.16578369
-0.06514314 -0.1434709 -0.22620028 -0.10553691 -0.21879187 -0.07711813 -0.04890414 -0.068600275
-0.1428987 -0.12006345 -0.23393719 -0.13928516 -0.15276434 -0.16347376 -0.21752006 -0.19014837
-0.10545329 -0.0055437316 -0.018732123 -3.7334037e-05 -0.16425379 0.019942509 -0.15789492 -0.11730712
-0.025537571 -0.012934948 -0.003605763 -0.04343903 -0.039563283 -0.08702762 -0.015878944 -0.020337941
-0.08817096 -0.015098442 0.008277706 -0.13090545 -0.076743685 -0.030424556 -0.07082006 0.0547092
-0.12783213 -0.0226605 0.0558376 0.0944902 -0.017602352 -0.0881486 0.06646654 0.029395182
0.07093807 -0.014712891 0.011762238 0.041852493 0.04384259 0.10158102 0.07612341 0.05126368
-0.050204378 0.11410881 -0.044074338 0.082385205 -0.07992596 -0.00937631 0.06470414 -0.060397953
0.10368286 0.10227288 -0.07191684 -0.057961076 -0.013562933 -0.040936906 -0.004799524 -0.12926097
-0.16142626 -0.1735547 -0.1289641 -0.035887975 -0.027443413 0.04870052 0.07670824 0.013791787
0.044668652 0.019578608 -0.07787598 -0.15241235 -0.056067996 -0.010066574 -0.07871384 -0.025896622
-0.13022347 -0.039555125 -0.17338589 -0.1054625 -0.053790137 -0.09049298 -0.00018633927 -0.036859483
-0.084597476 -0.1807926 -0.006705085 -0.078613795 -0.08238663 0.009295613 -0.12988095 -0.03387689
-0.053624935 -0.053486656 -0.040561814 -0.09898638 -0.10581162 -0.16498432 -0.04342328 0.01810472
-0.12821668 -0.12236709 -0.076859735 -0.18936975 -0.15538482 -0.037174243 -0.07709849 -0.074830964
0.0043432317 -0.02521702 -0.100921035 -0.057399645 -0.11485503 -0.035572957 0.0390879 0.048728097
-0.10090035 -0.09641494 0.031768247 -0.12830245 -0.12832396 -0.0054976004 -0.055187758 -0.0044774245
0.05709843 -0.11889716 0.015231131 -0.03014172 -0.04188439 -0.05246495 -0.049290743 0.015248717
-0.12544918 -0.09332083 0.067802764 -0.013504117 -0.06887985 0.0803105 -0.029441662 -0.07441158
-0.020845702 -0.051601056 -0.048695236 -0.07746421 -0.055304073 0.090763904 -0.031108977 0.012816094
0.008674598 0.09922639 -0.038125765 -0.040689263 -0.07623982 -0.11891916 -0.0866296 -0.048335556
00000000: 287a 993a aeb5 ceb9 52f2 c3bd 810e 22be
00000010: a47c fbbd 6184 b8bd cd32 d4bd 0a8f 84bd
00000020: 9325 d4bd 8e2c 04be d42d adbd 407c 42bd
00000030: 1dfa bbbd 2a4c 0abd 006f 54be d5a8 2fbe
00000040: 2b20 00bd 35a6 77bd 5a8f fabd 2c01 10be
00000050: 93c1 37bd cdfd 95bd 7631 69be 7e36 893c
00000060: 1cb4 2abe 6ed3 a2bd ec85 153e 5859 9c3d
00000070: 7200 a1bc 7ff5 e2bd 7161 6bbc aef7 ac3c
00000080: b801 f1bd 7f10 a8bb d0ae 073d 9682 053e
00000090: cf98 2a3e 8676 c0bd 07c7 423e 27cf 143e
000000a0: 072f 47bc b180 223d ec64 8d3e 0670 b8bd
000000b0: 25a5 363e 2d64 8bbd 397f bebb 8875 20be
000000c0: 290c 3a3d e23e 3bbe 5561 05be 4859 adbe
000000d0: 1151 d3bd fb98 0c3e 20d4 c03c 2c32 b6bd
000000e0: a98b 2bbe 67de 7fbe 021c 2bbe 531b ac3d
000000f0: e9b9 e63d 2e55 2cbe cc48 5f3e 460e 3cbe
00000100: 182c 85bd a169 913d b36b 1fbe 9fef 44be
00000110: f995 ebbd bd9e 08be 2836 c6bd d0d0 29be
00000120: b76f 5fbe 5348 3fbe eb0d 35be b254 90bd
00000130: ba6b 31be 0563 6ebd 8826 6cbe bec2 29bd
00000140: 7a6d 46be f4ff 04be 2775 b6bd 04ba edbd
00000150: d409 76be a283 1ebe 36c0 1ebe 33c3 29be
00000160: c469 85bd 09ea 12be 0ca1 67be bc23 d8bd
00000170: fa0a 60be 1cf0 9dbd b54f 48bd 4d7e 8cbd
00000180: 0954 12be d3e3 f5bd 3b8d 6fbe c5a0 0ebe
00000190: 416e 1cbe aa65 27be 94bd 5ebe 41b6 42be
000001a0: e5f7 d7bd 31a8 b5bb 1c74 99bc 1e97 1cb8
000001b0: 2532 28be 795e a33c 35af 21be b73e f0bd
000001c0: 2b34 d1bc 1bed 53bc aa4e 6cbb 20ed 31bd
000001d0: 1c0d 22bd 893b b2bd 8f14 82bc c19b a6bc
000001e0: fa92 b4bd 755f 77bc 379f 073c 140c 06be
000001f0: cb2b 9dbd eb3c f9bc 1c0a 91bd c116 603d
00000200: 6de6 02be 83a2 b9bc f8b5 643d 1484 c13d
00000210: cf32 90bc 4187 b4bd 9c1f 883d 2ace f03c
00000220: fb47 913d 560e 71bc 67b6 403c 856d 2b3d
00000230: 4a94 333d b609 d03d 97e6 9b3d ddf9 513d
00000240: 1ba3 4dbd e1b1 e93d 4b87 34bd 93b9 a83d
00000250: 39b0 a3bd 189f 19bc 9b83 843d d863 77bd
00000260: ae57 d43d 7274 d13d 2349 93bd 9868 6dbd
00000270: 1037 5ebc 75ad 27bd 5345 9dbb fd5c 04be
00000280: ed4c 25be 53b8 31be 2a0f 04be 45ff 12bd
00000290: 02d1 e0bc 327a 473d 3619 9d3d f3f6 613c
000002a0: 7af6 363d 5163 a03c 717d 9fbd fc11 1cbe
000002b0: 8ea7 65bd 46ee 24bc b934 a1bd 2725 d4bc
000002c0: 4d59 05be 8e04 22bd 128c 31be b9fc d7bd
000002d0: 0c53 5cbd 6254 b9bd 1164 43b9 f8f9 16bd
000002e0: 7141 adbd b221 39be 54b6 dbbb 4500 a1bd
000002f0: 52ba a8bd a04c 183c 83ff 04be 7ec2 0abd
00000300: d2a5 5bbd d314 5bbd 2524 26bd 5fb9 cabd
00000310: c3b3 d8bd a6f1 28be 9cdc 31bd 5a50 943c
00000320: 3c4b 03be 999b fabd a368 9dbd 25ea 41be
00000330: 331d 1fbe 0544 18bd d0e5 9dbd fa40 99bd
00000340: ab51 8e3b ed93 cebc b0af cebd e41b 6bbd
00000350: 1d39 ebbd f3b4 11bd a21a 203d 1d97 473d
00000360: d8a4 cebd 3275 c5bd 6c1f 023d b861 03be
00000370: 5b67 03be 3725 b4bb 8f0c 62bd 5cb7 92bb
00000380: 0be0 693d 5b80 f3bd fe8b 793c c5eb f6bc
00000390: f78e 2bbd 7de5 56bd 17e5 49bd c1d5 793c
000003a0: c075 00be fe1e bfbd 2ddc 8a3d 5f40 5dbc
000003b0: e110 8dbd d579 a43d a42f f1bc 1965 98bd
000003c0: 9bc4 aabc a15b 53bd a874 47bd 8ea5 9ebd
000003d0: 8686 62bd 6de2 b93d 41d8 febc 98fa 513c
000003e0: e71f 0e3c 3537 cb3d c329 1cbd c9a9 26bd
000003f0: 9f23 9cbd e38b f3bd dc6a b1bd 81fb 45bd

fc1.bias f4 [128]
-0.14745799 -0.10918301 -0.11867038 -0.0064192717 -0.43692574 -0.007843641 -0.35524654 -0.1667096
-0.103373736 -0.28062832 -0.35580483 -0.26148593 -0.15919876 -0.18963172 -0.058412675 0.012570391
0.025180288 -0.43124157 -0.07993614 -0.043680124 -0.15166548 -0.004740593 -0.22833897 -0.0864074
-0.112785295 -0.022223398 -0.10178298 -0.099543296 -0.107979774 -0.10643389 0.076074414 -0.20275733
-0.091559276 0.22050564 -0.090034805 -0.430618 -0.020977834 -0.12280424 -0.09041323 -0.10829342
-0.13140246 0.17101905 -0.54394925 -0.2820627 -0.13517396 -0.07424212 -0.14241272 0.010452429
0.041446477 -0.053525805 -0.29869762 -0.15599816 -0.10550806 -0.037228253 -0.1291451 -0.071588464
-0.16922745 -0.024288071 -0.09751414 -0.22843784 -0.06648469 -0.17182769 -0.18071102 -0.090152785
-0.18706381 -0.071638525 -0.050513715 0.0024559847 -0.10567343 -0.18671395 -0.09885136 -0.12424551
-0.06772079 -0.0055238963 -0.007835745 -0.0768527 -0.2175243 -0.16438113 -0.013563216 -0.33840534
-0.0024363354 -0.36141026 0.04597073 -0.099203795 -0.1492329 -0.15287545 -0.09291083 -0.060145676
0.034649964 -0.12202441 -0.15634769 -0.35119858 -0.12942344 -0.053823773 -0.08155297 -0.098572634
-0.12399452 -0.10238487 -0.11457417 -0.38029408 0.059662573 -0.08133518 -0.061024137 -0.015007255
-0.09567908 -0.33107325 -0.12760305 -0.10162489 -0.042184643 0.00783196 0.017593335 -0.06377574
-0.15294547 -0.05236003 -0.18581687 -0.13989165 0.034963552 -0.2936298 -0.18421918 -0.008769441
-0.17498331 -0.103909746 -0.011737995 -0.094649605 -0.12979399 0.018475521 -0.18914112 -0.12650317
00000000: 3aff 16be 589b dfbd 7509 f3bd c158 d2bb
00000010: bbb4 dfbe 9d82 00bc e0e2 b5be ecb5 2abe
00000020: 9cb5 d3bd 84ae 8fbe 0d2c b6be 7ce1 85be
00000030: 0005 23be d12e 42be 2142 6fbd 0bf4 4d3c
00000040: e446 ce3c b2cb dcbe 8fb5 a3bd eee9 32bd
00000050: 324e 1bbe fa56 9bbb b1d1 69be 5df6 b0bd
00000060: fafb e6bd d80d b6bc 9873 d0bd 5bdd cbbd
00000070: 8024 ddbd 03fa d9bd e7cc 9b3d 9e9f 4fbe
00000080: 6e83 bbbd 3bcc 613e 2b64 b8bd f679 dcbe
00000090: b5d9 abbc ca80 fbbd 922a b9bd f1c8 ddbd
000000a0: 5e8e 06be 9e1f 2f3e 4240 0bbf 866a 90be
000000b0: 0b6b 0abe 410c 98bd a4d4 11be aa40 2b3c
000000c0: c8c3 293d e03d 5bbd e5ee 98be fbbd 1fbe
000000d0: 9c14 d8bd a77c 18bd 9d3e 04be f99c 92bd
000000e0: f649 2dbe c7f7 c6bc 7eb5 c7bd 9ceb 69be
000000f0: 2029 88bd 99f3 2fbe 4f0c 39be 06a2 b8bd
00000100: a88d 3fbe 38b7 92bd 78e7 4ebd 96f4 203b
00000110: 506b d8bd f131 3fbe 9572 cabd 6e74 febd
00000120: 33b1 8abd cd01 b5bb 7f61 00bc f364 9dbd
00000130: b1be 5ebe 8753 28be 4038 5ebc 7743 adbe
00000140: edaa 1fbb c40a b9be ce4b 3c3d 5c2b cbbd
00000150: 82d0 18be 628b 1cbe 0948 bebd 505b 76bd
00000160: 1fed 0d3d efe7 f9bd 9c19 20be 4dd0 b3be
00000170: 9487 04be 5176 5cbd 3e05 a7bd 73e0 c9bd
00000180: d7f0 fdbd 29af d1bd dda5 eabd e8b5 c2be
00000190: be60 743d 0f93 a6bd 72f4 79bd fde0 75bc
000001a0: 65f3 c3bd 6f82 a9be 60aa 02be b620 d0bd
000001b0: cec9 2cbd 9f51 003c e61f 903c db9c 82bd
000001c0: bd9d 1cbe 7977 56bd c746 3ebe c23f 0fbe
000001d0: f135 0f3d a556 96be f4a3 3cbe b4ad 0fbc
000001e0: d32e 33be a2ce d4bd b850 40bc a7d7 c1bd
000001f0: b7e8 04be fa59 973c 36ae 41be 0c8a 01be

fc2.weight f4 [64, 128]
0.06847476 -0.030238329 0.09877539 0.026437577 0.0003072232 -0.025310582 0.009116956 0.07285958
0.022239914 -0.07746957 -0.030430537 -0.04961789 -0.014964767 0.0053468505 -0.0021539787 -0.03434689
-0.123992175 -0.07431428 0.03447357 -0.07384709 0.042106304 -0.06716108 0.03229777 0.08127996
0.07575582 0.08025316 -0.09168285 -0.0010752942 -0.020046381 0.0460899 0.01179959 -0.02586291
-0.10816465 -0.26188007 -0.0720064 -0.0664378 -0.023204904 -0.05084431 0.08045815 0.05896511
-0.026966857 -0.05694112 -0.0072447597 -0.041679595 0.01821062 0.05094127 -0.06783376 -0.051980626
-0.07532269 0.060812227 -0.09153944 -0.033306196 -0.035073686 -0.001378119 -0.060718987 -0.010358475
0.083881386 0.016150057 -0.023228407 -0.11432303 -0.046617564 0.012194684 0.0008145422 0.029890416
0.050878774 -0.024504023 -0.024079483 -0.022654321 -0.068324745 0.031473704 0.046776965 -0.049689163
-0.010568753 -0.04818627 0.0516321 -0.05347989 -0.115425535 -0.08067811 -0.005388396 -0.10140582
-0.10681058 -0.051879473 -0.05946616 -0.08438042 -0.060837373 -0.08086958 -0.021901011 0.06240066
-0.047694474 0.009680224 0.06479832 -0.012811399 -0.05976383 0.018727964 -0.086090095 0.025928497
-0.08110322 -0.072538845 -0.050365698 -0.06508988 0.059002616 0.015402556 -0.041723285 -0.016452573
-0.0900202 -0.072237924 0.007273265 0.08781151 -0.029105034 0.08768285 -0.03538666 -0.061326604
-0.00044441523 0.058918543 -0.05479375 -0.08991594 0.06139878 -0.015678076 -0.07485941 0.06318197
-0.013609735 -0.06470931 0.049270302 -0.033391386 0.0066358596 -0.028884698 0.020542042 -0.10959037
0.0038473979 0.060799025 -0.033888888 -0.024224967 -0.047135558 -0.067541346 -0.027892748 -0.0011860207
-0.06618367 -0.019022824 -0.089474715 -0.011767345 0.05140104 0.004803896 -0.0122841 -0.026742809
-0.011243634 0.015509091 -0.011480905 -0.0824873 0.0325199 -0.016289778 -0.08662657 0.04589946
0.05399493 -0.056103006 -0.0887711 -0.11298593 -0.018021055 -0.05285184 -0.050712287 -0.058591105
-0.005775753 -0.16583066 0.072211884 -0.028942332 0.043268315 -0.007526636 -0.0508924 -0.0811338
0.043994553 -0.109407276 -0.0321639 -0.037768956 0.07753285 0.041410156 0.08371141 -0.019311689
0.028931402 0.018901452 -0.008194765 -0.052207418 0.024154656 -0.052849554 -0.09510176 -0.02231311
0.04239311 0.037433676 -0.009238467 -0.028274518 -0.065566994 -0.043519042 0.06956444 -0.11236202
-0.072046295 -0.06747142 0.059184454 -0.046207834 -0.067166984 0.03252533 -0.1176716 -0.08097043
0.047441162 -0.07213957 -0.0018407557 0.079580344 -0.01766792 -0.003150135 0.05963751 -0.005063181
-0.062466033 -0.009830087 0.0497844 0.06874076 0.08457308 -0.024541259 -0.08599182 0.035891898
0.0071145147 -0.06736692 0.010123469 -0.032722715 -0.06519885 0.052239828 -0.08452192 0.06281573
-0.05684363 0.059774388 -0.01411669 -0.16630852 -0.0818547 -0.01471512 -0.028398145 -0.00463783
-0.035365514 -0.13621376 -0.047941256 -0.07939543 0.075501435 -0.047842406 0.007024154 -0.04266356
-0.05662294 0.044850416 0.030546613 0.08814212 -0.07072577 -0.11288368 0.07018327 -0.039649468
0.08313874 0.06455419 0.064810045 0.009660497 -0.04777514 -0.013706706 -0.022622868 0.079729326
00000000: 7f3c 8c3d 5fb6 f7bc c04a ca3d 9e93 d83c
00000010: cd12 a139 2358 cfbc 495f 153c 6737 953d
00000020: 7b30 b63c 5ea8 9ebd 7649 f9bc 213c 4bbd
00000030: c82e 75bc a234 af3b c429 0dbb 53af 0cbd
00000040: 9cef fdbd 1632 98bd 2834 0d3d 253d 97bd
00000050: a977 2c3d c08b 89bd ab4a 043d 1c76 a63d
00000060: de25 9b3d c55b a43d 38c4 bbbd e3f0 8cba
00000070: 4f38 a4bc c3c8 3c3d 1153 413c 74de d3bc
00000080: 6e85 ddbd 2515 86be 1778 93bd 8b10 88bd
00000090: 3618 bebc 2042 50bd 3ec7 a43d 6685 713d
000000a0: 99e9 dcbc 183b 69bd 7365 edbb 39b8 2abd
000000b0: 702e 953c cba7 503d 6dec 8abd a3e9 54bd
000000c0: c842 9abd 3e16 793d 0879 bbbd 146c 08bd
000000d0: 6da9 0fbd 00a2 b4ba 79b4 78bd 98b6 29bc
000000e0: 01ca ab3d 204d 843c 8049 bebc 3122 eabd
000000f0: 0ff2 3ebd 36cc 473c 0087 553a bfdc f43c
00000100: 4366 503d a9bc c8bc 5642 c5bc 8e95 b9bc
00000110: d8ed 8bbd 92ea 003d 3499 3f3d dd86 4bbd
00000120: 9028 2dbc f75e 45bd 2e7c 533d bb0d 5bbd
00000130: 3964 ecbd 913a a5bd 2491 b0bb dbad cfbd
00000140: 81bf dabd 927f 54bd ca92 73bd a4cf acbd
00000150: 9c30 79bd f39e a5bd c069 b3bc d697 7f3d
00000160: 485b 43bd cd99 1e3c fbb4 843d e7e6 51bc
00000170: ebca 74bd 636b 993c 0150 b0bd 0068 d43c
00000180: 7219 a6bd 3f8f 94bd 434c 4ebd d84d 85bd
00000190: baac 713d 015b 7c3c 09e6 2abd 8cc7 86bc
000001a0: 835c b8bd 7af1 93bd 9254 ee3b 85d6 b33d
000001b0: ae6d eebc 1193 b33d 9af1 10bd 9b31 7bbd
000001c0: 6700 e9b9 9254 713d 696f 60bd d925 b8bd
000001d0: 4a7d 7b3d 4f6f 80bc e44f 99bd 8c65 813d
000001e0: 5efb 5ebc 5186 84bd a8cf 493d 68c5 08bd
000001f0: a071 d93b 9a9f ecbc c947 a83c ea70 e0bd
00000200: a024 7c3b 6608 793d 13cf 0abd 7073 c6bc
00000210: 3711 41bd 1e53 8abd 557f e4bc 4074 9bba
00000220: 4e8b 87bd c1d5 9bbc 853e b7bd d2cb 40bc
00000230: e689 523d 006a 9d3b 4043 49bc bc13 dbbc
00000240: 3837 38bc d819 7e3c 681a 3cbc 1aef a8bd
00000250: 9633 053d 2472 85bc 4569 b1bd 1201 3c3d
00000260: ca29 5d3d 44cc 65bd 9fcd b5bd 2b65 e7bd
00000270: e4a0 93bc 2c7b 58bd b0b7 4fbd 3afd 6fbd
00000280: 8742 bdbb 83cf 29be d3e3 933d 7818 edbc
00000290: 1e3a 313d 00a2 f6bb 8d74 50bd 7a29 a6bd
000002a0: a233 343d ec10 e0bd 4bbe 03bd 9fb3 1abd
000002b0: 8bc9 9e3d b29d 293d e370 ab3d 8c33 9ebc
000002c0: 8c01 ed3c 38d7 9a3c 5643 06bc 72d7 55bd
000002d0: fcdf c53c c678 58bd b6c4 c2bd fcc9 b6bc
000002e0: 66a4 2d3d 0e54 193d f05c 17bc f69f e7bc
000002f0: fd47 86bd 0641 32bd cd77 8e3d 0f1e e6bd
00000300: 028d 93bd 752e 8abd 666b 723d 6d44 3dbd
00000310: d88e 89bd 4839 053d cffd f0bd d3d3 a5bd
00000320: aa51 423d e9bd 93bd 8345 f1ba 05fb a23d
00000330: 50bc 90bc 7f72 4ebb 7646 743d 0ae9 a5bb
00000340: 62dc 7fbd 600e 21bc baea 4b3d f5c7 8c3d
00000350: a734 ad3d c00a c9bc 7b1c b0bd 6203 133d
00000360: e020 e93b abf7 89bd e8dc 253c 4108 06bd
00000370: fa86 85bd 6ef9 553d d419 adbd 89a5 803d
00000380: ded4 68bd fdd5 743d b049 67bc c84c 2abe
00000390: 70a3 a7bd b017 71bc 3aa3 e8bc f0f8 97bb
000003a0: 6edb 10bd 9f7b 0bbe 0d5e 44bd 129a a2bd
000003b0: 7fa0 9a3d 66f6 43bd e02a e63b fcbf 2ebd
000003c0: 75ed 67bd 12b5 373d e43c fa3c db83 b43d
000003d0: acd8 90bd 8f2f e7bd 3fbc 8f3d 7b67 22bd
000003e0: a544 aa3d fd34 843d 21bb 843d 1047 1e3c
000003f0: ddaf 43bd 1892 60bc 9853 b9bc 2149 a33d

fc2.bias f4 [64]
-0.38595685 -0.292646 -0.3358021 -0.0887336 0.08659706 -0.2153413 -0.23450652 -0.4559052
-0.25524655 0.3387589 -0.42087817 -0.21235213 -0.25908008 0.05269078 -0.16433114 -0.30505127
-0.454831 0.085467525 -0.091835074 -0.18760394 -0.37822655 0.11405358 -0.33124447 -0.35936654
-0.024317019 -0.14480716 -0.1899436 -0.20821047 -0.4275292 -0.26458287 -0.33257532 -0.15542756
-0.36172277 4.0880256 -0.29580867 -0.20337059 -0.3889895 -0.40929624 -0.13025148 -0.16347142
0.05026388 -0.17379764 -0.24206306 -0.14106157 -0.23129682 0.087523624 0.08496593 -0.121058494
-0.46382615 -0.19969662 -0.19470377 -0.5519155 -0.13276044 -0.14602673 0.06329432 -0.14368881
-0.45560268 -0.11199636 -0.33524388 -0.14341067 -0.03456626 -0.1708889 -0.21005562 -0.32644114
00000000: 239c c5be b2d5 95be 41ee abbe f6b9 b5bd
00000010: cd59 b13d 6e82 5cbe 7a22 70be 686c e9be
00000020: adaf 82be ce71 ad3e 587d d7be d672 59be
00000030: 25a6 84be 4ad2 573d 6c46 28be ae2f 9cbe
00000040: 9cdf e8be 9909 af3d 0714 bcbd 3f1b 40be
00000050: e9a6 c1be ec94 e93d e098 a9be e4fe b7be
00000060: 7c34 c7bc 5448 14be 9380 42be 2035 55be
00000070: 1be5 dabe 6877 87be 5047 aabe 6728 1fbe
00000080: ba33 b9be 1bd1 8240 3c74 97be 6140 50be
00000090: a229 c7be 478f d1be a560 05be 0d65 27be
000000a0: 80e1 4d3d 02f8 31be 61df 77be 7272 10be
000000b0: 13d9 6cbe 963f b33d 9e02 ae3d 84ed f7bd
000000c0: 9f7a edbe 457d 4cbe 6d60 47be 564a 0dbf
000000d0: 5af2 07be 0888 15be 74a0 813d 2923 13be
000000e0: c144 e9be 595e e5bd 16a5 abbe 3fda 12be
000000f0: 5a95 0dbd 80fd 2ebe d218 57be 4b23 a7be

fc3.weight f4 [3, 64]
-0.014372708 -0.009962654 0.0009791623 0.0042869058 0.8637404 0.017029438 -0.0054836813 0.0130606275
-0.005204963 0.48804387 0.016752172 -0.07546056 0.10103673 0.7625912 0.013736535 0.03283788
-0.010416015 0.6709777 0.096651874 0.082047686 -0.06016587 0.39118987 0.027238168 0.16083564
0.085645266 -0.045061953 -0.017409133 0.050045893 0.034722187 -0.049367536 0.018374112 0.01024516
0.016967058 -1.4520756 -0.024264967 -0.008069954 0.013247475 -0.013936913 0.06257822 0.12616868
0.654545 -0.12185736 -0.047356892 -0.02323881 0.013602737 0.81327605 0.80097187 0.02013234
0.012584239 0.042751897 0.19614123 -0.0019550438 -0.0033652184 0.0168944 0.6761832 -0.0553781
0.05958293 0.072136395 0.07296028 0.16730568 0.11751269 0.0273272 -0.062400647 0.01487793
0.015514564 -0.010762082 -0.038875196 0.002057613 0.83105475 0.05253986 -0.0003306356 0.014193945
-0.03726888 0.47747576 -0.001207009 0.12676296 -0.009774809 0.7669335 0.03244902 0.022319622
-0.022479316 0.61480504 0.055858612 0.01697713 -0.026926719 0.48230532 0.073791 0.17486277
-0.20826998 0.06116636 0.029384641 0.015191971 -0.10052556 0.035311155 0.016910823 -0.015697753
-0.010684063 -1.4069486 -0.00430504 0.072416365 0.04515388 0.04192241 0.07644686 -0.023802651
0.6523644 0.022782596 0.008466248 0.007171159 0.001260257 0.75194025 0.78466964 -0.0007417584
0.030686107 0.026973557 0.057904016 0.036780935 0.010589931 0.0066574397 0.60442877 0.0097345915
0.020497981 0.04755396 0.03571883 0.0103946 0.13515857 0.0193308 -0.1025673 0.039232414
-0.02741191 -0.031783428 -0.06238621 0.014698067 0.87270886 -0.07104243 0.02297574 0.0014047595
0.012866644 0.70858055 0.020797802 -0.055803675 -0.08321789 0.72256345 -0.0016182655 0.006731539
-0.043244164 0.66821355 -0.045141745 -0.07117447 -0.023925783 0.28226146 -0.025422161 0.07927682
-0.060345743 -0.026415527 0.12804298 -0.009155548 -0.013163268 -0.034048826 -0.013674681 0.027948733
0.054352496 -1.2856227 0.025762005 -0.04180794 -0.14334683 0.020510906 -0.019549832 0.0335732
0.69081044 -0.042605486 -0.01964849 -0.04097643 -0.01127669 0.8187294 0.8090726 0.049933422
0.014322196 -0.08545964 0.1038207 0.044830527 0.018640343 -0.074136384 0.69404685 0.016015364
-0.015182478 -0.012014954 -0.008009334 -0.032106 -0.049458146 -0.00593011 -0.022809103 0.005186512
00000000: 827b 6bbc 663a 23bc 3c57 803a 2c79 8c3b
00000010: 171e 5d3f 5281 8b3c 74b0 b3bb 3efc 553c
00000020: 658e aabb e3e0 f93e da3b 893c 118b 9abd
00000030: 58ec ce3d 2d39 433f 340f 613c 0381 063d
00000040: efa7 2abc 32c5 2b3f 6bf1 c53d 9e08 a83d
00000050: 7d70 76bd 0a4a c83e 9422 df3c 19b2 243e
00000060: c966 af3d e292 38bd 999d 8ebc ecfc 4c3d
00000070: da38 0e3d 9d35 4abd 4e85 963c 51db 273c
00000080: 80fe 8a3c 9ddd b9bf 53c7 c6bc d737 04bc
00000090: f00b 593c a657 64bc 0329 803d 5d32 013e
000000a0: 4390 273f 5a90 f9bd 4df9 41bd 515f bebc
000000b0: 04de 5e3c dc32 503f 7e0c 4d3f 94ec a43c
000000c0: 202e 4e3c 9d1c 2f3d 3fd9 483e 3120 00bb
000000d0: ff8a 5cbb 2066 8a3c 581a 2d3f 26d4 62bd
000000e0: 3b0d 743d 3fbc 933d 336c 953d 2e52 2b3e
000000f0: 7eaa f03d 4bdd df3c d297 7fbd 90c2 733c
00000100: cc30 7e3c 7253 30bc 993b 1fbd 05d9 063b
00000110: 01c0 543f 0934 573d 2959 adb9 b88d 683c
00000120: 41a7 18bd b477 f43e 8034 9eba 26ce 013e
00000130: 8526 20bc c155 443f 43e9 043d a4d7 b63c
00000140: 8b26 b8bc dd63 1d3f 00cc 643d 9f13 8b3c
00000150: 6c95 dcbc b9f0 f63e bc1f 973d 3a0f 333e
00000160: ba44 55be 9489 7a3d 0fb8 f03c bfe7 783c
00000170: 58e0 cdbd 6ea2 103d 9188 8a3c 9398 80bc
00000180: 350c 2fbc e416 b4bf 4b11 8dbb 084f 943d
00000190: 46f3 383d d5b6 2b3d 2c90 9c3d c7fd c2bc
000001a0: 5a01 273f 91a2 ba3c 05b6 0a3c 0bfc ea3b
000001b0: 352f a53a 287f 403f 1ce0 483f 9072 42ba
000001c0: 6e61 fb3c a6f7 dc3c c32c 6d3d 9ba7 163d
000001d0: 6481 2d3c a726 da3b d8bb 1a3f d67d 1f3c
000001e0: 62eb a73c f1c7 423d e84d 123d 1d4e 2a3c
000001f0: 0267 0a3e a05b 9e3c ce0e d2bd 2bb2 203d
00000200: f18e e0bc 572f 02bd af88 7fbd 29d0 703c
00000210: d969 5f3f b27e 91bd 9e37 bc3c e81f b83a
00000220: 9ece 523c 8965 353f 2760 aa3c 6592 64bd
00000230: 246e aabd ebf9 383f fb1b d4ba 3e94 dc3b
00000240: cb20 31bd 0b10 2b3f 8de6 38bd ecc3 91bd
00000250: 0100 c4bc 9384 903e 2342 d0bc e35b a23d
00000260: 192d 77bd 6065 d8bc b31d 033e 2701 16bc
00000270: bfaa 57bc c876 0bbd c50b 60bc bef4 e43c
00000280: b9a0 5e3d 498f a4bf d70a d33c cd3e 2bbd
00000290: 83c9 12be 7d06 a83c f826 a0bc 0d84 093d
000002a0: f4d8 303f 1783 2ebd dff5 a0bc e7d6 27bd
000002b0: dec1 38bc 4098 513f 621f 4f3f fd86 4c3d
000002c0: a5a7 6a3c 7705 afbd f29f d43d 37a0 373d
000002d0: a2b3 983c d1d4 97bd 0ead 313f a732 833c
000002e0: eebf 78bc 5fda 44bc 9539 03bc 9581 03bd
000002f0: a094 4abd 5e51 c2bb 28da babc 9ef3 a93b

fc3.bias f4 [3]
0.6591895 0.29511493 0.8447544
00000000: a5c0 283f 4e19 973e d341 583f
