Models/DQN/agentDQN_2008-2009_dqn_v2_400_EPS_0.pth (torch, 90071 bytes, 6 tensors)

fc1.weight f4 [128, 104]
-0.17138624 -0.021403775 -0.14496239 -0.09101237 -0.16780396 -0.019003665 -0.03348107 -0.039849073
-0.14689253 -0.050015416 -0.14054585 -0.18799676 -0.0065406915 -0.15978624 -0.17630166 -0.1983266
-0.014639847 -0.12988324 -0.095155455 -0.095617875 -0.01405382 -0.051735893 -0.13913289 0.05278035
-0.0628403 -0.15140578 -0.031570144 0.037130784 0.048834823 -0.019544344 0.078924544 -0.026141055
-0.022598092 0.036676966 0.011037985 0.04891342 -0.08715111 -0.017769752 0.03255273 0.095291734
0.048588935 0.0017124781 -0.007858178 0.028862529 0.051908135 -0.17308734 -0.053148728 -0.1034878
0.1068858 -0.016388804 -0.08897414 -0.037002638 -0.10415624 0.03141109 -0.111113094 -0.06668697
-0.027948946 -0.17596151 -0.0060294033 -0.08599146 0.029274628 -0.13302618 -0.07101088 -0.038121957
0.03244187 0.049962156 -0.078850396 -0.114972934 -0.111290015 -0.09837448 -0.030766547 -0.00750772
-0.056945946 -0.16149779 -0.092102386 -0.12593664 -0.016200237 -0.01114471 -0.014893851 -0.19114007
-0.10932204 -0.17911182 -0.19413401 -0.17727315 -0.1287517 -0.16843534 -0.05621595 -0.060486328
-0.06644215 -0.01820615 -0.18688414 -0.1237032 -0.13954678 -0.17960878 -0.07671735 -0.088388056
-0.050149947 -0.026991904 -0.0052618836 -0.09251087 -0.03664713 -0.01857663 -0.14197488 -0.15594321
-0.061868664 -0.0038560622 -0.022122977 -0.10815787 -0.09212359 -0.07070718 -0.052436307 -0.025525285
-0.012847945 0.01067424 0.0575235 -0.07054473 0.020454407 0.00013514918 -0.09321934 0.08332942
-0.021728288 -0.014360624 -0.0139248725 -0.002606143 -0.08005607 -0.101695254 -0.022795238 0.07345301
0.02554398 0.022416612 -0.10670085 -0.06452564 0.103699714 -0.015238308 0.058422837 -0.060624126
0.10150299 0.013982798 0.06343217 0.012143912 0.089253366 0.102742694 -0.025779068 -0.01125776
0.050605807 0.046111315 0.10626169 0.03612638 -0.03238556 -0.07584759 0.03941461 -0.01748709
0.09581692 -0.069764405 -0.002514643 -0.04345305 0.037978735 -3.8627062e-05 0.027246645 0.02501936
-0.052235167 0.07094021 0.0494219 -0.06829939 0.10251219 -0.031173334 -0.071087435 0.035075925
0.006514862 -0.08391927 -0.020891104 -0.025160741 -0.02435157 0.06411489 -0.08960676 -0.07271867
0.041760575 0.0072677005 -0.10045824 0.032602426 -0.034696832 0.0013648928 0.017154114 -0.043741252
0.0034785874 0.011404082 -0.034885623 0.035714757 3.4887686e-05 0.016057793 0.08197013 -0.072252564
-0.1025159 0.080833875 -0.054634854 0.028933778 0.077653624 -0.06459247 -0.039077602 -0.051574033
-0.062365938 0.05978233 0.057904556 -0.096001595 0.0053788554 -0.09811123 -0.08272879 0.06621758
-0.061800696 -0.041739464 -0.103137285 -0.15428202 -0.14018326 -0.19601864 -0.10847386 -0.13088855
-0.11848007 -0.16781291 -0.08848424 -0.1771593 -0.21771401 -0.19595388 -0.25945982 -0.23799871
-0.15199876 -0.20571795 -0.10072317 -0.23064044 -0.080285385 -0.14426638 -0.12178768 0.10676736
-0.13749222 -0.1580791 -0.18906029 0.013565408 -0.029538555 0.010826063 0.07259889 -0.021585269
-0.0062191915 -0.0889446 -0.003724864 -0.084990226 -0.1042234 -0.11832934 -0.058521062 0.026430868
-0.013068917 -0.033283908 -0.08224002 0.018291913 -0.12620325 -0.21723214 -0.030907216 -0.02026438
00000000: e07f 2fbe f856 afbc 0571 14be b264 babd
00000010: cdd4 2bbe 93ad 9bbc 7223 09bd c838 23bd
00000020: ff6a 16be f7dc 4cbd 40eb 0fbe 3982 40be
00000030: 4c53 d6bb 019f 23be 6c88 34be 2116 4bbe
00000040: f8db 6fbc 1d00 05be dde0 c2bd 4ed3 c3bd
00000050: fe41 66bc 04e9 53bd da78 0ebe 3530 583d
00000060: 6ab2 80bd 1e0a 1bbe b24f 01bd 7316 183d
00000070: 0607 483d 761b a0bc 31a3 a13d c425 d6bc
00000080: a21f b9bc 963a 163d aad8 343c 7059 483d
00000090: 487c b2bd df91 91bc 0356 053d 5028 c33d
000000a0: 3105 473d 3b75 e03a 96bf 00bc 1c71 ec3c
000000b0: a09d 543d cf3d 31be 7bb2 59bd 69f1 d3bd
000000c0: f1e6 da3d d041 86bc 1338 b6bd 1490 17bd
000000d0: de4f d5bd eaa8 003d 438f e3bd 2e93 88bd
000000e0: 30f5 e4bc 412f 34be 4d92 c5bb 4a1c b0bd
000000f0: 58d1 ef3c 0438 08be 276e 91bd c525 1cbd
00000100: c4e1 043d 1ea5 4c3d 517c a1bd ee76 ebbd
00000110: 05ec e3bd 8f78 c9bd 200a fcbc 5203 f6bb
00000120: 2740 69bd ad5f 25be 2da0 bcbd 89f5 00be
00000130: 5cb6 84bc 4d98 36bc 5705 74bc 39ba 43be
00000140: 3ce4 dfbd 1769 37be 11cb 46be 1887 35be
00000150: 7cd7 03be 507a 2cbe b242 66bd 83c0 77bd
00000160: d212 88bd 1025 95bc 8e5e 3fbe 1a58 fdbd
00000170: 5ae5 0ebe 5deb 37be fc1d 9dbd cc04 b5bd
00000180: 086a 4dbd 201e ddbc e16b acbb 5776 bdbd
00000190: 4d1b 16bd 042e 98bc dd61 11be 94af 1fbe
000001a0: ff69 7dbd fdb5 7cbb 3f3b b5bc e081 ddbd
000001b0: 4bab bcbd edce 90bd 74c7 56bd 671a d1bc
000001c0: 3080 52bc 02e3 2e3c c39d 6b3d c179 90bd
000001d0: 0090 a73c d5b6 0d39 c8e9 bebd 9da8 aa3d
000001e0: 86ff b1bc d348 6bbc 2625 64bc d3cb 2abb
000001f0: 70f4 a3bd 9a45 d0bd 14bd babc 886e 963d
00000200: 9c41 d13c 0ba3 b73c fa85 dabd 0526 84bd
00000210: 8460 d43d 19aa 79bc c94c 6f3d 0151 78bd
00000220: cde0 cf3d 1b18 653c bae8 813d 42f7 463c
00000230: 78ca b63d c36a d23d a02e d3bc 7872 38bc
00000240: 0948 4f3d 38df 3c3d bb9f d93d 41f9 133d
00000250: b9a6 04bd fb55 9bbd 3771 213d 1641 8fbc
00000260: a93b c43d a4e0 8ebd b5cc 24bb d3fb 31bd
00000270: 978f 1b3d 7e03 22b8 5b34 df3c 67f5 cc3c
00000280: 8bf4 55bd 1a49 913d 9e6e 4a3d 8de0 8bbd
00000290: e9f1 d13d 385f ffbc 4a96 91bd c6ab 0f3d
000002a0: a07a d53b dedd abbd d223 abbc e61d cebc
000002b0: f27c c7bc ab4e 833d c083 b7bd 87ed 94bd
000002c0: 230d 2b3d e425 ee3b 0dbd cdbd 1f8a 053d
000002d0: 441e 0ebd 34e6 b23a c986 8c3c 072a 33bd
000002e0: 03f9 633b 30d8 3a3c 3ae4 0ebd a349 123d
000002f0: 5e54 1238 a28b 833c f5df a73d 27f9 93bd
00000300: dbf3 d1bd 3b8c a53d ccc8 5fbd 8806 ed3c
00000310: dd08 9f3d 0f49 84bd d60f 20bd 4b3f 53bd
00000320: 6d73 7fbd 51de 743d 542d 6d3d 7c9c c4bd
00000330: 1c41 b03b 8aee c8bd b66d a9bd 159d 873d
00000340: ba22 7dbd 00f7 2abd a439 d3bd 1bfc 1dbe
00000350: 338c 0fbe 1cb9 48be 8b27 debd a607 06be
00000360: aea5 f2bd 26d7 2bbe 3a37 b5bd 3f69 35be
00000370: 6cf0 5ebe 22a8 48be ebd7 84be efb5 73be
00000380: 90a5 1bbe baa7 52be f347 cebd 022d 6cbe
00000390: aa6c a4bd 91ba 13be d26b f9bd d8a8 da3d
000003a0: c3ca 0cbe 7ddf 21be 0599 41be 7241 5e3c
000003b0: d7fa f1bc cd5f 313c baae 943d 97d3 b0bc
000003c0: 5cca cbbb 9628 b6bd d91c 74bb 5b0f aebd
000003d0: 1473 d5bd a756 f2bd c8b3 6fbd 8c85 d83c
000003e0: 031f 56bc b554 08bd 756d a8bd ecd8 953c
000003f0: 6d3b 01be 1a72 5ebe 2131 fdbc 7c01 a6bc

fc1.bias f4 [128]
-0.02028526 -0.0605023 -0.25666136 -0.09741602 -0.13212068 -0.03276205 -0.10308421 -0.10548932
-0.04805924 -0.12395826 0.010756156 -0.00098057 -0.03095023 -0.08281584 -0.14708875 -0.16742589
-0.113019675 -0.08266725 -0.06019339 -0.060243126 -0.04525301 0.01052911 0.013819458 -0.20779154
-0.1205735 -0.4229064 -0.068534076 -0.27785978 -0.20740466 -0.047810677 -0.10128336 -0.09658332
-0.0011523591 0.013384084 -0.06251077 -0.04212994 -0.17537561 -0.0036832963 -0.4476357 -0.19072491
-0.08122942 0.016903497 0.008397547 -0.2459984 -0.017022321 -0.14929748 -0.38015854 -0.021258336
-0.076617174 -0.09227954 -0.07788696 -0.087158725 -0.36412552 0.018671283 -0.16109952 -0.1225411
-0.013538137 -0.088403046 0.07855118 -0.17009419 -0.23609026 -0.062925875 -0.13509248 -0.14892182
-0.27934322 -0.19236824 -0.18487106 0.007177903 -0.042418357 -0.07740758 -0.06298341 -0.047722988
0.0010049152 -0.10516293 -0.1544058 -0.11024411 -0.029302612 -0.31133175 -0.1193963 -0.117072456
-0.13890983 0.008287988 -0.48471195 -0.15060025 -0.09359161 -0.013522888 -0.40896118 -0.10040516
-0.009781687 -0.16365165 -0.09068739 -0.12269425 -0.061112553 -0.07899858 -0.097928286 -0.11824775
-0.114591785 -0.15165952 -0.02808422 -0.03869793 -0.22100337 -0.0033564807 -0.059865598 0.016896125
-0.047208752 -0.02855854 -0.4052167 -0.178729 -0.05868624 -0.1079013 -0.15104543 -0.1437872
-0.17129089 0.0018346565 0.011295229 -0.03939972 -0.09795162 -0.008631573 -0.046849385 -0.16471964
-0.23750778 -0.12521523 -0.1311528 -0.06947008 -0.15460081 -0.07332805 -0.08240448 -0.10463285
00000000: 462d a6bc 42d1 77bd 1e69 83be 0d82 c7bd
00000010: a54a 07be 8031 06bd d01d d3bd c90a d8bd
00000020: c4d9 44bd d4dd fdbd 973a 303c 7886 80ba
00000030: 568b fdbc 5a9b a9bd 6f9e 16be b171 2bbe
00000040: dc76 e7bd 724d a9bd 588d 76bd 7fc1 76bd
00000050: 385b 39bd 4a82 2c3c 026b 623c 4ec7 54be
00000060: 3def f6bd 3087 d8be 985b 8cbd a343 8ebe
00000070: e361 54be 21d5 43bd a66d cfbd 7acd c5bd
00000080: c10a 97ba eb48 5b3c a605 80bd 7290 2cbd
00000090: aa95 33be 7563 71bb 8230 e5be 644d 43be
000000a0: 9c5b a6bd 3479 8a3c dd95 093c 01e7 7bbe
000000b0: 6572 8bbc 70e1 18be 24a4 c2be f625 aebc
000000c0: 77e9 9cbd 0efd bcbd 3383 9fbd 4680 b2bd
000000d0: a96e babe 85f4 983c 46f7 24be d4f6 fabd
000000e0: 10cf 5dbc a80c b5bd 71df a03d 2c2d 2ebe
000000f0: a5c1 71be 48df 80bd af55 0abe f67e 18be
00000100: 1306 8fbe 2efc 44be d74e 3dbe 9d34 eb3b
00000110: dfbe 2dbd de87 9ebd 72fd 80bd 2e79 43bd
00000120: 5cb7 833a aa5f d7bd 8e1c 1ebe aac7 e1bd
00000130: 080c f0bc e066 9fbe 0c86 f4bd afc3 efbd
00000140: 613e 0ebe 57ca 073c 2a2c f8be f436 1abe
00000150: f5ac bfbd 1a8f 5dbc 5c63 d1be 38a1 cdbd
00000160: 5e43 20bc 4c94 27be 4fba b9bd 1f47 fbbd
00000170: 2851 7abd 02ca a1bd a08e c8bd e02b f2bd
00000180: 19af eabd a24c 1bbe e110 e6bc b881 1ebd
00000190: b54e 62be 67f8 5bbb a135 75bd be69 8a3c
000001a0: f75d 41bd 99f3 e9bc 9078 cfbe bc04 37be
000001b0: fc60 70bd 5bfb dcbd a7ab 1abe f43c 13be
000001c0: e166 2fbe db78 f03a a00f 393c 9a61 21bd
000001d0: dc9a c8bd 716b 0dbc 24e5 3fbd 44ac 28be
000001e0: 3d35 73be 6c38 00be eb4c 06be 5446 8ebd
000001f0: ad4f 1ebe 042d 96bd aec3 a8bd bf49 d6bd

fc2.weight f4 [64, 128]
0.077073894 0.06310428 -0.021668442 0.046732567 -0.023924604 -0.001456563 0.028121956 -0.056327365
-0.08398207 -0.036636356 0.037386157 -0.03857507 -0.09381311 0.010473847 0.049167857 -0.09339696
-0.053013664 -0.02092687 -0.11236743 -0.035473432 0.06403182 -0.06647803 -0.04451061 -0.10025991
0.06308737 0.18987511 -0.07479593 -0.03474889 0.04968036 -0.07117356 0.0140984105 0.05540231
0.029814703 -0.025977498 0.06487965 -0.11942074 -0.07455936 0.051599257 -0.08190959 -0.13025786
-0.009314232 0.014874242 0.061327495 -0.14028397 0.05635255 -0.013478443 -0.001481924 0.069676004
-0.046564415 0.05739496 -0.08985129 -0.09922075 -0.24588554 -0.0703097 -0.104036026 -0.03820871
-0.06971487 0.037351757 -0.022783563 -0.08957516 -0.02842621 0.0049112486 0.037287366 -0.08986884
-0.4445169 -0.019102119 -0.041999165 -0.031906206 0.029293776 0.061217003 -0.074382484 -0.114272766
-0.079117075 0.051849265 0.08786501 -0.08284572 0.077878274 -0.017504357 0.07031643 0.0019719675
-0.13677838 0.07205514 -0.025142884 -0.045755334 -0.07766926 0.05645784 -0.09460496 -0.002093859
-0.1078567 -0.045820847 0.026719825 -0.004014805 -0.12469491 -0.029190747 -0.07626923 0.003592126
-0.06172526 -0.014550947 -0.10328998 0.0337281 -0.11400511 -0.0750685 0.009052329 -0.0051031485
-0.076400645 -0.084515095 -0.042410627 -0.084429175 -0.038571827 -0.0061115557 0.0041397256 0.05242951
-0.086863026 -0.047829602 0.01801841 -0.01706042 -0.052925903 0.00089681894 -0.048013493 -0.07152189
-0.035844926 -0.013228476 -0.04067098 0.060375296 0.07298235 -0.051043898 0.018608794 0.050561573
-0.06410723 -0.076290734 0.006364197 -0.05515799 -0.018897729 -0.079372324 0.06336909 0.036215156
-0.04353107 -0.030540334 0.07453439 -0.023604477 0.0029702038 0.070098884 0.029162368 -0.123091646
0.03074125 0.041705754 0.08259358 -0.031127466 -0.09287164 -0.06321889 -0.0017962296 -0.03625405
-0.0063009337 -0.114363104 -0.010531485 -0.009170275 0.02904085 0.08373159 -0.0031359023 -0.106744416
0.030425759 0.006858051 0.0006156873 -0.018682903 -0.06375863 0.06955177 -0.16236308 0.058946267
0.06698046 0.029609807 0.05172299 -0.19776641 -0.01209078 0.01734142 -0.5256555 -0.030836828
0.012198443 0.026575066 -0.036215868 0.03944571 0.09814221 0.027249262 0.040305022 -0.012385775
0.04390428 0.023372153 0.048611425 -0.039046656 -0.06852799 -0.0914916 0.07079086 -0.06770523
-0.14099653 -0.021514252 0.027154427 -0.10783574 0.10990646 0.06934414 -0.02730071 -0.078289255
-0.009942595 -0.011986165 0.06346128 -0.098589465 0.010141084 -0.030877452 -0.050795 0.00071395934
-0.08847655 -0.05024068 -0.4235981 -0.069191515 0.044684343 -0.082859665 -0.5822045 -0.08501164
-0.028161438 -0.06435029 0.017335556 0.019650992 0.03396127 0.06585168 -0.06768229 0.06097736
-0.015632361 0.01917391 -0.054060813 -0.10635838 0.06860334 -0.061448846 -0.06120938 0.07111045
0.042324632 -0.09996863 -0.5567028 0.012833315 -0.0008876191 0.018693004 0.014107011 -0.005234145
0.01607264 0.08104793 -0.07320118 -0.00520247 -0.0688642 0.008466438 0.04857577 0.06359433
-0.09804229 -0.038291667 0.063417576 0.06903676 -0.009763025 0.030547038 0.045454107 0.007545155
00000000: ebd8 9d3d d13c 813d 0482 b1bc a66a 3f3d
00000010: 88fd c3bc 25ea beba 0460 e63c 86b7 66bd
00000020: cbfe abbd 0110 16bd 3a22 193d e500 1ebd
00000030: 1621 c0bd 809a 2b3c 3c64 493d e846 bfbd
00000040: db24 59bd d46e abbc e520 e6bd 974c 11bd
00000050: 1d23 833d a225 88bd c250 36bd 1155 cdbd
00000060: f333 813d 9f6e 423e 9c2e 99bd da54 0ebd
00000070: a27d 4b3d 72c3 91bd 05fd 663c 88ed 623d
00000080: f73d f43c c3ce d4bc 9fdf 843d dc92 f4bd
00000090: 94b2 98bd be59 533d 37c0 a7bd 5162 05be
000000a0: b89a 18bc 18b3 733c 8a32 7b3d 9aa6 0fbe
000000b0: eed1 663d b0d4 5cbc 1e3d c2ba 4bb2 8e3d
000000c0: 54ba 3ebd fa16 6b3d f403 b8bd 4034 cbbd
000000d0: 6bc9 7bbe 88fe 8fbd d710 d5bd bc80 1cbd
000000e0: abc6 8ebd 28fe 183d 98a4 babc 2e73 b7bd
000000f0: 15de e8bc 8aee a03b a3ba 183d 280d b8bd
00000100: b897 e3be 0c7c 9cbc 5107 2cbd 15b0 02bd
00000110: 80f9 ef3c aebe 7a3d d855 98bd d707 eabd
00000120: 2208 a2bd e55f 543d 92f2 b33d 04ab a9bd
00000130: a57e 9f3d 4c65 8fbc 0f02 903d 203c 013b
00000140: a20f 0cbe a591 933d 73f8 cdbc f269 3bbd
00000150: 1011 9fbd 5640 673d 3fc0 c1bd 2039 09bb
00000160: f9e3 dcbd a4ae 3bbd 89e3 da3c a08e 83bb
00000170: 0c60 ffbd 6f21 efbc 0b33 9cbd e069 6b3b
00000180: a0d3 7cbd 1867 6ebc b289 d3bd 7a26 0a3d
00000190: 837b e9bd 84bd 99bd 3850 143c 5038 a7bb
000001a0: f177 9cbd 4016 adbd c4b6 2dbd 34e9 acbd
000001b0: 7efd 1dbd 7243 c8bb 89a6 873b 53c0 563d
000001c0: 3ee5 b1bd f9e8 43bd 589b 933c 4bc2 8bbc
000001d0: d5c8 58bd 8018 6b3a cca9 44bd 127a 92bd
000001e0: 21d2 12bd 40bc 58bc 9d96 26bd 164c 773d
000001f0: c577 953d 6813 51bd 7871 983c a719 4f3d
00000200: a74a 83bd 513e 9cbd c18a d03b 58ed 61bd
00000210: 69cf 9abc f58d a2bd a7c7 813d 5856 143d
00000220: a34d 32bd b92f fabc 7ca5 983d 2d5e c1bc
00000230: c0a7 423b 0190 8f3d ebe5 ee3c 7917 fcbd
00000240: 13d5 fb3c a7d3 2a3d d326 a93d 07ff febc
00000250: 7d33 bebd e878 81bd 776f ebba 207f 14bd
00000260: 1078 cebb 3437 eabd 408c 2cbc ec3e 16bc
00000270: 14e7 ed3c 787b ab3d b683 4dbb d19c dabd
00000280: 713f f93c 80b9 e03b 1366 213a e30c 99bc
00000290: e293 82bd 2971 8e3d 8242 26be a471 713d
000002a0: 0d2d 893d 4490 f23c 7cdb 533d 4783 4abe
000002b0: 6818 46bc 980f 8e3c 5c91 06bf 849d fcbc
000002c0: fadb 473c f4b3 d93c 1757 14bd d391 213d
000002d0: c8fe c83d d839 df3c e116 253d b5ed 4abc
000002e0: f9d4 333d f576 bf3c c61c 473d 63ef 1fbd
000002f0: 6758 8cbd f35f bbbd ccfa 903d 0aa9 8abd
00000300: 6561 10be a83e b0bc f672 de3c fcd8 dcbd
00000310: a316 e13d 4d04 8e3d bda5 dfbc 1e56 a0bd
00000320: 44e6 22bc 9f61 44bc fdf7 813d 46e9 c9bd
00000330: ca26 263c b6f2 fcbc 6b0e 50bd 0029 3b3a
00000340: 3233 b5bd 2cc9 4dbd dae1 d8be 48b4 8dbd
00000350: ee06 373d 54b2 a9bd 5b0b 15bf 951a aebd
00000360: d1b2 e6bc 16ca 83bd 4c03 8e3c 1efb a03c
00000370: f91a 0b3d 3fdd 863d 039d 8abd 65c3 793d
00000380: 700f 80bc 9b12 9d3c df6e 5dbd 6cd2 d9bd
00000390: e87f 8c3d c9b1 7bbd b0b6 7abd 5ba2 913d
000003a0: 985c 2d3d 5abc ccbd 1384 0ebf d342 523c
000003b0: 1caf 68ba 1222 993c 1821 673c 3183 abbb
000003c0: c5aa 833c 75fc a53d 80ea 95bd 7b79 aabb
000003d0: ac08 8dbd d1b6 0a3c 63f7 463d be3d 823d
000003e0: 65ca c8bd b9d7 1cbd 13e1 813d 2563 8d3d
000003f0: 18f5 1fbc c83d fa3c 162e 3a3d 593d f73b

fc2.bias f4 [64]
-0.19752249 3.1850193 -0.28389254 -0.2798824 -0.3354191 -0.240894 3.10303 3.8906047
-0.15175088 -0.2525122 -0.31583756 -0.18326436 -0.021842187 -0.22315188 -0.20644608 -0.3242258
-0.010114266 -0.28782737 -0.012999646 1.4353591 -0.28645226 -0.35335672 -0.20481655 -0.46524486
-0.29552206 -0.17969553 -0.22770448 -0.17749664 -0.641872 -0.27433202 -0.12602457 -0.05590675
-0.018570995 -0.0013783321 -0.07511103 -0.2919043 -0.32037655 -0.26087502 -0.17375106 -0.19022845
-0.46749035 1.844634 -0.1584284 4.3362246 -0.38205367 -0.42910275 -0.40221295 -0.1700901
-0.25224653 -0.13530259 -0.05720908 -0.3678291 -0.0361488 -0.6396406 -0.20659584 -0.15889803
-0.15390483 -0.3180471 -0.3149794 -0.008264309 -0.23312736 -0.25834432 -0.23993652 -0.14953923
00000000: 5643 4abe 5bd7 4b40 5d5a 91be bf4c 8fbe
00000010: 0dbc abbe ebac 76be 0b98 4640 abff 7840
00000020: 9564 1bbe 4749 81be 76b5 a1be a7a9 3bbe
00000030: 63ee b2bc ed81 64be 9a66 53be ed00 a6be
00000040: 4eb6 25bc 1c5e 93be 78fc 54bc d9b9 b73f
00000050: dfa9 92be 2ceb b4be 6ebb 51be 9334 eebe
00000060: ab4e 97be 1b02 38be 5d2b 69be aec1 35be
00000070: b951 24bf 3f75 8cbe 960c 01be 7afe 64bd
00000080: 3322 98bc 27a9 b4ba d0d3 99bd 7b74 95be
00000090: 6508 a4be 6991 85be cceb 31be 3fcb 42be
000000a0: e55a efbe f81c ec3f 0e3b 22be 5ac2 8a40
000000b0: 8a9c c3be 5bb3 dbbe dbee cdbe 192c 2ebe
000000c0: 7526 81be c38c 0abe 1154 6abd 1954 bcbe
000000d0: c410 14bd 7dbf 23bf dc8d 53be 2ab6 22be
000000e0: 3a99 1dbe 12d7 a2be fb44 a1be 0667 07bc
000000f0: f0b8 6ebe b545 84be ebb1 75be d020 19be

fc3.weight f4 [3, 64]
-0.048143413 -0.28545964 -0.08878707 -0.0014432382 -0.05176058 0.95540994 -1.192211 -1.0058839
-0.052470215 -0.03901887 0.037912127 -0.026800156 -0.0140755335 -0.039861254 1.0349637 0.0049276496
-0.1398245 0.01987159 0.3086506 0.66331583 0.016446678 1.0926077 1.1622864 1.1182468
0.010545568 0.0029792627 0.016240457 -0.030727638 1.3084275 -0.011608334 -0.048742387 -0.10344171
0.032596063 -0.04533498 -0.004962692 -0.13263014 0.012220087 1.0578871 -0.024277467 -0.022444854
1.1075355 0.85679406 1.105655 1.0796939 0.089114435 1.1006603 -0.05365601 0.006553381
-0.03053984 -0.010604679 -0.108608864 0.038868964 -0.15062374 0.19665876 1.2363415 0.2384858
-0.0029932442 0.56369555 0.9728722 -0.11974852 0.042227753 0.059164103 0.19020233 0.010425621
-0.00059341424 0.5101054 -0.0637366 0.35240847 0.009243403 0.95107114 -1.2022716 -1.4555409
-0.0043098764 -0.012333776 0.03971279 0.035716407 -0.091116235 0.018150955 0.99275774 -0.08860174
-0.22978564 -0.07031397 0.07977101 0.92024785 0.01990057 1.0959783 1.1811509 0.9835041
-0.06458774 -0.01778469 0.031699155 -0.027733004 1.0053859 0.015161486 -0.06766947 -0.0308847
-0.049400415 -0.094352074 0.04286572 0.024880368 0.013324957 1.0132264 -0.026484719 -0.08158235
1.0452479 0.9110305 1.0486639 0.74143267 0.116126485 0.9760074 -0.0045048515 -0.08670069
0.020791916 -0.03789528 -0.16208918 0.15168071 0.0752249 0.3470077 1.1756759 0.19848268
0.055040542 0.8210908 0.8377555 -0.04680596 -0.022506913 0.050156802 -0.0852142 0.030869544
-0.22544944 0.2948768 -0.022280375 0.40227383 -0.09787291 0.89513373 -1.3851746 -1.549133
-0.060916122 -0.07025239 -0.051230874 -0.029032288 -0.0535902 0.0012539807 1.0067096 0.03902191
-0.42447352 -0.001714533 0.22634813 1.4709522 0.037959617 1.0294785 1.0980837 1.0614603
-0.038046114 -0.073849134 -0.07479625 -0.1285346 1.2166387 -0.013918367 -0.06069481 -0.122530594
-0.11868581 -0.07230915 -0.040585604 -0.059962954 -0.038921956 0.972239 0.01212903 -0.05795882
1.1008694 1.2526431 1.048233 0.7510032 0.01730667 0.9433256 -0.070799984 -0.0057947887
-0.09414029 -0.04093593 -0.03577652 0.061221816 0.095811695 0.32046214 1.1741515 0.5412051
0.033916455 0.4639566 0.97975963 -0.09148711 0.008040861 0.06577583 0.058577612 -0.1199122
00000000: 0732 45bd c427 92be ffd5 b5bd 0a2b bdba
00000010: e702 54bd bf95 743f 5f9a 98bf cec0 80bf
00000020: 02eb 56bd 40d2 1fbd bf49 1b3d 008c dbbc
00000030: 119d 66bc 8e45 23bd b179 843f 1f78 a13b
00000040: 272e 0fbe bfc9 a23c 7407 9e3e 11cf 293f
00000050: 2fbb 863c 92da 8b3f cdc5 943f b622 8f3f
00000060: 51c7 2c3c bc3f 433b b50a 853c 87b8 fbbc
00000070: 8d7a a73f e230 3ebc 19a6 47bd 3fd9 d3bd
00000080: 7383 053d 2cb1 39bd 149e a2bb 32d0 07be
00000090: c336 483c d868 873f 8ae1 c6bc 45de b7bc
000000a0: b9c3 8d3f db56 5b3f 1a86 8d3f 6933 8a3f
000000b0: a181 b63d 70e2 8c3f 68c6 5bbd bfbd d63b
000000c0: b02e fabc 3fbf 2dbc 536e debd 1035 1f3d
000000d0: 1c3d 1abe ea60 493e 7040 9e3f 9f35 743e
000000e0: 4e2a 44bb 5a4e 103f 270e 793f b63e f5bd
000000f0: 02f7 2c3d 0f56 723d 66c4 423e 39d0 2a3c
00000100: 5b8f 1bba 4496 023f 5688 82bd e26e b43e
00000110: a471 173c 6679 733f 09e4 99bf 2a4f babf
00000120: dd39 8dbb 9b13 4abc e1a9 223d 5e4b 123d
00000130: 269b babd 50b1 943c 5f25 7e3f d474 b5bd
00000140: ed4c 6bbe c500 90bd fc5e a33d 5d95 6b3f
00000150: 8506 a33c 0449 8c3f f42f 973f edc6 7b3f
00000160: 9446 84bd 33b1 91bc f9d6 013d 5330 e3bc
00000170: 7cb0 803f e267 783c 4b96 8abd e901 fdbc
00000180: 1758 4abd a93b c1bd f793 2f3d ead1 cb3c
00000190: ec50 5a3c 67b1 813f 7bf6 d8bc a614 a7bd
000001a0: afca 853f 4b39 693f 9e3a 863f 88ce 3d3f
000001b0: b9d3 ed3d 9fdb 793f 6f9d 93bb 2290 b1bd
000001c0: cf53 aa3c 1538 1bbd b5fa 25be 3052 1b3e
000001d0: 830f 9a3d feaa b13e 8c7c 963f 0b3f 4b3e
000001e0: 3172 613d 0233 523f 2577 563f 9bb7 3fbd
000001f0: 6b60 b8bc 3871 4d3d c884 aebd 20e2 fc3c
00000200: 38dc 66be 18fa 963e 5585 b6bc d6f6 cd3e
00000210: 9871 c8bd 7c27 653f 674d b1bf fd49 c6bf
00000220: 2f83 79bd 7ce0 8fbd 77d7 51bd 1fd5 edbc
00000230: 6681 5bbd 9c5c a43a dcdb 803f 70d5 1f3d
00000240: 9854 d9be 2eba e0ba cec7 673e 2948 bc3f
00000250: 8b7b 1b3d f4c5 833f 028e 8c3f eedd 873f
00000260: 3ed6 1bbd 373e 97bd c72e 99bd 939e 03be
00000270: d1ba 9b3f dd09 64bc 1f9b 78bd 52f1 fabd
00000280: 8c11 f3bd d216 94bd 173d 26bd b79b 75bd
00000290: a16c 1fbd a8e4 783f d7b8 463c 3a66 6dbd
000002a0: 4ae9 8c3f 9c56 a03f 802c 863f bf41 403f
000002b0: b8c6 8d3c c97d 713f 95ff 90bd 36e2 bdbb
000002c0: a0cc c0bd 6fac 27bd 668a 12bd bac3 7a3d
000002d0: ec38 c43d 9d13 a43e 994a 963f 6b8c 0a3f
000002e0: fbeb 0a3d b88b ed3e 87d1 7a3f 985d bbbd
000002f0: d1bd 033c 7ab5 863d 14ef 6f3d 8794 f5bd

fc3.bias f4 [3]
-0.52491486 -0.8235014 -0.4775309
00000000: d260 06bf fdd0 52bf ee7e f4be
