Models/DQN/agentDQN_2008-2009_dqn_v1_200_EPS_7.pth (torch, 90039 bytes, 6 tensors)

fc1.weight f4 [128, 104]
0	0x3b91c6e2	0.0044487575
1	0xbc9eb212	-0.01937202
2	0xbe20cb4b	-0.1570255
3	0xbe0d25d2	-0.13783959
4	0xbe03599e	-0.12827155
5	0xbd6ba7ce	-0.057533078
6	0xbdc58524	-0.09644535
7	0x3cb8b14f	0.022545485
8	0xbdb0f2dd	-0.086400725
9	0xbd9dd21e	-0.07706092
10	0x3d5416a5	0.051779408
11	0xbdba93d9	-0.09110231
12	0xbe1926cd	-0.14956208
13	0x3c1caf9a	0.009563351
14	0xbd9c75bd	-0.07639644
15	0x3c7a6547	0.015282935
16	0xbe018ff4	-0.1265257
17	0xbe250c4d	-0.16117974
18	0x3c6859f0	0.014181599
19	0x3c6b9441	0.014378608
20	0xbcfbcfad	-0.030738676
21	0xbd2a313f	-0.04155087
22	0x3c94f946	0.01818527
23	0xbc8eba65	-0.017422864
24	0xbd395502	-0.045247085
25	0xbc8ee055	-0.017440954
26	0xbd5952bb	-0.053057414
27	0x3d222b93	0.039592337
28	0x3c2394fa	0.009984249
29	0x3b47cdee	0.0030487734
30	0xbda9aeb1	-0.08285273
31	0xbd58eb57	-0.052958813
32	0xbcdced77	-0.0269687
33	0xbdeeb1db	-0.11655017
34	0x3e07f368	0.13276446
35	0x3df351d8	0.11880845
36	0x3d9869b3	0.074420355
37	0xbbbcdf6d	-0.005763939
38	0xbd198ccf	-0.0374878
39	0x3d944810	0.07240307
40	0x3dc0a54e	0.09406529
41	0xbcbc1b2c	-0.022962175
42	0xbdf7964d	-0.120892145
43	0xbc7642aa	-0.015030542
44	0xbdd89fbd	-0.10577343
45	0xbd7f81ba	-0.062379576
46	0xbcc601bc	-0.024170749
47	0xbd95314e	-0.07284795
48	0xbd8ab710	-0.06773198
49	0x3ca46b20	0.020070612
50	0xbdb0bd81	-0.08629895
51	0xbd94410e	-0.07238971
52	0x3c85d154	0.016335167
53	0x3d609aea	0.054835238
54	0x3c97d7e8	0.01853557
55	0xbdcb4752	-0.09925713
56	0xbd5cabb8	-0.0538747
57	0x3d16264b	0.036657613
58	0xbdb76dd8	-0.08956498
59	0xbc98d82b	-0.018657764
60	0xbc12a2e9	-0.008949974
61	0x3c9931eb	0.01870056
62	0xbd032b4d	-0.032023717
63	0x3a3e1fc8	0.00072526606
64	0x3db2b68a	0.08726223
65	0x3e0fdd45	0.14049251
66	0xbd052f18	-0.032515615
67	0xbe165df5	-0.1468428
68	0xbcba3089	-0.022728221
69	0xbdb7415d	-0.08948014
70	0xbdda1200	-0.106479645
71	0xbcc56a61	-0.024098577
72	0xbe280809	-0.16409315
73	0xbe009061	-0.12555076
74	0xbdf15543	-0.117838405
75	0xbdd22eac	-0.10262808
76	0xbdd936f2	-0.10606183
77	0xbd555af3	-0.05208869
78	0xbd1df87f	-0.038567062
79	0xbe04e3c9	-0.12977518
80	0xbb806190	-0.0039178804
81	0xbe063259	-0.13105144
82	0xbe046480	-0.12928963
83	0xbc46cc54	-0.012133677
84	0xbe01f0f9	-0.1268958
85	0xbc1f6c76	-0.009730449
86	0xbd681a90	-0.056665957
87	0x3cb3c2cf	0.021943478
88	0x3cf75c6b	0.030195436
89	0xbd251a48	-0.040308267
90	0xbd9967d0	-0.07490504
91	0xbdd48d81	-0.10378552
92	0xbda79d33	-0.0818428
93	0x3c76caf1	0.015063033
94	0xbd812903	-0.063066505
95	0xbd38d6d0	-0.045126736
96	0x3cb103fd	0.021608347
97	0xbb6cde1b	-0.0036143127
98	0x3d342568	0.043980986
99	0xbd071d99	-0.03298721
100	0xbd65191e	-0.055932157
101	0xbdc13d60	-0.094355345
102	0xbdcd1700	-0.100141525
103	0xbddb266b	-0.10700687
104	0x3bd2b9e2	0.0064308504
105	0xbc3113b8	-0.010807924
106	0xbe9cdb96	-0.3063628
107	0xbe518b41	-0.20463277
108	0xbe17914f	-0.14801525
109	0xbe6639e0	-0.22483015
110	0xbea6be38	-0.32567
111	0xbe4eb23c	-0.20185179
112	0xbe90ea56	-0.28303784
113	0xbe979630	-0.2960677
114	0xbdca7487	-0.09885507
115	0xbe0a4461	-0.13502647
116	0xbe0baf24	-0.1364103
117	0xbea533a7	-0.3226597
118	0xbd8ff45d	-0.070290305
119	0xbe1a1558	-0.15047204
120	0xbe8bd48e	-0.27310604
121	0xbe89644b	-0.2683433
122	0xbe0757f2	-0.13217142
123	0xbe758d8f	-0.23979782
124	0xbe05f0af	-0.13080095
125	0xbea6c576	-0.32572526
126	0xbe529899	-0.20566024
127	0x3d61d6c7	0.05513647
128	0xbe990171	-0.29883912
129	0xbe7643d2	-0.24049309
130	0x3e849608	0.25895715
131	0xbda942bc	-0.08264682
132	0x3e2edc7d	0.17076297
133	0x3d321517	0.043477144
134	0x3f2798de	0.6546763
135	0x3e82c7df	0.25543115
136	0x3e836413	0.25662288
137	0x3e9d803e	0.30761904
138	0x3e659452	0.22419861
139	0xbd8248a3	-0.063615106
140	0xbdd3fbf5	-0.10350791
141	0x3d76a833	0.060219
142	0xbe15f61e	-0.14644668
143	0x3dc19d57	0.09453838
144	0xbc199c9e	-0.009375719
145	0xbde01481	-0.10941411
146	0xbdb9def3	-0.09075727
147	0xbcc537db	-0.024074486
148	0xbc2fd8db	-0.010732855
149	0xbe264623	-0.16237693
150	0x3e05c99a	0.13065186
151	0xbe9aec05	-0.30258194
152	0x3de49907	0.11162
153	0x3dedc483	0.11609747
154	0xbe15e627	-0.14638577
155	0xbe9db04b	-0.30798563
156	0xbe3fe378	-0.18739116
157	0xbe7c0ae1	-0.24613525
158	0x3d1480d8	0.036255687
159	0xbe197825	-0.14987238
160	0xbe2f59aa	-0.17124048
161	0xb92f67ac	-0.00016727921
162	0xbe58504a	-0.21124378
163	0x3d22c813	0.039741587
164	0xbd7ae814	-0.061256483
165	0xbde8bf95	-0.113646664
166	0xbde3c49c	-0.11121485
167	0x3e1ddc01	0.15415956
168	0xbd894d09	-0.067041464
169	0x3e70ae18	0.23503911
170	0xbe3b1445	-0.18269451
171	0xbe1f7ccb	-0.15574948
172	0xbe408720	-0.18801546
173	0xbe821f63	-0.2541457
174	0xbe54e697	-0.20791088
175	0xbe9e83e3	-0.30959997
176	0xbe14653d	-0.14491744
177	0xbdda3a7b	-0.106556855
178	0xbe5c0b46	-0.21488675
179	0xbe4ecace	-0.20194551
180	0xbe9eaaac	-0.30989587
181	0xbe950a75	-0.2910954
182	0xbe8409af	-0.25788638
183	0xbe67c5fb	-0.22634117
184	0xbe8855a4	-0.2662784
185	0xbe9d0cdc	-0.30673873
186	0xbe1be227	-0.15222989
187	0xbe4f39df	-0.2023692
188	0xbd8034f0	-0.06260097
189	0xbe8abba7	-0.27096292
190	0xbe9afba7	-0.3027012
191	0xbe6f5cf0	-0.23375297
192	0xbde6b1da	-0.11264391
193	0xbe518a9f	-0.20463036
194	0xbe15f6ea	-0.14644971
195	0xbea4bac0	-0.3217373
196	0xbdd6b604	-0.104839355
197	0xbe9737e2	-0.29534823
198	0xbd908f61	-0.07058597
199	0xbe5cf356	-0.215772
200	0xbde8dd34	-0.11370316
201	0xbe36cafa	-0.17850867
202	0xbe106e3e	-0.14104554
203	0xbe2c8546	-0.16847715
204	0xbe8b6b80	-0.27230453
205	0xbdc18d6d	-0.09450803
206	0xbd88593e	-0.066576466
207	0xbea4b9e8	-0.32173085
208	0xbd24a8c4	-0.04020001
209	0xbcc5f31a	-0.024163771
210	0xbdd7b7e0	-0.10533118
211	0xbdc53cac	-0.09630713
212	0xbe3f952f	-0.18709253
213	0xbe0eccfe	-0.13945386
214	0xbdd605c5	-0.10450319
215	0xbe5a431d	-0.21314664
216	0xbdc99e59	-0.098446555
217	0xbd80b61f	-0.06284737
218	0xbd6eb558	-0.05827841
219	0xbe0b46ed	-0.13601275
220	0xbcda13b7	-0.026620729
221	0xbd9f6c02	-0.07784273
222	0xbe0b5729	-0.13607468
223	0xbdc5c23c	-0.09656188
224	0xbe2a6570	-0.16640258
225	0xbe274c84	-0.16337782
226	0xbda53107	-0.08065992
227	0xbbdfdf9e	-0.006832077
228	0xbc96d46d	-0.01841184
229	0xbc9dd04d	-0.019264365
230	0xbe257db5	-0.16161235
231	0xbd825371	-0.063635714
232	0xbdd5cfee	-0.1044005
233	0xbdaec567	-0.08533745
234	0x3e09d56d	0.13460322
235	0xbc106b69	-0.008814671
236	0x3d0555b1	0.032552425
237	0x3e054bde	0.13017222
238	0x3df9b84a	0.121933535
239	0xba03bd99	-0.00050255057
240	0x3d675146	0.056473993
241	0x3dabe291	0.083928235
242	0xbd0b6449	-0.034031186
243	0xbda0317a	-0.07821937
244	0xbda55c27	-0.08074217
245	0x3d41a0f3	0.047272634
246	0xbc930dc3	-0.017950898
247	0xbcc76d43	-0.024344092
248	0xbc7f937a	-0.015599126
249	0xbe02ac29	-0.12760986
250	0x3e22a04f	0.15881465
251	0xbe196d3d	-0.14983077
252	0x3dcc10db	0.099641524
253	0xbe11d6af	-0.14242052
254	0xbcea3733	-0.028590774
255	0xbda00434	-0.07813302

fc1.bias f4 [128]
0	0xbdc99660	-0.09843135
1	0xbe97523a	-0.2955492
2	0xbdff55c1	-0.12467528
3	0xbe61228c	-0.21985835
4	0xbdfc61de	-0.12323354
5	0xbce61ac1	-0.02808893
6	0xbd8e7c68	-0.06957322
7	0xbd8007b2	-0.06251468
8	0xbe1a3448	-0.15059006
9	0xbcf0704c	-0.029350422
10	0xbe75efd8	-0.24017274
11	0xbea3c603	-0.31987008
12	0xbbd2fc24	-0.006438749
13	0xbe4e1ae1	-0.20127441
14	0xbda52a15	-0.08064667
15	0xbdbd3fb1	-0.09240664
16	0xbd9ee6dc	-0.07758877
17	0xbe1380cb	-0.144046
18	0xbc8d62f8	-0.017259106
19	0xbe60247c	-0.21888918
20	0xbec5612c	-0.385507
21	0xbe15339e	-0.14570472
22	0xbe51d523	-0.20491461
23	0xbdb18074	-0.086670786
24	0xbd1637c2	-0.03667427
25	0xbe1b9080	-0.15191841
26	0xbdcb89fc	-0.09938428
27	0xbe785b6a	-0.24253622
28	0xbe254506	-0.16139612
29	0xbcbbc3a2	-0.022920433
30	0xbee2c700	-0.4429245
31	0xbd75b5e9	-0.059987936
32	0xbc8593bb	-0.016305795
33	0xbe0951cb	-0.13410108
34	0xbd80a4a8	-0.06281406
35	0xbebf160f	-0.37321517
36	0xbc8337e1	-0.016017856
37	0xbdbd7ee9	-0.09252722
38	0xbd2155cf	-0.039388474
39	0xbcc6552a	-0.024210531
40	0xbdbef42c	-0.09323916
41	0xbda5a934	-0.080889136
42	0xbd2b1a49	-0.041773114
43	0xbead3554	-0.3382975
44	0xbd931b93	-0.07182994
45	0xbdec26ab	-0.11530813
46	0xbc157acd	-0.009123516
47	0xbdf5b92c	-0.11998209
48	0xbd362e36	-0.044477664
49	0xbe27b9bf	-0.1637945
50	0xbe2702c7	-0.16309653
51	0xbe1b8e9b	-0.15191118
52	0xbd7e4632	-0.062078662
53	0xbd5b9eca	-0.05361823
54	0xbdedf0fb	-0.11618229
55	0xbd38bf57	-0.04510435
56	0xbe118b9f	-0.14213417
57	0xbe1170e1	-0.14203216
58	0xbd5614bf	-0.05226588
59	0xbdafbc6e	-0.08580862
60	0xbdf9a39b	-0.121894084
61	0xbe50ff8a	-0.2040998
62	0xbdec11a6	-0.11526804
63	0xbd992962	-0.07478596
64	0xbdc8c011	-0.09802259
65	0xbc5df8c6	-0.013548082
66	0xbdcde092	-0.10052599
67	0xbbf0132b	-0.0073265037
68	0xbc8e21b2	-0.017350052
69	0xbd05b6d8	-0.032645077
70	0xbcff099a	-0.031132508
71	0xbe5d5ac7	-0.2161666
72	0xbe20e398	-0.1571182
73	0x3cabb31a	0.020959426
74	0x3c1e6467	0.0096674925
75	0xbe0b6c1d	-0.1361546
76	0x3ced0c79	0.028936611
77	0xbd2004ba	-0.039067008
78	0xbdc4d11c	-0.09610197
79	0xbe979be3	-0.2961112
80	0xbe2d8ba7	-0.16947804
81	0xbe3a8151	-0.18213393
82	0xbe426818	-0.18985021
83	0x3d431550	0.047627747
84	0xbb8dfe50	-0.004333295
85	0xbe29745c	-0.16548294
86	0xbe7d67b9	-0.24746598
87	0x3ae14e37	0.0017189448
88	0xbdd75918	-0.1051504
89	0xbd93d872	-0.07219018
90	0xbe4db74e	-0.20089456
91	0xbde844c4	-0.11341241
92	0xbecd3026	-0.40075797
93	0xbe5cb3f4	-0.21553022
94	0xbe440154	-0.19141132
95	0xbe908c53	-0.2823206
96	0x3bd38fdb	0.006456358
97	0xbe77089d	-0.2412438
98	0xbd57a507	-0.052647617
99	0xbe539e4d	-0.20665856
100	0xbcb5234d	-0.02211156
101	0xbec98b01	-0.39363864
102	0xbd87c56f	-0.06629454
103	0x3c34a338	0.0110252425
104	0x3c829c2f	0.015943615
105	0xbe051f60	-0.1300025
106	0xbe0e9844	-0.13925272
107	0xbc057256	-0.008144936
108	0xbe5e782f	-0.21725534
109	0xbdfb5d9d	-0.12273715
110	0xbde1a8f4	-0.110185534
111	0xbe05db04	-0.13071829
112	0xbdef9d26	-0.116998956
113	0xbebd63ea	-0.3699029
114	0xbe46e267	-0.19422303
115	0xbde963df	-0.11396002
116	0xbd0e228f	-0.034700926
117	0xbd62ad19	-0.05534086
118	0xbd79640f	-0.06088644
119	0x3c2d6eeb	0.010585527
120	0xbe25ea53	-0.16202669
121	0xbde2f426	-0.11081724
122	0xbe007b6f	-0.12547086
123	0xbd537592	-0.051625796
124	0xbd3557b9	-0.044273112
125	0xbdb5706b	-0.08859333
126	0xbe49a285	-0.19690903
127	0xbe5e1628	-0.2168814

fc2.weight f4 [64, 128]
0	0xbc39c7a1	-0.011339099
1	0x3d6eccde	0.058300845
2	0xbc2ced28	-0.010554589
3	0xbcc67c9e	-0.024229344
4	0xbd588070	-0.052856863
5	0x3d064566	0.032781027
6	0xbd8d7a86	-0.06908135
7	0x3dc9496c	0.09828457
8	0x3cd9cf27	0.026588036
9	0xbdb8e2ee	-0.090276584
10	0x3cba58f2	0.02274749
11	0x3e3daa7b	0.18522064
12	0xbd817ad0	-0.06322253
13	0x3d158f1e	0.03651344
14	0xbcb774e3	-0.022394603
15	0x3d1c0d32	0.03809852
16	0xbcaefa45	-0.021359572
17	0x3d052004	0.032501236
18	0x3d44cf25	0.04804911
19	0xbb4f6196	-0.003164386
20	0x3e8d6dcb	0.27622828
21	0x3da523a8	0.080634415
22	0xbd1afbec	-0.037837908
23	0x3c963dd1	0.018340023
24	0xbda302e4	-0.07959536
25	0x3c330d07	0.010928399
26	0x3d5bae2a	0.053632893
27	0x3d9317ed	0.07182298
28	0xbc421cd2	-0.011847692
29	0xbd2a5943	-0.041589033
30	0x3d42e7ae	0.04758423
31	0x3dc08565	0.09400443
32	0xbdc50177	-0.0961942
33	0x3dde08ac	0.10841498
34	0xbc7726c7	-0.015084929
35	0xbceeb806	-0.029140484
36	0xbcd6d205	-0.026223192
37	0xbdaf6546	-0.08564238
38	0x3c536c88	0.012904294
39	0x3d8f6e03	0.07003405
40	0x3dd629f8	0.10457224
41	0x3cca0560	0.024660766
42	0xbb9e4f70	-0.004831247
43	0xbd823839	-0.0635838
44	0x3cf0774e	0.029353764
45	0xbc449e98	-0.012000702
46	0x3d8a591b	0.06755277
47	0x3d79b4ef	0.060963567
48	0x3dd824d9	0.10553903
49	0x3d93b101	0.07211495
50	0x3d4cc4c9	0.049992356
51	0x3c8b04a2	0.016969983
52	0xbc56470d	-0.013078463
53	0xbbd4630a	-0.006481533
54	0x3c85e391	0.016343864
55	0xbd6aef74	-0.057357267
56	0x3d35c651	0.044378582
57	0xbc573a8b	-0.013136516
58	0x3c81acd1	0.015829476
59	0x3ce9095d	0.028446848
60	0xbd006c44	-0.03135325
61	0xbca30244	-0.019898541
62	0x3c90ee7a	0.01769184
63	0x3d95adc1	0.073085316
64	0x3d518124	0.05114855
65	0x3cbfc5d2	0.023409758
66	0xbd63a0f0	-0.055573404
67	0xbbf71c70	-0.007541232
68	0x3e17b23b	0.14814083
69	0xbdb96729	-0.09052879
70	0x3dc8dae2	0.098073736
71	0xbd316e62	-0.04331816
72	0x3d60bcb7	0.054867472
73	0x3cf7d47e	0.030252691
74	0xbd87849e	-0.066170916
75	0x3b57d5dd	0.003293387
76	0xbb3cae27	-0.0028790326
77	0xbc6992d4	-0.014256198
78	0xbc8658ad	-0.016399706
79	0xbd40364e	-0.04692679
80	0xbe11e632	-0.14247969
81	0x3de0446b	0.1095055
82	0xbd1d011e	-0.038331144
83	0x3c3da924	0.011575971
84	0xbd09cf44	-0.03364493
85	0x3dd7e5d9	0.10541887
86	0x3c09d1c4	0.008411828
87	0x3dc338f8	0.0953235
88	0x3bf3d3e7	0.007441032
89	0xbcaeca59	-0.021336721
90	0xbdf1458b	-0.117808424
91	0xbd8ab611	-0.06773008
92	0x3dfc3ebe	0.123166546
93	0xbcf6d964	-0.030132957
94	0xbd07f0ca	-0.03318862
95	0xbd1abecf	-0.037779626
96	0xbd0294f3	-0.03188033
97	0x3d175bd1	0.036952797
98	0x3d2bb8b1	0.041924182
99	0xbd22cdd7	-0.039747085
100	0xb806dc1a	-3.2153075e-05
101	0x3da895a4	0.08231667
102	0xbc78dffb	-0.01519012
103	0x3daf27c1	0.08552504
104	0xbc65be39	-0.014022403
105	0xbd1042d7	-0.035219993
106	0x3c94281d	0.018085534
107	0x3ba54303	0.005043389
108	0xbcd1703f	-0.025566218
109	0x3d1fd403	0.03902055
110	0x3cfad8fc	0.030621044
111	0x3d1b23fe	0.03787612
112	0x3cdb4ecb	0.02677097
113	0xbd1a0c66	-0.03760948
114	0x3b2a9066	0.002602601
115	0xbd9594d0	-0.07303774
116	0xbc8ecf7d	-0.017432922
117	0x3d9820c8	0.074281275
118	0xbd2d33fc	-0.042285904
119	0x3d2cb0e9	0.042160902
120	0xbd7ec8a9	-0.062203083
121	0xbd8edbad	-0.069754936
122	0x3d11f66b	0.035635393
123	0x3c6b3184	0.014355067
124	0x3cf8b9cb	0.03036203
125	0x3afd9c29	0.0019348908
126	0x3d58b408	0.052906066
127	0x3c9f8369	0.019471841
128	0x3c470459	0.012147033
129	0xbcda36f5	-0.026637534
130	0xbd65f9e9	-0.056146536
131	0xbdc7fecc	-0.097653955
132	0xbd01af17	-0.03166112
133	0x3d3729fe	0.04471778
134	0x3dbb2a74	0.09138957
135	0x3da884db	0.08228465
136	0x3d36957e	0.04457616
137	0x3b2c64cf	0.0026305204
138	0x3c5349e0	0.012896031
139	0xbd2940f3	-0.041321706
140	0xbdc26111	-0.0949117
141	0x3d4f9b78	0.050685376
142	0xbdb264d4	-0.08710638
143	0x3d4fe6a9	0.050757084
144	0xbd34c23a	-0.04413054
145	0xbcf7c283	-0.030244118
146	0xbc829c8e	-0.015943792
147	0xbd7900b9	-0.060791705
148	0xbdbac3ba	-0.09119363
149	0x3d23bedb	0.039976936
150	0xbcba7b5e	-0.022763904
151	0xbd060399	-0.032718275
152	0xbce993c6	-0.028512847
153	0xbd9401a9	-0.07226879
154	0xbd29fe54	-0.04150231
155	0x3cf8ada3	0.030356234
156	0xbd20e8e6	-0.03928461
157	0x3bda268f	0.0066574286
158	0xbd120c57	-0.0356563
159	0x3cd129ec	0.025532685
160	0x3d28a32a	0.04117123
161	0xbabeb000	-0.0014548302
162	0x3d2b3b3d	0.04180454
163	0xbde74e9f	-0.11294293
164	0xbd09e3e4	-0.0336646
165	0xbd29bd50	-0.041440308
166	0xbb8d4ff1	-0.0043125083
167	0x3cf176d9	0.029475616
168	0x3d8ba84d	0.0681921
169	0x3ce1a578	0.027544722
170	0x3d887c44	0.06664327
171	0x3c5cadcc	0.013469171
172	0xbd88f403	-0.066871665
173	0x3d25d4cd	0.040486146
174	0x3c1c6278	0.009544961
175	0x3d6d1a5c	0.057886466
176	0x3d6665bf	0.056249376
177	0xbdc0321e	-0.09384559
178	0x3d1483b1	0.036258403
179	0xbbe24bc4	-0.0069060046
180	0xbd4dc93d	-0.050240744
181	0x3da3b3ff	0.07993316
182	0x3bd0d5a2	0.0063731233
183	0xbd4c60b8	-0.049896926
184	0x3c71d659	0.014760577
185	0xbda9fe53	-0.083004616
186	0xbc12b778	-0.008954875
187	0x3b3c4589	0.002872797
188	0x3d84242a	0.0645221
189	0x3d8b20d6	0.06793372
190	0x3d559a24	0.052148953
191	0xbd494ebf	-0.049147364
192	0x3daba291	0.083806165
193	0xbc056628	-0.008142032
194	0xbdcb3ff5	-0.09924308
195	0x3d463956	0.048394524
196	0xbd335bcf	-0.043788727
197	0x3b93fe50	0.0045164004
198	0xbd4be4bb	-0.04977868
199	0xbdaeb0d4	-0.08529821
200	0xbdbf61d1	-0.09344829
201	0x3d9c3b75	0.07628528
202	0x3d781b1c	0.06057273
203	0x3d0b6318	0.03403005
204	0x3d03c1b4	0.03216715
205	0x3d6d29dd	0.057901252
206	0x3d71cd74	0.059033826
207	0xbcc4a460	-0.024004161
208	0xbc12049f	-0.008912235
209	0x3cbd4b80	0.02310729
210	0x3c98019d	0.018555457
211	0x3c757e13	0.014983672
212	0x3d68b5ee	0.056814127
213	0x3cd657cf	0.026164917
214	0xbdce6f8b	-0.10079869
215	0x3cf45030	0.029823393
216	0xbdf92296	-0.121648
217	0x3d82df95	0.06390301
218	0x3c9ed32b	0.019387802
219	0xbdbd5ec4	-0.09246591
220	0xbdb867b8	-0.09004158
221	0xbdf06bee	-0.11739336
222	0x39e3aef3	0.0004342716
223	0xbd4193c5	-0.047260065
224	0xbd7ce668	-0.06174317
225	0xbd0e9411	-0.034809176
226	0xbdc7e74d	-0.09760914
227	0xbd84c192	-0.06482233
228	0xbce4026b	-0.027833184
229	0xbc6c221f	-0.014412432
230	0xbd934b58	-0.07192105
231	0x3d8d1b7b	0.06890007
232	0x3dac0c97	0.08400839
233	0x3dc7291a	0.097246364
234	0x3d8072d4	0.06271902
235	0xbd95bd24	-0.07311466
236	0x3caf8c59	0.021429228
237	0xbca037e6	-0.019557904
238	0xbd883260	-0.06650233
239	0xbd6d3c59	-0.05791888
240	0x3d34d067	0.04414406
241	0xbd9aabef	-0.07552325
242	0xbbd9cd2c	-0.006646773
243	0xbc6f1166	-0.01459155
244	0xbd95d113	-0.07315268
245	0x3d6bdf15	0.057585794
246	0x3d22dfc0	0.039764166
247	0x3c5b16de	0.013372151
248	0x3ccc78b2	0.024959896
249	0xbcae73bc	-0.02129542
250	0x3d5331fd	0.051561344
251	0xbb446981	-0.0029970112
252	0xbd66ca7a	-0.05634544
253	0xbcc02a01	-0.023457529
254	0xbcf623ae	-0.03004631
255	0xbdbb4c79	-0.091454454

fc2.bias f4 [64]
0	0xbd3f003f	-0.046631094
1	0xbe9383df	-0.28811547
2	0xbedd2f78	-0.43200278
3	0xbec184e4	-0.377967
4	0xbb010a9c	-0.0019690162
5	0xbeaf5d4b	-0.34250864
6	0xbab9b69d	-0.0014168803
7	0x3f83af64	1.02879
8	0xbd5fc2a8	-0.054628998
9	0xbd202536	-0.039097987
10	0xbe080160	-0.13281775
11	0xbe8f80b8	-0.28027892
12	0xbc2bbe98	-0.010482453
13	0xbe98ea32	-0.29866177
14	0xbeb442b8	-0.35207152
15	0xbe829f00	-0.25511932
16	0xbe72aafe	-0.23698041
17	0xbe2edc3f	-0.17076205
18	0xbe9f6267	-0.31129763
19	0xbce77951	-0.02825609
20	0xbe280181	-0.16406824
21	0xbd98903d	-0.07449386
22	0xbc812781	-0.015765907
23	0xbee50e73	-0.44737586
24	0xbe6bd71c	-0.23031276
25	0xbe5a1a44	-0.21299082
26	0x3f58b20b	0.8464667
27	0xbe86c6aa	-0.26323444
28	0x3f5a072c	0.85167193
29	0xbe8825f5	-0.2659146
30	0xbecba453	-0.39773807
31	0xbe774d65	-0.24150617
32	0x3f79adab	0.9753062
33	0xbe12f59b	-0.14351504
34	0xbe97a6a5	-0.29619327
35	0xbea88322	-0.32912546
36	0xbed22759	-0.41045645
37	0xbe4417dc	-0.19149727
38	0xbd9a9ca8	-0.07549411
39	0xbc844d10	-0.016150028
40	0x3fd4be21	1.6620523
41	0xbde807bf	-0.113296025
42	0xbaac91d5	-0.001316602
43	0xbe57d288	-0.21076405
44	0xbce34833	-0.027744388
45	0xbdf1b6b4	-0.11802426
46	0xbe784559	-0.24245204
47	0xbe236139	-0.15955056
48	0xbe873f08	-0.26415277
49	0x3f24f71f	0.64439577
50	0xbe0ba831	-0.13638379
51	0xbe0a05c8	-0.13478768
52	0xbe28dd65	-0.16490705
53	0xbed512ca	-0.41615897
54	0xbe5da676	-0.21645531
55	0xbe977027	-0.29577753
56	0x3feffb4f	1.8748568
57	0xbe4813ff	-0.19538878
58	0xbe6700c3	-0.22558884
59	0xbde27a4f	-0.11058485
60	0xbea70fa4	-0.3262912
61	0xbe614c62	-0.22001794
62	0xbdc0210e	-0.09381305
63	0x3f88bcfe	1.0682676

fc3.weight f4 [3, 64]
0	0x3f3fa9f0	0.7486868
1	0x3c8234ad	0.015894258
2	0x3cb5506a	0.022133071
3	0xbcbe35aa	-0.023218948
4	0x3d061933	0.032738876
5	0x3f0c5a3a	0.54825175
6	0x3f5326ee	0.82481277
7	0xbef70e28	-0.48252988
8	0xbdb6f620	-0.08933663
9	0x3f36f9c3	0.71474856
10	0x3da65a9f	0.08122753
11	0xbe32c97b	-0.17459671
12	0x3f4c87bd	0.7989462
13	0x3c830f79	0.015998589
14	0xbd3b8acf	-0.045786675
15	0xbedf0326	-0.4355709
16	0x3cf28413	0.029603994
17	0x3cb97dc8	0.022642985
18	0x3d64c600	0.05585289
19	0x3f44c382	0.7686082
20	0x3daee6db	0.08540126
21	0x3f621df3	0.8832695
22	0x3f4df6fb	0.8045499
23	0xbdd6e7d2	-0.10493435
24	0xbc01ad41	-0.007914842
25	0x3b854d78	0.004068073
26	0x3f0a8129	0.5410333
27	0x3c3b77e4	0.011442158
28	0xbedd5ebe	-0.43236345
29	0x3cad10b6	0.021126132
30	0x3cca7af6	0.024716835
31	0xbcbeb87b	-0.023281327
32	0xbe88e9c4	-0.2674085
33	0xbcf11349	-0.029428141
34	0xbccd1579	-0.025034653
35	0xbc4beb2a	-0.012446204
36	0x3cba0190	0.022705823
37	0x3cfc8377	0.030824406
38	0xbda9e003	-0.0829468
39	0xbb0409c7	-0.002014743
40	0x3e8ed71b	0.27898487
41	0x3c8e1238	0.017342672
42	0x3f5798e0	0.84217644
43	0xbd928ad0	-0.07155383
44	0x3f4c43f6	0.797912
45	0x3dda2edb	0.10653468
46	0xbaf7f280	-0.0018916875
47	0x3f43bb6b	0.7645785
48	0xbd98f1c9	-0.07467992
49	0xbbc0eb5e	-0.005887433
50	0xbe33732f	-0.17524408
51	0x3ba4cd58	0.0050293617
52	0xbc8a08e1	-0.016849937
53	0xbde5b516	-0.1121618
54	0x3d478ee7	0.048720267
55	0x3d8ebc93	0.069695614
56	0x3e931756	0.2872874
57	0x3f30c7d8	0.6905494
58	0x3dac238e	0.08405219
59	0x3cdd7400	0.027032852
60	0xbcddab0e	-0.027059104
61	0xbc3a1f89	-0.011360058
62	0x3f35b1fc	0.7097471
63	0xbf40f7f6	-0.7537836
64	0x3f274119	0.65333706
65	0xbd3799db	-0.044824462
66	0xba8b8c38	-0.0010646647
67	0xbd186b06	-0.03721144
68	0xbe6ba866	-0.23013458
69	0x3eff7e6c	0.4990114
70	0x3f4d3816	0.80163705
71	0xbea36d5b	-0.3191937
72	0xbd01fddb	-0.031736236
73	0x3f15cc16	0.58514535
74	0xbd381433	-0.04494114
75	0x3d129446	0.035785936
76	0x3f44c9ad	0.7687023
77	0x3ccff6cb	0.025386235
78	0xbdeed079	-0.11660857
79	0xbf259db3	-0.64693755
80	0xbd8da694	-0.06916538
81	0x3d2790dd	0.040909637
82	0xbd37de50	-0.044889748
83	0x3f3dafc4	0.7409632
84	0x3d8515c6	0.064982936
85	0x3f4eddf0	0.808074
86	0x3f41d7b3	0.75719756
87	0xbb73837d	-0.003715723
88	0xbd97315b	-0.07382461
89	0xbde04637	-0.109508924
90	0x3eabad95	0.3353087
91	0xbe011294	-0.12604743
92	0xbed04a46	-0.40681666
93	0xbe34ec00	-0.17668152
94	0x3dbcdff2	0.09222402
95	0x3d1c095f	0.038094874
96	0xbf611da1	-0.87935835
97	0xbb236585	-0.0024932337
98	0x3c81678f	0.01579645
99	0xbcc575ca	-0.024104018
100	0x3c1ac205	0.009445672
101	0x3e2ffa1e	0.17185256
102	0xbdb3d671	-0.08781136
103	0x3c354fe5	0.011066412
104	0x3e0aeb16	0.1356624
105	0x3cbd6c3f	0.023122905
106	0x3f4f5a4d	0.80997163
107	0x3df2e959	0.11860914
108	0x3f326fd8	0.6970191
109	0xbd03a3bc	-0.03213857
110	0xbdae7442	-0.08518268
111	0x3f25d4c4	0.6477778
112	0x3c7813d4	0.015141446
113	0xbeb650d2	-0.35608536
114	0xbbccc608	-0.006249193
115	0xbccf7542	-0.025324468
116	0xbdf8e648	-0.12153298
117	0xbcf3c672	-0.029757712
118	0x3d9305e4	0.07178858
119	0xbc48a262	-0.012245746
120	0x3ea0d2b3	0.3141075
121	0x3f1e12b5	0.61747295
122	0xbd15d6f7	-0.03658196
123	0xbd2ae5b2	-0.04172296
124	0x3da0a3c5	0.078437366
125	0xbc223aa4	-0.009901676
126	0x3f1e647b	0.6187207
127	0xbf3999f8	-0.7250056
128	0x3f220e3e	0.6330298
129	0x3b6ce0b1	0.0036144669
130	0x3b63ddbc	0.0034769615
131	0xbdabb3e9	-0.083839245
132	0xbec02a5a	-0.37532312
133	0x3ecfbb00	0.40572357
134	0x3f4d91b8	0.80300474
135	0xbed96e74	-0.42467082
136	0xbcac4f61	-0.021033945
137	0x3f2669e0	0.650053
138	0x3b08bfea	0.0020866343
139	0xbcc9dbd7	-0.02464096
140	0x3f4b05fd	0.7930601
141	0xbda24557	-0.07923382
142	0xbdbc6c74	-0.09200373
143	0xbf1dfa93	-0.6171047
144	0x3d17326d	0.036913324
145	0xbd6bb4ac	-0.05754535
146	0xbb535798	-0.0032248255
147	0x3f4670a8	0.7751565
148	0xbd83a3a0	-0.06427693
149	0x3f475011	0.77856547
150	0x3f3e0d6f	0.7423925
151	0x3c9d56e5	0.019206474
152	0xbdb8b719	-0.09019298
153	0xbdbd8c2f	-0.092552535
154	0x3f1585cd	0.5840729
155	0xbd735284	-0.059404865
156	0xbe7b0300	-0.24512863
157	0x3b2354ed	0.0024922446
158	0xbca20077	-0.019775612
159	0xbc6d42a7	-0.014481223
160	0xbeb415fe	-0.3517303
161	0xbc06484a	-0.008195946
162	0x3d817564	0.063212186
163	0xbd3d835d	-0.046267856
164	0xbcbc2466	-0.022966575
165	0x3cdbab53	0.026815092
166	0x3e912595	0.28348985
167	0x3e3c0212	0.18360165
168	0xbd4855da	-0.04891
169	0x3ceb159b	0.028696826
170	0x3f488800	0.7833252
171	0xbc6d937d	-0.014500496
172	0x3f407a84	0.75186944
173	0xbdaf3d30	-0.085565925
174	0x3c61a080	0.013771176
175	0x3f3cb80e	0.73718345
176	0x3d2392a0	0.039934754
177	0x3db571ca	0.08859594
178	0xbd3d0845	-0.046150465
179	0xbd514a8e	-0.05109649
180	0xbd06a553	-0.03287251
181	0xbddc8e7b	-0.107693635
182	0xbc8bfb26	-0.01708753
183	0xbcc86049	-0.024459975
184	0x3d716da0	0.058942437
185	0x3f10d4a1	0.56574446
186	0xbd329195	-0.04359587
187	0xbd9081df	-0.07056021
188	0x3bb74864	0.0055933464
189	0xbc1a4678	-0.009416215
190	0x3f2cb5d5	0.67464954
191	0xbf5187a4	-0.81847596

fc3.bias f4 [3]
0	0xc07737c9	-3.8627799
1	0xc077c159	-3.871176
2	0xc07fcf7a	-3.9970384
