Models/DQN/agentDQN_2020-2022_dqn_v3_200_EPS_9.pth (torch, 90039 bytes, 6 tensors)

fc1.weight f4 [128, 104]
000000 ca 26 9d bd 1d 6b 1e 3b d3 49 c9 bd 3d af 81 bd
       -0.07673414 0.0024172731 -0.09828534 -0.06332252
000010 53 35 07 be 75 a8 81 3d 5e 10 cb bd e8 78 14 bd
       -0.13203935 0.06330959 -0.09915231 -0.036248118
000020 96 de 7d 3c 3f ef a6 3c 6a f9 d7 bd 3f ac 9d 3c
       0.015494963 0.020377753 -0.10545619 0.019247172
000030 47 15 f1 3b e6 25 c5 bd 08 8a 8b bc 11 a1 e8 bd
       0.007357273 -0.09626369 -0.017033592 -0.11358846
000040 50 31 a0 bd 03 e6 db bd 9c ba 03 be fa e7 07 be
       -0.078219056 -0.10737231 -0.12864155 -0.13272086
000050 65 91 84 bd 40 1e 01 3d 81 c7 0e 3d 2e 0a 54 3d
       -0.06473044 0.03152299 0.03485823 0.05176752
000060 85 35 22 bd e6 1b 15 3d a8 39 5b bd 47 e1 55 bd
       -0.03960182 0.03640356 -0.053521782 -0.052216794
000070 40 1a 0f be ae 5d 43 bd c7 0d 6d 3d 85 a0 a8 3d
       -0.13974857 -0.04769676 0.057874467 0.08233742
000080 c0 14 89 3d 7b ed 50 3c 5f 51 8e bd 05 5f 34 3d
       0.06693411 0.012751932 -0.06949114 0.04403593
000090 68 90 24 3c 30 03 b7 3c 5f 8e 98 3d 87 62 00 be
       0.010044195 0.022340387 0.0744903 -0.12537585
0000a0 cf 5b 79 3d a5 5e 35 bd dd 0e 16 bd 78 09 ac bc
       0.06087857 -0.044279713 -0.03663527 -0.021000609
0000b0 0a 14 e0 3c 46 55 02 be b8 a0 a9 bc 45 47 81 3d
       0.027353305 -0.12727842 -0.02070652 0.06312422
0000c0 38 f8 94 3d 9b 8d 24 bd e1 1a 55 bd 15 14 aa 3d
       0.072739065 -0.040174108 -0.052027587 0.083046116
0000d0 64 5e c4 3c 15 a3 3b bc 7b d2 8b bd 4a 60 1d 3d
       0.02397079 -0.011452456 -0.06827255 0.038421907
0000e0 7b 5d 92 bd dc 36 6e bd 53 d8 08 be 72 4b a9 bd
       -0.07146736 -0.058157787 -0.13363771 -0.08266343
0000f0 4f f4 a9 bd 21 19 14 3c d1 33 80 3d 07 b9 db bd
       -0.08298551 0.009039194 0.06259883 -0.107286505
000100 6c 1b 0b be 8a 95 ce 3d 85 e8 96 bd bd f6 20 bc
       -0.1358468 0.10087116 -0.07368568 -0.009824452
000110 1a 38 af bd 15 66 6d 3d ea 70 1c bd 2a dd 1e bc
       -0.085556224 0.05795868 -0.03819362 -0.009696284
000120 42 e6 ff bd 8c c6 79 3d 45 87 88 bd 19 73 df 3c
       -0.1249509 0.060980365 -0.066664256 0.027276563
000130 55 f6 d2 bb 6a d2 18 bd 03 77 7d 3d 5f 6a 0a bd
       -0.0064380565 -0.03731004 0.061881077 -0.03379285
000140 f0 e7 8b ba 68 1d ad bb 0f 64 d8 bd 08 32 ad bd
       -0.0010673981 -0.0052830465 -0.1056596 -0.08456808
000150 d2 3c 42 bd c6 85 15 3d 56 08 df 3c 36 14 f1 bd
       -0.047421284 0.03650453 0.027225655 -0.11771433
000160 ba 9e ef bd 81 f0 d7 bd c2 e6 35 bd 6a 4c 42 3d
       -0.117001966 -0.10543919 -0.04440952 0.047436155
000170 91 a9 57 bd 99 78 ca bd 79 8c bb bd 10 5d d4 bd
       -0.052651946 -0.098862834 -0.091576524 -0.10369313
000180 64 87 04 3d 68 0e a6 bd a2 df 65 bd 0a 4c 7b bd
       0.03235568 -0.081082165 -0.056121476 -0.061351813
000190 d9 40 9c bc b1 ad 78 bc 9d 85 0a bd 01 8c 32 ba
       -0.01907389 -0.01517813 -0.03381883 -0.00068110233
0001a0 7b 69 cb bb 3c 64 47 bc e0 5e d6 3b 54 d2 ca bd
       -0.0062076426 -0.012169894 0.0065420717 -0.09903398
0001b0 49 b8 99 bd ed fa 4c 3c c2 75 9f 3d 60 02 e3 bb
       -0.07505853 0.012510997 0.077861324 -0.0069277734
0001c0 64 80 2a 3d 44 31 a1 bc c2 36 21 be 35 a3 cf 3c
       0.04162635 -0.019676812 -0.15743545 0.025346378
0001d0 03 1b 72 bd f0 5b f9 3c 21 15 11 be bd 86 f9 bc
       -0.05910779 0.030439347 -0.14168216 -0.030459756
0001e0 83 e7 04 be 35 dd 65 bd 15 a4 f0 3c 1f 79 e8 3c
       -0.1297894 -0.056119163 0.029375115 0.028378068
0001f0 9d d5 89 bd e5 23 82 bc fd db cb bd da 1c ce 3c
       -0.067301966 -0.015886256 -0.09954069 0.025160242
000200 2e 23 11 be 29 74 9a bc 15 ca ca 3d e2 18 92 bd
       -0.14173576 -0.018854218 0.09901825 -0.07133652
000210 f7 b4 63 bb 37 d2 b8 3c af 97 6f bd 18 34 9f bd
       -0.0034745315 0.022561176 -0.058494266 -0.07773608
000220 2a a7 a9 3d e9 17 61 3d ac a1 12 3d 24 7b d0 3d
       0.08283837 0.054954443 0.035798714 0.10179737
000230 5c 29 5e 3d 48 da 69 bd a3 f1 55 bd 14 b9 31 bd
       0.054238662 -0.057092935 -0.052232396 -0.043389395
000240 24 39 7b 3d af 0e 6f bd a1 3d 7e 3d 46 a8 a1 bd
       0.06133379 -0.058363613 0.062070493 -0.07893424
000250 33 f3 a8 3d c5 1c a4 bd 5e 65 2e bd 34 d9 c5 bb
       0.082495116 -0.080133 -0.04257714 -0.0060378555
000260 51 cc ea 3d 21 b8 b0 bc f3 6f af bd 73 28 60 3d
       0.114647515 -0.021572175 -0.085662745 0.054726075
000270 c1 0b 24 3d 55 9d ba bd ec 97 0f be 59 48 84 bd
       0.040050272 -0.0911204 -0.14022797 -0.06459112
000280 11 d0 4f bd 54 9b 6a bd c6 39 a1 bd 1e 38 7d 3c
       -0.050735537 -0.05727704 -0.078723475 0.015455274
000290 ff 2f 95 3c dc a2 c4 bd 1a 1f 99 bd f2 d3 ca 3c
       0.018211363 -0.096013755 -0.07476635 0.024759267
0002a0 aa bf 99 b9 7f 10 0b 3e bc 3d d6 3c 0f 3a ff bc
       -0.00029325235 0.13580512 0.026152484 -0.031155614
0002b0 cb fd f8 bc 97 01 2c bc c0 8a 37 3d a9 e5 81 3c
       -0.030394455 -0.010498426 0.044810057 0.01585658
0002c0 f5 53 41 bd 85 72 32 3d a8 14 8a bc 19 50 d9 bc
       -0.04719921 0.043566246 -0.016855553 -0.026527451
0002d0 60 50 31 3d 23 10 0e 3d 49 ae df bb a4 03 b7 bd
       0.043289542 0.034683358 -0.0068261963 -0.08936241
0002e0 cb 7c bb bd 9c d5 02 3d ac 10 76 3a a4 27 02 be
       -0.09154662 0.031941995 0.00093866396 -0.12710434
0002f0 1f 5c 9b bc ee 6f e3 bd 5c 61 0a be 06 78 80 bd
       -0.018964825 -0.11105333 -0.13513702 -0.06272893
000300 94 a7 02 bb 78 80 cd ba 6c 7b 14 be 2e 20 d8 bd
       -0.001993631 -0.0015678545 -0.14500207 -0.10553013
000310 0c 46 22 3c 70 8a e0 bb 74 7f 4a 3b 41 85 e9 bd
       0.009904396 -0.0068524405 0.0030898722 -0.11402369
000320 7d 61 f8 bd b6 85 c8 bc fc cb 11 3c 90 b3 c7 bd
       -0.121279694 -0.02447782 0.008898731 -0.09751046
000330 37 f2 dd bd 2a 88 17 bc 8f 51 48 3b cc 81 05 be
       -0.108372144 -0.009248773 0.003056619 -0.13037795
000340 23 2d 10 be 04 36 a8 bc e3 d9 02 bf 0e e4 f8 bb
       -0.14079718 -0.02053357 -0.5111372 -0.0075955456
000350 56 db 13 be f1 1b c3 be c6 9c 88 be 7c e3 c2 be
       -0.14439139 -0.38107255 -0.2668211 -0.38064182
000360 e5 d9 14 be 5c c7 8b be 02 06 18 be 04 ee 52 bf
       -0.14536245 -0.27300537 -0.14846042 -0.82394433
000370 fa a1 67 be 06 8c 9a be e2 46 a1 3d ad 13 9c 3c
       -0.22620383 -0.30184954 0.07874848 0.01905235
000380 49 55 86 be f0 a5 e2 bd 56 10 0a 3e 4d 30 10 bd
       -0.26236942 -0.11066806 0.13482794 -0.035202313
000390 22 ad f5 bd cd 0e c0 bd 22 d9 e1 3c f9 f4 14 3f
       -0.11995913 -0.09377823 0.027569357 0.581863
0003a0 50 dd 3c be a1 27 78 be 4c 75 11 c0 8e 5e 27 3f
       -0.18443799 -0.24233867 -2.2727842 0.65378654
0003b0 96 ad 7b bd c8 af 97 3f 44 a4 b0 3e 55 17 80 bf
       -0.06144484 1.1850519 0.34500325 -1.000712
0003c0 7c 97 e3 3e 86 a3 d7 3e 4e ed 48 3f e6 12 0a 3f
       0.4445151 0.42116946 0.784871 0.53935087
0003d0 c3 c5 31 3f 92 f0 eb 3e 25 4b 3f 3f d5 0a 3a 3e
       0.69442385 0.46081978 0.74724036 0.18168195
0003e0 9b 89 dc 3e db 96 e5 3d d5 4c 70 3d 2f e1 2d 3f
       0.43073735 0.11210414 0.058667023 0.6792173
0003f0 4a af 54 be 0a 69 84 be 82 ca 40 3f a9 53 cd be
       -0.20769992 -0.25861388 0.75309 -0.4010289

fc1.bias f4 [128]
000000 04 75 ff bd 2f 1e 29 bd 35 a3 a3 be 31 5f 52 bd
       -0.12473491 -0.04128855 -0.31960455 -0.051360313
000010 3a 71 48 be 58 6f 8b 3c 5f b2 f9 bd 10 73 e2 bd
       -0.19574443 0.017020866 -0.12192225 -0.11057103
000020 cc 40 04 be 4e eb 8c 3b d0 6d 03 be cf d1 ef 3c
       -0.12915343 0.0043005114 -0.12834859 0.02927485
000030 4d ba a3 be c9 c6 b5 bd 6f 64 db be a6 68 9a be
       -0.31978074 -0.08875806 -0.42850062 -0.30157965
000040 a3 4d 4e be 0f c2 99 bc fd d3 c4 ba 93 19 81 be
       -0.20146804 -0.018769292 -0.0015016791 -0.25214824
000050 0e 2b f1 be 6b 71 42 be 7e e4 61 bd 2b be 46 be
       -0.4710316 -0.18988578 -0.055149548 -0.19408481
000060 72 2a 23 bd 2a a4 20 bd c5 72 96 be d1 34 bd be
       -0.0398354 -0.03921906 -0.29384437 -0.36954358
000070 7e c3 2e be ed c5 5f be 35 0a 45 be 62 0a b3 bd
       -0.17066762 -0.21852846 -0.19242175 -0.08742215
000080 a6 92 ff bd d6 5b 19 be d4 35 cd be 87 d4 a6 bd
       -0.12479143 -0.14976439 -0.4008013 -0.08146005
000090 fa e3 dd bc 18 ed 95 bd 18 51 51 be ac c6 3a bd
       -0.027086247 -0.07320613 -0.20441091 -0.045599625
0000a0 34 dc 00 be ac 88 6c be db 4a ce be a0 fb 0a be
       -0.12584001 -0.23099011 -0.40291485 -0.1357255
0000b0 3b 6e 16 be ab ce 8f be 0b 71 18 be fe 58 14 bd
       -0.14690487 -0.28087363 -0.14886872 -0.036217682
0000c0 81 65 17 bd fa 16 1f be 64 9f 82 be af 86 1b be
       -0.036962036 -0.15536109 -0.2551223 -0.15188096
0000d0 55 85 f4 3c f4 f4 ef bd 2a 41 25 bf 21 62 ee bc
       0.029848734 -0.11716643 -0.6455256 -0.029099526
0000e0 ae 16 96 bd a1 50 f7 bc 12 94 ee 3b 05 8a d3 bd
       -0.073285446 -0.030189814 0.007280835 -0.103290595
0000f0 ce af b6 3d 45 8b cc 3e 69 c1 2c be f7 37 f7 bd
       0.08920251 0.39950004 -0.16870655 -0.12071221
000100 cc 64 93 bd 69 b1 2e be fa 7c 49 be 6c b3 72 bc
       -0.0719696 -0.17059864 -0.19676581 -0.014813285
000110 42 85 ae bc 97 f8 09 3d 21 a8 dd bd 0d 5c 24 be
       -0.021303777 0.03368434 -0.10823084 -0.1605074
000120 29 53 76 be bf 9e 10 be 26 fd 20 be 8d f6 00 bd
       -0.2405516 -0.14123057 -0.15721568 -0.03148513
000130 5e d0 86 be b5 02 54 be 0a ae 04 bd 16 2a 5a be
       -0.26330847 -0.20704158 -0.03239254 -0.21305117
000140 3b 81 45 be e2 d9 0d be c3 fd 36 be 64 77 81 be
       -0.19287579 -0.13852647 -0.1787024 -0.252864
000150 d6 56 b2 bd df d4 4f be 7a eb bf be e7 36 b4 be
       -0.08707969 -0.20296048 -0.37484342 -0.35198137
000160 7b 3a e7 3c 19 ff cc be bc c2 4e be 42 52 b8 bd
       0.028226128 -0.40038374 -0.20191473 -0.090000644
000170 15 ce c8 bd 21 9f cd ba c3 e0 31 be 71 af 96 be
       -0.09804932 -0.0015687683 -0.17370896 -0.29430726
000180 fc b7 0a bc 08 15 fb 3c 05 74 42 be 44 ca ae be
       -0.008466717 0.030649677 -0.1898957 -0.3413869
000190 76 e7 06 be ea dc d8 be 3f 28 07 bd cc b5 b1 be
       -0.13174233 -0.42356044 -0.032997366 -0.34709013
0001a0 0d 7a 4c be 1e eb 57 be e7 b0 90 bd 29 d4 d5 bd
       -0.19968434 -0.21085784 -0.070649914 -0.10440857
0001b0 91 50 dc bc 85 73 93 be c2 c8 e0 bd 45 fe e8 ba
       -0.026893886 -0.28799072 -0.109757915 -0.0017775974
0001c0 d8 65 08 be 41 4e f1 be a6 bf b9 bd 2d ff e1 be
       -0.133201 -0.47130015 -0.09069757 -0.44139996
0001d0 bc 0b 91 bb a6 02 3a be 73 65 e9 bd 23 e1 11 be
       -0.0044264477 -0.18165073 -0.11396303 -0.14246039
0001e0 4a 71 72 bd b1 0d bc be e8 88 fe bd 79 98 10 be
       -0.059190072 -0.36729196 -0.124284565 -0.14120664
0001f0 20 2a 0a be 46 f3 29 be 54 62 7c be a2 ab 23 bd
       -0.13492632 -0.16596708 -0.24646884 -0.039958604

fc2.weight f4 [64, 128]
000000 6a bb 1f bd e9 e1 1b 3d dc 6d ad bd 6b 14 bb 3d
       -0.03899709 0.03805724 -0.0846822 0.09134754
000010 41 bd dd ba 78 38 97 3c 81 ba f9 bc c5 a5 cc bc
       -0.0016917364 0.018459544 -0.03048444 -0.024981389
000020 5e 0e 7a 3d 2a 7a b5 bc 4e 8b 7d 3d 41 7e 1e 3d
       0.061048858 -0.022152979 0.06190043 0.038694624
000030 5b c0 7a 3d b6 5b 59 3c ff 83 a7 3e d5 b6 b4 bd
       0.0612186 0.0132664945 0.32717893 -0.08823935
000040 d0 ff 77 3d 01 46 59 3d a5 fc 86 3c 84 5d 17 bd
       0.060546696 0.053045277 0.016477892 -0.036954418
000050 f3 8c ab 3d 93 c1 93 bd 02 f0 6d bd ae bc a5 3c
       0.08376493 -0.07214656 -0.058090217 0.020231571
000060 ab 16 cb bd 58 1f 85 bd 06 8a 26 3d f9 bf 6b 3d
       -0.09916433 -0.06500119 0.040658973 0.057556126
000070 cd d2 e2 3c 4e 79 05 bd b0 9d 13 be f0 c0 ad 3c
       0.027688408 -0.03258639 -0.14415622 0.021210164
000080 42 bc b8 3c 03 14 14 3c 52 34 cd 3e 1b 69 d1 bb
       0.022550706 0.009037974 0.4007898 -0.0063907034
000090 16 79 2c bd 78 be fc bc 12 93 ac bc 9f f9 39 bd
       -0.042107664 -0.030852541 -0.021066222 -0.045404073
0000a0 cf 91 04 3d d0 e9 c3 bd d7 ea 23 bd 85 83 42 bd
       0.032365616 -0.095660806 -0.040018883 -0.047488708
0000b0 10 4f b4 bd e6 f2 5d 3e 8f b5 27 bc b9 76 6f 3d
       -0.088041425 0.2167469 -0.010236158 0.058462832
0000c0 2d ba 21 bd e6 e3 dc bd 31 41 e4 bb 46 29 78 bd
       -0.03948419 -0.10785656 -0.0069657792 -0.060586236
0000d0 e9 19 4a 3c 06 6b c5 3c 8d 4a be 3e 1c 3a 25 3d
       0.012335279 0.024098884 0.37166253 0.04033862
0000e0 6a cf e1 3c 37 21 d2 bc ac 56 d8 3d 18 ca 57 bd
       0.027564723 -0.025650604 0.10563406 -0.052682966
0000f0 f0 af 2c 3d 18 7d 67 3e 8f bc 43 3c a2 f0 6f 3d
       0.042159975 0.22606313 0.011946811 0.058579095
000100 2c 14 a2 bd e7 6e d0 bc 88 ee 00 bd 73 4a be bd
       -0.07914004 -0.025443507 -0.03147748 -0.09291544
000110 2e af 89 bd 8b 28 11 3d a7 52 e4 bc f3 e8 5a 3c
       -0.06722866 0.035439055 -0.027871443 0.0133612035
000120 33 73 09 bb 00 a1 87 3d 0b 03 35 3d 17 20 79 3d
       -0.0020973205 0.06622505 0.044192355 0.06082162
000130 fe 18 8f bc f6 45 8c bd 38 58 4d bd 59 92 39 bc
       -0.017467972 -0.068492815 -0.05013296 -0.011326396
000140 07 f1 1f 3d 53 ae 98 bc 6f ba 38 3d d7 bb 65 bd
       0.03904822 -0.018637812 0.045099672 -0.05608734
000150 5b 6c 67 3c a5 d7 a3 bc 95 33 1b 3e cf da a3 bc
       0.014124955 -0.020000288 0.15156396 -0.020001797
000160 b9 b9 fe 3b 67 a1 0d 3d f6 a5 ce bd 2d ee 89 3d
       0.0077736047 0.034577753 -0.10090248 0.067348816
000170 04 ae 78 bd a0 80 3c 3d 20 cd e0 bc 72 40 0a 3c
       -0.06071283 0.046021104 -0.027441561 0.0084382165
000180 90 eb c9 3d 84 0d 57 bd 8e 02 1a 3c 56 95 24 3e
       0.09859383 -0.052503124 0.009400023 0.16072592
000190 bb 48 a6 bd 98 72 d8 3b 2d 1a b8 bc cb b7 6b bd
       -0.08119341 0.0066054575 -0.02247342 -0.057548326
0001a0 c4 d8 24 3e b3 fe 90 bd 95 bd 5d bd 88 73 e9 bc
       0.16098315 -0.0707983 -0.054135878 -0.028497472
0001b0 d4 bc a1 3d 52 de 85 3c 6a 27 a4 bc 7a f1 4a bd
       0.07897344 0.016341362 -0.020038325 -0.049546696
0001c0 7c 59 3b 3d 01 60 87 3e 33 b9 1f 3d 43 21 7e 3e
       0.045739636 0.26440433 0.03899498 0.24817376
0001d0 81 48 e9 bc c4 ea 7d 3d 0c 35 e6 bc 2a 53 4c 3d
       -0.028476955 0.061991468 -0.028101467 0.049884
0001e0 ac 4b 6b bc 58 32 41 3e ca 84 6e 39 5b 4f 0f 3d
       -0.014361303 0.18866861 0.00022746917 0.03498779
0001f0 11 bb 3f 3d 8d a2 ae 3c 6b 6d 23 bc 9d 60 31 3d
       0.04680926 0.021317745 -0.009974818 0.04330503
000200 32 12 05 3d e2 4b 83 3d 82 47 26 bc 24 3c fe bc
       0.032488056 0.06410958 -0.010148885 -0.031034537
000210 64 b5 01 3d 8a af f7 bc c5 02 4a 3d ad ce 62 bd
       0.03166713 -0.03023507 0.049319047 -0.055372883
000220 3d db ac bd d8 06 aa 3c 13 77 b1 bd bd cb 80 3d
       -0.08440254 0.020755216 -0.0866529 0.0628886
000230 5b 66 01 bd 79 eb 14 bd 59 eb f0 3c be 08 b5 3c
       -0.031591754 -0.036357377 0.029409098 0.022098895
000240 4c 1a aa 3c cf 18 90 3c 32 0f db 3a 11 bf 1f 3c
       0.020764492 0.017589955 0.0016712903 0.009750144
000250 60 4a 9c bd 16 66 ec bc 7a 00 87 bd d2 03 b4 bd
       -0.076313734 -0.028857272 -0.06591888 -0.08789791
000260 6a 20 17 3d 3e 3e ad bd 01 d9 e9 bd 72 10 74 bd
       0.036896147 -0.084591374 -0.11418343 -0.059585996
000270 88 49 5c bd ef 9a 85 bc 7b 1d 4c 3d 14 8c 7c bd
       -0.053781062 -0.01630923 0.049832802 -0.061657026
000280 55 3e 01 be 04 99 71 3d fa 8e c6 bd 2d 4e 2f bd
       -0.12621434 0.058983818 -0.09695239 -0.042799164
000290 86 35 5f 3d b8 6e 3b bc 58 e6 9e 3c 8a 74 0b 3d
       0.054494403 -0.011439972 0.019396946 0.034046687
0002a0 32 d8 8f 3d 9f 84 df 3b df 2b 6c bc b6 af 72 3d
       0.07023658 0.0068212296 -0.014414757 0.059249602
0002b0 bd a3 a0 bd 94 6b 3e bd 58 c8 d6 bd 77 d0 ac 3d
       -0.078437306 -0.046489313 -0.10487431 0.08438199
0002c0 5c 4b d4 3c ed f7 9a 3d 12 94 f7 bc 75 55 c5 bd
       0.02591484 0.07566819 -0.030221973 -0.0963544
0002d0 0c 2d 77 3b 3c bd ef bd b1 6f 0b bd 95 03 9b 3d
       0.003771606 -0.117060155 -0.034042064 0.075690426
0002e0 94 38 73 bd 61 d2 32 bd cd 1f 59 bd 4b 4b 04 3d
       -0.05938013 -0.043657664 -0.053008843 0.032298367
0002f0 86 3d 15 3d a7 7b d2 bd 0c 19 9c bd ae ee 8e bd
       0.036435626 -0.10277491 -0.07621965 -0.06979118
000300 38 67 37 bc 75 fe e1 3b 1a a1 e4 bd f7 46 5b bc
       -0.011194043 0.0068967887 -0.1116354 -0.013383619
000310 9b e8 eb 3a ca 8a 28 3d 8e 20 49 bd 3a ca b4 bd
       0.0017998399 0.041147985 -0.049103312 -0.08827634
000320 60 18 8d bd 4c 13 9f 3c 32 4a 1e 3d 41 6d 36 bd
       -0.06889415 0.019418381 0.038644977 -0.044537786
000330 93 6f fc bc 84 86 af bc b8 ec d0 ba 1f a1 c7 b9
       -0.030814921 -0.021426447 -0.0015939688 -0.00038076282
000340 85 66 a2 bd 66 98 6a 3d f9 fd dd bc 03 a4 f6 bd
       -0.0792971 0.057274245 -0.027098643 -0.120430015
000350 79 78 40 3d cd 89 9c bd 36 40 a7 bd ad d2 4a bd
       0.04698989 -0.07643471 -0.08166544 -0.049517322
000360 18 6d cb bc ad 8b 0d 3d 3d 76 22 bd 5d 83 1c 3d
       -0.024832293 0.034557033 -0.039663542 0.038211215
000370 ad 6e 91 bb a4 65 b1 3c e3 35 8b bd aa 9c 45 3d
       -0.0044382424 0.021654911 -0.067973875 0.04824511
000380 af 83 f3 bc 37 ac 9c 3d e8 28 a9 bd 7d 42 3c 3d
       -0.029725878 0.07650035 -0.082597554 0.045961846
000390 eb 3a ab bd 59 af 86 bd fd 4f 94 bd 66 3d 41 bd
       -0.08360847 -0.06576414 -0.07241819 -0.047177695
0003a0 cc 4e 5c 3d 09 aa 01 bd 76 f9 50 3d 75 9f 85 bd
       0.053786084 -0.0316563 0.051019154 -0.06524555
0003b0 c6 44 9e bd db 65 e5 3c a8 f3 7b 3c e4 2d 91 bc
       -0.07727961 0.02800267 0.015377916 -0.017722078
0003c0 3a e9 34 3d 89 56 d8 bc 1c a1 a4 3c cd 8b 22 bd
       0.044167735 -0.02640845 0.020096354 -0.039684106
0003d0 a6 a5 70 3d 19 bf 5a bd 08 5d 02 3d c5 8f 5a 3d
       0.058751725 -0.0534049 0.031827003 0.053359766
0003e0 4c 15 0e 3c 1c 8d ef bd 59 be ee 3c 9e c6 61 bd
       0.00867207 -0.11696836 0.0291435 -0.055121057
0003f0 16 82 54 3d 6a f6 2d 3d 62 f8 31 3d aa 73 9b bd
       0.051881872 0.042471327 0.043449767 -0.075904205

fc2.bias f4 [64]
000000 d1 76 27 3f 94 34 03 be 7e 2f 29 be a9 7c ba bd
       0.65415674 -0.12813026 -0.16522023 -0.09105808
000010 9b da 77 bd 31 46 d3 bd 1a 5f 9c bd 0a 71 0a be
       -0.060511213 -0.10316122 -0.07635327 -0.13519683
000020 8f 2a ba 3d ac 05 4a 3f f6 f4 cd 3c ce 4b 14 3e
       0.09090149 0.78914905 0.02514122 0.14482042
000030 cb 05 b1 bd 01 ce e2 3c 1f bf 87 be 4f 89 b4 bd
       -0.08643683 0.027686121 -0.26513 -0.08815252
000040 5d 48 28 3f a4 a4 cd bd 38 36 37 be 55 55 de bd
       0.6573542 -0.10041168 -0.17891777 -0.108561195
000050 4a 30 ba 3d 29 e2 3c be bc 99 a4 be 51 9e 3e 3f
       0.09091242 -0.18445648 -0.3214854 0.7446032
000060 c8 d1 0f be d8 77 2b be aa 68 83 bc 27 49 47 be
       -0.14044869 -0.16744936 -0.016041119 -0.19461499
000070 de 8b 26 be 62 e2 f7 bd 3d 22 9b bd 30 21 0c bd
       -0.16264293 -0.12103726 -0.0757489 -0.034211338
000080 64 da 4d be 5a 63 21 be d3 39 3f 3c d6 95 15 be
       -0.2010284 -0.15760556 0.011671501 -0.14607939
000090 60 97 93 3e b1 22 73 bd 39 1f 0f bd 6d 58 40 3f
       0.28826427 -0.059359256 -0.034941886 0.7513493
0000a0 b6 e6 17 be aa 65 4f 3f 8c 0d 1e be df ff 2e 3f
       -0.14834103 0.810145 -0.15434855 0.6835918
0000b0 4f 42 3c 3f 8e 32 3c be 54 a0 36 be 0d 96 de bd
       0.7353868 -0.1837866 -0.17834598 -0.10868464
0000c0 33 15 94 be 33 7e be 3e 56 5a 74 bd 57 c8 8c bd
       -0.28922424 0.37205657 -0.059656464 -0.06874149
0000d0 c1 5c 3c 3d 68 c4 50 bd ce 11 60 be 0e dd ab 3b
       0.045986895 -0.050968558 -0.21881792 0.0052448576
0000e0 05 14 56 be a0 00 a9 be 98 44 27 be 8d 95 1d be
       -0.20906074 -0.3300829 -0.1633476 -0.1538908
0000f0 50 d4 1c be 6f 2a 2e be 2f 92 9f be c3 6b a8 3e
       -0.15315366 -0.17008375 -0.31166217 0.32894716

fc3.weight f4 [3, 64]
000000 ed d6 07 3f 0f a0 80 3d 8a dd e5 bc 77 46 5a bd
       0.53062326 0.06280529 -0.02805974 -0.053289857
000010 6b 8f 60 3d b9 99 f2 bc 5e dd a6 3d 30 31 a2 ba
       0.054824274 -0.029614316 0.08147691 -0.0012374278
000020 1e c3 c7 bc 7b 97 09 3f bf 34 3f 3e f6 e9 46 bd
       -0.024385031 0.53746766 0.18672465 -0.048562966
000030 e8 38 fe bd d3 6e 54 3a 77 84 cf 3c 95 65 0e bb
       -0.12413198 0.00081036723 0.025331719 -0.0021728028
000040 fc c3 b4 3e b3 27 95 bd 8f 48 82 bc 9d aa d7 bc
       0.35305774 -0.07282963 -0.01590374 -0.026326472
000050 b6 4e 0d 3e 53 4c a8 bd 43 eb 48 3d ab cf 02 3f
       0.13799557 -0.08217683 0.049052488 0.51098126
000060 19 9a 86 39 cd cc 33 bd 8c 08 7b 3d 89 ff c9 bc
       0.00025673283 -0.043896485 0.061287448 -0.024657981
000070 bc 38 bc 3c 0f c0 e0 3c 11 00 0c 3d 94 cf 07 3e
       0.022976272 0.02743533 0.03417975 0.13262779
000080 53 21 8e 3d d9 05 80 bd 52 8c be 3c 95 c0 65 bd
       0.0693995 -0.06251115 0.02326027 -0.056091864
000090 70 cb d2 3d aa 22 67 b9 67 12 e7 bb ce 8a 0e 3f
       0.10292709 -0.0002204279 -0.0070517543 0.5568055
0000a0 23 28 23 3b 27 9c 29 3f f3 bf 60 3b ab 4c 02 3f
       0.002489575 0.66253895 0.0034294098 0.50898236
0000b0 13 3e 01 3f ae 32 a2 bd a0 4b dc bc 01 14 7f bd
       0.5048534 -0.07919823 -0.02689153 -0.062274937
0000c0 9d 96 81 bd ea eb 28 3e 6b 33 1b bd ed 59 d9 bd
       -0.06327555 0.16496244 -0.037890833 -0.10612855
0000d0 74 6a 64 bd 7f 03 ea 3c 86 ce e9 3b 13 4a b6 3c
       -0.055765584 0.02856612 0.007135215 0.022252118
0000e0 9e 73 9e bc d0 3e 2e bd f3 5d 02 3c 70 2e 1a bd
       -0.01934224 -0.04254037 0.00795697 -0.037641943
0000f0 a1 84 ea bc 74 9f d7 bc 18 91 6c bc d1 74 72 3e
       -0.028627696 -0.02632115 -0.01443889 0.23677374
000100 ca 8f 0f 3f 39 b2 9e bd 47 66 34 3c df 4b f5 bd
       0.5607878 -0.07748837 0.011010713 -0.11977362
000110 ce 0c 04 39 87 e1 62 be 89 8a f7 3c 4e b5 31 3c
       0.00012593271 -0.22156344 0.030217426 0.010846449
000120 5b f2 6f 3d 42 ad 0f 3f 39 58 11 3e 16 2e 70 3e
       0.058580738 0.56123745 0.1419381 0.2345508
000130 b6 e4 20 3d 55 24 0b 3e 11 70 2a 3d 71 2d 91 3d
       0.039280616 0.13588078 0.04161078 0.070887454
000140 86 70 fd 3e 93 3d a1 3d 5c f8 c2 bc 57 65 fc bd
       0.4949991 0.078730725 -0.023800068 -0.123240165
000150 9f b1 21 3e 7d fa ef 3c 6c 8e 13 bc 47 08 07 3f
       0.15790413 0.029294247 -0.009006124 0.52747005
000160 39 6c be bc db 35 42 3b af ca cc bc db ac 19 3c
       -0.023244964 0.002963415 -0.02499899 0.009379591
000170 87 6d f4 bc 45 66 01 be 44 d1 da 3d e8 7a c7 bc
       -0.029837383 -0.12636669 0.106844455 -0.024350598
000180 ba b3 30 3e 0b 40 11 3a f9 10 c1 3d e8 9b 2a 3c
       0.1725606 0.0005540854 0.094270654 0.0104131475
000190 61 d1 6a 3e da e7 88 3d 64 31 46 bd 47 3e 1e 3f
       0.22931434 0.06684847 -0.048386946 0.6181378
0001a0 31 98 2b 3d e6 b4 1e 3f 7a 11 4b bd 9f 06 0a 3f
       0.041893188 0.6199478 -0.049577214 0.53916353
0001b0 da a1 99 3e 76 28 28 3d 59 86 8f 3a fb 94 65 3d
       0.30006295 0.04105421 0.0010950073 0.056050282
0001c0 40 9d 15 3d 21 89 df 3d de c4 ba 3d 92 8e 01 bc
       0.03652692 0.10914827 0.09119581 -0.007907527
0001d0 3c 40 8c 3d 4b 7e db ba 2f 47 8d 3c 1d aa 13 3d
       0.06848189 -0.0016746012 0.017245857 0.036050905
0001e0 fa 61 87 3c f5 ef 1a 3d 78 cf ce 3d 9b d6 8e bc
       0.016526211 0.037826497 0.10098165 -0.017436316
0001f0 a9 79 33 3d 29 db 58 bd 93 6d b0 bc eb ab 6e 3e
       0.043817196 -0.052943382 -0.021536624 0.23307769
000200 a9 ec 18 3f ff a8 d6 bd 1f 53 b5 3b 57 27 81 bd
       0.59736115 -0.10481452 0.0055335904 -0.063063316
000210 f8 4b fd bc 12 49 8a bd 0e fe 71 bd 70 26 88 bb
       -0.030920014 -0.06752218 -0.059080176 -0.0041549727
000220 fa e9 12 3e ca 20 14 3f 2d 55 4c be 76 b5 06 bc
       0.14347067 0.5786253 -0.19954367 -0.008221975
000230 fd 89 30 3c 44 56 e7 3d 16 ac 0c bc 68 ed c1 bb
       0.0107750865 0.11295751 -0.00858595 -0.0059181936
000240 3b d1 c8 3e 93 1d 02 3d 82 4e 83 3b c7 d0 fc 3b
       0.3922213 0.031766485 0.0040071616 0.007715318
000250 c6 53 3a 3d db 25 80 bc 55 12 01 3b b6 1c 13 3f
       0.04549005 -0.01564305 0.0019694765 0.57465684
000260 ab 4e c0 3c 75 bd e5 bc a8 19 dd 3d 77 78 20 bc
       0.023475012 -0.028044442 0.10795909 -0.009794346
000270 ba 9b ca 3c 35 e1 d9 bd 16 f2 a3 3d b7 5b 9e 3d
       0.02473246 -0.10638658 0.080051586 0.07732337
000280 06 f3 11 3c db 38 0b 3d 96 22 9a bd a1 7d 21 3c
       0.008908039 0.03398977 -0.07526128 0.009856612
000290 e4 86 38 3e 5e ee 02 3e ff ba ab 3c d1 06 22 3f
       0.18020207 0.12786242 0.02096319 0.6329165
0002a0 d6 73 3f 3d 74 51 33 3f 82 d7 0b 3b 8d 0e 13 3f
       0.04674133 0.7004616 0.002133817 0.5744408
0002b0 07 0a 0c 3f cb cc 06 3d 68 7b cd bd 4d 8d d4 3a
       0.547028 0.03291015 -0.100333035 0.0016216427
0002c0 b1 96 35 3c cb 7e 59 3e 6d cf dd 3d d6 2b 52 bc
       0.011083291 0.21239774 0.10830579 -0.012827834
0002d0 78 c7 de 3c e7 24 dc bb 68 a7 af 3b 51 98 ad 3d
       0.027194723 -0.0067182663 0.0053605326 0.08476318
0002e0 26 02 18 be 76 ae 2b bc c2 3b 16 3d ba e1 3b bc
       -0.1484457 -0.010478606 0.036678083 -0.011467392
0002f0 cc 2d 8b 3d 53 2b 8d 3c 53 e4 19 bd 9a ff 3c 3e
       0.067958444 0.017232573 -0.037571263 0.1845688

fc3.bias f4 [3]
000000 38 21 87 3f ee c1 77 3f ac b2 84 3f
       1.0557013 0.9678029 1.0367026
