Models/DQN/agentDQN_2012-2014_dqn_v1_200_EPS_1.pth (torch, 90039 bytes, 6 tensors)

fc1.weight f4 [128, 104]
00000000: 904f bcbc 6e4c 53bc b98d 91bd bd4c 2ebd
00000010: 0ba3 81bd d538 21be d12d fdbd ec39 a9bc
00000020: ec26 b7bd ead1 90bd c7d5 9cbd 900f 3fbc
00000030: 61db 06be 66bd a2bd b925 65bd f7e3 20be
00000040: 4c15 09bc f0a4 dbbd 5b13 f5bb 83af b9bc
00000050: 43b3 11be 4ca3 04be 9a9f 1ebe 86a7 a03d
00000060: da41 8fbd 9b04 f1bc b1b9 233c 32ad f2bd
00000070: 70cf f83b 0539 ba3d a105 413e 30eb d63d
00000080: 454f 4d3b 2be2 603b fcae 99bd 2cfb 3dbe
00000090: b77b afbd b137 09be c115 203d ca9d 3d3b
000000a0: 3bb7 68be a4bf b6bd 55fd d13a 9745 9f3c
000000b0: 4a1e b0bd 347d e9bd d7ee 9f3d b184 89bc
000000c0: b636 8b3d a358 a6bc 3d35 5cbc 96c6 11bd
000000d0: 582e a9bd b84b 803d 07de 56bd e9b3 e1bd
000000e0: b1f8 12be e831 85bd 2e10 29be f00c f6bc
000000f0: 5730 53bd b049 6cbd 7366 01b9 a32f aa3d
00000100: d8cf 113c 4ddc 163e 999e b2bc f165 00be
00000110: d0ed d3bd 7da2 27be 3282 28be bdbc 43be
00000120: dfaa 0a3c 01df 17be 7e01 a0bc a28d a5bd
00000130: e7c2 2cbe 1847 87bb e0c7 11bd 8260 d7bd
00000140: 26ad 08bd 63bf 51bd 666b 56bc 8315 1fbe
00000150: 4d27 8abd b3d3 7bbd 8c92 cbbb 0175 babd
00000160: 1d09 24be 7d8e a5bb 2431 abbc 3ee2 85bc
00000170: 04bd 3fbe 1682 01be a119 1abe 14b9 25be
00000180: c973 c7bd 04f2 483d 05be 5ebd 5ba7 aebd
00000190: 7064 11bb 48e0 a1bd 5aa1 cebb 732e 0ebc
000001a0: 67e2 0bbe fca7 cbbc e715 39be e561 72be
000001b0: be9a 19be a049 12be b18d f2bd 2130 55be
000001c0: 70f8 3dbe d0fd 71be 84b0 94bd 5ca5 34bf
000001d0: d725 98be 9760 60be d9ef 57bd 9eb1 ccbd
000001e0: 5517 b7bd e1a1 b8bc 7859 b6bd fbe4 eabd
000001f0: 9faf 96be f385 e7bd 75c0 1ebe ef4b d63e
00000200: a53b 83be b8e9 8cbe 4a4a 13c0 5307 3b3f
00000210: e5ea 1f3e 0ea8 9e3f 90fc 863e eb39 4ebf
00000220: bfd9 893c 77d8 213f 2307 8b3e 3656 2e3f
00000230: ef0c 4b3f 9e21 513f 1720 023f b24d 75bd
00000240: ec06 543f dcdd de3e 2ee0 a43e 8f83 323f
00000250: 9f4b 4b3e e40f 21be 6e08 a8bd c7d8 5cbe
00000260: 75fe 633e 8367 153f 329f bbbe ca15 d2be
00000270: 0ddb 30be 3eff 26bf bd90 b1be 4743 a4be
00000280: de36 3bbe ae6c 20bd 1336 3fbe ee1b 9c3d
00000290: 72fb 7b3d c3ee c63e a552 32bf 04bb fa3c
000002a0: c9cb d03d fd73 7c3e 18c9 67be 3ba7 1fbe
000002b0: af79 a6be d428 5bbe 28f0 5cbe 46b0 19be
000002c0: c1ab d2bd ca9e 93be 73dd 1fbe 7fdc 5abe
000002d0: 4da0 81be 7bf0 2dbe 1e36 fabd e334 4cbe
000002e0: b2eb 14be 65a4 03be 0659 f7bd dc4a 92be
000002f0: b1f2 6abe 7848 03be 9350 063c 3569 3dbe
00000300: b9d7 07be 105f fdbd b919 2cbd e1a6 d9bd
00000310: 7cdd 20be 0aeb 28be dbbf 5cbe 4511 62be
00000320: e567 01be 42a2 6abe eb0f 81bd d391 32bd
00000330: 5973 e1bd 88ee 14be 74a3 01be 53d8 debd
00000340: 8252 f1bd fed1 bebb 97c4 bcbd a393 48be
00000350: 9bde 6ebd 7233 66be d695 40be be20 bdbd
00000360: fac4 54bd cf3d eebd 6623 babd a8b7 06bf
00000370: 17e8 e7bd 1990 3abe 5e85 03be 7157 13be
00000380: 6fbc d7bd 4d24 93bd 5190 cfbd 1672 68be
00000390: 11b3 36be 6f7d 5abd a388 21be 4425 cb3e
000003a0: 66ac 5dbe 533c 76be a514 f2bf a09d 253f
000003b0: 0abf 29bd 0368 823f 15db c53e 25ec 21bf
000003c0: 4bf3 2a3e 2812 1a3f 3ca0 b33e 8e0c 0b3f
000003d0: aacd 0b3f 8c2e 283f a8a1 b83e 8d07 b1bd
000003e0: cc8e 313f 75d8 c53e 0612 473e eb55 0f3f
000003f0: a1bc 433e 7728 67be 244e 16be 5151 b4be
-0.022987157 -0.01289664 -0.071071096 -0.042553652 -0.06329926 -0.15744336 -0.123622544 -0.020657502
-0.08942971 -0.07071288 -0.07657962 -0.011661425 -0.13169624 -0.07946281 -0.05594418 -0.15711962
-0.008366894 -0.10724819 -0.007479114 -0.022666698 -0.14228539 -0.12952918 -0.1549057 0.078444526
-0.06994982 -0.029421141 0.009993003 -0.11849441 0.007593088 0.09092907 0.18849804 0.10494077
0.0031327766 0.0034314494 -0.07504079 -0.18552846 -0.085685186 -0.13400151 0.039083246 0.002893316
-0.22726147 -0.08923271 0.0016020933 0.019442363 -0.08599527 -0.11400834 0.07809227 -0.016786905
0.06797545 -0.020305937 -0.013440427 -0.035589777 -0.082607925 0.06264442 -0.052457836 -0.11020643
-0.1435268 -0.065036595 -0.16510078 -0.030035466 -0.051559772 -0.05768746 -0.00012340564 0.08309867
0.0088996515 0.14732476 -0.02180414 -0.12538888 -0.103480935 -0.16370578 -0.16455916 -0.19114967
0.00846359 -0.14831163 -0.019531962 -0.08083655 -0.16871224 -0.004128348 -0.035591006 -0.10516454
-0.033368252 -0.05120791 -0.013087129 -0.1553555 -0.06745777 -0.06148119 -0.006212538 -0.09104348
-0.16019101 -0.0050523863 -0.020897456 -0.016343232 -0.18724447 -0.1264728 -0.15048839 -0.16183883
-0.09738881 0.04905893 -0.054380435 -0.08528014 -0.002218511 -0.079041064 -0.0063058557 -0.008678067
-0.13660584 -0.024860375 -0.18074761 -0.23670156 -0.15000436 -0.14285898 -0.11843432 -0.20819141
-0.18551803 -0.23631978 -0.0726023 -0.7056482 -0.2971637 -0.21911846 -0.05271897 -0.09994815
-0.08939997 -0.022538127 -0.089037836 -0.11469456 -0.29430863 -0.11304846 -0.15503104 0.41854808
-0.25631443 -0.27522063 -2.3014092 0.7305805 0.15616949 1.2395036 0.26364565 -0.80557126
0.016827462 0.63220924 0.27153882 0.681003 0.7931661 0.8169192 0.50830215 -0.05988855
0.8282306 0.4352864 0.32202286 0.6973199 0.19853066 -0.15728718 -0.08204733 -0.21567069
0.22265036 0.5836107 -0.36644894 -0.4103225 -0.17271061 -0.6523322 -0.3468074 -0.3208258
-0.18282649 -0.039166145 -0.18672971 0.07622515 0.061519094 0.38854036 -0.69657356 0.030606754
0.10195119 0.24653621 -0.22635305 -0.15591137 -0.32514712 -0.21402293 -0.21575987 -0.15008649
-0.10286666 -0.28832084 -0.1561182 -0.21373175 -0.25317612 -0.16986267 -0.12217353 -0.1994205
-0.14543036 -0.1285568 -0.12077527 -0.28572738 -0.22944142 -0.12820613 0.008197921 -0.18497165
-0.13265885 -0.12371647 -0.04201672 -0.10627533 -0.1570949 -0.1649591 -0.21557562 -0.220769
-0.12637289 -0.22913459 -0.06301864 -0.0435961 -0.11008329 -0.14544117 -0.12660009 -0.10881104
-0.11783315 -0.005823373 -0.09217184 -0.19587569 -0.058317762 -0.22480562 -0.18807158 -0.09234761
-0.051945664 -0.11632883 -0.09088783 -0.5262399 -0.113235645 -0.18219031 -0.12843844 -0.14388825
-0.10533988 -0.07184658 -0.10134948 -0.2269977 -0.17841746 -0.05334228 -0.15774779 0.3967687
-0.21647796 -0.2404645 -1.891255 0.6469364 -0.041441955 1.0187992 0.3864371 -0.6325095
0.16694371 0.60183954 0.35083187 0.5431603 0.54610693 0.65696025 0.36060834 -0.08644018
0.69358516 0.38641706 0.19440469 0.55990475 0.19114925 -0.2257403 -0.14678246 -0.3521829

fc1.bias f4 [128]
00000000: 3391 cabd b98c 5ebe bda6 e3bd f479 1bbe
00000010: 6a66 33be 74a2 78be cc88 4dbc e038 50bb
00000020: 431b a0bd ca16 0abe 88eb d3be d4aa 3fbe
00000030: dc76 68bd fc80 9c3c 3c98 13be c3af fdbd
00000040: 38e0 80be a5f0 16be 3440 b53a 551e 97be
00000050: c09b 3dbe 9539 fbbd 6632 c5be 2b00 80be
00000060: dd2c 03be d9f8 2abe 97dd 563c 35cd 003d
00000070: 62dc 04be 7378 c6bd cf63 e9bc b1ad b53d
00000080: dd7c b0be 81da e5bd 9d01 05be 185e 60be
00000090: 4273 a5bd 100e 5abe 4517 fdbe cb46 0c3d
000000a0: dc72 a3bd 5ac8 05be 9885 56be b4ae f6bc
000000b0: 2c43 25be 778e b8bd 3b9c b4bd ad89 55b9
000000c0: 93c1 ca3c af33 ccbc 3187 e7bc c8a2 253c
000000d0: 7a87 95bd c6af 35be 3f2f 5bbe 3599 3a3b
000000e0: b7e6 acbe 2b5c d0bd 90f2 95be a163 21be
000000f0: eb94 cb3c cf97 35be 9b81 f3bd a4d0 11be
00000100: 6951 77be 97ff caba a020 51be 7074 02bd
00000110: 7be7 9dbc 5104 47bd fdf4 d5bc e74e 5dbe
00000120: ebf5 b2bb ca08 bbbe 405a 53be f72b b0be
00000130: 1aaa 0abe a6a2 48be 6280 e43c 8142 f8bd
00000140: b866 72be 355c 87be ec17 d4bd fa56 3dbe
00000150: afc4 aabd 2629 ecbd b50b 03bd e003 b1bd
00000160: 53f8 d8bd 4ecf 32be 5c3b c1bd 26aa 3cbe
00000170: 5752 96be 0814 c4bd a4a2 12be e3d7 44bd
00000180: 90dd b1bd d031 08be 6c62 90bd 1f91 13be
00000190: 1e5b 7fbe 07b1 cabe 0ae0 53bd 9142 bdbd
000001a0: 92ec 033c 0bed 5ebd 208e fcbd c984 5dbe
000001b0: c9d3 73be 1535 85be cc6d 1cbe 240b 743d
000001c0: e98c dc3b f261 adbd fd36 61be 29ec 6ebd
000001d0: 8e50 92bd cca8 acbd 1c1a 65be 3ac1 efbc
000001e0: 403d cabd 3fa8 743b 361f bbbe 3d6e d2be
000001f0: 3915 75bc 4802 2fbe dfa5 12bd 6252 fbbd
-0.09890976 -0.21733369 -0.11115787 -0.1518324 -0.17519537 -0.24280721 -0.012544822 -0.0031772181
-0.078177 -0.13485256 -0.41390634 -0.1871751 -0.056753978 0.019104473 -0.14413542 -0.123870395
-0.25171065 -0.14740236 0.0013828338 -0.2951533 -0.18516445 -0.12266842 -0.38515013 -0.25000128
-0.12810083 -0.1669649 0.013114355 0.0314457 -0.12974694 -0.096909426 -0.028489975 0.0887102
-0.34470263 -0.11223317 -0.12988897 -0.21910894 -0.08078624 -0.21294427 -0.49431816 0.0342472
-0.07980892 -0.1306471 -0.209494 -0.030112602 -0.16138905 -0.09011548 -0.08818861 -0.00020364551
0.024750507 -0.024926988 -0.028262706 0.010109611 -0.07301231 -0.17742833 -0.21404742 0.0028472666
-0.3376977 -0.1017383 -0.29286623 -0.15760662 0.024851283 -0.17733692 -0.11889955 -0.14239746
-0.2415215 -0.0015487549 -0.20422602 -0.031849325 -0.019275418 -0.0485881 -0.026117796 -0.2161213
-0.0054614446 -0.36530143 -0.20639896 -0.34408543 -0.13541451 -0.19593295 0.027893249 -0.121220596
-0.23671997 -0.26437536 -0.10356125 -0.1849021 -0.08338296 -0.11531286 -0.031993587 -0.08643317
-0.10594239 -0.17461893 -0.0943515 -0.18424281 -0.29359695 -0.09574133 -0.14319855 -0.048057448
-0.08684838 -0.13300252 -0.070500225 -0.14410828 -0.24937102 -0.39588186 -0.051727332 -0.09241212
0.008052008 -0.05442528 -0.12331796 -0.21632685 -0.23811258 -0.2601706 -0.15276259 0.059580937
0.006730665 -0.08465947 -0.21993633 -0.05833069 -0.07144271 -0.08430633 -0.22373241 -0.029266942
-0.09874964 0.0037331728 -0.3654725 -0.4109973 -0.014958673 -0.17090714 -0.03580272 -0.12271573

fc2.weight f4 [64, 128]
00000000: 7544 e63c 9220 e9bd 0416 8fbd 769e a5bc
00000010: 9bfe 91bd 62ee 10be 4887 01be fce1 05be
00000020: e67a e13c 7c52 a0bc 03ce 19bd e5ad c03d
00000030: a670 5a3d 53f6 9e3d 380d 523c 8eb4 613d
00000040: 9795 4fbd aac0 3bbd d4eb 9fbc 5968 80bc
00000050: c238 54bc 62d4 3fbd 7a6f f1bc 404f 933d
00000060: bf47 803d c088 06bb 7038 a33c 718f a53d
00000070: ab87 6c3c 8194 0d3d 80df 96bc 2ef4 2b3d
00000080: 6805 eabd 449d 17bd 4061 d7bb 91d2 5abd
00000090: 169c bebd 0bbe 71bd 4efd c1bd 601e 6fbc
000000a0: 01ea 8cbc ec37 7dbb a977 e3bc 51ab 933d
000000b0: 009b 83bd 311a 3e3c 8e75 39bd 6cfa 03be
000000c0: b035 bcbd 9d87 86bc cfb5 3c3d 914e 11bd
000000d0: 6cac 033d 0c68 67bd ea1a 233d 44cf 1c3c
000000e0: d193 7fbc 2088 4d3c 3144 51bd 783f 4fbd
000000f0: f662 033d 1d7c e93b 8736 50bd 4e65 3dbd
00000100: 4d75 61bd ca0a 333d faf0 74bd 4194 a6bd
00000110: 4a1d 733d 4cb3 9abd 4c84 be3c 916b f1bc
00000120: 0ec2 96bd 1150 6bbd 14f4 91bc 71e3 f5bd
00000130: 441e 89bc 142c 9dbd 4c75 9b3c 9cd3 d93c
00000140: 0e20 723d 3b13 47bc 0923 a7bc c7aa 6bbd
00000150: 6afc 413d 7deb 8e3d 7455 94bc 2e58 563d
00000160: 3081 6e3c c24c d0bc bcaa ba3c 5872 ccbc
00000170: 1b6e 73bc 8aea 89bd 306d a4bb ae76 543d
00000180: 5fe6 88bc cab0 293d 18c2 33bd cc9e 05bd
00000190: e681 3a3d f742 77bc 5317 313c a3e4 57bd
000001a0: 9b57 2abd dcb5 dbbc d60c d83d e565 a93d
000001b0: cf86 623d 428b 90bc a6a4 07bd c70c 1dbd
000001c0: e300 2e3d ff06 a33d d336 78bd af50 a63d
000001d0: 145d d13c c975 91bd f70c 293c 8e0e 153d
000001e0: 8075 8e3b 6985 9cbd 1f05 f6bc e99b 4ebd
000001f0: 335e 0dbd 2e13 4a3d 8c20 a6bd 3838 43bd
00000200: d906 9ebd c3c6 3839 a91e 063a 7bf8 81bd
00000210: 2653 80bd 22e5 80be 4761 4cbd 8215 fbbd
00000220: 4aa5 b2bd 2cbf fc3a 9cda 86bd 1d60 45bd
00000230: fddb 4abd 5019 93bd ac87 99bb ae33 92bd
00000240: 1e22 b0bd 5ef3 993d f08b e43c f55e 3a3e
00000250: f1bc 503c f343 a5ba bb42 b4bd 1b3a f43c
00000260: b640 dcba ceaf 8b3d 5443 fd3c 3658 623d
00000270: ce73 b5bd 4c58 97bd eeb4 31bb 965b 4b3d
00000280: 9686 8ebd ad2e 2b3d a838 8b3d 45e3 983d
00000290: 62c5 793d 7442 9f3c b7c4 20be 158a aa3d
000002a0: 774f b43d 298a a6bc c7fa febd 5e77 76bc
000002b0: a8ec 58bd b2c6 5e3d 43ce c0bd 7b43 943a
000002c0: 702b 743d 42ae 423d b233 453d ac90 b8bd
000002d0: 5cf0 963c 1485 7abd 9c80 8fbc ce98 4d3c
000002e0: 376c a8bd 044a 8bbd ea77 aabd 17a5 bebd
000002f0: 74cb 083d fcc6 b3bd f24c 293c 6a3e 50bd
00000300: 20f7 81be 04e3 22bd c918 9bbd 480a 84bd
00000310: 7dc5 25bd 6fde 85bd ede0 1a3d b882 21bd
00000320: 47cd a13d 923f 12bc 8dfc 7c3d 862d a4bc
00000330: c835 003c 18b2 ce3b 90fa 2ebd f6ce b1bd
00000340: f490 a0bd 334e 90bc 6e8d 85bd 0a0c 7d3d
00000350: ea74 463d 92f4 3a3d 7862 0ebd a0e1 41bb
00000360: 0c25 333d bd30 633d 6bc1 993c 77a7 9dbb
00000370: 03d8 69bd 4ff7 5d3d 1494 04bc 2876 28bd
00000380: 9bba 50bd 8106 4c3d 8808 74bc 0dfe 19bd
00000390: e602 443d b77a 1dbd 774a 813d 2cf9 193d
000003a0: 552d 27bd 3577 dfbd a36b 44bd 3943 6abd
000003b0: e810 283b f160 0dbc ae65 783d 7a60 3c3d
000003c0: d728 9fbc 6abc bebd 56f1 f6ba 9169 b03d
000003d0: cea9 0fbd ce87 f6bd 5b91 e739 e1df 2abd
000003e0: 1261 2bbd 1058 103d cdc6 2dbd e8fc a8bd
000003f0: c65e ce3d 60df 813d 68b6 85bd 4057 3c3b
0.028108815 -0.113831654 -0.06986621 -0.020217162 -0.0712864 -0.14153436 -0.12649262 -0.13074487
0.027524423 -0.019570582 -0.037549984 0.09408168 0.053330086 0.07761826 0.012820534 0.05510383
-0.05067977 -0.045838036 -0.019521631 -0.015674757 -0.012952985 -0.046833403 -0.029472101 0.0719285
0.062636845 -0.0020528287 0.019924372 0.08084 0.014436643 0.034565452 -0.01841712 0.041980915
-0.114268124 -0.037015215 -0.0065728724 -0.053423468 -0.09307115 -0.05901913 -0.09472142 -0.014594644
-0.017201426 -0.0038638068 -0.02776702 0.072104104 -0.06426048 0.011602924 -0.045278125 -0.12888497
-0.091899276 -0.016422087 0.046071824 -0.035475317 0.032146856 -0.05649571 0.03982059 0.0095709
-0.015599207 0.012544662 -0.051090423 -0.050597638 0.0320768 0.007125391 -0.05083325 -0.04623919
-0.055043507 0.04371146 -0.059800126 -0.08133746 0.059354104 -0.075537294 0.023256443 -0.029470237
-0.07361232 -0.057449404 -0.01781658 -0.12006272 -0.016738065 -0.07674423 0.01897683 0.026590161
0.0591126 -0.012150581 -0.020402448 -0.057535913 0.04735986 0.069785096 -0.018107153 0.05233019
0.014557168 -0.025427226 0.02278649 -0.024956867 -0.014857794 -0.06734188 -0.005017899 0.051870994
-0.016711412 0.041428365 -0.043886274 -0.032622144 0.045534037 -0.015091649 0.010808784 -0.05270828
-0.041587453 -0.026820116 0.10549323 0.08271388 0.055304345 -0.017644528 -0.033116005 -0.038342264
0.042481314 0.07960319 -0.06059916 0.08120858 0.025557078 -0.07102544 0.0103180325 0.036390834
0.004347503 -0.076426335 -0.030031739 -0.050441656 -0.034513664 0.049334697 -0.081116766 -0.047661036
-0.0771615 0.00017621652 0.0005116263 -0.06346222 -0.06265859 -0.25174814 -0.04989746 -0.12259962
-0.08722933 0.0019283048 -0.06584665 -0.048187364 -0.049526203 -0.07182562 -0.004685363 -0.07138763
-0.08600257 0.07517122 0.027898759 0.18200286 0.01274036 -0.0012608751 -0.0880179 0.029812863
-0.0016803953 0.068206415 0.030915894 0.055259906 -0.088599786 -0.07389888 -0.00271159 0.04964789
-0.06959264 0.04179256 0.06797916 0.07465223 0.060979255 0.019440867 -0.15700041 0.08327118
0.08804219 -0.020329552 -0.12450176 -0.015043108 -0.052960068 0.05438871 -0.09414341 0.0011311615
0.059611738 0.047529466 0.048145004 -0.09011969 0.01842516 -0.06116207 -0.01751738 0.0125486385
-0.08223765 -0.06801227 -0.08323653 -0.09308832 0.033397153 -0.08778188 0.010333287 -0.050840773
-0.25383854 -0.03976728 -0.07573087 -0.064472735 -0.040471543 -0.065365665 0.037812162 -0.039431304
0.07900482 -0.008926289 0.06176429 -0.020041239 0.007825322 0.0063078515 -0.042719424 -0.08682053
-0.078401476 -0.017615413 -0.06521116 0.06177906 0.04845134 0.045643397 -0.034761876 -0.0029583946
0.043736503 0.055466402 0.018768987 -0.004811223 -0.05709077 0.05419093 -0.008091945 -0.041128308
-0.05095921 0.04981089 -0.014894612 -0.037595797 0.047854327 -0.038447108 0.06313031 0.037591144
-0.040814716 -0.10911409 -0.047954213 -0.057193015 0.0025644843 -0.00862907 0.060643844 0.045990445
-0.019428654 -0.09313281 -0.0018840234 0.08613885 -0.035074048 -0.120376214 0.00044168052 -0.041717414
-0.04184062 0.035240233 -0.04242592 -0.08251363 0.1007667 0.063414335 -0.06528932 0.0028738528

fc2.bias f4 [64]
00000000: 74b2 6abe c174 edbd 7c6b 24be 9e74 033e
00000010: b0c4 febd ef53 fbbe 3669 c93d 8d77 0340
00000020: e1d7 c2bc 9f12 4c3e ceea 2cbe dcf1 64be
00000030: 48b6 95be 07b2 0c3e 88a9 fbbe e2c5 71be
00000040: a659 6440 039e 14be 04ad 6fbc 42d6 11bf
00000050: e6a3 47b9 4108 fabd 49b4 c93f a6b4 89bd
00000060: 5c2d 2cbf 7189 d8bd 1d23 f53f 8304 dabe
00000070: b5f3 3040 1249 a6be abbc dfbe 6914 c83e
00000080: 11ab 0abe 5d98 293f cfa1 283f 6fcc debe
00000090: 3bdd e13f d645 f3be e9a5 30be fea7 ddbd
000000a0: 5000 3b3f ab11 e5be 81c2 13be 58fa 41be
000000b0: b321 3dbe 7902 f93f 5b27 123f 3f68 ddbd
000000c0: 72de 0440 ed3b e0be 15b8 4dbd e3d1 e2be
000000d0: 05d5 53be 59be 353f f1c3 7fbe dbca 26be
000000e0: 5e47 2640 5e40 22bf a255 0ebe 5baf dbbe
000000f0: 3941 8cbe 1c0c 1340 6d9d 3fbe 6b07 bdbd
-0.22919637 -0.11594535 -0.16056627 0.12837455 -0.12439859 -0.49087474 0.098345205 2.0541718
-0.02378458 0.19928978 -0.16886446 -0.22357887 -0.29240632 0.13739787 -0.4915278 -0.23610643
3.5679717 -0.14513402 -0.0146286525 -0.56967556 -0.00019039176 -0.122086056 1.5758144 -0.06723909
-0.6725671 -0.1057309 1.9151341 -0.42581567 2.7648747 -0.32477623 -0.4369863 0.39078072
-0.13541819 0.6624811 0.658719 -0.43515345 1.7645639 -0.47514218 -0.1725079 -0.108230576
0.7304735 -0.44740042 -0.14429666 -0.18943155 -0.18469886 1.945388 0.570913 -0.10810899
2.076077 -0.4379572 -0.050224382 -0.44300756 -0.20686729 0.7099357 -0.2497709 -0.1628832
2.598106 -0.63379467 -0.13899854 -0.42907223 -0.2739351 2.297614 -0.18712397 -0.092299305

fc3.weight f4 [3, 64]
00000000: bf5b 2bbd 8532 0ebd b3f1 653d b29a efbd
00000010: e9e9 f6bd fee9 393f 2ad5 bfbe 7205 8fbe
00000020: 6352 56be 6d5d 313c 51f1 053c 16aa cdbd
00000030: f4fc 28bd 91e6 47be d8fd 243f 4581 bf3c
00000040: 4a08 713f 203e e339 2333 80be cff5 ae3d
00000050: ff9f 50bf 4b9c 3a3d b785 2dbd d47e e5bd
00000060: 5ccb fa3e 8c61 cd3e d402 9abe c569 183f
00000070: cb1d e03e 8955 873d 2722 1f3f d8e5 d43d
00000080: 80c6 ab3d 819e f93d 4878 3dbe d367 2c3f
00000090: b202 a9bd 7c8b 1a3f c23d 19bd 226e 043c
000000a0: 9ed0 403f 86ed 2c3f 0902 5cbd 5b1d cdbd
000000b0: d31c 58bd f8f6 28bd 5ac2 3abd 4def bdbd
000000c0: 57af 6dbf e1ba 363f 8ba9 0a3d e65f 353f
000000d0: c072 cc3b 77f5 b8be 5fce 02b9 d3bf 21be
000000e0: eb0e 02c0 e322 263f d6d5 4d3c c5ac 163f
000000f0: ea9e c23c 3e93 09bf 6e34 cdbb 7b18 99bd
00000100: 95ff c7b9 5677 ac3b 4526 0dbd e010 3c3e
00000110: 4425 32bc 1365 343f 7390 06bc c798 1ebf
00000120: afdd 9c3c 65f1 143d 7eb3 0bbc f121 8d3b
00000130: 59a4 383c 8087 2bbe 4305 2e3f 8f3d b73c
00000140: 5909 653f 8c95 d6bc 9e9a d6bd 0acd 483d
00000150: c0eb 2abf bdd9 133e cfd8 0dbe 44ca 7d3d
00000160: b32e 083f 6501 8d3e 1dce cabe d414 1e3f
00000170: 0482 133f 663f 723d 5cef 243f fbdb 9d3d
00000180: 5732 8b3a 1d9c b03e 0179 62bf eb90 2f3f
00000190: 16bd 373e ef93 1f3f f3f4 13ba 9a87 08be
000001a0: 5568 2a3f aac2 243f 9f55 713c 67fa 1abd
000001b0: 4a3f a9bc cc06 203e e374 2fbf 33e2 a1bc
000001c0: 0ede 81bf e103 313f f376 393e 09bf 333f
000001d0: 5563 e5bd 5f16 f03a d1c3 68bc 9892 a2bc
000001e0: 4c33 abbf 9ab5 203f 60ef d13a 75f8 0b3f
000001f0: ccc0 013c 6162 81bf f1f6 0c3c f61b 98bc
00000200: ea8f 9dbd 7057 9dbe f98f 1c3c 0bcc 003d
00000210: 4ba8 29bd 5494 2c3f a6d9 89be 6ca7 95bf
00000220: 6029 74be 9ed3 e4bd c6ca 07bd b360 3f3d
00000230: f1e1 34bb 7325 83be a038 2d3f 5c89 d9bd
00000240: 6dc9 573f 661e 133b 6f27 d2bd 20e3 4a3e
00000250: 6109 52be 0c23 143d 46b0 8abe eaf7 ddbb
00000260: 0cb2 043f ae12 033f 4abe 72be c2a8 1b3f
00000270: 81dc e73e 9a6a 81bb 97c7 273f 21a3 5d3e
00000280: f25e fd3a bbd1 cf3e 35ba 99bf e602 2c3f
00000290: 82e4 c23d 124c 1c3f 98c6 9ebd 6a0d 5ebd
000002a0: c71f 6b3f 91e0 2a3f 0361 5e3c dd9c 793d
000002b0: 47a0 8bbd 3c13 4e3c 7323 ecbd 6b71 36be
000002c0: 350b 83bf 743a 2d3f 702b 1c3e 61a0 3f3f
000002d0: c285 afbd bfad 7ebe 04e4 c6bd 4b64 513d
000002e0: dc38 57bf 3a80 243f 2b41 acbd 33ae 193f
000002f0: a074 10bd 5f59 64bf dcd7 c13d 0cd9 eebb
-0.041835543 -0.034716148 0.056138705 -0.11699428 -0.120563336 0.7262267 -0.3746732 -0.27933842
-0.20929866 0.010825497 0.00817521 -0.10042207 -0.04125686 -0.19521548 0.64449835 0.02337707
0.94153273 0.000433431 -0.25039014 0.08542978 -0.81494135 0.04555921 -0.04236385 -0.11205831
0.48983276 0.40113485 -0.30080283 0.5953639 0.4377273 0.066081114 0.6216149 0.10395402
0.0838747 0.12188435 -0.18502915 0.67345923 -0.08252467 0.60369086 -0.037412412 0.008082898
0.75318325 0.6754993 -0.05371288 -0.10015365 -0.052761864 -0.041251153 -0.045595504 -0.092741586
-0.9284567 0.71378905 0.033853095 0.70849454 0.006239265 -0.36124775 -0.00012474645 -0.15795831
-2.0321605 0.6489698 0.0125631895 0.58857375 0.023757417 -0.537403 -0.0062623536 -0.074753724
-0.0003814666 0.0052632494 -0.034460325 0.18365812 -0.010873143 0.70466727 -0.00821315 -0.6195187
0.019148676 0.036363024 -0.008526681 0.0043070246 0.011269652 -0.16750908 0.6797678 0.02236822
0.8946739 -0.026194356 -0.1047871 0.049023665 -0.66765976 0.1443853 -0.13852237 0.061960474
0.5319626 0.27540126 -0.39610377 0.6175053 0.57620263 0.059142493 0.64427733 0.077079736
0.0010619861 0.34494105 -0.8846589 0.685805 0.17943224 0.62335104 -0.0005644105 -0.13332978
0.6656545 0.64359534 0.014729886 -0.03783646 -0.020660061 0.15627593 -0.6853773 -0.01976118
-1.0145891 0.69146544 0.18111782 0.7021337 -0.11200587 0.0018317214 -0.0142068425 -0.019845292
-1.337503 0.627771 0.0016016774 0.5467599 0.0079195015 -1.0108148 0.008603797 -0.01856802
-0.07693465 -0.30730772 0.00955581 0.03144459 -0.041420262 0.6741383 -0.26923865 -1.1691718
-0.23843908 -0.11173175 -0.033152364 0.04672308 -0.0027600492 -0.2561451 0.6766453 -0.10621902
0.84291726 0.0022448539 -0.102614276 0.19813204 -0.2051139 0.036166236 -0.2708761 -0.0067739384
0.5183418 0.5120038 -0.23705402 0.6080438 0.4528542 -0.0039494755 0.65538925 0.2164426
0.0019330664 0.405897 -1.2009951 0.6719192 0.09516241 0.61053574 -0.077527225 -0.05421201
0.91845363 0.6674891 0.013572934 0.060940612 -0.0681768 0.012577828 -0.11530199 -0.17816703
-1.0237795 0.6766732 0.15250945 0.74854094 -0.08570434 -0.24870966 -0.09711459 0.051121037
-0.84071136 0.6425816 -0.08410867 0.6003143 -0.035267472 -0.8919887 0.09465 -0.0072890576

fc3.bias f4 [3]
00000000: 51c3 85bf f01a 14bf c4db 87bf
-1.0450231 -0.57853603 -1.0613942
