Models/DQN/agentDQN_2020-2022_dqn_v3_200_EPS_4.pth (torch, 90039 bytes, 6 tensors)

fc1.weight f4 [128, 104]
00000000: 056e ebbc 19fb 0ebc 14aa a1bd c47c 26bd
00000010: 7fb5 56be 7716 29be ae97 5abd 99a8 44be
00000020: 7d86 14be 9d09 8fbd c5f2 efbc 99ac 00be
00000030: 9366 28be 8835 38bd 76ad 25be 0311 13be
00000040: 0a54 58bd acac 16bd 24fb 33be 1634 f2bd
00000050: 450b 4abe a448 e8bd e857 68bd b02b 6e3d
00000060: 0e88 2fbe 95a7 e5bd f749 4ebd 2bbd c13d
00000070: a257 d4bd c11e cd3d 9721 82bd f9bd 163d
00000080: 7deb 5bbd 8771 ce3d 6e1e 72bd d4b3 cb3c
00000090: 46aa 483d 28fc 063e e6f0 dd3c 7f31 70bc
000000a0: 01e0 9dbc 3b12 ccbb d576 c03d b059 2e3e
000000b0: dfab 60bd 7cc0 f7bd 5581 9b3d 847e 5ebe
000000c0: ffbe 0a3e 44c6 053e abae cbbd e530 19be
000000d0: a6c8 d4bd e058 98bd fdaf ae3b fe50 08be
000000e0: 9fc5 10be 3c71 66be 6509 e6bd 20ab 7a3d
000000f0: 6115 c5bd 9b5b 103c bb33 8bbc d8ca 63bc
00000100: 47bb ea3d c45f cf3d 21b4 f4bc a08a 77bd
00000110: ca90 0ebe e171 04bd 2073 51bd 620d 5bbe
00000120: aba9 24be 35ef 6ebd a233 debd 0b22 5dbe
00000130: bc28 15bd a321 2dbe 8252 2cbd 1465 c3bd
00000140: 139b 52be cb6b 3bbd a842 c6bd a13d 2cbd
00000150: bfae f3bd e6f0 43be d176 57be 3837 26bd
00000160: 2e2b 1fbe 30fd 3bbe 0d3c 67bd 713e bebd
00000170: 3205 8bbd ef28 4bbe 4115 4ebe 81d0 bebc
00000180: ddd6 0abe 0b04 7dbe 03de 8fbd f8ac 06be
00000190: 0e2a c4bd 32fa 373d 7df6 1fbe dcff a6bd
000001a0: 1031 0cbc cef0 9fbc 03f0 bebd 1f86 d3bd
000001b0: bca5 6abe d25d 5cba c5e8 d9bb 726e f1bd
000001c0: 15b0 30be 7544 80bd 18da adbd 601b 2cbe
000001d0: 4898 3dbe fa21 13bd 968d 6cbe 12a2 67be
000001e0: cacb 66bd 1d22 0dbe fa90 2fbe bf5c 08be
000001f0: 80b7 dfbd 32c1 54bd d7a7 37be b849 50bd
00000200: 2383 40bd 9869 05be 4dec 8dbd 7624 b7bc
00000210: c3ba 713d 63d0 dcbc 5389 533d 1407 09bd
00000220: 4c14 68bd ff00 dcbd 9e4a 50bd 1dbf f9bd
00000230: 32f8 3e3d 8a69 813d 5892 c23d ad60 b23d
00000240: c482 06bd 9721 0bbd b598 893c cd80 67bd
00000250: e07f 95bd 3bce 27be a544 64bd df72 eebc
00000260: a729 d23d e3bf fbbd 6384 90bd 8929 09be
00000270: a128 0ebe b73a 70bc 5d8f a63d b8b5 56bd
00000280: 537b 1bbe db41 e0bd ba36 cdbd 4408 853d
00000290: 2009 adbd 8990 8abd 4cf0 21bd 3130 27bd
000002a0: 8b8c 15bd 5862 633e c8a7 29be da0f 99bd
000002b0: e8c1 30be ef20 0abe 4ead 2abe 2586 69bd
000002c0: 3ab0 43be 0d4a 03be b0ab 22be 5b1a 43bd
000002d0: f727 18be 8be8 43bd c38b 43bd 5a2b 57bd
000002e0: 8c11 3bbe b586 37be c03b 24bd d5ee 9ebd
000002f0: aa77 c0bd 06ab 4dbd 018d 0cbe c911 67be
00000300: 02ca 4bbe deee 72be 8d90 6dbe 3c2c 35be
00000310: 428d 71be 0199 5bbe 1336 15bc f8c3 97bd
00000320: 1d32 8ebd d91a 90be fc27 2ebe f778 01bd
00000330: 9c03 e9bc 14fd 7cbc 6423 6cbd 4fb1 83bd
00000340: d560 e6bd 89e7 f6bd 2ddd 80bf 8179 99be
00000350: 6a2d 1abe 4e57 d5be d785 c1be bcbc 2abf
00000360: 8a3c bdbe 283a edbd f5ee b1be ce78 cebf
00000370: 1805 d0be e65b b4be e5c3 b13e 0b5a 223e
00000380: 0ac9 1fbf e021 f6bd 5d64 9f3e 775e 31bc
00000390: 8861 0fbf e612 393e a359 ad3d 8471 2d3f
000003a0: d659 eebc c882 f9be 4465 dac0 e6b6 863f
000003b0: 6c0b 1dbf 6c49 2040 d62b 3c3f cecd edbf
000003c0: e6f6 c23f 793c 0240 b488 c03f 3166 343f
000003d0: 5ae3 0040 9ae6 d73e 87a8 913f 2d87 eabe
000003e0: 99b9 2e3f 70b7 8dbd d7bf d1be 28a9 723f
000003f0: a02b c3bf ba89 10bf c186 8c3f 4791 a8bf
-0.028738985 -0.0087268585 -0.07893768 -0.04064633 -0.20967673 -0.16512476 -0.05336731 -0.1920494
-0.14504428 -0.069842555 -0.029290566 -0.12565841 -0.16445379 -0.044972926 -0.16179451 -0.14361958
-0.05281452 -0.036785766 -0.17576271 -0.11826341 -0.19730861 -0.1134198 -0.05672446 0.058147132
-0.17141744 -0.11213604 -0.050363507 0.09459909 -0.10368277 0.100156315 -0.06354063 0.036802266
-0.053691376 0.10080247 -0.05911105 0.024866022 0.04899051 0.13182127 0.027092408 -0.014660238
-0.019271852 -0.006227759 0.093976654 0.170264 -0.05485141 -0.1209726 0.075930275 -0.2172795
0.13549422 0.13063914 -0.09945425 -0.14960058 -0.10389833 -0.074388266 0.005331038 -0.13312146
-0.14137886 -0.22504133 -0.112322606 0.061198354 -0.09623218 0.008810903 -0.01699244 -0.013903342
0.114615016 0.10125688 -0.029871048 -0.060434937 -0.1392242 -0.032335166 -0.051135182 -0.21391824
-0.16080348 -0.058333594 -0.10849692 -0.21595018 -0.0364158 -0.16907363 -0.042070873 -0.095407635
-0.20566969 -0.045757096 -0.096806824 -0.04205096 -0.118985645 -0.19134864 -0.21041419 -0.040580004
-0.15543815 -0.18358302 -0.056453753 -0.092892535 -0.067881 -0.19839834 -0.20125295 -0.023292782
-0.13558526 -0.24708574 -0.07024767 -0.1315192 -0.09578334 0.04491634 -0.15621372 -0.0815427
-0.008556619 -0.019524004 -0.09323122 -0.10328316 -0.22914785 -0.00084063143 -0.0066500627 -0.11788644
-0.1725467 -0.06263057 -0.08488864 -0.16807318 -0.18515122 -0.035921074 -0.23100886 -0.22620419
-0.056346692 -0.13782544 -0.17145148 -0.1331663 -0.10923672 -0.051942058 -0.1793512 -0.050851554
-0.04700006 -0.13028562 -0.069298364 -0.022356253 0.059016 -0.026954835 0.051644634 -0.033454016
-0.05665998 -0.107423775 -0.05085241 -0.12194655 0.046623416 0.06318958 0.09500569 0.08709846
-0.03283955 -0.03396758 0.01679645 -0.05651932 -0.07299781 -0.16387264 -0.055729527 -0.02910751
0.10261851 -0.12292459 -0.07056501 -0.1339475 -0.13882686 -0.014662436 0.08132813 -0.052419394
-0.15183763 -0.10950061 -0.10020204 0.06495717 -0.08449006 -0.06765849 -0.039535806 -0.040817443
-0.036510985 0.22205484 -0.1656791 -0.074737266 -0.1726147 -0.13489126 -0.16667673 -0.057012696
-0.19110194 -0.12821217 -0.15885806 -0.047632556 -0.14858995 -0.047829192 -0.04774071 -0.052531578
-0.18268412 -0.1792248 -0.040096045 -0.07760397 -0.09397824 -0.05021193 -0.13725664 -0.22565378
-0.19901279 -0.23723933 -0.23199673 -0.17692655 -0.23589042 -0.21445085 -0.009107131 -0.07410425
-0.06943152 -0.28145483 -0.1700744 -0.0316095 -0.028444104 -0.015441198 -0.05765094 -0.06430303
-0.11248938 -0.120558806 -1.0067497 -0.29975513 -0.15056387 -0.4166817 -0.37797424 -0.66694236
-0.3696025 -0.11583358 -0.34752622 -1.6130617 -0.40628886 -0.35226363 0.34719768 0.15854661
-0.62416136 -0.1201818 0.3113126 -0.010825745 -0.56008196 0.18073615 0.084643625 0.67751336
-0.029095571 -0.4873259 -6.8248615 1.0524566 -0.61345553 2.5044813 0.7350439 -1.8578432
1.5231597 2.034941 1.5041718 0.7046843 2.0138764 0.42168123 1.1379555 -0.45806256
0.6825195 -0.069197536 -0.40966675 0.9478936 -1.5247688 -0.56460154 1.0978624 -1.3169335

fc1.bias f4 [128]
00000000: df2d 27be ab80 b9bd 4600 e4be 8177 99bd
00000010: 849a ccbd 246c eabe 6f89 e9bd f511 12bf
00000020: d1cc 3abc 722f b4bb 7c39 cdbd 3b1a 36bd
00000030: 2af5 6cbe 4cb1 1dbd 1aeb 5cbd 5a5b 43be
00000040: 26aa 87bd 8d0b b9bd 7632 bebd 364a 17be
00000050: 9d2d ebbe 8f0b 39be 188d 1bbe d5ea 533d
00000060: cc1f d6bd ff53 73be c0cb bfbd 50c0 a5be
00000070: 6c13 d4bd 549a 31be a9a9 9f3e b4b3 04be
00000080: f15d bebe 5954 6bbe 9c22 443d 0dc7 22be
00000090: d9ce 2abd 4a0f 25bd 9d01 10bd 0e9f 33bc
000000a0: e416 e63c a8d6 dcbd 7373 36be 7144 2fbe
000000b0: a5b2 dbbe fb49 4cbd c21e 7dbd 7e96 d5be
000000c0: 9ebb 43be 69dd ccbd 5dfa eabc 3317 d73c
000000d0: 5382 43b9 e383 42be cffd a5bd 8c83 e2bd
000000e0: 227f b6bd b10b a3bd 961e a2bd 3043 0fbe
000000f0: e6ba dfbe e96c dcbd 0c64 8cbe 21ea 1dbd
00000100: a7db 333e 0a83 13be 033c 8fbd c4af 633d
00000110: 9f32 d7bd 278f f2be 5333 d4bd ff7e f4bb
00000120: 8f07 b8bd 6e2f b0bd f8f2 7bbd 5a73 6f3b
00000130: d032 3abe ac57 59be 75ad 0dbe e8a9 cdbd
00000140: e430 5abe 4abd 05be cf6b 3bbe b555 1fbd
00000150: 3897 e3be f662 1e3d 76bc 78bc ebe5 21be
00000160: 1563 c4bd f688 88be 6fe9 debd f766 1f3e
00000170: 29f7 b7bd a183 26be 3cbd 2fbe 84d5 22be
00000180: 6803 39be 8919 44be 782f 6cbd 6a6a 1a3d
00000190: 53c3 b2bb 9232 d1bd 6a85 6dbd 300d 46bd
000001a0: 8387 cdbc bd61 7cbd b351 873c efa7 f8bc
000001b0: d039 bbbe 9ecf 09bd 9126 e3ba 8f2e c0bd
000001c0: a7ef d6bd 863d cabe d32b 33be 73e5 e0bd
000001d0: e7a5 71bd 0eed 343d 32ba 5abe 3df6 3d3d
000001e0: 7f89 f6bc 6dfd 2abd 3352 a8bd c6d0 edbd
000001f0: ff92 64bd 0312 eabd 5b41 f6bd 0c15 60bd
-0.16326092 -0.090577446 -0.4453146 -0.07493497 -0.09990409 -0.4578563 -0.114031665 -0.5705865
-0.011401371 -0.00549882 -0.1002073 -0.04445861 -0.23140398 -0.03849916 -0.053935148 -0.19077817
-0.0662425 -0.09035406 -0.092869684 -0.14774403 -0.45933238 -0.18070816 -0.15190542 0.051737625
-0.104552835 -0.2376251 -0.09365034 -0.32373285 -0.10355267 -0.17344028 0.31184128 -0.12959176
-0.37181047 -0.22981395 0.04788457 -0.15896244 -0.04170117 -0.040297784 -0.03515779 -0.010963215
0.028087087 -0.1078313 -0.17817478 -0.17115952 -0.42909732 -0.04987524 -0.06179691 -0.4171638
-0.19114539 -0.10003168 -0.028683836 0.02625618 -0.00018645199 -0.18995623 -0.08105051 -0.11060247
-0.089109674 -0.07961214 -0.0791599 -0.13990474 -0.4369728 -0.107629605 -0.2742008 -0.03855336
0.1756426 -0.14405456 -0.06993868 0.055587545 -0.10507702 -0.47374842 -0.10361352 -0.007461428
-0.08985817 -0.086027965 -0.06151101 0.003653726 -0.18183446 -0.2122485 -0.138357 -0.10042173
-0.21307713 -0.1306049 -0.18302844 -0.038900096 -0.44451308 0.038668595 -0.015181651 -0.15810363
-0.09589211 -0.26666993 -0.10884368 0.15566622 -0.08982689 -0.1626115 -0.17162031 -0.15901762
-0.18067706 -0.19150366 -0.057662457 0.03769914 -0.0054554134 -0.10214724 -0.05798856 -0.04835242
-0.025089031 -0.061616648 0.01651845 -0.030353514 -0.36567545 -0.033645265 -0.0017330219 -0.0938388
-0.10494929 -0.39500064 -0.17497186 -0.10981264 -0.058996107 0.044171385 -0.2136009 0.04637741
-0.03009486 -0.041745592 -0.08218803 -0.11612086 -0.05580425 -0.11429217 -0.12024184 -0.054707572

fc2.weight f4 [64, 128]
00000000: bb7b cebc f6bd 993b d8d0 613c 703d 953b
00000010: 5455 513d a63d 40bd dc3e 6dbc b66c a33c
00000020: 6f2e 933d 6262 d4bb cad6 083d 49bd b5bd
00000030: 47be 06bd 03ec 9dbd b011 0c3d 828e 97bd
00000040: 246c adbc 88ab b2bd da79 963d d90f 1abd
00000050: d94f 8b3b af1f a7bd 8d36 bebd 9fda 97bd
00000060: a9c1 24bd f5fb 7cbd 1c80 833c 3b07 88bd
00000070: 9713 993d 7f6f d4bd 1e56 b3bd 8024 f2bd
00000080: 0c7c cfbd 6442 70bd 03f8 1dbd 1c10 4fbd
00000090: 8cc7 70bd 3bc2 9dbd 7388 3bbd c618 8fbd
000000a0: 003e c73b 4dda bbbd 195e 8b3d c698 a8bd
000000b0: c5a6 feba 911c a2bd db5f 583d e64f 923c
000000c0: 8598 813d aef4 5a3d 9b6b 123d ef9e 8e3d
000000d0: e137 2ebd c01b f1ba 394f 80bd c1c4 8d3d
000000e0: a44c 96bd 633b 35bd ca38 1c3d a4d3 13bd
000000f0: b86a 57bd 6f69 2bbd 40d1 9abc b09d 7cbd
00000100: 8a96 febd 41b8 bbbd c5f4 9c3d 20d7 af3c
00000110: b0a3 cbbc 67f3 243d 44d0 bfbd 8ffc 4cbd
00000120: 40ff a83b 3813 c3bc c7a6 a43b 219c 9a3c
00000130: b125 d23c 7939 bebd 6b69 9bbd e677 88bd
00000140: 16f7 85bd 98ef 15bd 48c4 56bc 08bd 9cbd
00000150: 49ba 573d 0c8a 853d 98ea 7dbc 251b 803d
00000160: 5d0f 54bc fc3d 2ebd d437 af3c 251f 4ebd
00000170: 7ec4 183d 960e 673d 61db 87bc b02d 7ebd
00000180: 868f 2fbd af75 ebbd 82d5 053d 1e7a 02bd
00000190: 10ab 87bd a0f2 babc ed56 8d3d d407 9e3d
000001a0: 26c5 693d 0085 3ebc e820 67bd 7ac4 273d
000001b0: 7895 3dbc fe8b 60bd 1f97 893d b96a 9cbd
000001c0: 8e1b 3c3d 19eb b3bd d922 9ebd 6023 56bb
000001d0: 3ddb a9b9 7524 9e3d 6fa5 9e3b 80be f93a
000001e0: 1491 853c bec3 1c3d 1ddd c1bd f88e 20bc
000001f0: 79f7 db38 0bef a9bd e24a 4b3d b1cc 8c3d
00000200: 9df4 2f39 886a a9bc 2519 29bd ec74 26bd
00000210: 40c3 f9ba 22c1 5d3c b978 803d a4ae e4bd
00000220: 1664 96bd 2dd4 89bd d3d7 5cbc 2764 5fbb
00000230: dcaa cbbd 0e05 babd e54f b5bd 5f4f 2abb
00000240: 5423 f7bc 4fef 393c c775 80bd 21d4 c6bd
00000250: d32e c5bd ea32 953b 6e59 cc3c 6881 77bd
00000260: 9689 31bd 7418 813d ccc8 91bd 190b 43bd
00000270: 7187 703b 5e5a 6fbd ee4c e1bd cdd7 4fbc
00000280: 9646 95bd 509d f23b c5ef 97bc 5b1d 8d3d
00000290: a339 9e3d 8dd2 1abd 003c 9c3c 6147 9ebd
000002a0: b440 8e3d fd16 17bc 8abc 153d e90e 773d
000002b0: 6a5f 9e3c 1488 b8bd 1e9b 0bbe aced c2bd
000002c0: c097 1d3c c166 283c 6054 4f3d 3aae 803d
000002d0: f5e4 f83c 681f 21bd 0102 4abd 0891 853c
000002e0: 621a 97bd ba9e bcbd 0b17 50bd ea71 5a3c
000002f0: dcbc 1b3d 6787 88bb 6ec6 5ebd 39c1 aa3d
00000300: 7a4b 7dbd a0c0 abbd 97d3 1c3d 6d59 f53c
00000310: 42a1 03bd 8e80 d3bc 78f1 98bc 0bed 62bd
00000320: c173 babd bc0d bc3d 14e9 3f3d 9570 d3ba
00000330: 56ea e4bd 8587 dabd b226 23bc 66a9 bf3c
00000340: d8d0 49bc 6080 2f3d a2cb 47bd ed7a ad3c
00000350: 22b1 dbbd 287c 843d f0a2 90bc 013b 373d
00000360: 7844 b4bd 9cb4 01bc 1464 383a d372 c3bd
00000370: 37b6 e7bc be32 963c ec76 19bd aacf 63bd
00000380: 960e 193d b207 d5bd d588 b2bd 2cbe c2bd
00000390: 729d b5bd 7467 733d fcd6 5c3d 0a6f 43bd
000003a0: 9f58 d639 f7a3 9cbd c368 9d3d 3139 9abc
000003b0: cee2 8cbd 6925 233d fd43 af3c b58d 92bd
000003c0: d1aa 543d b953 a2bd f3d7 81bc 4a60 cebc
000003d0: 908a 90bd 9765 6d3c b5d8 01bc e7a0 9dbd
000003e0: 9a42 03bd e968 ba3c 6ad5 833d 19de e4bb
000003f0: 4b94 a6bd 99b3 b33d 944e 103d e314 dbbc
-0.025205484 0.0046918346 0.013782702 0.004554443 0.051106766 -0.046933793 -0.014480319 0.019949298
0.07186591 -0.0064814547 0.033407964 -0.08873994 -0.032896306 -0.07711031 0.034196556 -0.07400228
-0.02116973 -0.08724123 0.0734746 -0.03761277 0.004251462 -0.0816034 -0.092877485 -0.074147455
-0.04022375 -0.061763722 0.016052298 -0.06642004 0.074744396 -0.10372829 -0.0875666 -0.11823368
-0.10131082 -0.058657065 -0.0385666 -0.050552472 -0.058784053 -0.07703062 -0.045784425 -0.06987147
0.006080389 -0.09172497 0.06805057 -0.08232264 -0.0019428363 -0.07915605 0.05282579 0.017860364
0.06327919 0.053456 0.03574715 0.06963908 -0.04253376 -0.0018395111 -0.062651105 0.069222935
-0.07338837 -0.04424609 0.038140096 -0.036090508 -0.05259201 -0.041848596 -0.018898606 -0.06167382
-0.12431057 -0.09166003 0.076638736 0.021464884 -0.024858326 0.04027119 -0.093658954 -0.050045546
0.0051573813 -0.023812875 0.005024764 0.018873276 0.025652738 -0.09288306 -0.07588466 -0.06663494
-0.065412685 -0.036605448 -0.0131083205 -0.07653242 0.05266789 0.06520471 -0.015497826 0.062551774
-0.012943116 -0.04253958 0.021388926 -0.05032267 0.037296765 0.056410395 -0.0165841 -0.06205529
-0.042861484 -0.11497056 0.03267432 -0.03185474 -0.066244245 -0.02282077 0.069013454 0.07716337
0.05707278 -0.011628389 -0.056427866 0.04095886 -0.011571281 -0.054821007 0.06718277 -0.07637543
0.045924716 -0.08785076 -0.077214904 -0.0032674894 -0.00032397537 0.077217974 0.0048414986 0.0019053966
0.01630453 0.03827261 -0.09466002 -0.009799711 0.00010488829 -0.08297547 0.04963196 0.06874979
0.00016780426 -0.02068068 -0.041283745 -0.04063885 -0.0019055381 0.013534816 0.06273026 -0.111661226
-0.07343309 -0.067299224 -0.013479191 -0.0034086795 -0.09944698 -0.09082995 -0.08853129 -0.002598725
-0.030168213 0.0113485595 -0.06272464 -0.09708429 -0.09628072 0.0045531886 0.024944987 -0.060426146
-0.043344103 0.06303492 -0.07118377 -0.047618005 0.0036701823 -0.05843579 -0.11001001 -0.012685728
-0.07288854 0.007404007 -0.018546948 0.06890365 0.07725837 -0.037798453 0.019071579 -0.07728458
0.06945935 -0.009221789 0.036556758 0.060316954 0.019332606 -0.0901033 -0.13633391 -0.095179886
0.0096187 0.010278405 0.050617576 0.06283231 0.030382613 -0.039336592 -0.049318317 0.016304508
-0.07378079 -0.09209962 -0.050803225 0.013332823 0.038021907 -0.004166532 -0.054388456 0.083376355
-0.06183956 -0.0838635 0.038287725 0.029949868 -0.03213621 -0.025818136 -0.018669829 -0.055401843
-0.091041096 0.09182307 0.04685314 -0.0016131575 -0.111775085 -0.106703795 -0.009957956 0.023396205
-0.012317859 0.042847037 -0.048778184 0.02117678 -0.10727145 0.064689934 -0.01765582 0.044734005
-0.08802122 -0.007916596 0.0007033956 -0.09543385 -0.028285129 0.018334743 -0.03746693 -0.055617966
0.037367426 -0.104018584 -0.08717505 -0.09508929 -0.08867921 0.059424832 0.053915963 -0.047713317
0.0004088329 -0.07648461 0.07685997 -0.0188261 -0.06879197 0.0398306 0.021394724 -0.07155935
0.051920716 -0.07926125 -0.015850043 -0.025192399 -0.07057679 0.014489553 -0.007925202 -0.07696705
-0.032045938 0.022755103 0.0643719 -0.006984484 -0.081337534 0.0877449 0.035231188 -0.026743358

fc2.bias f4 [64]
00000000: dafb 92bd 3b57 a6bd 1925 213f 9123 243d
00000010: 3403 a73e a9ae f73e e0d2 febd 431a 9ebd
00000020: 9f1f 5a3f 1c98 92bd 8c9e 14be ee97 423f
00000030: 9606 1f3e ecdb 19bd b4b0 efbd e66e 16bd
00000040: 0434 173f e33a 40be b6be 9bbe 9820 c73e
00000050: 1d35 1fbe dead 93bd 3bd8 35be c070 2cbe
00000060: 26df 17be 209c 70be 9360 46bd a589 e9bd
00000070: e4d0 c4bd dc2b 2dbe c782 223f 73d9 303f
00000080: e16c f1bd 9e17 b23e e5eb 75bd bd8f 1bbe
00000090: 76e8 4b3f edba 31be 2f22 ecbd 6a22 b3bd
000000a0: 399c 4dbd 7a2c b83e 3547 0abd 976b 90be
000000b0: 5e5e 81bd b914 11bc b0cf cb3e 92f1 58be
000000c0: 7dc3 b3bd a490 46bd 7d44 35bd d112 00be
000000d0: 99cf 633d 30e6 90bd 96eb 83bd a64a 48bd
000000e0: c0b0 0f3e ecc5 72bd b3c6 eabd 81df 2dbd
000000f0: d5a3 80be 822a dabd 12ee 413f 464c 3cbc
-0.07176943 -0.08122107 0.6294723 0.04007298 0.3261963 0.48375443 -0.12442565 -0.07719853
0.852045 -0.07157919 -0.14513606 0.76013076 0.15529856 -0.03756325 -0.11703625 -0.036726855
0.59063745 -0.18772464 -0.30418938 0.38892055 -0.15547605 -0.07210897 -0.17758267 -0.16839886
-0.14831218 -0.23497057 -0.048431944 -0.11403207 -0.09610155 -0.16911262 0.634808 0.690818
-0.11788345 0.34783643 -0.06003942 -0.1519155 0.7965158 -0.17356463 -0.115299575 -0.08746798
-0.050197814 0.35971433 -0.033759315 -0.28207085 -0.06316827 -0.008855038 0.3980689 -0.21185902
-0.08777521 -0.048477784 -0.04425477 -0.12507178 0.055617902 -0.07075155 -0.06441419 -0.048899315
0.14032269 -0.059270784 -0.1146368 -0.042449478 -0.25124994 -0.10652639 0.7575389 -0.011492794

fc3.weight f4 [3, 64]
00000000: 5fd3 ea3b 821f 863c 4645 283f 7e18 a23d
00000010: e42d 7b3e eb42 a23e 2772 cbbd 16d1 04bd
00000020: c8bc 3c3f aa97 b73d ccde 603d 3c16 3d3f
00000030: 317f 0d3e 916c d0ba b9dd 7b3d ea05 073c
00000040: 1584 133f c61c ba3d f3d4 813c c7f1 c23e
00000050: d28e 9cbd d2c6 c33c 1255 1b3d f212 82bc
00000060: 7e9d 7cbd f680 1f3d f98e 913d 000c d3bb
00000070: 42de c2bc 303b ce3d a143 303f 67b3 a93e
00000080: 0c72 253c bcaa c33e 63bb f6bc c922 d2bd
00000090: 0f60 293f eac6 a3bd e876 c53d 7256 aebd
000000a0: bcb1 093e d84e 5b3e a8b5 463d 5d8a 7e3c
000000b0: ab7d e93d 9f1b c53d 0e03 3a3e d732 e9bc
000000c0: 632b 8e3c 3abf 4cbd 850c 683c cef9 b73d
000000d0: 97b6 84bc 8a48 353d 6e4d 15bd e758 523d
000000e0: 9f1c 113e dee1 eb3d 680e b9ba 562d f13d
000000f0: cee9 4d3c 1060 9abd d505 253f be11 733b
00000100: 8ce7 ad3d fea1 f23c 5f9e 353f 0fcd d53d
00000110: 5e18 6d3e ebf6 cd3e a554 aabc 102c 45bb
00000120: 8d2c 443f f1b2 bf3d 268f 9abd 5fc9 3a3f
00000130: 1a93 2d3e 12be 113d c5cc 933d 3c49 8c3c
00000140: 56e0 223f 4d9f debc 53f1 623b 40bf 973e
00000150: b659 19bd a6fb 503d 6509 0a3c d67b 073d
00000160: 271b 45bc c56c a4bb 83b6 06be 804e d23c
00000170: 3162 143d 8333 ee3c 78af 353f ef5b b73e
00000180: e269 0c3c 8ede 9b3e 5ff6 d23c f755 bbbc
00000190: b4e3 303f 9949 fc3d c611 51ba 4ccb 96bb
000001a0: 565c 953d 1ccf 743e 6235 b13d e446 b9bb
000001b0: e4b6 003e 0f55 143e 6d4c 0a3e 14f0 b43d
000001c0: 6cb7 ca3a 7edf ca3d e7ad d5bc df37 8b3c
000001d0: 12fc a03d 3232 56bc f926 cb3c b20f 35bc
000001e0: 911c dd3d efb5 e6bc d3eb 633d 8344 c23c
000001f0: c78c 5a3b 5aa2 b3bc 0b3a 313f 3814 683d
00000200: 4346 8c3c 99ff f2bb e2d1 1e3f 5dfe fa3b
00000210: cd95 a13e 48ee 643e 77e1 643b bfaa debc
00000220: ca7a 4b3f 5f46 66bd 3600 acbc c293 3a3f
00000230: b264 373e a056 9a3c db76 2f3d c851 a83d
00000240: e928 123f 016d 29bd f73d 34bd 60e3 e93e
00000250: f38a 4e3c 2631 f4bc 41be b9bd acdf d63c
00000260: dc9c 86bd 3cd4 7d3b 3f06 683d df91 483d
00000270: eb11 04bd 3e86 a53d 3286 323f abda f43e
00000280: 025c 39bb 6011 263f 8752 02bd 4c2b e5bc
00000290: 963d 2d3f ed64 8bbc a28a 96bd 7f43 f2bc
000002a0: 0efc a4bc b86f aa3e 94ea 3abd e44f 41bd
000002b0: 782f 373d c7a4 99bd e732 993e 8bd4 763d
000002c0: 0c90 95bd d31d ccbd fc1b 9abd 5ba7 6fbd
000002d0: 613f e5bd 4b36 f8bc 8842 d2bd a3b3 e03c
000002e0: d378 4d3e d52f 1dbd 9d65 073c c6a9 84ba
000002f0: c601 01bc eb81 25bd e358 243f a847 8cbd
0.0071663107 0.016372446 0.657307 0.07914828 0.24529225 0.3169168 -0.09933882 -0.032425962
0.7372556 0.089644745 0.054899976 0.7386205 0.13818051 -0.0015901496 0.061490748 0.008241156
0.57623416 0.09087519 0.015848612 0.38075086 -0.07644428 0.023898516 0.037922926 -0.015878174
-0.061673634 0.038941346 0.07107348 -0.0064406395 -0.023787621 0.10069883 0.68853194 0.33144686
0.010097992 0.38216197 -0.03011865 -0.10260541 0.661622 -0.07996924 0.0964182 -0.08512582
0.13446707 0.21416795 0.048513085 0.015535918 0.114009224 0.09624409 0.18165228 -0.028466625
0.017354673 -0.049987055 0.014163141 0.08983193 -0.016200347 0.04425863 -0.036450796 0.051354315
0.14171074 0.1151769 -0.0014118673 0.11776225 0.01256795 -0.07537854 0.64462024 0.0037089433
0.0849143 0.02961826 0.7094478 0.104395024 0.23153827 0.40227446 -0.020792315 -0.0030086078
0.7663048 0.09360302 -0.07546835 0.7296352 0.16950646 0.035581656 0.07216791 0.017124765
0.6362356 -0.02717557 0.0034628704 0.296381 -0.03743907 0.05102124 0.008425091 0.033077084
-0.012030399 -0.005017849 -0.1315556 0.025672197 0.036226455 0.029077297 0.7097087 0.35812327
0.008570166 0.30443233 0.025752245 -0.02286814 0.6909745 0.12318725 -0.0007975366 -0.0046018716
0.07293002 0.23907131 0.0865276 -0.005654203 0.12569767 0.14485572 0.13505717 0.08834854
0.0015466041 0.09905909 -0.0260839 0.016994415 0.078605786 -0.013073491 0.024798857 -0.011051105
0.10796464 -0.028162925 0.05564482 0.02371431 0.003334807 -0.021928001 0.6922919 0.056659907
0.017123347 -0.0074157235 0.62039006 0.007659717 0.315596 0.22356522 0.0034924427 -0.027181027
0.79484236 -0.056219455 -0.020996194 0.7288171 0.17909506 0.018840134 0.04283796 0.082187235
0.57093674 -0.04136372 -0.044004407 0.45681286 0.01260637 -0.029808592 -0.09069491 0.026229702
-0.06572887 0.0038731238 0.05664658 0.04896724 -0.03224365 0.08082245 0.69736016 0.4782308
-0.00282836 0.6487026 -0.031816985 -0.027974747 0.676721 -0.017015899 -0.07350661 -0.0295732
-0.02013972 0.3328836 -0.045633867 -0.04719533 0.044723004 -0.07502132 0.29921648 0.06026129
-0.073028654 -0.09966626 -0.07524869 -0.058509212 -0.11193729 -0.030299326 -0.10266596 0.027429407
0.20065622 -0.038375694 0.008263973 -0.0010121397 -0.007873958 -0.040407103 0.6419813 -0.06849605

fc3.bias f4 [3]
00000000: 2734 8e3f 57f1 983f a44f a43f
1.1109666 1.1948651 1.2836804
