Models/DQN/agentDQN_2020-2022_dqn_v3_200_EPS_6.pth (torch, 90039 bytes, 6 tensors)

fc1.weight f4 [128, 104]
-0.09167975 -0.091448165 -1.242987 -0.29076803 -0.19822909 -0.40952197 -0.6097666 -0.7867558
-0.31612384 -0.19265379 -0.390342 -2.1905015 -0.45065174 -0.37221634 0.22489122 0.25082582
-0.642253 0.20790607 0.2530228 -0.005601769 -0.8318773 0.13017933 -0.112415686 0.9764185
0.028008284 -0.8305566 -9.77444 3.409591 -1.3096763 4.563732 2.5604346 -3.3565233
2.3922212 2.8080864 2.689484 2.6841135 4.115939 2.5549278 3.3942194 1.4331388
2.7917376 1.4595726 0.7799246 3.0107095 1.1714022 -0.49745896 0.5591344 -1.5124815
-0.04865603 6.414781 -3.7656226 -0.5899214 -0.86070555 -6.9543085 -1.4170606 -0.7879497
-0.63171583 0.86433524 -0.08977369 -0.72128975 -1.1459148 0.59709054 -5.1558723 -2.3853822
-1.9468861 1.0860537 -0.27016395 -0.4394062 -1.1365992 -0.14846788 -0.25254217 -0.58197147
-0.37277085 -0.53552336 -0.5461632 -0.3256975 -0.60137427 -0.6505267 -0.44481137 -0.4311836
-0.39785594 -0.57837665 -0.4100946 -0.46945655 0.03074373 -0.24122104 0.25061917 -0.1661705
-0.5638321 -0.10721801 -0.069812216 -0.15032676 0.032879982 -0.30765197 -0.3347688 -0.2974579
0.31057954 -0.276407 -0.33234492 -0.27820608 0.20551029 -0.3063291 -0.6234069 -0.20953329
-0.02420445 -0.057278283 -0.81619745 0.3186701 0.49131545 -1.1590004 -0.79378754 -0.15593666
-0.5779867 -1.0085733 0.3463636 -4.4611864 -0.63241786 -0.3419299 0.32821476 0.4608508
-0.64704454 -0.075807504 0.54406095 -0.42410535 -0.47701994 -0.012368102 -0.034200694 3.5299356
-0.08543593 -0.8391447 -4.6381817 1.53275 -0.8404449 2.6542027 -4.089567 -3.9278502
1.7306502 4.3788757 0.9126709 2.8181524 3.125708 4.729268 0.56561345 -4.0753055
-0.2771593 1.5518521 4.049139 2.1138458 6.2550955 0.1490718 -3.999259 -3.7101135
0.7229859 8.070579 -1.3746147 -0.6102391 -0.55730075 -2.3847618 -4.922173 -0.5216656
-0.04474576 0.77099305 0.75112337 -0.31151474 -1.0593733 1.2308056 -4.9590325 1.9521763
-0.21892063 0.8205511 -0.18777227 -0.052374884 -0.87023544 0.12429897 -0.08653762 -0.28288135
0.09138902 0.038046774 -0.18726832 -0.07423713 -0.18746705 -0.03690121 -0.13024618 0.0204469
0.10903521 0.05118698 -0.00048771195 -0.016573751 0.6095413 0.5996132 1.1222669 0.24060556
0.23713055 0.5882158 0.54574114 0.7313542 0.13387965 0.62585795 0.36895522 0.29447454
-0.03689431 -0.31328395 -0.015089875 0.131767 0.08523234 -0.29083943 -0.08342005 0.12979688
-0.08385876 -0.0028334574 -0.0047621727 -0.010752835 -0.032451466 -0.011585537 -0.049477704 -0.16132146
0.01895095 -0.13944544 -0.07130951 -0.1498193 -0.14834015 -0.054169293 -0.14699687 -0.010275986
-0.022904076 -0.040807344 -0.17122167 -0.14969105 -0.09476877 -0.049068134 -0.029714324 0.19687127
-0.03314543 -0.14489062 -0.18353881 0.043905612 0.08794856 0.183915 0.12877353 -0.023372293
0.10790536 -0.036287814 0.021513818 0.12597845 0.010988943 0.081773095 0.09165583 -0.030496959
0.063500375 -0.03329075 -0.039023347 0.12135713 0.09007977 -0.096793756 -0.05083556 -0.0086427955
00000000: 98c2 bbbd 2d49 bbbd 331a 9fbf 8cdf 94be
00000010: 91fc 4abe ddac d1be aa19 1cbf d468 49bf
00000020: fcda a1be 0947 45be e8da c7be 2d31 0cc0
00000030: d3bb e6be 2493 bebe e249 663e 3e6c 803e
00000040: b16a 24bf 54e5 543e 348c 813e 0b8f b7bb
00000050: e9f5 54bf bb4d 053e 323a e6bd 90f6 793f
00000060: a171 e53c 5b9f 54bf 1b64 1cc1 bd36 5a40
00000070: 79a3 a7bf 180a 9240 29de 2340 47d1 56c0
00000080: 271a 1940 b0b7 3340 8120 2c40 84c8 2b40
00000090: c6b5 8340 f083 2340 e43a 5940 1871 b73f
000000a0: d4ab 3240 46d3 ba3f 23a9 473f 77af 4040
000000b0: 82f0 953f f1b2 febe 6f23 0f3f fe98 c1bf
000000c0: 8c4b 47bd e345 cd40 f6ff 70c0 1705 17bf
000000d0: 3357 5cbf b289 dec0 3e62 b5bf 12b7 49bf
000000e0: 21b8 21bf 1345 5d3f 45db b7bd 72a6 38bf
000000f0: 56ad 92bf edda 183f e8fc a4c0 1aaa 18c0
00000100: 9033 f9bf cf03 8b3f ee52 8abe d9f9 e0be
00000110: 157c 91bf f707 18be 354d 81be 15fc 14bf
00000120: d2db bebe 0f18 09bf 5ad1 0bbf d3c1 a6be
00000130: aaf3 19bf eb88 26bf 51be e3be 19c4 dcbe
00000140: c6b3 cbbe 7e10 14bf ebf7 d1be 9c5c f0be
00000150: 46da fb3c a602 77be 2851 803e 9928 2abe
00000160: 4d57 10bf 1e95 dbbd b5f9 8ebd 42ef 19be
00000170: 29ad 063d 8f84 9dbe d166 abbe 674c 98be
00000180: 4804 9f3e 3885 8dbe 1d29 aabe 0771 8ebe
00000190: 4a71 523e 2bd7 9cbe 9897 1fbf e58f 56be
000001a0: 6948 c6bc a29c 6abd 51f2 50bf ba28 a33e
000001b0: b38d fb3e 205a 94bf a935 4bbf dcad 1fbe
000001c0: f0f6 13bf ee18 81bf 9256 b13e 0ac2 8ec0
000001d0: 23e6 21bf 7011 afbe c40b a83e a3f4 eb3e
000001e0: b6a4 25bf f740 9bbd 9447 0b3f 5624 d9be
000001f0: f53b f4be 94a3 4abc 0716 0cbd 77ea 6140
00000200: 08f9 aebd 30d2 56bf fc6b 94c0 2731 c43f
00000210: 6627 57bf 75de 2940 bcdd 82c0 e661 7bc0
00000220: f285 dd3f c01f 8c40 cda4 693f 9c5c 3440
00000230: 9a0b 4840 2a56 9740 0bcc 103f e768 82c0
00000240: d3e7 8dbe 17a3 c63f 8c92 8140 4049 0740
00000250: be29 c840 47a6 183e dcf3 7fc0 8072 6dc0
00000260: 9b15 393f 1721 0141 60f3 afbf a138 1cbf
00000270: 43ab 0ebf f09f 18c0 7182 9dc0 e08b 05bf
00000280: 5447 37bd cd5f 453f 9f49 403f dc7e 9fbe
00000290: 8b99 87bf 0a8b 9d3f 65b0 9ec0 eae0 f93f
000002a0: bb2c 60be a30f 523f 6047 40be 0c87 56bd
000002b0: c0c7 5ebf 7590 fe3d a33a b1bd d3d5 90be
000002c0: 2b2a bb3d efd6 1b3d 44c3 3fbe a309 98bd
000002d0: 5df7 3fbe b925 17bd 415f 05be 4280 a73c
000002e0: da4d df3d 70a9 513d 97b3 ffb9 adc5 87bc
000002f0: e60a 1c3f 4080 193f 71a6 8f3f 4e61 763e
00000300: 5ad2 723e 5095 163f b1b5 0b3f 073a 3b3f
00000310: bf17 093e 3a38 203f b3e7 bc3e 5ec5 963e
00000320: 7d1e 17bd c166 a0be 863b 77bc eeed 063e
00000330: 4b8e ae3d e8e8 94be 22d8 aabd 79e9 043e
00000340: 24be abbd 87b1 39bb 000c 9cbb a92c 30bc
00000350: d4eb 04bd 44d1 3dbc 22a9 4abd 7431 25be
00000360: 063f 9b3c c9ca 0ebe b80a 92bd 3b6a 19be
00000370: 7be6 17be 9fe0 5dbd 5986 16be 9c5c 28bc
00000380: 54a1 bbbc 9a25 27bd bc54 2fbe 9c48 19be
00000390: 2116 c2bd abfb 48bd 746b f3bc 9f98 493e
000003a0: 81c3 07bd 355e 14be 99f1 3bbe 5fd6 333d
000003b0: 601e b43d 3754 3c3e 35dd 033e 4077 bfbc
000003c0: 7cfd dc3d 88a2 14bd bf3d b03c 7f00 013e
000003d0: f80a 343c a778 a73d 0db6 bb3d c2d4 f9bc
000003e0: 7c0c 823d e25b 08bd f2d6 1fbd 168a f83d
000003f0: be7b b83d ce3b c6bd f338 50bd 839a 0dbc

fc1.bias f4 [128]
-0.67184645 -0.11424959 -0.042467445 0.009496076 -0.14699171 -0.18237574 -0.10566297 -0.36730444
-0.32741708 -0.098777056 0.3772251 0.016000893 -0.06461013 -0.09063267 -0.06446335 -0.20196712
-0.047259938 -0.15758312 0.25540274 -0.0433989 -0.06571599 0.017793695 -0.19467136 -0.075066835
-0.05592313 -0.42580462 0.032867048 -0.28056797 -0.048796184 -0.13704064 -0.047264613 -0.12457003
-0.14658326 -0.1894018 -0.3078654 -0.2915595 -0.17239152 -0.13370548 -0.021620428 -0.015759967
-0.007252419 -0.19812396 -0.20891757 -0.1556136 -0.07746909 -0.19168773 0.05337114 0.047994006
-0.006744333 -0.16537432 -0.23657879 -0.16406035 -0.06418219 -0.05522728 0.008568714 0.044270866
-0.15170676 -0.39222652 -0.1691168 -0.1679047 0.021952735 -0.017437853 -0.27512947 -0.11788664
-0.14622036 -0.29484585 -0.20072144 -0.0839309 -0.2720908 -0.12643941 -0.09517508 0.06044856
-0.09362172 0.0119598 0.00681253 -0.31460896 -0.13551249 -0.19845611 -0.0037781617 0.0322778
-0.14317346 -0.06480934 -0.21132359 -0.62725633 -0.1335528 -0.09534665 -0.0994005 -0.14418419
-0.15349586 -0.021897675 -0.088338174 -0.08240809 -0.16839962 0.0102882255 -0.41095912 -0.11444948
0.029184455 0.031112581 0.0034968022 -0.059821233 -0.13828073 -0.12747549 -0.102799706 -0.34339768
-0.1591977 -0.041122127 -0.11995427 -0.19001499 -0.047119446 -0.058735628 -0.52218044 -0.28001818
-0.3528034 0.0008614642 -0.11424437 -0.13502517 -0.0723633 -0.05346533 -0.034903657 -0.19141278
-0.4348985 -0.06677038 0.015181323 -0.041731507 -0.17087139 -0.3809735 -0.12720665 -0.052929074
00000000: 21fe 2bbf b0fb e9bd 58f2 2dbd 6e95 1b3c
00000010: ff84 16be b5c0 3abe d465 d8bd 540f bcbe
00000020: 36a3 a7be a04b cabd a623 c13e 4e14 833c
00000030: 5152 84bd 9f9d b9bd 5c05 84bd 78d0 4ebe
00000040: a393 41bd 785d 21be 26c4 823e 0cc3 31bd
00000050: 1b96 86bd 15c4 913c ee57 47be a4bc 99bd
00000060: a70f 65bd 1003 dabe 999f 063d 9ba6 8fbe
00000070: 82de 47bd 6254 0cbe 8a98 41bd 921e ffbd
00000080: ec19 16be 8cf2 41be 89a0 9dbe 4947 95be
00000090: 6787 30be 17ea 08be 531d b1bc 0c1b 81bc
000000a0: b3a5 edbb 02e1 4abe 7dee 55be 2c59 1fbe
000000b0: 1da8 9ebd ca49 44be b29b 5a3d 5d95 443d
000000c0: 91ff dcbb e357 29be b641 72be 70ff 27be
000000d0: f471 83bd 0036 62bd cb63 0c3c 5e55 353d
000000e0: 0459 1bbe ead1 c8be f42c 2dbe 36ef 2bbe
000000f0: 39d6 b33c d4d9 8ebc c5dd 8cbe 8d6e f1bd
00000100: caba 15be 09f6 96be ec89 4dbe f7e3 abbd
00000110: 7c4f 8bbe 5579 01be 27eb c2bd e998 773d
00000120: bfbc bfbd 09f3 433c a53b df3b 6d14 a1be
00000130: c9c3 0abe 1438 4bbe 099b 77bb ba35 043d
00000140: 109c 12be c2ba 84bd 3665 58be df93 20bf
00000150: 11c2 08be 1b45 c3bd 7d92 cbbd 05a5 13be
00000160: 052e 1dbe c162 b3bc a5ea b4bd 93c5 a8bd
00000170: f370 2cbe f28f 283c 3c69 d2be 7d64 eabd
00000180: 3d14 ef3c d0df fe3c 9b2a 653b 1c07 75bd
00000190: 7799 0dbe ef88 02be a788 d2bd d2d1 afbe
000001a0: b904 23be ad6f 28bd 96aa f5bd 4a93 42be
000001b0: 5200 41bd c594 70bd 9ead 05bf 8b5e 8fbe
000001c0: a6a2 b4be e2d3 613a f4f8 e9bd 0a44 0abe
000001d0: 3633 94bd 76fe 5abd 23f7 0ebd b601 44be
000001e0: 04ab debe e9be 88bd 15bb 783c a8ee 2abd
000001f0: e9f8 2ebe f50e c3be 7642 02be 28cc 58bd

fc2.weight f4 [64, 128]
0.039133236 -0.022739088 0.055784807 0.012916207 -0.023828585 -0.03295974 -0.0063396734 -0.14710784
-0.09027902 -0.05525649 -0.060116284 -0.07814697 0.04703131 -0.058180857 0.018374836 0.033940807
-0.05304716 -0.020441035 -0.099472396 0.06490683 -0.040660873 0.016177246 0.05972732 0.034814626
-0.047108028 0.01744119 0.019801304 -0.09602568 0.0032916253 -0.05095703 0.0011607483 0.0008768141
-0.03316953 -0.085388064 0.023273036 -0.05438818 0.021782257 -0.026126571 -0.0752101 -0.096329235
0.046019692 0.041893076 -0.1005343 -0.050092045 0.051843293 -0.077896744 -0.051070355 0.0059318766
-0.019651351 -0.0010711347 -0.023494555 -0.02072968 -0.048113696 0.04015456 0.05553443 -0.01962312
0.08147494 -0.012493419 0.05567769 0.016635576 0.049315013 -0.051168066 0.034399785 -0.033659127
0.013296781 -0.10453377 -0.077159524 -0.017740916 0.045921907 -0.104493625 -0.045732945 -0.069079645
-0.055508263 -0.025813319 -0.026675917 0.0010973894 -0.03440547 -0.015851509 0.0013836441 0.061775766
-0.058246825 -0.087018356 0.01793719 -0.06966413 -0.06570375 0.00916417 0.036049686 0.09606919
0.040768944 0.05788272 0.02691021 0.054468133 -0.103338405 0.04662279 -0.0024595633 0.0032173526
-0.022401966 -0.020790925 0.023457918 0.074486814 0.0067402446 0.018457413 -0.019441605 -0.03212121
-0.034804285 0.0246193 -0.024949905 -0.076909274 -0.0983561 0.016053453 -0.016325392 -0.033285312
0.014687847 -0.08410765 -0.05738784 0.037638526 -0.08417525 0.053109206 -0.08659042 0.05215593
-0.12027205 -0.04968693 0.04136809 0.0017338981 0.04108404 -0.037042487 0.024746403 -0.010795974
0.045376126 0.05098429 0.050011598 -0.017996311 -0.07395319 -0.056428544 0.06432436 -0.02338768
-0.0485701 0.07834513 -0.08311753 -0.11071628 0.03766345 0.065691985 0.04056831 0.0693893
-0.0037040543 -0.007974473 -0.12206756 0.01787451 0.0066465153 0.018963309 0.04839339 -0.046905745
0.0683559 -0.057061974 0.039135415 -0.04208061 -0.0054867277 0.06155871 0.04480177 0.04652339
0.07230815 0.02554164 -0.056893274 0.062953115 -0.04508931 0.032328866 -0.07221287 -0.0053101126
0.04734331 -0.021456921 0.007871786 -0.018472688 0.071449146 0.042005453 -0.028347453 -0.020361297
0.05781155 0.019168295 -0.09741259 -0.074722506 -0.03683191 -0.030260867 0.06456759 0.00674396
-0.0890764 -0.13537885 0.032343175 0.034127597 -0.06858959 0.014537265 0.046382975 -0.04694832
0.045430027 -0.065281086 0.017588869 0.05797994 0.04956314 0.053724214 0.036899433 -0.057338346
-0.085974485 0.041281167 0.05556173 -0.013849097 -0.047132947 -0.071673356 -0.04028682 -0.036138885
-0.06662881 -0.034227207 -0.0446367 0.042999946 0.0045156325 -0.08987628 -0.07907921 0.0056036203
0.0130296 0.040250354 -0.013794983 0.011268933 0.06505824 0.057337426 -0.13610852 -0.101914965
-0.028369676 -0.020068629 0.069763646 -0.02056278 -0.08410515 -0.059059244 -0.07991168 -0.013047638
-0.066877805 -0.08117122 0.039591167 0.01791224 -0.008198174 -0.07644189 -0.04798349 -0.053036183
-0.046236195 -0.044350237 -0.0010762465 -0.015296619 0.004271789 -0.050806206 -0.020273592 0.054855064
-0.034101047 -0.053007267 0.067531034 0.0121880565 0.053231016 -0.0041365703 -0.1019619 0.09295841
00000000: 2c4a 203d 5347 babc 9c7e 643d 809e 533c
00000010: 2a34 c3bc cb00 07bd 09bd cfbb 70a3 16be
00000020: 35e4 b8bd a154 62bd 7e3c 76bd 850b a0bd
00000030: e7a3 403d 0d4f 6ebd d386 963c 8405 0b3d
00000040: fb47 59bd f573 a7bc 2fb8 cbbd dfed 843d
00000050: 048c 26bd 2586 843c a2a4 743d c899 0e3d
00000060: 59f4 40bd d4e0 8e3c 5836 a23c 1da9 c4bd
00000070: 4fb8 573b 52b8 50bd 4024 983a 00da 653a
00000080: c6dc 07bd f0df aebd 18a7 be3c 24c6 5ebd
00000090: b470 b23c 6407 d6bc c107 9abd 4348 c5bd
000000a0: 257f 3c3d 1398 2b3d ede4 cdbd 512d 4dbd
000000b0: a259 543d 5488 9fbd 262f 51bd 3060 c23b
000000c0: dffb a0bc 5165 8cba a777 c0bc 4ad1 a9bc
000000d0: de12 45bd 1c79 243d 1278 633d aac0 a0bc
000000e0: 55dc a63d 33b1 4cbc 4a0e 643d 5547 883c
000000f0: 8afe 493d 9b95 51bd cae6 0c3d 27de 09bd
00000100: beda 593c cd15 d6bd d005 9ebd 6655 91bc
00000110: 9c18 3c3d c100 d6bd 7852 3bbd a179 8dbd
00000120: a25c 63bd 7476 d3bc 7487 dabc 47d6 8f3a
00000130: c0ec 0cbd 06db 81bc 645b b53a 9608 7d3d
00000140: 3994 6ebd ae36 b2bd 04f1 923c 11ac 8ebd
00000150: b08f 86bd 5125 163c d6a8 133d ecbf c43d
00000160: 56fd 263d 6e16 6d3d cd72 dc3c fa19 5f3d
00000170: 16a3 d3bd 8af7 3e3d a030 21bb 38da 523b
00000180: 5484 b7bc bb51 aabc d22a c03c 8b8c 983d
00000190: 45dd dc3b 0034 973c 0044 9fbc 8891 03bd
000001a0: f08e 0ebd 6aae c93c be63 ccbc 9c82 9dbd
000001b0: ec6e c9bd 8882 833c d4bc 85bc 2e56 08bd
000001c0: 4ca5 703c a240 acbd 830f 6bbd db2a 1a3d
000001d0: 1364 acbd 0a89 593d 5156 b1bd 75a1 553d
000001e0: 3151 f6bd 8684 4bbd 9671 293d f743 e33a
000001f0: bd47 283d ddb9 17bd f8b8 ca3c 99e1 30bc
00000200: 51dc 393d e7d4 503d f6d8 4c3d 006d 93bc
00000210: c574 97bd 9e21 67bd 7dbc 833d 8597 bfbc
00000220: 71f1 46bd 6973 a03d 8639 aabd 38bf e2bd
00000230: fd44 1a3d 8589 863d f52a 263d fa1b 8e3d
00000240: b8bf 72bb 5da7 02bc 8ffe f9bd 906d 923c
00000250: 03cb d93b f158 9b3c 2638 463d 3d20 40bd
00000260: 2efe 8b3d d1b9 69bd 754c 203d b85c 2cbd
00000270: 02ca b3bb fc24 7c3d 1082 373d 4f8f 3e3d
00000280: 4c16 943d b43c d13c ec08 69bd 90ed 803d
00000290: 91af 38bd 466b 043d 57e4 93bd 7400 aebb
000002a0: 0feb 413d 6dc6 afbc aaf8 003c 0954 97bc
000002b0: ee53 923d e90d 2c3d eb38 e8bc bccc a6bc
000002c0: cecb 6c3d d406 9d3c 4180 c7bd 1d08 99bd
000002d0: 0fdd 16bd a3e5 f7bc 033c 843d 70fc dc3b
000002e0: b06d b6bd c1a0 0abe 477a 043d 61c9 0b3d
000002f0: b378 8cbd b52d 6e3c 13fc 3d3d e24c 40bd
00000300: d614 3a3d 17b2 85bd 8816 903c 607c 6d3d
00000310: b802 4b3d ec0d 5c3d dc23 173d 9ddb 6abd
00000320: 6413 b0bd 7116 293d b294 633d 53e7 62bc
00000330: 7a0e 41bd 7bc9 92bd cb03 25bd 5e06 14bd
00000340: af74 88bd d431 0cbd f9d4 36bd b620 303d
00000350: dff7 933b 0e11 b8bd 48f4 a1bd 939e b73b
00000360: 1a7a 553c 8edd 243d 5a04 62bc 55a1 383c
00000370: 413d 853d a6da 6a3d 0860 0bbe cbb8 d0bd
00000380: 8667 e8bc f766 a4bc 3ee0 8e3d 4673 a8bc
00000390: 523f acbd 1be8 71bd bca8 a3bd c3c5 55bc
000003a0: 3bf7 88bd 193d a6bd 592a 223d b1bc 923c
000003b0: a251 06bc 918d 9cbd 568a 44bd 783c 59bd
000003c0: 2a62 3dbd 98a8 35bd d710 8dba ac9e 7abc
000003d0: 5dfa 8b3b 2b1a 50bd ce14 a6bc b4af 603d
000003e0: 8aad 0bbd 261e 59bd b64d 8a3d 6ab0 473c
000003f0: c408 5a3d 118c 87bb 67d1 d0bd fb60 be3d

fc2.bias f4 [64]
-0.02386212 -0.23406498 -0.12259724 0.627974 -0.08995298 -0.02836681 -0.014304304 0.74219805
-0.076511875 0.0753112 -0.23098998 -0.06225179 -0.026188377 -0.06170743 -0.01679702 0.6714632
-0.07369225 -0.13838828 0.14179753 -0.17562585 0.70174116 0.1926875 -0.22667243 -0.12502418
-0.21454026 0.651855 -0.23870808 -0.16373524 -0.14300801 -0.16924012 -0.16636765 0.59789425
-0.022254398 -0.0076537402 -0.16816092 -0.13324459 -0.1553496 -0.09956319 -0.040950622 -0.18645379
-0.09475445 -0.113770925 0.46466035 -0.0018961777 0.40058786 -0.008379215 -0.05348278 0.7904551
-0.061875246 -0.09496747 -0.10223778 -0.17874864 -0.15944889 -0.27448663 -0.092239484 -0.13614869
-0.037145678 -0.10293137 -0.028823115 -0.10383428 -0.05790934 0.6747809 -0.22610915 -0.18963616
00000000: 7e7a c3bc bbae 6fbe 4314 fbbd e7c2 203f
00000010: 4539 b8bd 8361 e8bc 995c 6abc b100 3e3f
00000020: 42b2 9cbd c23c 9a3d a388 6cbe bcfb 7ebd
00000030: 0289 d6bc eec0 7cbd e799 89bc 03e5 2b3f
00000040: f6eb 96bd a8b5 0dbe 5f33 113e 43d7 33be
00000050: 4fa5 333f df4f 453e d11c 68be 5706 00be
00000060: 71b0 5bbe f8df 263f e46f 74be 36aa 27be
00000070: b170 12be 484d 2dbe 485c 2abe 990f 193f
00000080: db4e b6bc 3acc fabb 6032 2cbe 4571 08be
00000090: f713 1fbe c9e7 cbbd d7bb 27bd beed 3ebe
000000a0: 9f0e c2bd bb00 e9bd f6e7 ed3e 2a89 f8ba
000000b0: da19 cd3e fa48 09bc c210 5bbd 445b 4a3f
000000c0: e670 7dbd 4e7e c2bd 0b62 d1bd e209 37be
000000d0: 9246 23be 8389 8cbe 0ee8 bcbd 906a 0bbe
000000e0: 1126 18bd afcd d2bd 741e ecbc 11a7 d4bd
000000f0: 5832 6dbd 71be 2c3f 2889 67be fb2f 42be

fc3.weight f4 [3, 64]
-0.051825985 0.018640824 0.014268238 0.60978204 0.2003679 0.028401589 0.055319022 0.6062169
-0.065508805 0.057040785 -0.009823761 -0.033682633 -0.06426892 -0.010504164 0.096009575 0.5269783
-0.06788601 0.002189247 -0.08665045 0.010927026 0.74008554 -0.08903402 0.076245725 0.005634968
-0.015606166 0.6899909 -0.012560919 -0.029577745 -0.014894396 0.08991357 0.12941453 0.5113983
-0.0769267 0.19335672 -0.06147327 0.010924762 0.036708307 0.013906728 0.045991357 0.03423384
-0.064083286 0.110392876 0.40512204 0.11174817 0.53199565 0.18477336 0.011920701 0.44156498
-0.096022606 -0.012214091 -0.044555057 -0.040784605 -0.056767706 0.0037770919 -0.01781372 -0.002705971
0.0058543445 0.04273946 -0.03319557 -0.056618128 0.14055333 0.6158084 -0.021896562 0.085593745
0.064093515 -0.016932372 -0.0047714408 0.6338096 -0.0036839296 0.029071374 0.08214967 0.61396265
-0.013634842 -0.01202368 -0.031483047 0.013054332 -0.034070563 -0.03224925 0.046311602 0.560891
0.025409253 -0.02310909 -0.11930985 0.010540426 0.725416 -0.05954622 -0.058652706 -0.0019806933
-0.017481 0.6754813 -0.04862183 0.017285839 0.1401705 0.097984724 0.012793914 0.51098835
0.011806774 0.11250844 -0.0021731919 -0.09426636 -0.10130439 -0.050612587 0.014220567 -0.11298745
-0.08128792 -0.1215099 0.34710613 -0.2156258 0.4176331 -0.008674124 0.0060874037 0.5330254
0.06739553 -0.05587852 0.03536283 -0.019816633 -0.017405216 -0.032954976 -0.023847155 -0.0070049334
0.07199535 0.10629827 -0.031005438 -0.06352948 0.0219102 0.6446886 -0.022913717 -0.021803346
-0.12342817 0.054361675 -0.008213197 0.66895413 0.11898841 0.060379393 -0.021317301 0.6150599
-0.039519925 0.013673999 -0.0074597965 -0.013017798 0.0003269784 -0.015144738 0.10521768 0.4939882
0.03727419 0.04547319 -0.036091655 -0.10224818 0.7872425 -0.15013754 -0.10020455 -0.013348419
-0.032511204 0.7098633 -0.011039083 0.0076718815 0.11705527 0.06582983 -0.051653277 0.47979015
-0.06580819 0.09989534 0.02623751 0.008369058 -0.0010310408 -0.0014499924 -0.0039204964 0.011417739
0.11357681 -0.009889995 0.35912618 -0.089028016 0.32691923 0.16884455 0.085514575 0.46458924
-0.0014425649 0.024085753 -0.0020285023 0.073458835 -0.030785983 -0.041264676 -0.025368525 0.04983187
-0.04410833 -0.0009937115 -0.18585424 -0.005849177 0.035790373 0.6535383 -0.042273022 -0.021507831
00000000: 7c47 54bd a4b4 983c 54c5 693c ad1a 1c3f
00000010: 3e2d 4d3e 73aa e83c 3396 623d 0831 1b3f
00000020: 7b29 86bd 99a3 693d d7f3 20bc cdf6 09bd
00000030: 6c9f 83bd a819 2cbc aba0 c43d 0de8 063f
00000040: d207 8bbd 7879 0f3b cb75 b1bd 4507 333c
00000050: 3f76 3d3f 7857 b6bd b826 9c3d 8aa5 b83b
00000060: 01b1 7fbc 3ea3 303f 50cc 4dbc 074d f2bc
00000070: a007 74bc 9b24 b83d 3e85 043e 00eb 023f
00000080: bf8b 9dbd 4eff 453e 65cb 7bbd c6fd 323c
00000090: 735b 163d 0bd9 633c 6f61 3c3d c838 0c3d
000000a0: 193e 83bd a915 e23d 286c cf3e 39dc e43d
000000b0: de30 083f 3a35 3d3e 0b4f 433c ce14 e23e
000000c0: 80a7 c4bd 9c1d 48bc 5d7f 36bd c20d 27bd
000000d0: 4185 68bd 1689 773b 14ee 91bc a956 31bb
000000e0: cdd5 bf3b 920f 2f3d 14f8 07bd 69e8 67bd
000000f0: 36ed 0f3e 9fa5 1d3f 6b60 b3bc c64b af3d
00000100: 7643 833d c2b5 8abc bf59 9cbb 5941 223f
00000110: 156e 71bb 1727 ee3c 163e a83d a82c 1d3f
00000120: ac64 5fbc f8fe 44bc 5ef4 00bd d6e1 553c
00000130: 938d 0bbd ca17 04bd 3cb1 3d3d 8d96 0f3f
00000140: 1127 d03c 464f bdbc b958 f4bd c0b1 2c3c
00000150: ddb4 393f bde6 73bd d23d 70bd 85ce 01bb
00000160: 5034 8fbc 58ec 2c3f af27 47bd 089b 8d3c
00000170: db88 0f3e 37ac c83d 919d 513c 22d0 023f
00000180: 3371 413c d36a e63d 1c6c 0ebb b90e c1bd
00000190: ad78 cfbd 254f 4fbd 62fd 683c f765 e7bd
000001a0: 487a a6bd 2fda f8bd e5b7 b13e 02cd 5cbe
000001b0: 01d4 d53e ea1d 0ebc d878 c73b 5a74 083f
000001c0: ab06 8a3d e0e0 64bd 9dd8 103d 7e56 a2bc
000001d0: 6295 8ebc ccfb 06bd 1c5b c3bc a489 e5bb
000001e0: 4c72 933d e8b2 d93d 1eff fdbc be1b 82bd
000001f0: 057d b33c 500a 253f 8cb5 bbbc ee9c b2bc
00000200: e9c7 fcbd 59aa 5e3d a590 06bc 9440 2b3f
00000210: 32b0 f33d 6250 773d 9fa1 aebc 9174 1d3f
00000220: a5df 21bd e908 603c 4f71 f4bb 9a48 55bc
00000230: 4c6e ab39 a321 78bc 5e7c d73d 05ec fc3e
00000240: d2ac 183d 1842 3a3d d8d4 13bd 7e67 d1bd
00000250: b988 493f a8bd 19be 0b38 cdbd 54b3 5abc
00000260: 782a 05bd 9ab9 353f 45dd 34bc 6864 fb3b
00000270: acba ef3d cad1 863d 6392 53bd 0ea7 f53e
00000280: 72c6 86bd ee95 cc3d 0cf0 d63c 601e 093c
00000290: fd23 87ba ac0d beba 8277 80bb 7811 3b3c
000002a0: f59a e83d a509 22bc 63df b73e 5254 b6bd
000002b0: f561 a73e 96e5 2c3e 4422 af3d a4de ed3e
000002c0: 7214 bdba 7c4f c53c 9ff0 04bb 9671 963d
000002d0: e332 fcbc 2605 29bd a7d1 cfbc 811c 4c3d
000002e0: f0aa 34bd 6d3f 82ba 9350 3ebe 74aa bfbb
000002f0: ed98 123d 494e 273f 7a26 2dbd 3131 b0bc

fc3.bias f4 [3]
1.2130837 1.2617868 0.99766415
00000000: 5446 9b3f 3b82 a13f eb66 7f3f
