Models/DQN/agentDQN_2020-2022_dqn_v1_200_EPS_7.pth (torch, 90039 bytes, 6 tensors)

fc1.weight f4 [128, 104]
0	0xbdca0e04	-0.098659545
1	0x3b3dc533	0.0028956651
2	0xbde3b9ec	-0.11119446
3	0xbd5db1ed	-0.05412476
4	0xbe2acf33	-0.16680603
5	0xbe19de26	-0.15026149
6	0xbd2a517f	-0.041581627
7	0xbe37e476	-0.17958245
8	0xbc82e995	-0.015980521
9	0xbdf89628	-0.12138015
10	0xbd9692c4	-0.07352212
11	0xbe7887e0	-0.24270582
12	0xbd65e112	-0.056122847
13	0xbdfad472	-0.12247552
14	0xba1b1493	-0.00059158466
15	0xbe28d807	-0.16488658
16	0xbd4d1a70	-0.05007404
17	0xbd98f26c	-0.07468113
18	0x3a4b0c5f	0.0007745679
19	0xbd77fc97	-0.060543623
20	0xbd83082b	-0.06398042
21	0xbe031ec3	-0.12804703
22	0xbc62b92e	-0.013838096
23	0x3d67b03b	0.05656455
24	0xbc91cae7	-0.017796947
25	0xbe0c5609	-0.13704695
26	0x3dcfee89	0.10152919
27	0xbe0121f9	-0.12610616
28	0xbe383750	-0.1798985
29	0xbeb7f00b	-0.35925326
30	0xbee088c2	-0.43854338
31	0x3d93741c	0.071998805
32	0xbd2fd2dc	-0.0429257
33	0x3d792004	0.060821548
34	0xbe351d59	-0.17686976
35	0x3cf3ae2b	0.029746136
36	0x3e14bdce	0.1452553
37	0x3db14338	0.08655399
38	0xbef45dec	-0.47727907
39	0xbe6cca61	-0.23124076
40	0xbeb4ef3d	-0.35338774
41	0xbc70474d	-0.014665437
42	0x3e529018	0.2056278
43	0xbd06169c	-0.032736406
44	0x3ea780ea	0.3271554
45	0xbe1e84d0	-0.15480351
46	0xbe82cde3	-0.25547704
47	0xbe496384	-0.19666868
48	0x3db15d99	0.086604305
49	0x3ec022ad	0.37526456
50	0xbd0ce80a	-0.034400977
51	0xbd861e20	-0.06548715
52	0xbd8e563f	-0.06950044
53	0x3e123575	0.14278205
54	0xbe881418	-0.2657783
55	0xbd861322	-0.06546618
56	0xbcdd6d6d	-0.027029717
57	0x3d0a6607	0.033788707
58	0xbd902fcc	-0.070403665
59	0xbe17a932	-0.14810637
60	0xbcf656a6	-0.030070614
61	0x3bd149c8	0.0063869692
62	0xbe35a6f2	-0.17739466
63	0x3d6114d3	0.0549515
64	0xbd09d442	-0.03364969
65	0x3ddd0f33	0.10793915
66	0xbdac855a	-0.08423872
67	0xbe2afee0	-0.1669879
68	0xbd4511f0	-0.04811281
69	0xbddf3216	-0.10898225
70	0xbdc5c21e	-0.096561655
71	0xbdc6f74d	-0.09715138
72	0xbdd5cd71	-0.104395755
73	0xbe3831c6	-0.17987737
74	0xbdd53b6c	-0.104117244
75	0xbcf9c822	-0.030490939
76	0xbd91cd49	-0.07119233
77	0xbb13ff60	-0.0022582635
78	0xbe0d41c7	-0.13794623
79	0xbb95c916	-0.0045710905
80	0xbd487595	-0.04894026
81	0xbe10cb95	-0.1414016
82	0xbd527813	-0.051384043
83	0xbe32033b	-0.17384045
84	0xbe216c1a	-0.15763894
85	0xbe2e6e85	-0.17034347
86	0xbdf9d71f	-0.12199234
87	0xbd261c69	-0.040554438
88	0xbe56159f	-0.20906685
89	0xbe27f546	-0.16402158
90	0xbe2c9713	-0.16854505
91	0xbcef7210	-0.029229194
92	0xbd66d530	-0.056355655
93	0xba5c1999	-0.00083961483
94	0xbd9aeb11	-0.075643666
95	0x3cc86961	0.024464311
96	0xbd7f3dfd	-0.062314976
97	0xbc0c5e2d	-0.008567375
98	0xbd318c11	-0.04334647
99	0xbd1dddd8	-0.038541645
100	0xbcd5a434	-0.026079275
101	0xbc9aa313	-0.018876588
102	0xbdc2ef9a	-0.095183566
103	0x3d4962ce	0.049166493
104	0xbdfce7c4	-0.12348893
105	0xbccf1136	-0.025276762
106	0xbdd2d5fc	-0.102947205
107	0xbc13cb80	-0.009020686
108	0xbddd304a	-0.10800226
109	0xbca8ffad	-0.020629728
110	0xbe33071b	-0.1748318
111	0x3a0fe136	0.0005488576
112	0xbdd2644c	-0.10273036
113	0xbe02fce6	-0.12791786
114	0xbdd950b6	-0.106110975
115	0xbcfb051c	-0.030642085
116	0xbc50d4c8	-0.0127460435
117	0xbde08419	-0.10962696
118	0xbc1ebbb4	-0.009688307
119	0xbe02ea10	-0.127846
120	0xbdda1ec0	-0.10650396
121	0xbe178704	-0.14797598
122	0xbdda0e45	-0.10647253
123	0xbc1a4339	-0.009415441
124	0xbd840536	-0.064463064
125	0xbdcd674f	-0.1002947
126	0xbd89c42c	-0.0672687
127	0xbe48225a	-0.19544354
128	0xbdb6fd5f	-0.089350455
129	0xbd8f6797	-0.0700218
130	0x3c7ed0e1	0.01555273
131	0xbde2643c	-0.110542744
132	0xbd923106	-0.07138257
133	0xbe757a09	-0.23972334
134	0xbe35c929	-0.17752518
135	0x3e0c3908	0.1369363
136	0x3d587cfc	0.05285357
137	0xbd1edc5f	-0.03878438
138	0xbd901f5a	-0.0703723
139	0xbe0b40bc	-0.13598913
140	0xbd0697e1	-0.032859687
141	0xbe599343	-0.21247582
142	0xbe150c6c	-0.1455552
143	0x3c2b20a4	0.010444794
144	0xbe0556d3	-0.13021402
145	0xbdb757f8	-0.089523256
146	0xbd04fa57	-0.032465305
147	0xbdea5972	-0.114428416
148	0xbd05f29f	-0.032702085
149	0xbe2aada1	-0.16667797
150	0x3c35d076	0.011097064
151	0xbe1e360e	-0.15450308
152	0x3d53fff3	0.051757764
153	0xbdab3661	-0.08359981
154	0x3d786962	0.060647376
155	0x3c403625	0.011731659
156	0xbdf2676c	-0.118361324
157	0x3d5ae2cd	0.05343895
158	0x3d6ecbc3	0.05829979
159	0xbd9a21a8	-0.07525951
160	0x3bf149f6	0.007363553
161	0x3d8df924	0.069322854
162	0xbe15f2fd	-0.14643474
163	0xbd865974	-0.065600306
164	0xbe406308	-0.18787777
165	0xbe105841	-0.14096166
166	0x3db14b6d	0.086569645
167	0xbe00b3d4	-0.12568599
168	0xbdd55c25	-0.10417966
169	0x3e277e90	0.16356874
170	0xbd1749a9	-0.036935482
171	0x3cb69eff	0.022292612
172	0xbd27eb7d	-0.040996064
173	0xbce91812	-0.02845386
174	0xbd0b5ba4	-0.034022942
175	0x3bcc72e8	0.006239284
176	0xbcf41d35	-0.029799083
177	0xbd8bc2e0	-0.06824279
178	0xbe272918	-0.1632427
179	0xbe11ea0c	-0.14249438
180	0x3cd01ede	0.025405344
181	0xbe1a0242	-0.15039924
182	0xbd0de4b5	-0.03464194
183	0xbd228919	-0.039681528
184	0xbdd1706f	-0.10226523
185	0xbde42a95	-0.111409344
186	0xbc942f68	-0.018089011
187	0x3c985c18	0.018598601
188	0xbe2363e1	-0.1595607
189	0xbd6d3b17	-0.05791768
190	0xbe1a458d	-0.15065594
191	0xbd59fb3e	-0.05321812
192	0xbcaacee6	-0.02085061
193	0xbde13236	-0.10995905
194	0xbe06ce76	-0.13164696
195	0xbe137ec9	-0.14403833
196	0xbd851f6e	-0.06500135
197	0xbd8d002e	-0.068848
198	0xbdc85125	-0.09781102
199	0x3d921f90	0.07134926
200	0xbcfba552	-0.03071848
201	0xbdcf4bd1	-0.10121883
202	0x3c30aa56	0.010782799
203	0xbdacfc30	-0.084465384
204	0xbde7e424	-0.11322811
205	0x3d7a1d0c	0.061062858
206	0xbc7124b1	-0.014718221
207	0xbc94cad0	-0.018163115
208	0x3b48dea3	0.003065028
209	0x3adfe1ef	0.0017080883
210	0x3c5d89f0	0.013521656
211	0xbe07b372	-0.13252047
212	0xbd4a5f77	-0.04940745
213	0xbe15ac02	-0.14616397
214	0xbd82fb38	-0.063955724
215	0x3cd461df	0.025925575
216	0x3bba919c	0.0056936275
217	0xbceb7531	-0.028742405
218	0xbdf98c52	-0.12184967
219	0xbde8418c	-0.11340627
220	0xbd19cb2e	-0.037547283
221	0xbd484e43	-0.04890276
222	0xbc107caf	-0.008818789
223	0xbdfccbcb	-0.12343558
224	0xbc4b1ebd	-0.012397465
225	0xbe12ebae	-0.14347717
226	0xbc68a1b3	-0.014198708
227	0x3cdb35cb	0.026759049
228	0xbe0f2e54	-0.13982517
229	0xbd69349b	-0.056934934
230	0xbd970f0e	-0.07375918
231	0x3d9976c4	0.07493356
232	0xbd8098f7	-0.06279176
233	0xbdf04176	-0.11731236
234	0xbd4e8da6	-0.050428055
235	0xbd042e9c	-0.032271013
236	0x3b486cba	0.0030582384
237	0xbd80592a	-0.06267007
238	0x3c952d3c	0.018210046
239	0x3d506199	0.050874326
240	0x3d97effc	0.0741882
241	0x3d0b893a	0.034066416
242	0xbdefb71c	-0.11704847
243	0xbd23ffd1	-0.040038887
244	0xbe28dc34	-0.16490251
245	0x3bae5391	0.0053200205
246	0xbde851d1	-0.1134373
247	0x3c8d547b	0.017252197
248	0x3cc4b175	0.0240104
249	0x3d683fc4	0.056701437
250	0xbd742e31	-0.059614364
251	0xbdd98895	-0.10621754
252	0x3d5c1387	0.05372956
253	0xbda56496	-0.08075826
254	0xbdaf3313	-0.085546635
255	0xbe24f209	-0.16107954

fc1.bias f4 [128]
0	0x3bb7822d	0.005600235
1	0xbdbb8b2a	-0.09157403
2	0xbd983362	-0.074316755
3	0xbd49083a	-0.04908011
4	0x3bcfb45a	0.0063386383
5	0xbefd0602	-0.49418646
6	0xbe3bd829	-0.18344177
7	0xbd6dfecf	-0.058104333
8	0xbda4b322	-0.08041979
9	0xbef99f8e	-0.48754543
10	0x3d5a862d	0.053350616
11	0xbed1715c	-0.409068
12	0x3c020906	0.007936722
13	0xbe23ac44	-0.15983683
14	0xbd86a186	-0.06573777
15	0xbd8e7a34	-0.06956902
16	0xbdc9f899	-0.09861869
17	0xbd09bcc7	-0.033627298
18	0xbe8e2658	-0.2776363
19	0x3c2e137e	0.0106247645
20	0xbdb60c2b	-0.088890396
21	0xbf1d4695	-0.61435825
22	0xbef2f1be	-0.4745006
23	0xbd7185c9	-0.058965478
24	0xbe1b58ae	-0.15170547
25	0x3ece6181	0.40308765
26	0xbe84acea	-0.25913173
27	0xbe1770e0	-0.14789152
28	0xbeb839d5	-0.35981622
29	0xbe48b1c8	-0.19599068
30	0xbd31695b	-0.043313365
31	0xbbe79bfc	-0.0070681553
32	0xbe26755a	-0.16255704
33	0xbdfb5aed	-0.12273202
34	0xbd9e56bc	-0.07731387
35	0xbcb4c053	-0.022064364
36	0x3d02523d	0.03181671
37	0xbd99cd2c	-0.075098366
38	0xbe4520f3	-0.1925085
39	0xbee18b0f	-0.44051406
40	0xbd99e4dc	-0.075143546
41	0xbd3d189d	-0.04616605
42	0xbdd0bd1d	-0.101923205
43	0x3c88f058	0.016716167
44	0xbcd7800a	-0.026306171
45	0xbd823ba5	-0.063590325
46	0xbe0586e3	-0.13039736
47	0xbb9d2e53	-0.004796782
48	0xbe26b3a9	-0.16279472
49	0xbdcf0e58	-0.10110158
50	0xbdc9783e	-0.098373875
51	0xbb582360	-0.003298007
52	0xbcba1811	-0.022716554
53	0xbdc26443	-0.0949178
54	0xbcf20cf5	-0.029547194
55	0xbe90aa08	-0.28254724
56	0xbed6cad8	-0.41951632
57	0xbdff2b55	-0.12459437
58	0xbe74eb97	-0.23917995
59	0xbe5317e3	-0.20614581
60	0xbd08877c	-0.033332333
61	0xbe060a90	-0.13089967
62	0xbdc38526	-0.095468804
63	0xbe4e37d7	-0.20138489
64	0xbd33394f	-0.043755826
65	0xbc5adba8	-0.013358034
66	0xbd84c963	-0.06483724
67	0xbd96791e	-0.0734732
68	0xbe6a04d0	-0.22853398
69	0xbd6d34b9	-0.05791161
70	0xbd5ebff6	-0.054382287
71	0xbd2a0b0b	-0.041514438
72	0x3cf22c55	0.029562155
73	0x3d07f204	0.03318979
74	0xbe525053	-0.20538454
75	0xbe05f2ad	-0.13080855
76	0xbdf9054a	-0.12159212
77	0xbe37813a	-0.1792039
78	0xbeb18dfc	-0.34678638
79	0xbd6a28eb	-0.05716793
80	0x3dadfbbd	0.08495281
81	0xbd31337e	-0.043261997
82	0xbe8f3c6a	-0.2797578
83	0xbed6dd2f	-0.41965625
84	0xbea7fa12	-0.32807976
85	0xbe2f5a86	-0.17124376
86	0xbdfe695c	-0.124224395
87	0xbdba160d	-0.09086237
88	0xbe29c0b4	-0.16577417
89	0xbe9e1a00	-0.3087921
90	0xbc28345f	-0.0102663925
91	0xbdb88857	-0.0901038
92	0xbe7355d2	-0.23763207
93	0x3c05b071	0.008159743
94	0x3d33bb60	0.043879867
95	0xbf08f1bc	-0.5349386
96	0xbd3cc216	-0.046083532
97	0xbbdd9e8e	-0.006763286
98	0xbe01002d	-0.12597723
99	0xbe037efd	-0.12841411
100	0xbda07519	-0.078348346
101	0xbd8fa3a6	-0.07013635
102	0xbd7e08f5	-0.06202026
103	0xbe22b0eb	-0.15887801
104	0xbe063d3d	-0.13109298
105	0xbdfbc537	-0.12293475
106	0xbe097050	-0.1342175
107	0xbddbc0b1	-0.10730112
108	0xbe238a2c	-0.15970677
109	0xbe243dee	-0.1603925
110	0xbdc215cb	-0.09476813
111	0xbd3e5cde	-0.046475284
112	0x3d46f366	0.048571967
113	0xbd035bcc	-0.032069966
114	0xbdc7a12b	-0.09747537
115	0xbe5a6a79	-0.21329679
116	0xbe21346f	-0.15742658
117	0xbd30a957	-0.043130245
118	0x3c615bad	0.013754767
119	0xbd33f104	-0.043931022
120	0xbdc0645d	-0.09394143
121	0xbdc425f2	-0.0957755
122	0xbda31c89	-0.07964427
123	0xbcd24184	-0.025666006
124	0x3c757581	0.014981628
125	0xbd9081ef	-0.07056033
126	0xbcbeddfa	-0.023299206
127	0x3f0b6e83	0.544655

fc2.weight f4 [64, 128]
0	0x3d4443c8	0.047916204
1	0xbb0bb22e	-0.002131592
2	0xbd046c80	-0.032330036
3	0x3d158b20	0.036509633
4	0xbd87ebd4	-0.066367775
5	0x3caae5a6	0.020861458
6	0xbddaee32	-0.106899634
7	0xbb031be1	-0.002000563
8	0x3dba0430	0.0908283
9	0xbd16c0a9	-0.03680483
10	0x3caddf3a	0.021224607
11	0xbd926b63	-0.07149389
12	0xbc0e5d9e	-0.008689312
13	0x3d658ea9	0.056044254
14	0xbcaf2568	-0.021380141
15	0xbc55197d	-0.013006565
16	0x3dfb410b	0.12268265
17	0x3bbca5d6	0.005757074
18	0xbc569d20	-0.013098985
19	0x3d0e24a4	0.034702912
20	0xbd0d95ec	-0.034566805
21	0xbdf4256b	-0.119211994
22	0xbca1a3cc	-0.019731425
23	0x3da9b538	0.08286518
24	0xbd0ea94b	-0.03482942
25	0xbdb5d1f3	-0.08877935
26	0xbb9249db	-0.0044643707
27	0x3d4d2fbb	0.050094347
28	0xbd1ebc86	-0.03875401
29	0xbdbe8a88	-0.093037665
30	0x3d7ca02f	0.0616762
31	0x3ca369e9	0.019947963
32	0x3d9a3341	0.07529307
33	0xbd9c0944	-0.07618955
34	0xbd16e533	-0.036839675
35	0x3d41cf8a	0.047317065
36	0xbdeeef76	-0.11666767
37	0xbdf6a7bf	-0.12043714
38	0x3d3e44b5	0.046452243
39	0xbda45f0c	-0.08025941
40	0x3b5b2f0d	0.0033444792
41	0x3c3d42f6	0.011551609
42	0xbced5244	-0.028969891
43	0xbca381b0	-0.0199593
44	0xbbb709a7	-0.0055858674
45	0x3cdcc4de	0.026949342
46	0xbb64512e	-0.0034838426
47	0x3d8b2ca9	0.067956276
48	0xbcac9716	-0.021068137
49	0xbd8c91be	-0.068637356
50	0xbdb90f02	-0.09036066
51	0xbc7881f8	-0.015167706
52	0x3d96086f	0.07325827
53	0xbd876dba	-0.066127256
54	0xbb639a30	-0.0034729354
55	0xbd471a74	-0.048609212
56	0xbd8c7ab1	-0.06859339
57	0x3c0f06ad	0.008729619
58	0xbcae9f4f	-0.021316199
59	0x3d1416de	0.03615462
60	0xbe04c64e	-0.12966272
61	0xbd416fc5	-0.047225732
62	0x3d76a065	0.060211558
63	0x3d70a8b9	0.058754656
64	0x3d94cf3a	0.07266088
65	0x3d1fd516	0.039021574
66	0x3d403b89	0.046931777
67	0xbc3e7fbb	-0.011627133
68	0xbd599796	-0.05312308
69	0x3d39dd5e	0.045377128
70	0x3c9ebd22	0.019377295
71	0x3c36c2c0	0.01115483
72	0xbdefe018	-0.11712664
73	0x3cfacbc2	0.030614737
74	0xbd94ac6e	-0.07259451
75	0xbd26eb6c	-0.04075186
76	0x3db804f4	0.0898532
77	0xbd6edb6b	-0.058314722
78	0xbe0ac370	-0.13551116
79	0xbd536b87	-0.051616218
80	0x3c3b0ca8	0.011416592
81	0x3c78b30c	0.015179407
82	0xbd811fec	-0.06304917
83	0x3cd7ae06	0.026328098
84	0xbc7b984e	-0.0153561365
85	0xbdd783b5	-0.10523168
86	0xbc1aefbd	-0.009456572
87	0x3d988753	0.07447686
88	0xbca2056e	-0.01977798
89	0x3dae8c55	0.0852286
90	0x3babf21a	0.0052473666
91	0x3d17c137	0.0370495
92	0xbc68a331	-0.014199064
93	0xbd83c617	-0.06434267
94	0x3da73a8c	0.08165464
95	0xbd810314	-0.06299415
96	0xbd7f6969	-0.062356386
97	0x3cefa51d	0.029253537
98	0xbc1ea138	-0.009681992
99	0x3c000029	0.007812538
100	0xbd110cfc	-0.035412773
101	0x3a9ad6c0	0.0011813268
102	0x3cc68afb	0.024236193
103	0xbc5109dc	-0.012758698
104	0xbd683324	-0.056689397
105	0x3c943b92	0.018094812
106	0x3ca4a1dd	0.020096714
107	0xbd4a2c65	-0.049358744
108	0xbcc15e73	-0.023604607
109	0x3c2d57d0	0.010580018
110	0xbdc08767	-0.09400826
111	0x3da215d6	0.07914321
112	0xbd13b634	-0.036062434
113	0x3d4aaef3	0.04948325
114	0xbd6bc6fd	-0.057562817
115	0xbc827a61	-0.015927495
116	0xbd8ab824	-0.06773403
117	0xbaef2e59	-0.0018248066
118	0xbda016ef	-0.07816874
119	0xbc9b38a5	-0.018947909
120	0xbc5e8041	-0.013580383
121	0xbd6b04fe	-0.057377808
122	0xbd817e47	-0.063229136
123	0x3ad2113f	0.0016026868
124	0x3c12e698	0.008966111
125	0xbd81ce2f	-0.063381545
126	0x3db09a9d	0.0862324
127	0xbdce38ff	-0.10069465
128	0x3db62c26	0.088951394
129	0xbda84e36	-0.082180426
130	0x3c5fec7b	0.013667221
131	0x3dd0d378	0.101965845
132	0x3cd3fa1a	0.025876094
133	0x3e31d22c	0.1736533
134	0xbc0f9bf6	-0.008765211
135	0xbd1be270	-0.038057745
136	0xbd1bd970	-0.03804916
137	0x3d0d6205	0.034517307
138	0xbd8b0ef0	-0.067899585
139	0x3e9b3ad5	0.30318323
140	0xbd7bc653	-0.061468434
141	0xbd479374	-0.048724607
142	0x3d6e35cb	0.05815677
143	0xbd063cab	-0.0327727
144	0xbc685e83	-0.01418269
145	0x3d61d8b6	0.055138312
146	0xbaeda4c7	-0.0018130773
147	0x3df1f923	0.11815097
148	0x3b6e638b	0.003637525
149	0x3f285bd3	0.6576511
150	0x3ef634c6	0.48087138
151	0x3d8d78e7	0.06907826
152	0x3ccff520	0.02538544
153	0x3cce476e	0.025180545
154	0x3cc176a6	0.023616146
155	0x3b4523e9	0.0030081219
156	0x3e6f3a8a	0.23362175
157	0x3c3bc324	0.011460099
158	0xbc8cbf81	-0.01718116
159	0xbd86fab1	-0.06590784
160	0xbd76677b	-0.06015728
161	0xbcef832a	-0.029237349
162	0x3d018659	0.031622265
163	0x3d7a54ce	0.061116032
164	0xba8f157b	-0.0010916436
165	0x3cd7f946	0.02636398
166	0xbcb173dc	-0.021661691
167	0x3c925042	0.017860536
168	0x3d2e615f	0.04257333
169	0x3c994b64	0.018712707
170	0x3d1926ed	0.03739064
171	0x3d1538ca	0.03643111
172	0x3cc20e2b	0.023688396
173	0x3cc6028e	0.02417114
174	0x3c87f2f4	0.016595341
175	0xbc38fb83	-0.011290434
176	0xbc9167c7	-0.01774968
177	0x3c842ef6	0.016135674
178	0x3ccf7f1e	0.025329169
179	0x3d91e107	0.07122999
180	0x3c150c48	0.009097166
181	0x3d854914	0.06508079
182	0x3d8576e8	0.0651682
183	0x3cca9ead	0.024733866
184	0x3e96b816	0.2943732
185	0xbd3c73b7	-0.04600879
186	0xbc4bd477	-0.012440792
187	0x3d095ec4	0.03353764
188	0x3d38015b	0.044923168
189	0x3c02c128	0.007980622
190	0x3d420181	0.047364715
191	0x3b9f2945	0.0048572146
192	0x3cf88f96	0.030341905
193	0xbc84e9a9	-0.0162247
194	0xbc0b5f95	-0.008506675
195	0x3cba15d3	0.022715485
196	0x3d1e59ce	0.038659863
197	0xbca4d28f	-0.020119933
198	0xbd5ffda4	-0.05468525
199	0xbd8e1c4a	-0.069389895
200	0x3cf76e4a	0.030203957
201	0x3c87010c	0.016479991
202	0x3d50a5b8	0.05093929
203	0x3ca71758	0.020396873
204	0xbd561959	-0.052270267
205	0xbc4b430c	-0.012406122
206	0xbd41db73	-0.047328424
207	0x3da64e3c	0.08120391
208	0x3d833458	0.06406468
209	0x3d3e7b04	0.046504036
210	0x3d9f0262	0.07764126
211	0x3cbe46f5	0.023227194
212	0x3d9335b4	0.071879774
213	0xbda27c77	-0.07933896
214	0xbd8ff3d1	-0.07028926
215	0xbd8451e8	-0.06460935
216	0x3cc451ee	0.023964848
217	0x3cb0dbda	0.021589208
218	0x3c62c74e	0.013841463
219	0xbdb122ed	-0.0864924
220	0x3c859f04	0.016311176
221	0xbd1cc1c0	-0.038270712
222	0x3b786ace	0.0037905457
223	0x3e5ebd35	0.21751864
224	0xbdb83b4e	-0.089956865
225	0x3d0602f3	0.032717656
226	0xbcd84852	-0.026401673
227	0x3db561ee	0.08856569
228	0x3c5e3e04	0.01356459
229	0x3d6d6868	0.057960898
230	0xbc729da7	-0.014808095
231	0xbb3d5f08	-0.0028895754
232	0x3bec573b	0.007212547
233	0xbcebd97f	-0.028790234
234	0xbca44960	-0.02005452
235	0xbd018fe7	-0.031631377
236	0xbd0bc013	-0.034118723
237	0xbd89ca11	-0.06727994
238	0x3c600a0e	0.013674272
239	0xbd560aaf	-0.052256282
240	0x3d1f1e8e	0.0388475
241	0x3d4ed765	0.050498385
242	0xbdd9f6e8	-0.10642797
243	0x3d5b9f87	0.053618934
244	0xbd565832	-0.052330203
245	0xbbdf3527	-0.006811756
246	0x3cae5849	0.021282332
247	0x3da7bac7	0.08189922
248	0xba61cd3f	-0.0008613653
249	0x3d286d51	0.041119877
250	0xbbadf42a	-0.0053086476
251	0x3d88df18	0.06683177
252	0x3ce4e534	0.027941324
253	0x3d539130	0.051652133
254	0xbcf24fb7	-0.029579027
255	0x3e165e5b	0.14684431

fc2.bias f4 [64]
0	0xbe882dfe	-0.2659759
1	0x3f3772dd	0.7165964
2	0xbe429cfc	-0.19005197
3	0xbe3ef20d	-0.18647023
4	0xbe47e827	-0.19522153
5	0xbd43d218	-0.047807783
6	0x3f2e4e43	0.6808817
7	0xbe53aeb4	-0.20672113
8	0xbe1d66ac	-0.15371197
9	0xbe20b63d	-0.15694518
10	0xbd5228a7	-0.0513083
11	0xbe838278	-0.25685477
12	0xbd9ea63c	-0.077465504
13	0xbe08d601	-0.13362886
14	0x3be8e80c	0.0071077403
15	0xbe814f87	-0.25255987
16	0xbd9d0a71	-0.07668007
17	0xbe1b4f96	-0.15167078
18	0xbe29c825	-0.16580255
19	0x3f33ed92	0.7028438
20	0xbb9eacb2	-0.004842364
21	0xbd633ee9	-0.055479918
22	0xbe73b979	-0.23801221
23	0xbdca60fa	-0.09881778
24	0xbea240ea	-0.3169015
25	0xbe2f1e6b	-0.17101447
26	0xbe256beb	-0.16154449
27	0xbe10ff1e	-0.1415982
28	0xbdaccc04	-0.084373504
29	0xbe940feb	-0.28918394
30	0xbe108c49	-0.14116015
31	0xbdc8d61b	-0.098064624
32	0xbd4d8c49	-0.050182614
33	0xbdc8f9a5	-0.09813241
34	0xbdfcfaac	-0.12352499
35	0xbd88beb6	-0.06677
36	0xbe74e37d	-0.23914905
37	0xbe2a04bd	-0.1660337
38	0x3be936ec	0.007117143
39	0xbddc7c7c	-0.10765931
40	0xbde46e97	-0.11153906
41	0x3f16737b	0.5876996
42	0xbe79a8e1	-0.24380828
43	0xbda83179	-0.08212561
44	0xbe1b2825	-0.15152033
45	0xbe54f425	-0.20796259
46	0x3f46ee5f	0.77707475
47	0x3f2af9bf	0.6678733
48	0xbdbc2c50	-0.091881394
49	0xbe2d2175	-0.16907294
50	0xbe131ba9	-0.1436602
51	0xbe464c1f	-0.19364975
52	0xbdba52b1	-0.090978034
53	0xbd43dd62	-0.04781855
54	0xbdff58b6	-0.12468092
55	0xbe7c5f58	-0.24645746
56	0xbecdff99	-0.40234068
57	0xbddfade2	-0.109218374
58	0xbd8f8b7c	-0.070090264
59	0xbdda7394	-0.10666576
60	0xbb4dc61b	-0.0031398598
61	0xbd1ccc31	-0.03828067
62	0xbe406905	-0.18790062
63	0x3f28f036	0.6599153

fc3.weight f4 [3, 64]
0	0xbd355442	-0.044269808
1	0x3f43a35c	0.7642114
2	0x3c919cbb	0.01777493
3	0xbb9df7f2	-0.004820817
4	0xbdb0ac39	-0.08626599
5	0x3d5b51c7	0.053544786
6	0x3f532198	0.82473135
7	0xbc3f1af8	-0.011664145
8	0xbbbe22b5	-0.0058024772
9	0x3ba67540	0.0050798953
10	0x3ccd6d46	0.02507652
11	0x3dc0c6ff	0.094129555
12	0xbd18bf1c	-0.03729163
13	0x3cfbb1d7	0.03072445
14	0x3d5cd76a	0.053916372
15	0xbc1bbe82	-0.00950587
16	0xbcb0f972	-0.02160332
17	0xbcfdd96e	-0.030987468
18	0xbddc32c4	-0.1075187
19	0x3f4e9e1f	0.80710024
20	0x3e0f89ac	0.14017361
21	0xbd0539fe	-0.03252601
22	0xbcb0fde4	-0.02160544
23	0x3cd887e5	0.026431987
24	0xbbaf4bd8	-0.0053496175
25	0x3bf750e9	0.007547487
26	0xbbf083db	-0.007339937
27	0x3ccf3c18	0.02529721
28	0xbaf708bc	-0.0018847208
29	0x3c0417cb	0.008062313
30	0x3d01b8df	0.031670447
31	0xbd416b21	-0.047221307
32	0xbc79b310	-0.015240446
33	0x3cadf829	0.021236496
34	0x3b55ad30	0.0032604448
35	0x3b00de7b	0.0019663859
36	0x3cb3a119	0.021927403
37	0xbb005896	-0.0019584051
38	0x3e14b39e	0.14521644
39	0x3d844c2b	0.064598404
40	0x3c8fccb8	0.017553672
41	0x3f454cf2	0.77070534
42	0x3ae69ca8	0.0017594295
43	0xbd0e6f48	-0.034774095
44	0xbcceda42	-0.025250558
45	0xba9d10a8	-0.0011983113
46	0x3f46c47c	0.7764356
47	0x3f0d7127	0.5525078
48	0xbc5c0d85	-0.013430958
49	0xbc800d31	-0.01563129
50	0xbb043f30	-0.0020179264
51	0x3c38f002	0.011287691
52	0x3ca9a8c2	0.020710353
53	0x3de925e8	0.11384183
54	0x3cc64349	0.024202006
55	0x3d87ab8f	0.06624519
56	0xbd41a757	-0.04727873
57	0x3cf795e0	0.030222833
58	0xbca018ed	-0.019543136
59	0x3d080278	0.03320548
60	0x3d8413dc	0.064491004
61	0x3d8e71a5	0.0695527
62	0x3b268e54	0.0025414424
63	0x3f3ec603	0.7452089
64	0xbc1f0cb0	-0.009707615
65	0x3f45a5ce	0.7720612
66	0xbdbb2993	-0.09138789
67	0x3dc46164	0.09588888
68	0x3e3b4ff8	0.18292224
69	0xbbec3775	-0.0072087594
70	0x3f4f8671	0.81064516
71	0x3b563daa	0.0032690563
72	0xbc6f3776	-0.014600625
73	0xbcbbfb89	-0.02294709
74	0x3d0473cb	0.03233699
75	0x3c223886	0.009901172
76	0x3d6f3703	0.058402073
77	0x3cb92b45	0.02260364
78	0x3c6dc0d1	0.014511303
79	0x3c244155	0.010025342
80	0xbd896fc4	-0.06710771
81	0x3bae14da	0.0053125443
82	0x3c5d3b7d	0.013502953
83	0x3f54d143	0.8313181
84	0x3d4baf8d	0.049727965
85	0x3d695282	0.05696345
86	0xbd71a997	-0.058999624
87	0xbc02d124	-0.007984433
88	0x3ad22ed4	0.0016035684
89	0xbc20c614	-0.0098128505
90	0xbd12b9d0	-0.035821736
91	0x3c60dbc3	0.01372427
92	0xbb9b7078	-0.004743632
93	0xbd11c367	-0.03558674
94	0x3d5c23e4	0.053745165
95	0x3d6e04c6	0.05811002
96	0x3d412972	0.047158666
97	0x3c263a5c	0.01014575
98	0x3b8c874e	0.0042885905
99	0xbc8dc666	-0.017306518
100	0x3d885a43	0.06657841
101	0x3d1737af	0.03691834
102	0xbc9d7394	-0.019220151
103	0x3cc458cf	0.023968128
104	0x3dc0a0c0	0.09405661
105	0x3f46fe3f	0.777317
106	0xbc6ccb1d	-0.014452723
107	0x3bbe03e4	0.0057988036
108	0x3cd68f99	0.02619152
109	0xbcfebdb9	-0.031096326
110	0x3f4c1d2b	0.79732007
111	0x3f0753c9	0.5286222
112	0xbb6c04e8	-0.0036013667
113	0xbdfc6306	-0.12323575
114	0x3d8e6ac4	0.06953958
115	0x3dccf985	0.100085296
116	0xbd07122d	-0.03297632
117	0xbc827fea	-0.015930135
118	0x3b45599e	0.003011323
119	0xbc91abc5	-0.017782101
120	0xbcbf0db3	-0.023321962
121	0xbd2cc7fb	-0.042182904
122	0xbda20fb3	-0.07913151
123	0xbc7f0d83	-0.015567186
124	0xbcffb0b1	-0.031212183
125	0xbc9b6e3b	-0.01897346
126	0xbcc19b3c	-0.023633592
127	0x3f3eca45	0.7452739
128	0xbcde844b	-0.027162692
129	0x3f4a67d0	0.79064655
130	0xbcf19f70	-0.029494971
131	0x3c37b9fb	0.011213775
132	0x3df4733c	0.11936042
133	0xbda75bd5	-0.081718124
134	0x3f5cc205	0.8623355
135	0xbd6edf4c	-0.05831842
136	0xbc97d7c2	-0.018535499
137	0xbd565b8a	-0.052333392
138	0x3d0b70d0	0.034043133
139	0x3bf3a35f	0.007435247
140	0x3c3f0464	0.011658762
141	0x3d12bcf2	0.035824724
142	0x3d8fdcbc	0.070245236
143	0x3b101047	0.0021982358
144	0x3d3864b6	0.04501792
145	0xbd5f8eee	-0.054579668
146	0xbd60f6dc	-0.054922923
147	0x3f52a4fd	0.82283
148	0x3d0a7adc	0.033808574
149	0xbcdac0e6	-0.02670331
150	0xbd47e1ab	-0.048799198
151	0x3d35f50b	0.044423144
152	0xbdbe6125	-0.092958726
153	0xbc3e2551	-0.011605577
154	0xbdec11a9	-0.11526806
155	0x3d6de717	0.058081713
156	0xbcbc523e	-0.022988435
157	0xbdea0329	-0.11426384
158	0x3d7d5c3e	0.061855547
159	0xbc42ba59	-0.011885249
160	0xbd5056f4	-0.050864175
161	0xbde0b241	-0.10971499
162	0xbd1043cf	-0.035220917
163	0xbca07e28	-0.019591406
164	0x3b8cffb7	0.0043029445
165	0xbd6129b0	-0.054971397
166	0xbb03aaf8	-0.002009092
167	0x3d2845bc	0.04108213
168	0x3d805cc7	0.06267696
169	0x3f4d24d9	0.8013435
170	0x37fe1cc2	3.0292551e-05
171	0x3e0fd04a	0.140443
172	0xbd13a91d	-0.03604995
173	0xbe3c014d	-0.18359871
174	0x3f445f52	0.7670795
175	0x3f0eddc1	0.5580712
176	0x3d8e06a8	0.06934863
177	0xbd4ed0a2	-0.050491937
178	0xbdb1e1b3	-0.08685627
179	0xbc418039	-0.011810356
180	0xbe2ca7bd	-0.16860862
181	0xbcb06a09	-0.021534937
182	0x3c5733c2	0.013134899
183	0xbd2ab123	-0.041672837
184	0xbcfdf678	-0.031001315
185	0xbd5cb320	-0.053881764
186	0x3cf8e0e2	0.03038067
187	0x3d0dcc4c	0.03461866
188	0x3dab0fbc	0.083526105
189	0xbcd420f1	-0.025894614
190	0xbcebfd20	-0.028807223
191	0x3f437027	0.76343006

fc3.bias f4 [3]
0	0x3f99d318	1.2017546
1	0x3f867173	1.0503372
2	0x3f95b8b6	1.1696994
