Models/DQN/agentDQN_2020-2022_dqn_v2_400_EPS_7.pth (torch, 90071 bytes, 6 tensors)

fc1.weight f4 [128, 104]
00000000: 9c4a f2bd 4ce8 c8ba 92d6 dfbd eed1 3f3c
00000010: f23e c9bd db6e f0bd 0bb6 c2bd 27ec 41bd
00000020: 1265 71bc e83b 823d 7c5e 9dbd ceff 0dbd
00000030: 803b c5bd ccea 2ebd 2243 cc3b 56f7 f9bd
00000040: 3867 fbbc 614c 0dbb 3543 2bbd c94d 4f3d
00000050: 17a0 b8bd 8868 803d b8d7 98bc 3fc1 60bd
00000060: 3df6 8fbd 79e4 78bd ae83 84bd 0d1d 0fbd
00000070: f6e8 a93d e4a2 5cbc 0c63 0dbd a09f a9bb
00000080: 545e f5bc 0ad2 c5bb e2f8 343d 9503 36bd
00000090: d27f 21bd 450a e63c 9254 3cbd 281f 83bd
000000a0: b913 0ebd 57cb 193d 5c17 133d c9aa 843d
000000b0: 6882 14bd e7d5 4c3c 8cf5 833d bb4b a63d
000000c0: ac59 49bc 71d9 163b 9371 a1bb c4c4 2ebb
000000d0: d035 673d ae35 97bd 11fe 3fbb 6d7d 12bc
000000e0: 8de7 d3bd f831 683c cb32 073c 2f70 7bbd
000000f0: af9e a03d 0f8a 70bd ad53 61bc 10cb 013d
00000100: 9141 8d3d d012 e03d 76c2 8a3d 3f8c 093d
00000110: 6b8f 9abc b50b 6abc c1a1 353c 5c0b bcbd
00000120: 6dff eebd ca93 abbb 278b e0bd 71e3 92bd
00000130: da4c 61bd bc53 073d 30a4 f93b 8e54 cd3c
00000140: 16f7 373d a98d 8a3d 47d1 c8bb 8787 d8bd
00000150: c4e5 f8bd 92b3 2abc fd29 4ebd 9201 a1bc
00000160: 909e 1dbb 2dac 493d 8dec 753d 0d44 853d
00000170: f821 913d 01dc 443d 24e5 63bd c888 c0bc
00000180: 437c 923d db0a dbbd d78f c6bd 83d5 8a3c
00000190: 7211 7cbd eee6 d4bd 9f93 a1bd 04c2 e93c
000001a0: d9e8 8bbc fae7 41bd 15b2 80bf 030e 5b3f
000001b0: 2aae 743f f733 22c0 ee9d b1bf cdbd 5e3c
000001c0: b2fc 83bf 8829 0fc0 691b 783f 9757 05c1
000001d0: b13a 97bf a772 42bf 7eb7 e03e ff84 bd3e
000001e0: 2eee d5bf 4f2c 91be c425 223f b654 bdbf
000001f0: 4697 27bf 5547 a0be d409 4b3e 7ff7 e840
00000200: 36ab 4fbf 491c 05c0 acdc a3c0 91df 7940
00000210: 3be2 ef3e 9c90 bf40 a242 f2c0 1909 c1c0
00000220: a018 8140 2c07 0341 0adb b1be c271 c640
00000230: 4b7a c740 896c 2441 d202 3b3f 9b2d f2c0
00000240: 8a5e bfbd 8f11 8a40 7c2a 0341 04fc a940
00000250: 2d58 5841 3dee a03f c8a4 2ac1 c419 f2c0
00000260: a8c5 ff3f 5149 5741 a29c d1bf e059 48c0
00000270: 3966 19bf 7984 49c0 6c2c 04c1 3427 cdbe
00000280: f8b4 803e 32b9 3dbf e225 6b3f 4701 4abd
00000290: 7599 89bf bf92 4a40 8a05 e8c0 67d4 9740
000002a0: d6f4 e2bf b8c3 dd3f 8fdc 94be 7530 2b3e
000002b0: 846b f7bf c9ea 3e3e 7f64 b13d cb03 59be
000002c0: c43f ec3e 522d ad3d b89a 24be 6dc0 633d
000002d0: 5114 80bd 2152 f63d 56b0 c33c 9883 4a3e
000002e0: 136f d33e 3301 723e 5a69 3f3e 94b1 573e
000002f0: 98ec b23f 6155 983f 51f0 f03f 1200 253f
00000300: 20a2 ec3e 8f20 c83f 0706 6f3f 88dc e43f
00000310: 837d 653e 070c d43f 30ce 483f d0bc cc3d
00000320: 5960 93bd c21b f13c a36c 8c3e 7947 fc3d
00000330: c7b3 6a3e 3b65 cd3c 7e9b 34be 9d06 bd3e
00000340: af52 9fbd 1f71 3bbc 7d99 08be 5287 06be
00000350: 2da1 19be 355d f93c 1d8e c9bd ca82 17bc
00000360: 16ee d23b a0ef eebd be16 f8bd 0770 01be
00000370: 6fd7 abbd 06b7 d0bc b6eb c3bc 6977 3a3d
00000380: 2411 4cbc 2ab0 e4bd e657 b1bd 58c4 d6bd
00000390: 3600 6b3b 7583 0abe 0e5d 11be 6f74 88bd
000003a0: 5c67 7fbd 813a 023d d0f5 4cbd 5268 0fbc
000003b0: 08a2 fa3d 118e d1bd d4ed 79bd d7bf 583c
000003c0: b59e 893c 9c5b a73d 29aa 64bd 772c b53d
000003d0: e289 f63c 767b 413d 4c23 8bbb 8e92 cb3c
000003e0: a484 893d 890b 33bd 73d6 a3bd 5cf9 523c
000003f0: b633 9bbc 1f62 07bd 0f44 943d 5832 ae3c
-0.11830637 -0.0015328019 -0.10929598 0.011707766 -0.09826459 -0.11739894 -0.09507378 -0.047344353
-0.01473357 0.063590825 -0.07684037 -0.034667782 -0.09630489 -0.04270439 0.006233589 -0.12205379
-0.030688867 -0.0021560418 -0.04181214 0.05061129 -0.0901491 0.06269938 -0.01865755 -0.054871794
-0.07029388 -0.060764764 -0.064704284 -0.034939814 0.08296387 -0.0134665705 -0.034518287 -0.0051764995
-0.029952206 -0.0060370015 0.044182666 -0.04443701 -0.03942854 0.028081069 -0.04597909 -0.06402427
-0.034686778 0.037547436 0.03591095 0.06477887 -0.036257178 0.01250217 0.06443319 0.08119913
-0.012289446 0.0023017789 -0.004926869 -0.0026667574 0.056447804 -0.073832855 -0.0029295722 -0.008941037
-0.10346899 0.01417207 0.008251856 -0.061386283 0.078427665 -0.058725413 -0.01375286 0.031687796
0.068972714 0.10941088 0.06775372 0.033581015 -0.018867215 -0.014285018 0.011085928 -0.09181854
-0.11669812 -0.0052361237 -0.10964041 -0.07172287 -0.055004932 0.03303884 0.0076184496 0.025064733
0.044913374 0.06765301 -0.0061284634 -0.10572725 -0.12153199 -0.010418789 -0.050333012 -0.01965407
-0.002405081 0.049236465 0.060040046 0.0650712 0.07086557 0.048061375 -0.055638447 -0.023502722
0.07152607 -0.1069543 -0.09695404 0.016947513 -0.061540075 -0.10395609 -0.078894846 0.028534897
-0.017078804 -0.04734037 -1.0054346 0.85568255 0.95578253 -2.5344217 -1.3876321 0.013595057
-1.0311491 -2.2369099 0.96916825 -8.333884 -1.1814786 -0.75956196 0.43889993 0.3701553
-1.6713312 -0.28354117 0.63338876 -1.4791477 -0.654652 -0.31304422 0.19827968 7.280212
-0.8112062 -2.0798514 -5.1206875 3.9042704 0.46852288 5.9864025 -7.570634 -6.0323606
4.034256 8.189251 -0.34737426 6.2013865 6.2336783 10.276498 0.7305118 -7.568067
-0.09344204 4.3146434 8.197872 5.3120136 13.521527 1.2572705 -10.66523 -7.565645
1.9982195 13.4553995 -1.6375926 -3.1304855 -0.59921604 -3.1487105 -8.260845 -0.40068972
0.25138068 -0.7411071 0.9185468 -0.049317624 -1.0749956 3.1652067 -7.250676 4.744678
-1.7730968 1.7325354 -0.29074523 0.16717704 -1.9329686 0.18644251 0.08661746 -0.21192853
0.461424 0.0845591 -0.16074646 0.055603433 -0.06253875 0.120273836 0.023887794 0.19776762
0.4129568 0.2363327 0.18692532 0.21063834 1.3978453 1.1901056 1.8823339 0.6445323
0.46217442 1.5634936 0.9336857 1.7879801 0.2241116 1.656617 0.7843962 0.099969506
-0.07196111 0.029432181 0.27426633 0.1231832 0.22920142 0.025072685 -0.1763744 0.36919108
-0.077794425 -0.011440544 -0.13339801 -0.13137558 -0.1500289 0.030439952 -0.09841559 -0.009247491
0.0064370735 -0.116667986 -0.12113713 -0.12640391 -0.083907 -0.025477897 -0.023916107 0.045524035
-0.0124552585 -0.11166413 -0.086593434 -0.10486668 0.003585828 -0.1352671 -0.14195654 -0.06662833
-0.06235443 0.031794075 -0.050039113 -0.008752899 0.12237936 -0.10232175 -0.061017826 0.013229332
0.01679931 0.0817177 -0.05582634 0.088463716 0.030095045 0.047236882 -0.004246151 0.024850156
0.06714752 -0.043712173 -0.07999887 0.012876835 -0.018945556 -0.03305256 0.07239544 0.02126424

fc1.bias f4 [128]
00000000: 15d6 5bbc 0ae7 793d 96f3 38bd 1c4e 6bbe
00000010: 1d02 6cbe 18d5 19be 1f48 91bd 00db a0bc
00000020: b8c0 5cbe 96af 1fbe d63c 99bd 8361 fbbd
00000030: 68a3 2dbe 8a91 a8be 1823 9dbe 9782 afbd
00000040: 5775 42bc b3aa 58be 5c62 29bd e96f 73be
00000050: c0b8 0ebe 9087 05be 7067 afbd d8d4 bebe
00000060: a3c2 0cbd c26d c03c 4f48 c4bc eba2 20be
00000070: 13e2 7bbe fde5 3cbe fe81 12bf db8d 75bd
00000080: 25de 0f3f 4142 8fbe 47d1 05bd bb54 39be
00000090: cb3f 01bf 75f2 98bd 4fdd 72be 85ef 1cbe
000000a0: ff50 32be e6ce 413c 1a3c 84bd 1625 5cbd
000000b0: 5e2c d4bd 390e d13c 9da9 10be f88a 9abe
000000c0: 9427 8dbd ffb4 1abf ae82 3ebe 6e4f 00bf
000000d0: 448b 55be 0217 2ebe b923 b3bd 9a0a 7ebd
000000e0: ce9a 8ebd a510 c4bd 3548 43be 152b eabd
000000f0: 179d e8be a386 32be d6ea a4be c946 23bd
00000100: 80c6 4bbe a111 ecbd 9a73 a5be ebdf 9cbd
00000110: 3195 9bbd 57bd 3abe 747c 4ebe e5f9 34be
00000120: 0bb1 69be 1614 64bd ecdd 65be b6c8 dc3c
00000130: 2df4 cabe ed28 7abd 327f 14be 6373 1ebe
00000140: 6439 533d de26 8ebe 0c35 8bbc 8e31 26be
00000150: ac58 86be 4d99 08bf 3a73 9fbe 994b 673d
00000160: 72a1 3bbc 3bec 62bd 3275 0dbd 4f80 4ebe
00000170: cf6c c3bd abc9 f8bd b191 00be 0148 3fbf
00000180: 0b77 8dbf 0898 03be 04b4 bdbd 5c8f c2bd
00000190: 56b5 c4bd 905e 153c 779e e9bc f821 2dbe
000001a0: 405d 82be b87e 0ebd db3f 23be b986 e9bd
000001b0: 90d1 56be 352d 9abc add7 84bf c9ea abbe
000001c0: 7529 c5bc 75e7 28be 265e 33be 9a90 81be
000001d0: 43f1 36bd 9891 f6bd be97 62be 3ede 69bc
000001e0: 80e7 1bbe a904 1dbd cba1 93bd 3d04 9bbe
000001f0: 8e77 dfbe e800 06be e346 bcbd 87c9 8bbd
-0.01341774 0.06101135 -0.045154177 -0.22979015 -0.23047681 -0.15022695 -0.07093834 -0.019635677
-0.21557891 -0.15594324 -0.07482307 -0.12274458 -0.16956866 -0.32923537 -0.30690837 -0.0856983
-0.011868796 -0.21158867 -0.04135357 -0.23773159 -0.13937664 -0.13039994 -0.08564651 -0.37271762
-0.034365308 0.023489837 -0.02396026 -0.15687148 -0.24597959 -0.18447109 -0.572296 -0.059949737
0.5619834 -0.27980235 -0.032670286 -0.18098728 -0.50487965 -0.0746812 -0.23717235 -0.15325744
-0.1741371 0.011829114 -0.06456776 -0.053746305 -0.10360025 0.025519477 -0.14127202 -0.3018415
-0.068923146 -0.6043243 -0.18604538 -0.501212 -0.20853907 -0.17000964 -0.08747048 -0.06202183
-0.069631204 -0.09573487 -0.19070514 -0.114339985 -0.4543235 -0.17434172 -0.32210416 -0.039862428
-0.1989994 -0.115268 -0.3231476 -0.076598965 -0.075968154 -0.1823629 -0.20164663 -0.17673452
-0.22821443 -0.055683218 -0.22447938 0.026951175 -0.39639416 -0.061074186 -0.14501646 -0.15473704
0.051568404 -0.27764028 -0.016993068 -0.16229841 -0.26239526 -0.5335892 -0.31142598 0.05646858
-0.011452066 -0.05540107 -0.034535594 -0.20166133 -0.09542238 -0.1214784 -0.12555577 -0.74719244
-1.1051954 -0.12850964 -0.09262851 -0.095 -0.096048996 0.009116784 -0.028517945 -0.1690749
-0.2546177 -0.034788817 -0.15942328 -0.114026494 -0.20978379 -0.018820385 -1.0378319 -0.33577564
-0.02406762 -0.16494544 -0.17516384 -0.25305635 -0.04466368 -0.120394886 -0.22128198 -0.014274178
-0.15225029 -0.038334522 -0.07208594 -0.3027667 -0.436459 -0.13086283 -0.09193208 -0.06825548

fc2.weight f4 [64, 128]
00000000: fe47 26bd fbb6 71bd 4a70 723d ee84 63bd
00000010: 58e6 d23d 480d 89bd 7f30 e0bc a27d 5d3d
00000020: eca6 c53c 682b dc3c ae38 da3c 2fba de3c
00000030: cd5e c3bd bebb 82bd 2d10 e3bd 7947 903d
00000040: 0804 20bd 4185 043d 4253 083d 5560 11bd
00000050: 3660 76bd dafb 653d b524 02bd aa6f 68bd
00000060: b1b2 eabc 7448 06bc c049 c3bc 7669 acbb
00000070: 5fde 02bd bbfd 513d 0e30 843c 1cf3 b9bc
00000080: af0f 59be 27bc e2bd 5588 0b3d 9961 4a3d
00000090: 659f 0e3d 8b62 463d a2c7 acbc 92a9 1abd
000000a0: 8e7a 08bc cb7f 823d 4d7e 38bd dbba 87bd
000000b0: ed28 68bc e866 8a3d d93a 0139 4b05 02be
000000c0: f266 a73c 6fa3 82bc 5c06 8cbd e2a5 e1bc
000000d0: af38 b6bd ca04 753d 5742 10bd 7f85 0dbd
000000e0: 2a0a 933c 08cf f3bc 7e24 003d 93a1 97bd
000000f0: abaa aebd 9302 d6bd 3a8b d23c 2617 853d
00000100: 90df 493d 043f 813b c8af 83bd d9ad f4bc
00000110: 2e37 09bd 2aa2 b43c 5c87 99bc 56e4 0dbd
00000120: e30d efbd 3ab8 d33b 7fcb 71bd f3a4 c83b
00000130: 9dbe 4dbc 5225 84bd 622a fbb8 8c2b a3bd
00000140: 073f 683d fe75 37bd b0c4 193d b3b2 0bbd
00000150: 9d70 503d f366 fbbb 10e3 aebc db46 d4b8
00000160: 4cad 52bd cbfa 98bd c262 883c 2a5d 96bd
00000170: c758 043d 8e47 b0bd 805e 35bd 2ac7 c1bd
00000180: ce5f 243d c82f c0bd 9651 3c39 8d5f 1f3d
00000190: e133 603d d069 d1bc 4002 563d 9119 9b3c
000001a0: de12 96bd 5cdf 5fbb b6fe 20bd 4fac e93c
000001b0: 2110 4abe 9820 143d 1623 89bd 2a3a 1b3d
000001c0: e5b5 55bd e61a 583d b4a6 303d 9992 bdbd
000001d0: ddb7 e3bc e3a9 f7bc 8ffd 6f3d 9bc2 bf3d
000001e0: f313 553c a7ea a73c b7c2 31bd f4af 9dbc
000001f0: 4e75 9f3c d99c adbd fdbb 83bc 7a1d 90bb
00000200: 5ac7 f83c 65a7 4cbe 108c f9bb ad77 5fbd
00000210: 0b60 a33c 37ee 1cbd e2f7 1d3d b518 86bd
00000220: d02e 873d f6e8 b9bd bd46 cabc 3c9d c73c
00000230: c8d3 55bd a1a8 8b3c 52b4 4dbe 200b 8dbd
00000240: 98dc cfbc 98b5 0fbd ebfe 053d 5a3e 94bd
00000250: 9aef b73c 2a94 973d c0fb 4f3b eb03 7bbc
00000260: b28c 92bd 1cdc fd3c 9928 aabd 17d8 cabd
00000270: 5cf9 05bc 29e2 d93c c2a7 9dbd 2080 f4bc
00000280: 8f44 aebd 1d2d 73bd 71d0 803d 226a 643d
00000290: 6d59 2e3c 9ff5 913d 5865 94bc 3256 1e3d
000002a0: 4873 48bc 77f5 ae3d 52c5 91bd 3eab 323d
000002b0: d25c 74bd f206 eebc a63e 723d 340c c8bc
000002c0: 07c5 9bbd 565f cabd cc4a df3c 961d 1d3c
000002d0: 9a8c b2bd fdf0 70bc 8828 43bc 6676 253d
000002e0: 0489 b2bd c036 73bc 2248 00bd cabe 91bd
000002f0: 9b58 9cbc 7520 243d b012 eabc 05ca 60bd
00000300: 739f 4dbd 918a c2bd 24a5 413d 1142 8b3d
00000310: 38ac aa3c bee2 12bd c408 afbc 9ba6 d4bd
00000320: 9aa2 8fbd c833 a8bc 90f2 c3bc f6e0 7e3d
00000330: b72a 533c c401 993b 6cc2 b5bc 17b3 14bd
00000340: 4a8f 0bbc 3dc2 493d 28b1 0f3d 32ae 92bd
00000350: e4db 6dbd 1241 6ebc 5dca 603c 6079 443b
00000360: 7658 9b3d 9f80 c03d 5158 79bd 5af0 a3bd
00000370: a49d a93c 8e65 453d 948b d23c 36d8 79bd
00000380: 78bf 353d 5626 6bbb f71f 883d edc4 a93d
00000390: bf27 1d3c 4d3d ea3b 2ab6 6fbd 7d4d 7cbd
000003a0: 6b9e b6bd 9a8d 993d abdc eabb 3af2 853d
000003b0: 15e3 eebd 16af e9bc 6d7f 8ebd ad96 d9bd
000003c0: 5db2 803d c789 1a3d ff42 cc3c 9cdd b7bc
000003d0: 6cb1 82bd 3334 8c3d 4493 39bd cba7 88bd
000003e0: e598 b0bd 57e8 21bd b6ab 1abd 5c28 c6bd
000003f0: 71d4 7e3d 87b4 10bd adca 8fbd c34d 4bbd
-0.040596 -0.059012394 0.05918912 -0.055546694 0.10297841 -0.06691986 -0.027366875 0.05407489
0.024127446 0.026876166 0.026638355 0.027188389 -0.09539566 -0.06383465 -0.1108707 0.07044882
-0.039066344 0.032353643 0.033282526 -0.03549226 -0.060150348 0.056148387 -0.031773288 -0.056747116
-0.02864966 -0.008195985 -0.023838878 -0.0052615954 -0.03195035 0.051267367 0.016136196 -0.022698931
-0.21197389 -0.110710435 0.034065563 0.049409483 0.03481998 0.04843382 -0.021091286 -0.03775937
-0.008330001 0.06372031 -0.045042325 -0.06627437 -0.014169914 0.06757909 0.00012324321 -0.12697332
0.02043483 -0.015947072 -0.068371505 -0.02754492 -0.0889753 0.05981902 -0.035219517 -0.03455114
0.017949183 -0.029761806 0.0312848 -0.07403865 -0.08528646 -0.1044971 0.025701154 0.06498556
0.04928547 0.0039442796 -0.06430012 -0.029868053 -0.03349989 0.022049982 -0.018741302 -0.034641586
-0.116725706 0.0064611705 -0.05903196 0.006123179 -0.012557653 -0.06452431 -0.00011976507 -0.0796729
0.056700733 -0.04479026 0.03754109 -0.034105968 0.050888646 -0.0076721846 -0.021348506 -0.000101221456
-0.0514348 -0.0746971 0.016648654 -0.073419884 0.032311227 -0.08607398 -0.044279575 -0.09461816
0.04013043 -0.093841136 0.0001795947 0.038909484 0.054736976 -0.02556315 0.05224824 0.01893309
-0.073278174 -0.0034160232 -0.03930541 0.028524546 -0.19732715 0.036163896 -0.06696145 0.037897266
-0.05217542 0.052760027 0.04312773 -0.09256477 -0.027797634 -0.030232375 0.05859142 0.0936329
0.013005245 0.020497633 -0.043398585 -0.01924894 0.019465115 -0.08477182 -0.01608085 -0.004398045
0.030368496 -0.19985731 -0.0076155737 -0.05455749 0.019943258 -0.038313117 0.038566478 -0.06547681
0.06600726 -0.09077637 -0.024691934 0.024366967 -0.052203923 0.017048182 -0.20088318 -0.068868876
-0.025373742 -0.03508529 0.03271381 -0.07238455 0.022453118 0.07401307 0.0031735748 -0.015320758
-0.07155742 0.030988745 -0.08308525 -0.09904497 -0.008177128 0.0265971 -0.07698013 -0.029846251
-0.0850917 -0.059369195 0.06289757 0.05576528 0.010641438 0.07126927 -0.01811473 0.03865642
-0.012234516 0.085429125 -0.07117714 0.04362034 -0.059658833 -0.029056046 0.059141777 -0.024419881
-0.07605939 -0.09881465 0.027257346 0.009589573 -0.08718224 -0.014705894 -0.011911519 0.040396117
-0.0871754 -0.014844596 -0.03131879 -0.07116468 -0.01908522 0.040070016 -0.028573364 -0.05488016
-0.05020089 -0.09499086 0.04727663 0.067997105 0.020834073 -0.03586077 -0.021366484 -0.1038334
-0.07013436 -0.020532504 -0.023919374 0.06222626 0.012888602 0.0046694 -0.022187434 -0.036303606
-0.0085180495 0.049257506 0.03508106 -0.07162131 -0.058071032 -0.014541881 0.013720122 0.0029979572
0.07585232 0.093995325 -0.06087524 -0.08004828 0.020705052 0.048192553 0.025701322 -0.06099721
0.044372052 -0.0035881004 0.06646722 0.08289514 0.009591996 0.007148421 -0.058523335 -0.061597336
-0.089169346 0.074977115 -0.007167419 0.06540342 -0.11664406 -0.02852587 -0.06957898 -0.10624442
0.0628402 0.03772905 0.02493429 -0.022444539 -0.06381497 0.06845894 -0.04530646 -0.06672629
-0.08622912 -0.039528217 -0.037761413 -0.09675667 0.06221432 -0.035328414 -0.07021079 -0.049634706

fc2.bias f4 [64]
00000000: c898 26be a32c 63be 861f 25bd 65c8 20be
00000010: ed13 f2bd 57c1 1bbe e687 b1be b73b c8bd
00000020: 950b a8be 8c46 d8be c585 88be a35e 84be
00000030: 141d 27bc 85cd b8be 01e2 5cbe db7f e5bd
00000040: e916 18be 431f 10be 937e 6dbe 2442 8d3f
00000050: b27e edbd 10c7 5cbe 1c4f 27be 2383 353f
00000060: f6cb 2fbe 352b b1be 9f62 6ebe 952d 88be
00000070: 2119 80be 1642 66be ce54 80be 8ef1 d3be
00000080: b5e4 203f 1ddf 85be f409 30be 8a81 b83e
00000090: 73c6 4cbe 42fd 62be 3d8e a1be a23c 84be
000000a0: 2b9f adbe 73fc 86be 26ba 72be e155 cebd
000000b0: 2723 8f3f da55 87bf db98 37ba 0e50 afbe
000000c0: 6227 69be 772a 8c3f de83 b5bc 66d8 1bbe
000000d0: 83bf 983f b9c4 98be 09a0 8ebe aaff a8bd
000000e0: 006d 60be 039d 8bbe b222 fdbe 879b 41be
000000f0: 3586 4dbe b39e ddbe 11ee 18be 71b6 83be
-0.16269219 -0.22184996 -0.040313266 -0.15701444 -0.11820207 -0.15210472 -0.34673995 -0.09777015
-0.32821336 -0.42241323 -0.26664558 -0.25853452 -0.010199804 -0.360943 -0.21570589 -0.11206027
-0.1485249 -0.14074425 -0.23192815 1.103581 -0.11596431 -0.21560311 -0.16338772 0.70903224
-0.17167649 -0.34603277 -0.23279808 -0.26597276 -0.25019172 -0.22486147 -0.250647 -0.4139523
0.6284898 -0.26146784 -0.17191297 0.3603633 -0.19997577 -0.22166923 -0.31553832 -0.2582751
-0.33910498 -0.26364478 -0.23703822 -0.10074974 1.1182603 -1.0573075 -0.0007003673 -0.34240764
-0.2276893 1.0950459 -0.022157606 -0.15219268 1.1933445 -0.29837587 -0.27856472 -0.08251889
-0.2191658 -0.27268228 -0.49440533 -0.18906985 -0.20070727 -0.4328514 -0.14934565 -0.2572513

fc3.weight f4 [3, 64]
00000000: 25de adbc 2d84 0a3c d35c 76bd 6b00 73bc
00000010: 9fb9 28bc 3e5e 90bb d7a6 c23c 4e59 e73d
00000020: f1cd 18bd efe6 d8bb 414e 133c 6328 fb38
00000030: 5ec9 9a3d debc 703e eaaa 01bd 5613 b0bd
00000040: 2488 403c 0616 08bc bb6a 2e3c a800 e03f
00000050: a88b 4ebc b788 413d cf09 e13c e35f 893e
00000060: 741d 96bc 974e 003d b9b8 273d ef2a 5e3d
00000070: 40a3 14bb 6ab7 f0bd 84cd a13e 5ecd b03e
00000080: fa80 a93f 2c39 bfbc 793c e0bd 6dfd 7e3e
00000090: 591d e53c cc9f 48bd 5c6e aa3c 7c65 5a3d
000000a0: cc94 653c d6fe 99bc a8c4 8cbd b6b8 b7bb
000000b0: 157e f23f 155a 853f bc8d 013e c519 07bd
000000c0: 2363 0ebd 1eac c43f 5fea bf3d cdcc 80bd
000000d0: 9f34 ce3f 0695 843d 228f 013d 2f58 efba
000000e0: 3075 94bc 894e cabc e07c 873e 2215 8c3c
000000f0: 35a5 b8bc 09e1 0b3c 1c0e 563d bd46 67bc
00000100: 061a 2cbe edec 9cbd 8b28 e2bd 4aa0 1ebd
00000110: f813 933d 2ad7 7cbc 830f 26be 787b 233e
00000120: 86a8 33bb ebb5 6cbd 8d87 d63b 9a35 5bbc
00000130: 7c61 1b3d a336 e83c f8fd 00bd 7766 9a3c
00000140: 20f7 e13c a56f 903d e1ab 9d3b 839e e73f
00000150: c567 e4bc 3b4b a13c c2af debd df0f c13d
00000160: f4ec 15bb 1e62 0bbd 9e54 043d b2d7 aa3d
00000170: 929c 2ebe 666b 97bb 0e0b 963d 0562 7b3e
00000180: 2aa2 893f bacc 53bc d5a6 28be 00b1 0c3e
00000190: e0c8 3ebd ec7f 7fbd ec7d 8f3d 318a 23bb
000001a0: 14ee efbc a257 27bc b5fb c5bc ff71 2e3d
000001b0: f073 f53f d333 1d3f 9ffa f53a 6562 c3bc
000001c0: bc86 c1bb 9c74 bd3f c9b2 b8bd f913 303d
000001d0: 9766 d13f d1a5 be3c d027 18bd 4802 80bc
000001e0: 4d1b 1ebb 42a8 47bc 564d b6bc 80cb 85be
000001f0: 7b80 e23c 70d1 90bb d6bf 29bc e522 ec3c
00000200: 5936 5e3c 6b04 67bd a767 383b b540 b93d
00000210: 3506 1bbd 1234 5fbc d989 683c aa4c 71bd
00000220: 726e 44bc ca02 8d3c 1b84 ec3c 519d b3bd
00000230: 0e45 563c 5ed4 92bd c0af cfba f295 14be
00000240: 5034 f4bb 8194 5f3d 3a70 88bd b25c dc3f
00000250: ea48 a6bc 60b4 803c 9d55 e9ba abbd 083f
00000260: 28b8 04bd 2965 b6bc 9683 ab3a 69df b53d
00000270: a18b 08bd af05 7fbc b01c b13e 2dc2 3d3e
00000280: cc92 b23f f846 01bd 4d5a 093d 9848 be3e
00000290: d4c3 f9bd f6d6 a23c 096e 793c b076 0cbd
000002a0: 3eae e9bd 82f9 f23c 210d 99bc b7ec 25bb
000002b0: a0fa e73f 13c1 3f3f 2b67 bd38 39c7 c5ba
000002c0: 8653 20bc d19e c73f b0ab 29bd 8c88 76ba
000002d0: 60e1 cf3f 302c 9a3d a82f babc 3e19 a53b
000002e0: 1050 82bd b953 90bc e41e 563e 016a bcbb
000002f0: d4a2 88bd 9ddf 433d ab30 393c f168 7b3c
-0.02122409 0.008454365 -0.060147118 -0.014831643 -0.010298162 -0.004405766 0.023761196 0.112963304
-0.037305776 -0.0066193263 0.008990825 0.00011976135 0.07557939 0.23509547 -0.031657137 -0.08597438
0.011751208 -0.008306032 0.010645564 1.75002 -0.012606539 0.047249522 0.027470497 0.26830968
-0.018324591 0.03132495 0.04094765 0.054240163 -0.0022680312 -0.117537335 0.31602108 0.34531683
1.3242486 -0.023342691 -0.10949034 0.24901362 0.027968096 -0.04898052 0.020804577 0.05331944
0.014012527 -0.018798273 -0.06873447 -0.005606736 1.8944727 1.0418116 0.12651724 -0.03298356
-0.034762513 1.5365026 0.093708746 -0.06289063 1.6109809 0.064737365 0.031630643 -0.0018260534
-0.018122286 -0.024695652 0.2646246 0.01709992 -0.022539714 0.008537539 0.05225955 -0.014115986
-0.16806802 -0.076623775 -0.11042889 -0.038727082 0.07181543 -0.0154321585 -0.16216855 0.15965068
-0.002741368 -0.057790678 0.0065469206 -0.013379479 0.037934765 0.028346365 -0.031492203 0.018847687
0.027583659 0.070525445 0.0048117493 1.8095249 -0.027881512 0.019689193 -0.10873367 0.09426855
-0.002287683 -0.03402912 0.03230726 0.08341922 -0.17051914 -0.004620957 0.07326327 0.2454911
1.0752614 -0.012927229 -0.16469891 0.13739395 -0.046578288 -0.062377855 0.070064396 -0.0024954195
-0.02928833 -0.010213764 -0.024167875 0.042589184 1.9176006 0.614072 0.0018766708 -0.02385063
-0.005905954 1.4801211 -0.090184756 0.042987797 1.6359433 0.023272427 -0.037147343 -0.015626088
-0.002412516 -0.012186112 -0.022253674 -0.2613182 0.027649155 -0.004419498 -0.010360679 0.028825233
0.013562762 -0.056400698 0.0028137953 0.09045545 -0.037847716 -0.013623254 0.014193022 -0.058911003
-0.011989223 0.017213244 0.028871587 -0.0877024 0.013077987 -0.07169412 -0.0015845224 -0.14510325
-0.007452525 0.054584984 -0.066620305 1.7215788 -0.02029844 0.01571101 -0.0017802004 0.5341441
-0.032402188 -0.022265034 0.001308548 0.08880503 -0.033336286 -0.01556532 0.345922 0.18531103
1.3951049 -0.03156182 0.033533383 0.3716476 -0.121955544 0.019877892 0.015223988 -0.034292877
-0.11410187 0.02965999 -0.018683018 -0.0025318095 1.812336 0.7490398 9.031439e-05 -0.001508928
-0.009785539 1.5595342 -0.0414235 -0.00094045023 1.6240654 0.07527959 -0.022727802 0.0050384095
-0.06362927 -0.017618047 0.20910221 -0.0057499413 -0.06671682 0.047820676 0.011303107 0.015344844

fc3.bias f4 [3]
00000000: e6f7 1140 6092 2d40 b279 0f40
2.2807555 2.712059 2.2418027
