Models/DQN/agentDQN_2020-2022_dqn_v1_200_EPS_5.pth (torch, 90039 bytes, 6 tensors)

fc1.weight f4 [128, 104]
000000 ca ee cf bd 54 60 a0 3a 2a 8d 8e bf 57 40 57 3d
       -0.10152967 0.0012235739 -1.113683 0.052551594
000010 db ac e6 3c b1 ac ad bf 5a ee 80 bf 01 ca ec be
       0.028158596 -1.3568326 -1.0072739 -0.46247867
000020 3b 3e 41 bf 3d e1 93 bf 9b ba 77 3e 7b 34 6d c0
       -0.7548558 -1.1553112 0.24192278 -3.7063282
000030 0b e6 29 bf 92 e6 f5 be 8a a8 69 3d 93 9f 48 3e
       -0.6636664 -0.48027474 0.057045497 0.19592123
000040 3e f1 49 bf f7 09 b2 bd 7e de b1 3e 9a 9b ed be
       -0.7888373 -0.08693307 0.3474006 -0.46407777
000050 00 b0 c1 be c4 d4 97 be 81 62 c1 bd d9 19 35 40
       -0.3782959 -0.29654515 -0.09442616 2.8297026
000060 58 15 b0 be 20 3b 74 bf 1d 04 9f c0 e4 5b b3 3f
       -0.34391284 -0.9540272 -4.969252 1.4012418
000070 17 3d 23 be 05 ff 4e 40 71 50 21 c0 87 78 39 c0
       -0.15941273 3.2343152 -2.5205348 -2.8979814
000080 21 72 a3 3f d7 de 76 40 22 c4 18 3f d0 f8 19 40
       1.2769204 3.857351 0.59674275 2.4058113
000090 22 02 36 40 20 58 7c 40 27 4c 6e 3e a9 5d 43 c0
       2.8438802 3.9428787 0.23271237 -3.0525916
0000a0 eb 4a 1c 3f 49 39 bb 3f ed 0c 4d 40 31 fa 98 3f
       0.61051816 1.4626857 3.203914 1.1951352
0000b0 fa fa 92 40 d5 36 05 be 08 a2 11 c0 ac cc 3f c0
       4.593137 -0.13009198 -2.2755146 -2.9968672
0000c0 b9 35 59 3d 01 65 df 40 21 74 98 bf dd ac e2 bd
       0.05302975 6.9810796 -1.191044 -0.11068127
0000d0 f4 d7 44 bf 8b b0 10 c0 9a 18 8b c0 7f 4d fc be
       -0.7689202 -2.2607753 -4.346753 -0.49277875
0000e0 61 57 84 be 66 51 5d 3f af c8 82 3e ca 3e 07 3d
       -0.25847915 0.8645233 0.25543734 0.033018865
0000f0 7a 41 53 bf b4 b6 44 3f 8f b2 90 c0 db f8 d1 3f
       -0.82521784 0.7684128 -4.5217967 1.640407
000100 9c 97 1b 3f de db 7e 3f 60 2c 90 be 78 20 4d be
       0.6077821 0.9955424 -0.28158855 -0.20031917
000110 80 8b 79 bf ad d5 40 be c1 46 20 be fa a1 d8 be
       -0.97478485 -0.18831511 -0.1565199 -0.42311078
000120 e2 b3 8d bd 53 a6 8a be c0 cb b7 be 6f 95 30 be
       -0.069190755 -0.2708002 -0.35897636 -0.17244504
000130 fb ed c0 be d3 7f c8 be 09 2e a5 be 85 05 78 be
       -0.37681565 -0.39160022 -0.32261685 -0.24220856
000140 5a bc 97 bd 6d e2 66 be 16 40 42 be d6 a6 92 be
       -0.07408972 -0.22547312 -0.1896976 -0.2864291
000150 af 49 9f 3e b7 2a ee 3d 26 ee 3c 3f 8b 61 9f bd
       0.31110904 0.11629241 0.73800886 -0.07782277
000160 f0 ef 84 bd 91 70 8d 3e b1 76 3b 3e c6 4c ed 3e
       -0.06491077 0.27624944 0.18306996 0.46347636
000170 86 2a 18 bd ee c9 91 3e fc 5d 40 3e e4 f0 9d bd
       -0.03714993 0.28474373 0.18785852 -0.07711962
000180 f9 d4 1a 3d 8a c6 1c be 8a 23 38 be 75 d3 9a 3d
       0.037800763 -0.15310112 -0.17982307 0.075598635
000190 e0 65 d9 bb 2e 4f 0a bf 3e c6 cb be e4 14 5a 3d
       -0.006634459 -0.5402707 -0.39799684 0.05324258
0001a0 29 be c8 bd da 78 9e bc 79 57 29 be 22 41 6c bd
       -0.09801895 -0.019344736 -0.16537274 -0.057679303
0001b0 49 cb 8a bd b0 7e 30 be 27 8f 12 be 73 87 da bd
       -0.06777055 -0.17235827 -0.14312421 -0.10670366
0001c0 7f 9b 8b bd b5 44 3c be 51 31 92 bc f8 53 11 be
       -0.06816768 -0.18385585 -0.017845782 -0.14192188
0001d0 fd 97 c0 bd 7c 29 0e be 4b db 19 be dc f2 89 bd
       -0.094039895 -0.13883013 -0.1502506 -0.06735775
0001e0 89 df 0d bd 9b 7f 25 bd 97 84 5c bd 36 a1 4c be
       -0.034637008 -0.040404897 -0.053837385 -0.19983372
0001f0 c5 fb bc bd e8 e5 3b bd ec 13 da bd 10 c2 a5 3d
       -0.09227709 -0.045873553 -0.10648331 0.08093655
000200 23 f3 3c be 1e 81 2a be 94 85 92 3d 39 e1 58 be
       -0.18452124 -0.16650817 0.07154384 -0.21179666
000210 bd c7 ac 3b 2d 3c cf bd d2 cf 8a 3c 14 83 81 3d
       0.005272834 -0.101188995 0.0169448 0.06323829
000220 f8 86 b0 bd 6b 48 97 3d cd d0 60 be de cc 88 bd
       -0.08619493 0.073868595 -0.21954651 -0.066797
000230 68 3f 20 be e6 7e 84 bd 73 e7 42 be 6b dd 40 be
       -0.15649188 -0.064695165 -0.19033603 -0.18834464
000240 15 e0 81 be 2d e5 a6 bd 1f e1 6d be 60 bd 3c be
       -0.25366274 -0.081491806 -0.23230408 -0.18431616
000250 0b d6 5c bd 65 df 40 be 88 aa 68 3a 5d 68 23 be
       -0.053915065 -0.18835218 0.0008875509 -0.1595778
000260 ad b0 1f 3d 29 b2 54 be d8 0e 88 3c da dc 1e be
       0.03898685 -0.20771088 0.01660864 -0.15513936
000270 8c 07 09 bc f9 a4 61 3d e7 e0 04 bd eb 4f ab bd
       -0.008363616 0.05508897 -0.032441046 -0.083648525
000280 b5 c1 82 bc d3 f6 0c be 95 29 70 bd 06 59 36 bc
       -0.015961507 -0.13766031 -0.058633406 -0.011129623
000290 ea 95 8d 3d 6a 48 39 be df 9b 39 bd df 3e ef 3c
       0.069133595 -0.1809403 -0.045314666 0.029204784
0002a0 62 fc c5 bd 45 fb 16 3e 55 29 33 be af 70 2c be
       -0.09667279 0.14744289 -0.17496236 -0.1683986
0002b0 98 78 3b bc 8b fd 27 be b3 d3 0f be b5 d0 00 be
       -0.011442326 -0.16405313 -0.140456 -0.12579615
0002c0 da 63 51 bd 97 41 12 be 4c df ee bd 78 ea 0f bd
       -0.051120616 -0.14282833 -0.11663684 -0.035135716
0002d0 85 ed 8c bd 24 d0 38 be ea f4 48 bd e4 24 d1 bd
       -0.06881241 -0.1804815 -0.049061693 -0.102121145
0002e0 ac e8 49 be 60 8b bb bc 0a 3a 79 bd b5 cc bd bd
       -0.19717664 -0.022893608 -0.060846366 -0.092675604
0002f0 9f 72 95 bd 84 e9 ce bc 37 1d bb bc 0a 71 30 be
       -0.07297253 -0.025257833 -0.02284108 -0.17230621
000300 ed a5 47 be b9 af 81 bd 76 53 07 be c6 0b 3e be
       -0.1949689 -0.063323446 -0.13215432 -0.18559179
000310 50 f4 56 be c4 ec 8c bd 5b 7c 32 be 68 bd 90 bd
       -0.20991635 -0.06881097 -0.1743025 -0.070673764
000320 c0 8e 31 be 02 26 44 be f8 86 cc bd 74 d3 c6 bd
       -0.17339611 -0.19155124 -0.09986681 -0.097083
000330 68 e8 62 bd ea 8a d1 3c 66 74 ce bd c0 06 03 bd
       -0.05539742 0.025578935 -0.10080795 -0.03198886
000340 d0 c8 9d bd 9b 80 08 3c b7 c9 57 be 91 cf 90 be
       -0.077043176 0.008331443 -0.21073042 -0.2828336
000350 0f e0 f4 bd 3b 42 4a be 2f ad 4b be ec 48 47 be
       -0.11956798 -0.19751827 -0.19890283 -0.19461411
000360 36 dc 75 bd 32 66 3d be f3 24 0d be e9 ac fd bd
       -0.060024463 -0.18496016 -0.13783626 -0.123864956
000370 60 f8 79 be 53 2b 1a be c2 cc 79 be 37 88 7c be
       -0.24411154 -0.1505559 -0.24394515 -0.24661337
000380 87 5c 7d bd dc 8e 5c be 9b 00 04 be 86 da e6 bd
       -0.06185582 -0.21538872 -0.12890856 -0.11272149
000390 dc 3e 89 be 0f 83 1c be 75 61 9a be d1 1e 0a 3e
       -0.2680577 -0.1528437 -0.3015248 0.13488318
0003a0 a0 3f 8d be 2d d5 c8 bd b5 78 37 bf 84 16 45 3e
       -0.27587605 -0.09806285 -0.7166856 0.1924687
0003b0 94 4d b5 3e 1a ae f7 3e 96 27 37 3f 3d 26 c7 be
       0.3541075 0.48375016 0.7154478 -0.3889636
0003c0 03 4c e1 be b0 ba da be ec c4 85 3e 44 1a 02 be
       -0.44003305 -0.42720556 0.26126802 -0.12705332
0003d0 c0 9e 1a be 2f 1c 77 be 7f 47 eb 3e 66 56 01 3f
       -0.15099621 -0.24131845 0.45952985 0.5052246
0003e0 6d ed 9b 3e 2c 93 0f be c4 20 93 be 45 2d 51 bd
       0.3045458 -0.14020985 -0.28735936 -0.051068563
0003f0 f7 a1 d2 be 11 79 d9 bd 13 11 68 3e f5 83 6e 3d
       -0.41139194 -0.10618795 0.22662763 0.058231313

fc1.bias f4 [128]
000000 de 94 db be 99 83 7d bd ed 6b 88 be 5b 29 9b bd
       -0.42887014 -0.06189308 -0.2664484 -0.07576247
000010 a0 58 05 bc 55 62 4a 3d 29 37 c5 bd 72 38 e8 bd
       -0.008138806 0.049410183 -0.096296616 -0.11338891
000020 7c ad f7 bd 9f 95 01 be 47 af c2 bd f5 ea ef bd
       -0.120936364 -0.12654732 -0.09506088 -0.11714736
000030 3e 77 21 3b 11 83 f4 3c d4 e7 e4 3a c5 30 ef bd
       0.0024637724 0.029847654 0.001746411 -0.11679224
000040 4a 82 ac bd 35 79 e5 bd 30 44 d0 bc d2 0a b2 bd
       -0.08423288 -0.11204759 -0.02542314 -0.0869347
000050 f8 da 96 bd 00 1a f0 bd b5 2f bd bc 97 29 d9 bd
       -0.07365984 -0.11723709 -0.023094038 -0.10603636
000060 fa 7a 20 be 26 28 51 be ab 62 1c be d1 fb 28 be
       -0.15671912 -0.20425472 -0.15272014 -0.1650231
000070 d2 c4 27 bd 1d 65 41 be a8 0f 5f be e5 17 b5 be
       -0.040959187 -0.18886228 -0.21783316 -0.35369793
000080 b6 8e 12 bd 77 e0 1e be c5 bc 97 3c d9 b1 5f bd
       -0.03578063 -0.15515314 0.01852263 -0.054612968
000090 2e 28 c2 bd d5 1b 00 be a1 4b 93 bd c7 af 2a be
       -0.0948032 -0.12510617 -0.071921594 -0.16668616
0000a0 05 d3 16 be 0d c8 1f be 28 ba 09 bd 8b fb 24 3d
       -0.14728935 -0.15603657 -0.033624798 0.040278953
0000b0 fb 0d 35 be e2 9e ed bd d8 40 5c bd b7 8b 20 be
       -0.17681114 -0.1160257 -0.053772777 -0.15678297
0000c0 f7 15 8b bd 76 0d 5a bd 5a b8 2c be 80 c9 39 bd
       -0.06791299 -0.053235494 -0.168672 -0.04535818
0000d0 f4 00 44 be 13 b4 b3 bd 55 a9 25 bd 4a a7 13 be
       -0.19140989 -0.08774581 -0.04044469 -0.14419284
0000e0 11 41 ec bd 76 b2 01 bf a1 d5 06 bd 2f 73 f4 3b
       -0.11535848 -0.50662935 -0.032918576 0.00746002
0000f0 f1 08 88 bd d2 49 08 be 30 0d c3 be 82 bd 8b bd
       -0.066423304 -0.1330941 -0.38096 -0.06823255
000100 03 d5 ef be 5d c3 1f be 51 6b f1 bc 56 89 99 be
       -0.46842203 -0.15601869 -0.029470118 -0.29987592
000110 79 33 9c be ff f6 a2 bb 2e f0 e5 bd 7f e9 f1 bd
       -0.3050802 -0.004973292 -0.11227451 -0.11812114
000120 ab 22 08 be 14 08 16 bf b3 b0 ce bd 09 a5 01 be
       -0.13294475 -0.58606076 -0.100922965 -0.12660612
000130 c2 0b ab bd b4 68 9b be e3 5c 1a be d0 b5 c3 bc
       -0.08351852 -0.3035332 -0.15074496 -0.023890406
000140 52 f0 e7 bd 1b 20 c3 bc 57 99 83 3b 59 f3 71 bd
       -0.11325134 -0.02381902 0.0040160823 -0.059069965
000150 ca 44 de bd 94 1e bd bd 4f 3f bf bc 6f a8 42 bd
       -0.10852964 -0.09234348 -0.023345618 -0.047523912
000160 4f 18 f6 bc a4 5f 51 be 1d 2e 87 be 0b 0b 68 bd
       -0.030040888 -0.2044664 -0.2640237 -0.056651156
000170 67 2b c3 bd f6 f6 ec bd dd 8d b1 bd 59 fe e5 bd
       -0.09529763 -0.115705416 -0.086696364 -0.112301536
000180 bb 10 17 be 86 25 dc ba 0e d4 74 be c4 8c ac bd
       -0.14752476 -0.0016795851 -0.23909017 -0.084252864
000190 7e b9 2b bc 8f e4 a8 bd 37 e7 c0 bc 97 c7 60 bd
       -0.0104812365 -0.08246719 -0.023547752 -0.054877844
0001a0 1c 62 2b 3b 65 91 39 be d0 4c 65 be b0 b8 d7 3e
       0.0026151007 -0.1812187 -0.22392583 0.42133093
0001b0 26 ba 1a be 01 09 dc be 4e f5 cb 3b 82 73 e7 bc
       -0.15110072 -0.4297562 0.006224311 -0.02825332
0001c0 12 bf 13 be c9 54 f9 be 51 aa 99 bd 0d 46 03 bd
       -0.14428356 -0.48697498 -0.075031884 -0.032049228
0001d0 75 fa ac bc cc 2e a0 bd f6 1c 09 be b9 42 00 3d
       -0.021115521 -0.07821426 -0.13389954 0.03131363
0001e0 47 60 8a 3d 14 3f 14 be 04 89 0c 3f 15 1e 38 3c
       0.06756645 -0.14477187 0.5489657 0.011237641
0001f0 04 b2 88 be 12 d4 3b be 80 6a 60 bd 87 ab 33 bd
       -0.26698315 -0.18342617 -0.054789066 -0.043864753

fc2.weight f4 [64, 128]
000000 9c 6f eb bd 83 33 90 bb d3 58 67 3b 10 4e 61 bc
       -0.11495897 -0.004400672 0.0035300746 -0.013751522
000010 51 6b 3a 3d d2 a9 98 bd a4 35 89 3c e0 f6 25 3d
       0.0455125 -0.07454266 0.01674921 0.04051864
000020 0f b3 1b 3d 3f 97 d8 bd ac 6e 80 bc 83 7c 99 bc
       0.03801256 -0.10575723 -0.015677772 -0.01873613
000030 08 46 e6 3c 95 99 fb 3c aa a1 9a 3b e9 99 a5 3c
       0.028109565 0.030712882 0.004718979 0.020214992
000040 b5 e4 9c 3b 99 74 88 bd 2e 4e 92 bc 8b fa 80 bd
       0.004788006 -0.06662864 -0.017859545 -0.06297787
000050 70 ff 84 bd 7c e3 ec 3c 23 de 87 3d 10 d4 60 bd
       -0.06494033 0.028917067 0.06634166 -0.05488974
000060 0c fc ec bd 25 10 a3 3d 84 dc 07 be dd 20 33 3d
       -0.115715116 0.07962064 -0.13267714 0.043732513
000070 f6 40 63 3c 41 ea a1 3b 45 7e b3 bc f0 11 10 be
       0.013870468 0.0049412553 -0.021910796 -0.14069343
000080 12 e1 03 bd eb a4 99 bc 23 77 4e bd d7 dd 38 3c
       -0.032197066 -0.018755397 -0.050406586 0.0112833595
000090 fa 8a f5 3c 18 34 f7 bc 85 d9 41 bd 00 86 13 3d
       0.029973496 -0.030176207 -0.047326583 0.036016464
0000a0 50 ed 3e bd 03 b8 68 bd 39 fe de bc b4 35 81 3b
       -0.046613038 -0.056816112 -0.027220832 0.0039431695
0000b0 f2 eb 1c be 07 dc 19 bd df 49 6a 3d 16 0e 11 bc
       -0.15324381 -0.03756335 0.057199355 -0.008853456
0000c0 8e 5c 61 3d 26 6b 01 bd 15 de e7 3a 2f fe 95 3b
       0.055019908 -0.031596325 0.0017690087 0.00457742
0000d0 20 14 fb 3c b6 99 26 3d e6 64 95 bc ff 46 af 3d
       0.030649245 0.040673934 -0.018236589 0.08558463
0000e0 bb 94 71 3d 64 e4 56 3c 54 36 aa bd 43 d5 90 bd
       0.05897973 0.013115976 -0.083111435 -0.070719264
0000f0 1e ee f6 3c a4 40 95 bd 5f 55 d3 bd 52 e4 8f 3d
       0.03014284 -0.0728772 -0.103190176 0.070259705
000100 97 db 01 be 96 85 0f 3d de 20 42 bd 53 43 0f be
       -0.12681423 0.035039507 -0.047394626 -0.13990526
000110 d9 81 fe bc 70 78 e4 bc 09 03 92 bc 8d a2 21 3c
       -0.031067776 -0.02788946 -0.017823713 0.009865415
000120 0b d8 a4 3d b4 d2 ef 3d d7 c4 af bd af b6 94 3d
       0.080490194 0.1171011 -0.08582466 0.07261407
000130 ea 15 a6 3c 69 ce ef bd bf 76 d2 3d 72 86 5b 3d
       0.020274121 -0.117092915 0.10276555 0.053595014
000140 fa 78 09 3d 8a e9 90 bd d7 40 89 3c 63 6d 09 bd
       0.033562638 -0.07075794 0.01675455 -0.033551585
000150 d4 a2 d2 3c f9 96 64 3d 65 52 85 bd cf ab 4f bd
       0.025712408 0.05580804 -0.06509856 -0.05070096
000160 33 b8 3e 3d bc 1d b1 3d 12 1b 27 bd 23 e9 1c bd
       0.046562385 0.086482495 -0.0407973 -0.038308274
000170 cd 23 81 bc 20 05 74 bb 2d e8 eb 3b 6e 35 88 bb
       -0.015764141 -0.00372345 0.0071993084 -0.00415676
000180 f6 af 8b 3d 80 62 ba bd b1 bb c7 bd 76 3d ae bd
       0.06820671 -0.09100819 -0.09752596 -0.085078165
000190 65 31 46 3c 8d 55 50 bd 9f 8c 96 bd b8 0d 41 bd
       0.0120967375 -0.050862838 -0.0735104 -0.047132224
0001a0 c7 ca f9 3c 00 60 73 bd 92 5c 7b bd fb d4 06 be
       0.0304922 -0.059417725 -0.06136758 -0.13167183
0001b0 f4 81 72 3c 72 50 34 3d 7b ed a1 3c cd d3 01 3c
       0.014801491 0.04402203 0.01976656 0.007924032
0001c0 b6 1e 60 bd 8d 2b 0f bd e8 f8 a2 bb 2b d5 5f bd
       -0.05471679 -0.034953643 -0.0049735196 -0.054646652
0001d0 5b a4 87 3d 18 72 93 bd 03 49 a8 bc 2a cf be bb
       0.06623145 -0.07199496 -0.020542627 -0.0058230357
0001e0 80 f5 82 bc 60 8b 73 3d c3 42 90 bd 12 ac 2f bd
       -0.015986204 0.05945909 -0.07043984 -0.04288871
0001f0 78 de c8 bd 69 10 d9 3c 17 e6 8d 3d c8 5a 84 bd
       -0.098080575 0.026497083 0.06928652 -0.06462628
000200 1b 66 c2 bc 2e a8 2b 3a e3 ff 48 bc 20 e2 25 bb
       -0.023730328 0.0006548193 -0.012268039 -0.0025311783
000210 05 4e 98 bd 9e 38 50 3d ad fd 8f 3c a4 a4 3a bd
       -0.07436756 0.050835244 0.017577017 -0.04556717
000220 6e e7 51 3d 5f a4 3f bd a4 af 33 3d 44 79 ca 3c
       0.0512461 -0.046787616 0.043868676 0.024716027
000230 10 51 8e bc e0 60 52 bc f3 34 95 3d 03 9c 14 bc
       -0.017372638 -0.01284048 0.0728549 -0.009070399
000240 f5 73 af bd 82 9e 4c 3d 12 76 b0 bd e6 66 36 3d
       -0.08567039 0.049955852 -0.0861627 0.044531725
000250 91 97 80 3d 2d 3d 08 3d 25 30 a7 bb 8f 93 b2 bb
       0.06278909 0.033261467 -0.005102175 -0.0054497193
000260 cf 95 7a bd a1 b0 65 bd 86 66 88 bd e8 72 55 bd
       -0.061178025 -0.05607665 -0.0666018 -0.052111536
000270 26 dc 20 bd 83 10 79 3d fb d5 ca 3c f3 ea 07 be
       -0.03927245 0.060806762 0.024760237 -0.1327322
000280 81 b1 56 3d 5a 83 99 bd 22 e3 4c 3d 2b df 89 bc
       0.052415375 -0.074957564 0.0500213 -0.016830048
000290 60 52 0a 3d e0 11 b2 3c 33 77 90 3d 72 ae 55 3d
       0.033769965 0.02173704 0.070539854 0.052168317
0002a0 e9 bf 42 bd 04 f4 b6 bd 97 e5 85 3d 00 6a d3 3c
       -0.0475463 -0.08933261 0.065379314 0.02580738
0002b0 c7 2a 72 bd 4a 7e 4d 3d f3 2e a7 bd 14 e6 25 bd
       -0.059122827 0.050169267 -0.08163252 -0.040502623
0002c0 97 0e 9f bc ab eb 15 bd d4 c0 27 bc 62 66 d5 ba
       -0.019416137 -0.036601704 -0.010238845 -0.0016281123
0002d0 0f e5 a4 bd 50 01 c1 bc f8 37 a2 bd 77 a0 84 3d
       -0.08051502 -0.023560196 -0.079208314 0.06475919
0002e0 1b 20 c9 bd 22 43 58 bd 23 32 86 bd 21 b0 80 3d
       -0.09820577 -0.052798398 -0.065525316 0.06283594
0002f0 c2 2c 9d bd 14 be 40 3d d8 0b 23 be 7c 56 91 bd
       -0.076745525 0.047056273 -0.15922487 -0.07096574
000300 6c 89 56 bd 86 dd 51 3c 6a 62 1e 3d af 63 6a bd
       -0.05237715 0.012809163 0.038668074 -0.057223972
000310 8a f9 86 bd 1b 0a 95 bc 39 6c 2c bd c9 22 4f 3d
       -0.065905645 -0.018193295 -0.042095397 0.050570283
000320 28 e6 bb bd af 20 c3 bd c6 a7 00 bd 5a 3c f7 bc
       -0.09174758 -0.09527718 -0.03141 -0.030180145
000330 80 33 a6 bd c9 22 95 bc ad 7d 87 bd 67 17 b2 3d
       -0.081152916 -0.018205063 -0.06615768 0.0869587
000340 f3 6b 8c bd 49 fe 42 bd 33 f2 2e bd 10 53 6a bc
       -0.06856527 -0.047605786 -0.042711448 -0.01430203
000350 83 54 ac bd ac 7e 96 bc 8b 88 24 bc e6 c6 11 3d
       -0.08414557 -0.018370949 -0.01004232 0.035590075
000360 1e 6b 1f 3d 10 53 b5 bc 8a 9b c4 bc a5 14 48 bd
       0.038920514 -0.022134334 -0.023999948 -0.048847813
000370 ca 8a d7 bd 37 bc 9a 3d 00 9a 4d b9 ac 6c ff 3c
       -0.10524519 0.075554304 -0.00019607693 0.031179748
000380 16 84 21 bd 90 06 f9 bc 87 64 93 bd 83 a3 cc bd
       -0.039432608 -0.030398637 -0.071969084 -0.09992125
000390 53 79 17 bb e0 59 6e 3c a6 06 05 3d 87 f4 3b bd
       -0.0023113086 0.014547795 0.032477044 -0.045887496
0003a0 aa db 1a 3d 92 cc a1 bd 05 92 0b bd 25 b9 a2 bd
       0.037807144 -0.07900347 -0.034074802 -0.0794547
0003b0 a5 6b 9f bd 1a cd 46 3d 4a f3 6d bd 70 7a 9a 3d
       -0.077842034 0.048535444 -0.058093347 0.07542884
0003c0 6c bb 27 bd e8 40 24 bd 5c 5b b6 bc c5 0f 8a 3d
       -0.040950224 -0.040100962 -0.02226036 0.06741289
0003d0 06 56 2a 3c 25 ec 20 3d 8a 45 f0 bc de 46 81 3b
       0.010396486 0.039287705 -0.029330034 0.0039452156
0003e0 4e 3e e1 bc e0 62 21 bb c2 42 95 bc 57 c5 87 3d
       -0.02749553 -0.0024625584 -0.01822031 0.066294365
0003f0 30 cc 33 bd 39 3e 0b 3d 90 da e7 bc 63 9d 91 3b
       -0.0438959 0.033994887 -0.02830246 0.004443811

fc2.bias f4 [64]
000000 a3 f7 22 be 9f 7f 31 be d7 73 f2 3d 38 a5 a5 bd
       -0.15914778 -0.1733384 0.11838501 -0.080881536
000010 7c 3d 7f bd f0 dd b4 bd a5 7a 6e bd 7f 9c f8 bd
       -0.062314495 -0.08831394 -0.05822243 -0.12139224
000020 59 99 93 bd 5a df 49 3f af 07 2f bd 63 b7 01 be
       -0.07206983 0.7885643 -0.042731937 -0.12667613
000030 44 3f 8d 3e 4a 9f 28 be f6 71 86 bd dd ae 2d 3f
       0.2758733 -0.16467014 -0.06564705 0.67844945
000040 de b7 2c be 98 2c 47 be 13 56 69 be 0c 39 0b be
       -0.16867015 -0.19450605 -0.22786741 -0.1359598
000050 25 c5 22 be cd 5c 17 be 3b 18 89 bd b7 97 2a bd
       -0.15895517 -0.14781494 -0.06694075 -0.041648593
000060 c3 23 52 bc 86 a1 75 3b 4a 79 cd bd 25 0a 42 bd
       -0.012825909 0.0037480309 -0.100329 -0.047372956
000070 6d 44 ca bd 4e 1a 43 bc 1a 65 cc bd 62 e7 e5 bc
       -0.098763324 -0.011908127 -0.09980221 -0.028064433
000080 49 c4 56 3f e0 e4 a9 bd b7 01 51 3f ed 49 fa 3e
       0.8389326 -0.082956076 0.8164324 0.48884526
000090 be 60 9f bc 6e 12 4d 3f ac f6 07 be b4 bb 42 be
       -0.01945531 0.80106246 -0.13277692 -0.19016916
0000a0 7e fb 05 be 54 f7 cb bd d2 f3 1a be 45 5d 0b be
       -0.13084218 -0.099592835 -0.15132073 -0.13609798
0000b0 e5 f1 4d 3f dd 48 a6 3e 64 44 2d be 84 00 ea bc
       0.80447227 0.32477465 -0.1692062 -0.028564699
0000c0 c0 c4 1e 3f 6b f0 8a bd 95 a6 a7 bb bb fa 92 bd
       0.62018967 -0.06784137 -0.0051162937 -0.07176729
0000d0 42 61 ee bc 5e 61 b5 bc 40 69 35 3e de 40 2e bd
       -0.02909911 -0.022141155 0.17715931 -0.04254233
0000e0 07 ea eb bd 23 3f e8 bb de 5b 21 3c 27 6f a9 bb
       -0.115192465 -0.0070876046 0.009848563 -0.005170721
0000f0 85 8f 96 3e fb 89 51 3f 11 7a 17 bd 61 64 81 bc
       0.29406372 0.81851166 -0.036981646 -0.015794935

fc3.weight f4 [3, 64]
000000 c0 a3 00 3e 8d 02 7d 3d de 03 f1 3d 23 bd c0 bd
       0.12562466 0.06177001 0.11768316 -0.09411075
000010 97 06 36 bc 3e 54 43 3d db d0 74 3d 2b ae 60 3d
       -0.01110997 0.04768776 0.059769493 0.0548536
000020 02 83 fc bc 2d 32 2a 3f bc b9 3d bc 21 42 7c bd
       -0.030824188 0.6648281 -0.011579927 -0.061586503
000030 ce 11 a3 3e c4 9c cf bc f9 36 26 3b 04 9f 21 3f
       0.3184952 -0.025343306 0.0025362356 0.63133264
000040 25 67 32 bd fa ac e9 3b d2 1b dd 3a 84 fc c2 bd
       -0.043555398 0.007131216 0.0016869253 -0.0952082
000050 14 dc ce 3c 44 3a 30 3c a7 9b aa bb 6a 5b bd 3d
       0.025251426 0.010756079 -0.0052065435 0.092459515
000060 2f 41 87 bb 40 5c bd 3d 29 2f 09 3d db fd a2 bd
       -0.0041276435 0.09246111 0.03349224 -0.07958575
000070 42 82 a5 bc 67 00 5f 3d 99 bc 0c 3d 6f bf 7a 3d
       -0.020203713 0.054443743 0.03435955 0.06121772
000080 f7 c1 34 3f e1 7f 34 3e 71 fc 33 3f fc e1 c5 3e
       0.70608467 0.17626907 0.7030707 0.38648975
000090 a1 02 fc 3b 2e 89 2d 3f fa 4c 8c bd 37 81 c8 3c
       0.007690743 0.67787445 -0.068506196 0.024475677
0000a0 7b 45 a2 3b 55 3d c8 3c 8f 48 bb bd 18 e0 71 3d
       0.0049521304 0.024443308 -0.09144699 0.059051603
0000b0 e5 09 25 3f bf 1c 72 3e 6a e9 7f bd e9 36 d4 3d
       0.6446822 0.23643778 -0.06247846 0.10362036
0000c0 5a 0f 25 3f e5 a0 9b 3d 2b ba c1 ba 49 5c e3 3d
       0.6447655 0.075990476 -0.0014780214 0.11101586
0000d0 c3 3f 34 be 1a db b3 3d ef 5d 2d 3e d6 21 94 3c
       -0.17602448 0.08782025 0.16930364 0.01808254
0000e0 eb 16 b4 bd 42 5f bf 3d d7 28 42 3d d6 de a1 3d
       -0.08793434 0.09344341 0.04740223 0.07903831
0000f0 64 86 ee 3d 03 c0 25 3f 03 a3 47 3d 34 5d 54 3d
       0.11646727 0.6474611 0.048739444 0.051846698
000100 5c 14 8e bc 52 39 51 3c d3 77 38 bd 38 0c 01 bd
       -0.017343692 0.012770014 -0.04503615 -0.031505793
000110 5d ae 36 3c 47 a8 f6 bb bd a0 0f be f2 1b 36 bd
       0.01114997 -0.0075273844 -0.1402616 -0.044460244
000120 80 66 93 bd bd c9 30 3f 70 4f 53 3d 25 69 b9 3d
       -0.07197285 0.6905783 0.05158943 0.09053258
000130 9a ba cb 3e 37 78 45 bc dc 22 80 3d 92 50 2b 3f
       0.39790803 -0.012052587 0.06256649 0.66919816
000140 c7 91 92 bb c4 c8 64 bb 30 e0 23 bd 75 36 3b bc
       -0.0044729444 -0.0034909705 -0.040008724 -0.011426558
000150 ee 29 89 3b 00 f4 b5 bd 57 c7 04 3b 53 23 fa bc
       0.0041859066 -0.0888443 0.0020260417 -0.030534422
000160 af b0 9f bb 8d 16 0a bd 06 17 65 bc cc b6 a4 3d
       -0.0048733572 -0.033712912 -0.01398254 0.08042678
000170 49 62 a3 bc 3f 95 74 3c 90 17 23 bc 8d 93 08 bc
       -0.019944327 0.014928161 -0.009954348 -0.00833596
000180 33 18 32 3f 31 8f 0e 3c 0c 87 3e 3f 5f 81 e7 3e
       0.69568175 0.008701132 0.74424815 0.4521589
000190 09 e1 73 3c a6 79 31 3f 5f c7 c4 3d c8 51 0c bd
       0.0148851955 0.69326246 0.096083395 -0.03425768
0001a0 de 4e 1f bc 1f 13 ea bc 73 84 d3 3a 84 f2 b0 bc
       -0.009723393 -0.02857357 0.0016137495 -0.021600015
0001b0 d7 b7 33 3f a2 cd 47 3e fa 47 41 bc 14 8d df 3c
       0.7020239 0.19512036 -0.011796946 0.027288951
0001c0 9a bd 2f 3f 53 44 ee bc e3 0b d2 3d 10 9f 2a 3d
       0.68648684 -0.029085314 0.102561735 0.0416556
0001d0 55 d2 3a 3c d0 2f 7d 3d 3e fd 8a bd 4b ed 82 bd
       0.011402686 0.061813176 -0.06786583 -0.06392916
0001e0 70 18 78 bd 93 7d 3e 3c 34 b5 fb bc d2 eb b5 3d
       -0.06057018 0.011626619 -0.030726053 0.0888287
0001f0 a5 4b e0 3d 6c f3 2b 3f 25 75 ba bd 9a ff 87 3c
       0.10951928 0.6716831 -0.09104375 0.016601373
000200 91 47 62 3d dd 19 39 bd a5 07 e7 3d 92 af 96 bd
       0.055244032 -0.04519068 0.11280755 -0.07357706
000210 21 df 97 3c b4 05 3b 3d 8f ee a4 bb 97 75 e7 3c
       0.018539013 0.045659736 -0.005033321 0.028254313
000220 62 50 45 3d f8 9b 15 3f 14 a0 fe bc 2b b1 62 3d
       0.048172362 0.58441114 -0.03108219 0.05534474
000230 9c d9 09 3e 04 17 85 bc 78 7a 65 3d 9c ce 1b 3f
       0.13461918 -0.016246326 0.056025 0.60862136
000240 21 ea 39 bc af b2 83 3c 57 39 c0 bc 78 82 4c bd
       -0.011347325 0.016076414 -0.023464842 -0.049929112
000250 3f 0b 11 bd 30 94 4c 3b 94 99 1b bb 2f 3d 83 bc
       -0.035411116 0.0031216256 -0.0023742663 -0.016020386
000260 cf 08 ce bc 03 e8 85 3d c8 da fe bc 20 4c a9 bc
       -0.025150685 0.06538393 -0.031110182 -0.020666182
000270 05 5d 3e bd f5 e9 9a bc ec 68 ae bd e7 f2 9c bd
       -0.04647543 -0.018910388 -0.08516106 -0.076635174
000280 03 23 39 3f b9 3d 3a 3a 4e c8 3d 3f 23 3a 95 3e
       0.7231905 0.00071045343 0.74133766 0.29145917
000290 33 1b e1 bc 36 a1 3c 3f ae e9 01 bc c9 8e 65 bd
       -0.02747879 0.7368349 -0.007929249 -0.056044374
0002a0 a1 e1 72 bc d8 2a 40 3d 82 ef 34 3c 32 1d 55 3d
       -0.014824302 0.04691586 0.011043431 0.052029796
0002b0 5d 3b 32 3f 08 2b 34 3e 34 fd 06 3d 2f 1c 2c 3d
       0.6962183 0.1759454 0.032956317 0.042019065
0002c0 e0 5e 0d 3f 6e 86 21 3c 9a da be 3a 9f fc 30 3b
       0.5522289 0.009858711 0.0014560998 0.0027006043
0002d0 cd 47 02 bd 53 0b e6 3c 4f 90 87 3d 87 04 9d 3d
       -0.031806756 0.028081572 0.066193216 0.07666879
0002e0 75 ce e1 bc 6f c1 17 3d ad 93 85 3d 56 f6 13 3d
       -0.027564267 0.037049707 0.065223075 0.036123596
0002f0 c2 99 54 3e 54 df 23 3f 56 74 92 bd 2e ce ec ba
       0.20761779 0.64012647 -0.071510956 -0.0018066817

fc3.bias f4 [3]
000000 8d 0a 91 3f 07 e3 9b 3f 3e b6 bd 3f
       1.1331345 1.2178658 1.4821241
