Models/DQN/agentDQN_2008-2009_dqn_v2_400_EPS_1.pth (torch, 90071 bytes, 6 tensors)

fc1.weight f4 [128, 104]
0	0xbc806f08	-0.015677944
1	0xbb46c716	-0.0030331067
2	0xbd571be0	-0.052516818
3	0xbd38aaa5	-0.045084614
4	0xbd641016	-0.055679403
5	0xbddc9257	-0.107700996
6	0xbca7d23f	-0.020485995
7	0xbcb57a4b	-0.02215304
8	0xbcc26ddd	-0.023734028
9	0xbd85981c	-0.06523153
10	0xbd8b01b6	-0.06787436
11	0xbd119ad8	-0.03554806
12	0xbd4dbed1	-0.050230805
13	0xbd0bd25f	-0.034136172
14	0x3d789a88	0.060694247
15	0xbcbf85d3	-0.023379242
16	0xbd6f5566	-0.05843105
17	0xbdcfc5a4	-0.10145119
18	0xbdee1db9	-0.11626763
19	0x3d45d884	0.04830219
20	0xbe03bebb	-0.12865727
21	0x3cb512c2	0.022103671
22	0xbd3eaf2a	-0.04655377
23	0x3d91367e	0.07090472
24	0x3b044b69	0.002018655
25	0xbdefdb7c	-0.11711785
26	0x3ded8a43	0.11598637
27	0xbe06e19a	-0.13171998
28	0xbc23046c	-0.009949785
29	0xbdf106dd	-0.11768887
30	0x3d67409a	0.056458093
31	0x3dc1e023	0.09466579
32	0xbd7fa61a	-0.062414266
33	0xbce5683b	-0.028003803
34	0xbd3a6d09	-0.04551414
35	0xbe26f5c7	-0.16304694
36	0xbe14cce3	-0.14531283
37	0xbe0dfe70	-0.13866591
38	0xbdd11ad7	-0.102101974
39	0xbd21dc06	-0.03951647
40	0xbdd23de2	-0.102657095
41	0xbe0e96cb	-0.1392471
42	0xbce2cfb9	-0.02768694
43	0xbd065d99	-0.032804105
44	0x3cf1363d	0.029444808
45	0xbd3cab9a	-0.04606209
46	0xbcc59912	-0.024120841
47	0xbcc567bd	-0.024097318
48	0x3d88cfcd	0.0668026
49	0xbb3bc396	-0.0028650514
50	0xbdf38cbd	-0.11892078
51	0x3db8cd3a	0.09023519
52	0x3d40f265	0.047106165
53	0xbd82daa5	-0.063893594
54	0x3cb3c9bd	0.021946782
55	0xbd20e50d	-0.03928094
56	0xbdcd6a07	-0.10029989
57	0xbc770e46	-0.015079087
58	0xbd188c41	-0.03724313
59	0xbad3da89	-0.0016163151
60	0x3ca0cbdb	0.019628456
61	0xbdc855e6	-0.09782009
62	0xbd9a3581	-0.07529736
63	0xbce835a1	-0.028345885
64	0xbd47f71b	-0.048819643
65	0x3d8fc764	0.070204526
66	0xbb7b6e33	-0.0038365244
67	0xbdc9b3f0	-0.098487735
68	0x3d396426	0.045261525
69	0xbdb40372	-0.0878972
70	0xbdab043e	-0.083504185
71	0xbd4e36e7	-0.050345328
72	0xbcbd3093	-0.023094451
73	0x3c5e7191	0.013576881
74	0xbdb447a0	-0.08802724
75	0xbd705b55	-0.05868085
76	0x3d86fd41	0.06591273
77	0xbb556fa8	-0.0032567773
78	0xbde30fbf	-0.11086988
79	0x3c91d049	0.017799513
80	0x3c4023f0	0.011727318
81	0xbc382eb3	-0.011241603
82	0x3cdc837f	0.026918171
83	0x3cadffeb	0.021240195
84	0xbd8e6849	-0.069534846
85	0xbded9fe6	-0.11602764
86	0xbe047282	-0.12934306
87	0xbd70ce7f	-0.05879068
88	0xbd0b0179	-0.03393695
89	0x3c12c470	0.008957967
90	0x3d545a4b	0.051843923
91	0xbda35501	-0.079751976
92	0xbdf269f1	-0.11836613
93	0xbdc9219e	-0.09820865
94	0xbd612d71	-0.054974977
95	0x3d40383a	0.04692862
96	0x3c92efc5	0.017936597
97	0x39ba5dfa	0.00035546703
98	0x3cf6cbf0	0.030126542
99	0xbd08b156	-0.033372246
100	0xbd16fa94	-0.036860064
101	0xbd350d22	-0.044201978
102	0x3d555aa3	0.05208839
103	0x3d719908	0.058983833
104	0xbdda65f2	-0.10663976
105	0xbc0708ae	-0.0082418155
106	0xbe130ada	-0.14359608
107	0xbb2d63f9	-0.0026457293
108	0xbb9a8014	-0.004714975
109	0xbdd9ab2c	-0.106283516
110	0xbc765df0	-0.015037045
111	0xbdf99cf2	-0.12188138
112	0xbd84841d	-0.06470511
113	0xbde69cf8	-0.11260408
114	0xbc97324a	-0.018456597
115	0xbe0ca30c	-0.13734072
116	0xbe29fed0	-0.1660111
117	0xbe0797b7	-0.13241468
118	0xbe1db2af	-0.15400194
119	0xbe2dd358	-0.16975152
120	0xbe0e97ab	-0.13925044
121	0xbd69ec90	-0.05711037
122	0xbcda3c7b	-0.026640167
123	0xbc1571c6	-0.009121364
124	0x3c4176e9	0.011808136
125	0xbd9f8f90	-0.07791054
126	0x3bd22770	0.0064133927
127	0xbd16e762	-0.036841758
128	0xbdaea0c8	-0.0852676
129	0xbe0f1bb5	-0.13975413
130	0xbdbd4295	-0.09241215
131	0xbddd988c	-0.10820112
132	0xbd2ad4aa	-0.04170672
133	0x3da101ba	0.078616574
134	0xbd284917	-0.04108533
135	0x3d43eca6	0.047833107
136	0x3ce30835	0.027713874
137	0x3c89b64b	0.016810557
138	0xbdc390d8	-0.09549111
139	0xbda9c43f	-0.08289384
140	0xbd584899	-0.05280361
141	0xbd8ab609	-0.06773002
142	0xbde1c75b	-0.11024352
143	0xbdfab02a	-0.12240632
144	0xbde75d6a	-0.11297114
145	0xbc6bbbdb	-0.01438805
146	0xbdb7d8d4	-0.089769036
147	0xbdac7a2f	-0.08421742
148	0xbcc71410	-0.024301559
149	0x3cb53c76	0.022123557
150	0xbdcfeb28	-0.10152274
151	0xbceec2af	-0.029145567
152	0x3e22c4a9	0.15895332
153	0xbd78721c	-0.0606557
154	0xbd02d66a	-0.031942762
155	0xbd0f16a7	-0.034933712
156	0xbd9c674f	-0.07636892
157	0xbd83e238	-0.06439632
158	0xbd7c260b	-0.061559718
159	0xbccd9dce	-0.025099661
160	0xbb244ddb	-0.002507082
161	0xbdca8ee2	-0.09890534
162	0xbba629d3	-0.005070904
163	0xbca9ec50	-0.020742565
164	0x3dc40c12	0.09572615
165	0xbd9e44d2	-0.0772797
166	0x3d73438a	0.059390582
167	0xbdf1b734	-0.11802521
168	0xbe23d88f	-0.1600058
169	0x3d261e50	0.040556252
170	0xbdc7bd2a	-0.09752877
171	0xbd168f9d	-0.036758054
172	0xbcf526e8	-0.029925779
173	0xbd28c544	-0.041203752
174	0xbe16d83c	-0.14730924
175	0xbe140547	-0.14455138
176	0xbe0b6d34	-0.13615876
177	0xbda7044e	-0.08155118
178	0xbd49378c	-0.04912524
179	0xbd224f82	-0.039626606
180	0xbd9114a6	-0.070840165
181	0xbe2d3fc5	-0.16918857
182	0xbe268e27	-0.16265164
183	0xbe25e04c	-0.16198844
184	0xbd94556a	-0.07242854
185	0x3c95c5c8	0.018282786
186	0xbe0cd64e	-0.13753626
187	0x3a883342	0.0010391253
188	0xbe0f9528	-0.14021742
189	0xbaceee7c	-0.0015787627
190	0x3a145914	0.00056590256
191	0xbca09f42	-0.01960719
192	0xbbc99dbd	-0.006152837
193	0xbd1954c9	-0.037434373
194	0xbd856cf4	-0.06514922
195	0xbd68d3d0	-0.056842625
196	0xbd035947	-0.032067563
197	0xbe040195	-0.12891228
198	0xbd814691	-0.063122876
199	0xbe28721b	-0.16449778
200	0xbe265278	-0.16242397
201	0xbd51b0eb	-0.051194113
202	0x3d78a4f0	0.06070417
203	0xbdedb914	-0.116075665
204	0xbd6afc8c	-0.057369754
205	0xbccd733a	-0.025079358
206	0xbd56541f	-0.052326318
207	0xbdc6b7c5	-0.0970302
208	0xbc0b16ff	-0.008489369
209	0xbccbdffe	-0.024887081
210	0xbde1bd1b	-0.11022397
211	0xbcf43c88	-0.02981402
212	0xbdc30c6b	-0.09523853
213	0xbe07e500	-0.1327095
214	0xbdd57aab	-0.10423788
215	0xbd87a692	-0.06623568
216	0xbb2f8053	-0.0026779368
217	0xbd556420	-0.05209744
218	0xbd9631a2	-0.073336855
219	0xbdca14bf	-0.09867238
220	0xbdf7b991	-0.12095941
221	0xbddeee93	-0.10885348
222	0xbc01f76a	-0.007932523
223	0xbe1dabfb	-0.15397637
224	0xbb05b443	-0.0020401634
225	0xbdf90f0d	-0.12161074
226	0x38bc47df	8.9779256e-05
227	0x3c7b2046	0.015327519
228	0xbcee6ef4	-0.029105641
229	0xbe082099	-0.13293685
230	0xbdadee06	-0.08492665
231	0xbc1aeb94	-0.00945558
232	0xbde15c6a	-0.11003955
233	0xbe02615f	-0.12732457
234	0xbdded6b3	-0.108807944
235	0x3dab76d0	0.08372271
236	0x3d7637d8	0.06011185
237	0xbd966cda	-0.073449805
238	0xbb928d32	-0.004472398
239	0xbc810b22	-0.015752379
240	0xbe5332a9	-0.20624794
241	0xbe3d4f5e	-0.18487307
242	0x3d76c5a2	0.06024707
243	0x3bfe30c1	0.0077572768
244	0xbc511fea	-0.012763957
245	0xbd56c1bd	-0.052430857
246	0x3e002bab	0.12516658
247	0xbd4b6629	-0.049657974
248	0x3c527d41	0.012847246
249	0xbd8571cf	-0.06515848
250	0xbd290810	-0.041267455
251	0xbd99d49d	-0.07511256
252	0xbdb424db	-0.08796092
253	0xbd98c613	-0.07459655
254	0xbd40520a	-0.04695324
255	0xbcf08c73	-0.029363846

fc1.bias f4 [128]
0	0xbda4aca2	-0.080407396
1	0xbe082666	-0.13295898
2	0xbc058ef8	-0.008151762
3	0xbdbacda1	-0.09121252
4	0xbce697e4	-0.028148599
5	0x3c453275	0.012035956
6	0xbd26c57e	-0.040715687
7	0xbe650b2b	-0.22367541
8	0xbc2334bb	-0.009961302
9	0xbcead8f1	-0.028667899
10	0xbf0b0eeb	-0.5431964
11	0xbeb570b8	-0.3543756
12	0xbe03bbac	-0.1286456
13	0xbd924664	-0.07142332
14	0x3c450dae	0.012027187
15	0xbd420ea5	-0.047377247
16	0xbe1e8f87	-0.15484439
17	0x3a2c883b	0.0006581579
18	0xbe4bb74f	-0.19894145
19	0xbebefea3	-0.37303647
20	0xbdf6029e	-0.12012218
21	0xbdd2d572	-0.10294618
22	0xbda366e8	-0.07978612
23	0xbe25a78e	-0.16177198
24	0xbdae48e1	-0.08509994
25	0xbf1bf865	-0.60925895
26	0xbdadf74e	-0.08494435
27	0xbe7c670a	-0.24648681
28	0xbdd15fe0	-0.10223365
29	0xbe0c12a9	-0.13678993
30	0xbdc86ef3	-0.09786787
31	0xbdcd619c	-0.10028383
32	0xbd5cf7db	-0.05394731
33	0xbedacadf	-0.42732903
34	0x3c47a6cc	0.012185764
35	0xbd556d80	-0.05210638
36	0xbb2f16f1	-0.0026716555
37	0xbeb6b89d	-0.35687724
38	0xbe46d415	-0.1941684
39	0xbd9bc3db	-0.07605716
40	0xbe096ec5	-0.13421161
41	0x3cc40564	0.023928352
42	0xbeb2c24f	-0.3491387
43	0xbd1f298e	-0.03885799
44	0xbd096076	-0.033539258
45	0xbe1c14a4	-0.15242249
46	0xbcd740ea	-0.02627607
47	0xbd9b3f0d	-0.07580385
48	0x3baff090	0.0053692535
49	0xbe2be7b7	-0.16787611
50	0xbf0262b8	-0.5093188
51	0xbdfe55ac	-0.12418684
52	0xbc396fd2	-0.011318164
53	0xbdd750c5	-0.105134524
54	0x3d7a317d	0.061082352
55	0xbe1c4477	-0.15260492
56	0xbd95ad1f	-0.07308411
57	0xbe00a87e	-0.12564275
58	0xbe18e7b5	-0.14932139
59	0xbd544ee8	-0.051833063
60	0xbdfa03af	-0.12207734
61	0xbde285e8	-0.11060697
62	0xbe20ea7c	-0.15714449
63	0xbbfbf387	-0.007688943
64	0xbe26a5c9	-0.1627418
65	0xbdf16c0a	-0.11788185
66	0xbd07dbcf	-0.03316861
67	0xbdada6ee	-0.08479105
68	0xbe179aa0	-0.14805079
69	0xbd7c661a	-0.06162081
70	0xbe43deaf	-0.19127916
71	0xbecbcc82	-0.39804465
72	0xbdbb30cd	-0.091401674
73	0xbdc008b0	-0.09376657
74	0xbd4ddd7d	-0.050260056
75	0xbce90edb	-0.028449466
76	0xbd51c2ce	-0.05121117
77	0xbdda9deb	-0.10674652
78	0xbdc619f2	-0.096729174
79	0xbdf5314a	-0.11972292
80	0x3d4d018b	0.0500503
81	0xbe15b190	-0.14618516
82	0xbdd14ad8	-0.102193534
83	0xbe2a816e	-0.16650936
84	0xbe6d1a37	-0.23154531
85	0xbd394774	-0.04523416
86	0xbe0e21e1	-0.13880111
87	0xbe42e6a7	-0.190333
88	0xbd65aa07	-0.056070354
89	0xbdb2f9fc	-0.08739087
90	0xbdb3f327	-0.08786612
91	0xbe1b105b	-0.15142958
92	0xbdd81b35	-0.10552064
93	0xbdb4bb8e	-0.08824836
94	0xbdc9b110	-0.09848225
95	0xbe0b9eed	-0.13634844
96	0xbcc8da37	-0.024518115
97	0xbddd7bb1	-0.10814608
98	0xbe105231	-0.14093854
99	0xbe4c59f0	-0.19956183
100	0xbe27cad9	-0.16385974
101	0xbdd67b75	-0.10472766
102	0xbdccd298	-0.10001105
103	0xbe07620d	-0.13220997
104	0xbd9bb97f	-0.0760374
105	0x3c1acb62	0.009447904
106	0xbc55cc90	-0.01304926
107	0xbe5d9866	-0.21640167
108	0xbe167e34	-0.1469658
109	0xbcf3442a	-0.02969559
110	0xbc5e2e67	-0.013560868
111	0xbdfb06da	-0.12257166
112	0x3d1f87ae	0.038947754
113	0xbf099ccb	-0.5375487
114	0xbdefe590	-0.117137074
115	0xbb470bd3	-0.0030372038
116	0xbea357b8	-0.31902862
117	0xbd46fa20	-0.04857838
118	0xbe1203d2	-0.1425927
119	0xbe5d353d	-0.2160234
120	0xbe146390	-0.14491105
121	0xbe019acf	-0.12656711
122	0xbe1b32ed	-0.15156145
123	0xbe6c5fa3	-0.23083358
124	0xbf0314dc	-0.51203704
125	0xbe11d8ce	-0.1424286
126	0xbd70c17b	-0.058778267
127	0xbd145e04	-0.036222473

fc2.weight f4 [64, 128]
0	0x39857daa	0.00025461364
1	0x3d306c8b	0.043072265
2	0x3c7e718f	0.015530004
3	0xbce16975	-0.027516106
4	0xbc453ea3	-0.01203886
5	0x3d1b901a	0.037979223
6	0xbcbef792	-0.02331141
7	0xbdb8e393	-0.09027781
8	0xbb3868ac	-0.0028138561
9	0xbd742b98	-0.059611887
10	0x3e9a6a18	0.30159068
11	0x3c5c0491	0.013428823
12	0x3dbdbe88	0.092648566
13	0xbc223c2f	-0.009902044
14	0x3da2667c	0.079297036
15	0x3c9bee01	0.019034388
16	0x3adf2dc4	0.0017027189
17	0x3d668e53	0.056288075
18	0xbc59aace	-0.013285352
19	0xbd7e1910	-0.06203562
20	0xbc6b2b0c	-0.014353525
21	0x3d0fb556	0.035085045
22	0x3d300949	0.042977605
23	0xbc04e091	-0.008110181
24	0x3bc6213d	0.006046443
25	0xbaca81dd	-0.0015450079
26	0xbdcb95d0	-0.09940684
27	0x3d056b09	0.03257278
28	0x3c08064f	0.008302285
29	0xbdcacc32	-0.099022284
30	0xbd60c7ba	-0.054877974
31	0x3c4e730f	0.012600674
32	0xbda8c6a6	-0.08241014
33	0xbdb71342	-0.0893922
34	0xbd75331c	-0.059863195
35	0x3d494da1	0.0491463
36	0xbd90a180	-0.07062054
37	0x3d070f58	0.032973617
38	0xbc1e16cf	-0.009648993
39	0xbd94edd2	-0.07271923
40	0x3d2893e7	0.041156676
41	0x3d1b3d6b	0.03790037
42	0x3d0593d4	0.032611683
43	0xbd13d020	-0.036087155
44	0x3cb1aa92	0.02168778
45	0xbd0a56f6	-0.03377434
46	0x3cdf1462	0.027231399
47	0xbd3c46b4	-0.045965865
48	0x3cfed1e9	0.031105952
49	0x3c1dce00	0.009631634
50	0x3dd7cc16	0.10536973
51	0xb93d6665	-0.0001806259
52	0xbd93fed0	-0.07226336
53	0xbc7b121d	-0.015324143
54	0xbd6a1044	-0.05714442
55	0x3d1aeabd	0.03782152
56	0x3c6bca37	0.0143914735
57	0x3d8a34b8	0.067483366
58	0xbd68cfa8	-0.05683866
59	0xbd889b5e	-0.06670259
60	0xbd882f92	-0.06649698
61	0x3cf40238	0.029786214
62	0x3b2b4c13	0.0026137873
63	0x3bf83e97	0.0075758207
64	0x3d2ec6cd	0.04267006
65	0xbc12de48	-0.008964129
66	0x3bcbfd9d	0.0062253014
67	0xbd98a9ff	-0.07454299
68	0xb8414427	-4.6078258e-05
69	0xbde461de	-0.11151479
70	0xbd668f6a	-0.056289114
71	0x3ca0eeef	0.019645182
72	0xbc157e1d	-0.009124306
73	0x3d491e60	0.049101233
74	0x3d3e73d8	0.046497196
75	0x390ea350	0.00013603014
76	0x3d91a73e	0.07111977
77	0x3d7db6d6	0.061941944
78	0x3d0d4834	0.034492686
79	0x3d6060b4	0.054779723
80	0x3d955f7e	0.07293604
81	0x3d2cedcc	0.04221897
82	0xbcee4aea	-0.029088456
83	0x3c94f84f	0.018184809
84	0xbd8e7dc3	-0.06957581
85	0x3d52a6bd	0.051428545
86	0x3d055731	0.032553855
87	0xbd8f8df2	-0.07009496
88	0xbc77f230	-0.015133426
89	0xbd83cd0f	-0.06435596
90	0xbc460fcb	-0.012088726
91	0x3dcb861f	0.09937691
92	0xbd288d27	-0.04115024
93	0x3cf2f881	0.029659512
94	0xbd56be97	-0.052427854
95	0xbd4cee8e	-0.05003219
96	0x3ca7f36c	0.020501815
97	0xbd81dac6	-0.06340556
98	0xbac16524	-0.0014754874
99	0xbd23d113	-0.03999431
100	0x3da9183e	0.08256577
101	0x3cb4e49a	0.022081662
102	0xbc2930a5	-0.010326539
103	0xba680023	-0.0008850118
104	0xbc47e777	-0.012201182
105	0x3d5752dc	0.052569255
106	0xbce8302d	-0.028343285
107	0xbb233bb3	-0.002490741
108	0xbd2c4f52	-0.042067833
109	0xbde4319c	-0.11142275
110	0xbce97080	-0.028496027
111	0x3c0d1905	0.008611922
112	0xbd80e6cb	-0.0629402
113	0x3dc543b8	0.09632057
114	0xbd0e3aad	-0.034723926
115	0xba0c5cb9	-0.0005354393
116	0xbdb14bc6	-0.08657031
117	0xbd736e78	-0.059431523
118	0x3bdf0f77	0.0068072635
119	0x3a09b08c	0.0005252443
120	0x3af7751a	0.0018879503
121	0xbd31a754	-0.043372467
122	0x3cc3ad68	0.023886397
123	0xbd2028bb	-0.039101344
124	0x3f27e541	0.6558419
125	0xbde1ef94	-0.11032024
126	0xbd0bc2dc	-0.03412138
127	0xbb5eae39	-0.0033978357
128	0x3d7cb0ce	0.06169205
129	0x3d61fdee	0.055173807
130	0x3d8af78c	0.06785497
131	0xbd9f0ffc	-0.07766721
132	0xbc32f0f0	-0.010921702
133	0x3d4cb967	0.0499815
134	0xbcb6a5ee	-0.022295918
135	0xbd8c1ae5	-0.06841067
136	0xbe4d7a2b	-0.20066135
137	0x3b8b527b	0.004251776
138	0xbd9cab6e	-0.07649885
139	0xbda391c2	-0.079867855
140	0xbd13e181	-0.03610373
141	0x3c080caf	0.008303805
142	0x3c207a55	0.009794791
143	0xbd834a00	-0.06410599
144	0x3d847bb6	0.064689085
145	0xbab3b434	-0.0013710321
146	0xbd66cea0	-0.056349397
147	0xbb71d24b	-0.0036899026
148	0x3cb0d9f0	0.021588296
149	0x3c8e3962	0.017361347
150	0xbd874ba2	-0.06606223
151	0xbd34c31f	-0.044131394
152	0xbd922abe	-0.07137059
153	0xba6cf65f	-0.00090393977
154	0xbd5a4710	-0.053290427
155	0xbda74e52	-0.08169235
156	0xbd09d654	-0.033651665
157	0x3d00b256	0.031420074
158	0x3ce8e7fe	0.028430935
159	0x3c84d672	0.016215537
160	0x3cd57c84	0.02606035
161	0xbdb96747	-0.09052902
162	0xbd42eec9	-0.047591005
163	0xbdfd6721	-0.12373186
164	0xbd55e5c9	-0.052221093
165	0xbc806082	-0.015671019
166	0x3c485b13	0.012228745
167	0xbcd0d89e	-0.025493916
168	0x3cbe4ca2	0.0232299
169	0xbd2a6113	-0.041596483
170	0xbde27180	-0.11056805
171	0xbdacb2b9	-0.08432526
172	0x3de96b2a	0.11397393
173	0xbdb2487d	-0.08705232
174	0x3ce48816	0.027896922
175	0x3d12f792	0.035880633
176	0x3d753f80	0.05987501
177	0x3cb49aa5	0.022046397
178	0xbde50729	-0.11183006
179	0x3c8a103c	0.016853444
180	0x3ca4b789	0.020107048
181	0xbda0582f	-0.0782932
182	0x3d9d3d85	0.076777495
183	0xbcd0ec9c	-0.02550345
184	0xbd31f64e	-0.043447785
185	0xbdb01c1f	-0.08599114
186	0xbd11453f	-0.03546643
187	0xbdaeb1cb	-0.08530005
188	0x3d75368b	0.05986647
189	0xbc5891db	-0.013218368
190	0xbdb60e48	-0.08889443
191	0x3d343160	0.0439924
192	0xbc89af81	-0.01680732
193	0x3d7acb8a	0.061229266
194	0xbd6daeeb	-0.058028143
195	0xbda9fbb8	-0.08299965
196	0xbdb4c5aa	-0.08826764
197	0x3cc94f3c	0.024573915
198	0xbca402cc	-0.020020865
199	0xbda2e4f0	-0.079538226
200	0xbd944f0e	-0.07241641
201	0xbd44f4e3	-0.048085105
202	0xbd138a29	-0.03602043
203	0x3d1b601c	0.037933454
204	0x3d89d825	0.067306794
205	0x3b911a33	0.004428172
206	0x3cef3232	0.02919874
207	0xbd8a30f4	-0.06747618
208	0xbd51a046	-0.05117824
209	0xbdb26402	-0.08710481
210	0x3ac1e34e	0.0014792474
211	0x3cc7973a	0.024364103
212	0xbcaebeb6	-0.021331172
213	0xbc7c3a05	-0.015394692
214	0x3ac3f5c4	0.0014950563
215	0x3cb4d60b	0.02207472
216	0xbd011377	-0.031512704
217	0xbd96d46e	-0.073647365
218	0xbdec3e31	-0.115352996
219	0x3cf6d84c	0.030132435
220	0xbdfc4404	-0.123176605
221	0xbd572df5	-0.052534062
222	0xbd720433	-0.059086036
223	0x3c5c8cdd	0.013461319
224	0x3da48ad6	0.08034293
225	0xbd6f9419	-0.058490846
226	0x3d135a71	0.035974924
227	0xbdc14336	-0.094366476
228	0x3d0b404a	0.033996858
229	0xbc5dc938	-0.013536744
230	0xbd2d64f8	-0.04233262
231	0xbc3f2823	-0.011667284
232	0xbd1f3190	-0.038865626
233	0x3c8cc2e2	0.017182771
234	0x3d21c7ad	0.039497066
235	0xbdfbd468	-0.12296373
236	0x3d5db4ff	0.05412769
237	0x3d03123d	0.031999815
238	0xbcea4d5a	-0.028601337
239	0xbc8bbe0c	-0.017058395
240	0xbcd7c882	-0.026340727
241	0xbd220914	-0.03955944
242	0x3c8054d3	0.015665447
243	0x3cf7a6f4	0.030230977
244	0x3d0b1dbb	0.0339639
245	0x3c9f84b9	0.019472467
246	0xbc6a3f66	-0.014297342
247	0x3cf44ba3	0.029821223
248	0xbd21baed	-0.039484907
249	0x3c39d7c9	0.011342951
250	0x3da69c2f	0.081352584
251	0xbbfe2c62	-0.0077567557
252	0xbde3f82c	-0.111313194
253	0x3c123cce	0.00892563
254	0x3c3c566f	0.011495217
255	0xbda30133	-0.07959213

fc2.bias f4 [64]
0	0xbe21d98e	-0.15805647
1	0xbe8b4b5b	-0.2720593
2	0xba66c390	-0.0008802945
3	0xbd900a02	-0.07033159
4	0xbe5b2a80	-0.21402931
5	0x4019aa6a	2.4010262
6	0x401511d8	2.329214
7	0xbe52aadc	-0.2057299
8	0xbe7261f0	-0.23670173
9	0x400fab80	2.2448425
10	0xbd6af4d4	-0.057362393
11	0xbe80fb68	-0.25191808
12	0xbe84695a	-0.25861627
13	0xbe3f7c79	-0.18699826
14	0xbdead2e7	-0.11466008
15	0x4032b235	2.792127
16	0xbeb5b00a	-0.3548587
17	0xbe9d5c94	-0.30734694
18	0xbead48d8	-0.33844638
19	0xbe59f077	-0.21283136
20	0xbdbe7852	-0.09300293
21	0x401dbd0e	2.464664
22	0xbf2757b5	-0.65368205
23	0xbf406f39	-0.7516971
24	0xbe58a65b	-0.2115721
25	0xbe2d1682	-0.16903117
26	0xbe4a4543	-0.19752984
27	0xbde97003	-0.11398318
28	0xbe4bf4e6	-0.1991764
29	0xbef43c87	-0.4770243
30	0xbe7483c1	-0.23878385
31	0xbe66f568	-0.22554553
32	0xbeb3dbb4	-0.35128558
33	0xbe04c23c	-0.1296472
34	0xbf0602b8	-0.523479
35	0xbdd08569	-0.10181696
36	0xbdac1ae5	-0.08403567
37	0xbe8839a5	-0.2660648
38	0xbd450483	-0.048100006
39	0xbe88f45f	-0.2674894
40	0xbe6b2f60	-0.22967291
41	0xbe6085ce	-0.21926042
42	0xbd5ab176	-0.053391896
43	0xbe279f28	-0.16369307
44	0xbeece624	-0.46269333
45	0xbbaaad9f	-0.0052086855
46	0x3f0431de	0.5163859
47	0xbeaa46b2	-0.3325706
48	0xbd105104	-0.035233513
49	0xbe502cbd	-0.20329566
50	0xbe9057ed	-0.28192082
51	0xbe4e878a	-0.20168892
52	0xbf036d91	-0.5133906
53	0xbedce0b3	-0.43140182
54	0xbcd6c58b	-0.026217243
55	0xbe02be59	-0.12767924
56	0xbe208369	-0.15675129
57	0xbe17bdd6	-0.1481851
58	0xbe9216d1	-0.28533033
59	0xbe28a5fb	-0.16469567
60	0xbe382fd9	-0.17987002
61	0xbf2ca15a	-0.674337
62	0xbf139e94	-0.57663846
63	0xbe53cc5c	-0.20683426

fc3.weight f4 [3, 64]
0	0x3fa54801	1.2912599
1	0x3c8db2de	0.017297205
2	0x3ee9af9d	0.45641795
3	0x3c595177	0.013264052
4	0xbc9a2338	-0.018815622
5	0x3f3ea296	0.74466836
6	0xbec01126	-0.37513083
7	0xbd95d2dd	-0.073156096
8	0x3f9a9916	1.2077968
9	0xbee57e47	-0.44822904
10	0xbbfab9a5	-0.007651525
11	0xbda13ac7	-0.07872539
12	0x3d06643c	0.032810435
13	0xbbc88abb	-0.0061200536
14	0xbcf5894e	-0.029972699
15	0xbf22cc2f	-0.6359281
16	0xbcd6ebe2	-0.026235525
17	0xbcc1616c	-0.023606025
18	0x3d981a83	0.07426932
19	0xbd34b861	-0.04412115
20	0x3b1f29a6	0.00242863
21	0xbf366881	-0.7125321
22	0x3f7deefb	0.9919278
23	0x3f00e725	0.503527
24	0x3c53f8c4	0.012937728
25	0x3f9f077f	1.2424163
26	0xbc6ac6a1	-0.014329583
27	0x3ab65a63	0.0013912435
28	0x3ce3f738	0.027827844
29	0x3eea0a3e	0.4571094
30	0xbb1b79f7	-0.002372382
31	0x3f95c7e8	1.1701632
32	0x3c4f530c	0.012654077
33	0xbd23b151	-0.039964024
34	0x3b3e03e3	0.0028994016
35	0x3d0fb94c	0.035088822
36	0x3d7a8f9a	0.061172105
37	0xbca605e9	-0.02026649
38	0x3c026bd5	0.0079602795
39	0xbc1ca3c8	-0.009560533
40	0x3c0d7fbc	0.008636411
41	0xbbfbf8f1	-0.0076895882
42	0x3cab6adf	0.020924984
43	0xbcaf707b	-0.02141594
44	0x3f43bc16	0.7645887
45	0xbd713431	-0.058887664
46	0xbdfe5735	-0.12418977
47	0x3c423fbd	0.011856017
48	0xbdde5efe	-0.10857962
49	0x3d106cd5	0.03526004
50	0x3d9e8820	0.077408075
51	0xbd687db7	-0.056760516
52	0x3f9aba30	1.208807
53	0x3fb73347	1.4312524
54	0xbde5652b	-0.11200937
55	0xbd7d46d9	-0.061835144
56	0x3d2cd8af	0.042198833
57	0x3fa6396a	1.2986271
58	0xbd121ed5	-0.035673935
59	0x3d2ecb2c	0.04267423
60	0x3fa0aba2	1.2552378
61	0x3f893f9a	1.0722535
62	0x3f809306	1.0044868
63	0xbbb68e66	-0.0055711744
64	0x3fa4b8c6	1.2868888
65	0xbd4dfcc4	-0.050289884
66	0xbe24d6ba	-0.16097537
67	0x3d07fd6c	0.033200666
68	0x3cadda3a	0.021222223
69	0x3f770b00	0.9650116
70	0xbf3356b2	-0.7005416
71	0x3cdda42f	0.027055828
72	0x3f96bfea	1.1777318
73	0xbe49f909	-0.19723906
74	0xbdcadad8	-0.099050224
75	0x3c5f9c20	0.013648063
76	0x3c9c172e	0.019054022
77	0xbc4efffd	-0.012634275
78	0xbd4d8073	-0.050171327
79	0xbf4af6af	-0.7928266
80	0xbccef1ed	-0.025261844
81	0x3d1389e3	0.03602017
82	0x3ceacbc9	0.028661625
83	0xbc121fee	-0.008918745
84	0x3d06fcc6	0.032955907
85	0xbf06d12b	-0.52662915
86	0x3f9207bf	1.1408614
87	0x3e630f17	0.22173725
88	0x3c859d7b	0.016310444
89	0x3f9ccb5d	1.2249562
90	0x3cb577b8	0.022151813
91	0x3b918650	0.00444106
92	0x3d35f6d9	0.044424865
93	0x3f11fe3a	0.57028544
94	0x3a05b2b4	0.0005100176
95	0x3f95747d	1.1676174
96	0xbd1db7d1	-0.03850538
97	0x3a2d06c6	0.00066004356
98	0x3c00957d	0.007848141
99	0x3c81c1bd	0.015839452
100	0xbb806107	-0.0039178166
101	0xbc8f2757	-0.017474813
102	0x3db59120	0.08865571
103	0xbc072dbf	-0.008250653
104	0x3c134e73	0.008990872
105	0x3c4a0024	0.012329135
106	0xbd816eb2	-0.063199416
107	0x3ce1f6c0	0.02758348
108	0x3f33de1b	0.7026078
109	0x3bece5c8	0.0072295405
110	0xbe21e6cb	-0.15810697
111	0x3d29e3c4	0.04147698
112	0xbcabb6ea	-0.020961244
113	0xbb997245	-0.0046828114
114	0x3d0d4cff	0.034497257
115	0x3bd4f64d	0.006499088
116	0x3f86431f	1.0489234
117	0x3f99a699	1.2003967
118	0xbdcd27de	-0.1001737
119	0x3cab3a75	0.020901898
120	0x3bc75172	0.006082707
121	0x3fab47cb	1.3381284
122	0x3cf8a79e	0.030353364
123	0x3d827f2e	0.06371914
124	0x3f9bdf99	1.2177612
125	0x3f92c727	1.1467026
126	0x3f87a491	1.0597097
127	0xbd4e8872	-0.050423093
128	0x3f9a7c60	1.2069206
129	0x3c8a48bb	0.016880384
130	0x3e330059	0.17480601
131	0xbde3a362	-0.11115147
132	0x3c596297	0.013268135
133	0x3f326ecc	0.6970031
134	0xbde46ab2	-0.11153163
135	0x3c4641ee	0.01210068
136	0x3fa31b53	1.2742714
137	0xbeba24e7	-0.3635628
138	0xbcc71207	-0.024300588
139	0x3d5838f7	0.0527887
140	0x3cd33680	0.025782824
141	0x3b278e49	0.0025566986
142	0xbc3d56ea	-0.011556366
143	0xbe6c0c1b	-0.23051493
144	0xbc5fafee	-0.013652785
145	0x3d275061	0.04084814
146	0xbcf12363	-0.029435819
147	0x3af29abb	0.0018509248
148	0x3c959d92	0.018263612
149	0xbf8e32e1	-1.1109277
150	0x3fa8a144	1.3174214
151	0x3eb37feb	0.3505853
152	0x3c9131c4	0.017723925
153	0x3f9f4086	1.2441566
154	0xbde12d65	-0.109949864
155	0xbda4f4cb	-0.08054503
156	0x3d06d32e	0.03291624
157	0x3f2da2d4	0.6782658
158	0x3bb35e62	0.005473898
159	0x3f966a06	1.1751106
160	0xbcb9a142	-0.022659902
161	0xbcfb9165	-0.030708978
162	0x3df5e346	0.120062396
163	0xbc17c1c8	-0.00926251
164	0x3c8e1666	0.017344665
165	0x3be17a23	0.006881015
166	0x3ce3cb69	0.027806954
167	0xbd09886d	-0.03357737
168	0xbca2dcd4	-0.01988069
169	0xbd89c79e	-0.06727527
170	0xbe00458e	-0.12526533
171	0x3d81fc95	0.06347004
172	0x3f3a881c	0.72863936
173	0xbda55b1b	-0.080740176
174	0xbc818ca4	-0.015814133
175	0xbd805117	-0.06265467
176	0xbc42c76f	-0.011888369
177	0x3d742dc1	0.059613947
178	0xbe109867	-0.14120637
179	0xbbe780cf	-0.0070649157
180	0x3fa6c4ef	1.3028849
181	0x3fb21db4	1.3915315
182	0x3b026351	0.0019895623
183	0xbd29d023	-0.04145826
184	0xbdc7fb71	-0.097647555
185	0x3f9ea850	1.2395115
186	0xbd397396	-0.045276247
187	0x3bb558af	0.0055342535
188	0x3f93ce4b	1.1547331
189	0x3f9e4667	1.2365235
190	0x3f964b89	1.1741802
191	0xbd4c0c30	-0.04981631

fc3.bias f4 [3]
0	0xbcd5ab5e	-0.02608269
1	0xbef19a47	-0.47188017
2	0xbf26e3c3	-0.65191287
