Models/DQN/agentDQN_2020-2022_dqn_v3_200_EPS_1.pth (torch, 90039 bytes, 6 tensors)

fc1.weight f4 [128, 104]
-0.08029951 -0.004682667 0.022633903 -0.010559727 -0.10867275 0.0046590306 -0.036154985 -0.0314242
-0.12768574 -0.09166181 -0.05254726 -0.12374424 0.007053409 -0.0521754 -0.0060585486 -0.014573193
0.016866488 -0.004849085 -0.07380017 -0.079562634 -0.103500776 -0.034747023 -0.0045785354 0.11823861
-0.13128035 -0.12685038 -0.047773894 -0.0052043768 -0.12300388 -0.08017534 0.05368648 0.008915429
0.011947539 0.05577992 0.0041503054 -0.05559232 -0.047164753 0.100472644 0.10147258 0.013301767
-0.04198048 -0.044491068 -0.013921766 -0.03576276 0.07072753 -0.06652239 -0.13958949 -0.07733026
0.08680638 -0.056440048 -0.11903617 0.021209842 -0.073636815 -0.1054799 -0.05896447 0.020418514
0.046761 -0.0516957 -0.01850828 0.046377387 0.058250494 0.03720468 -0.09932355 -0.06938701
-0.0065223845 0.09373649 -0.04280337 -0.09881136 -0.04670569 -0.12974705 0.029627409 -0.09990766
0.0065294364 0.038570516 -0.021300614 -0.02669405 -0.113290764 -0.020877915 0.016334524 -0.06871071
-0.09451565 -0.008215457 -0.03308114 -0.006723843 -0.12618189 -0.04564111 -0.017408237 -0.07655229
-0.039285917 -0.042951424 -0.11881467 -0.13451897 -0.101902604 -0.12860186 -0.13614447 -0.11545085
-0.122744404 0.04302916 -0.07444658 0.03502573 -0.060127772 -0.07444419 -0.02248936 -0.087349236
-0.12642229 -0.012941354 -1.0189626 0.19314492 0.11227604 -0.9136858 -0.824764 -0.39622617
-0.5617321 -0.8250513 0.17127137 -2.9524636 -0.4367576 -0.33317962 0.18912733 0.09577309
-0.53628033 -0.04217421 0.31401068 -0.40026152 -0.3069835 -0.121293046 -0.017203204 1.8556942
0.009061231 -0.58722615 -4.538106 1.0946832 -0.5932504 3.1218834 -0.8872809 -2.678759
0.9887975 3.564395 0.49504158 1.6728653 2.1778061 3.2756572 0.3455725 -2.5873115
0.4153349 0.8488601 1.5599723 1.406416 3.3782787 -0.099848755 -1.9364816 -2.544511
0.12634934 4.641888 -1.7694213 -1.399551 -0.68156713 -2.454814 -3.7649498 -0.53751093
-0.2310661 1.2943732 0.30411413 0.044706423 -0.51479137 0.6367821 -3.736641 0.9293328
0.62518567 0.75022346 -0.2251605 -0.2851576 -0.5783339 -0.096814804 -0.034565486 -0.33907717
-0.17615211 -0.09532967 -0.2493793 -0.14185959 -0.37061325 -0.36122414 -0.17686424 -0.21800606
-0.07264064 -0.2417114 -0.1463878 -0.1022143 0.3317571 0.15366054 0.68362117 -0.1646596
-0.10567718 0.28460392 0.16756302 0.20794353 0.014976013 0.20498848 0.0119212605 -0.10431719
-0.12743568 -0.24823181 -0.4177587 0.14204966 0.002927488 -0.40986544 -0.37043384 -0.09446987
-0.08202932 -0.01600265 -0.6377468 0.06646482 -0.053410955 -0.549631 -0.5028937 -0.154113
-0.32539675 -0.6069583 0.15304834 -1.2278076 -0.30046403 -0.25019592 -0.002481925 0.13437505
-0.33898306 -0.020435162 0.19861452 -0.22327974 -0.10471865 -0.08609097 -0.13374631 0.6920008
-0.004979095 -0.24665873 -1.5607775 0.09305912 -0.21457592 1.4032766 -0.65342313 -0.70552087
0.3916706 1.1414212 -0.393637 0.40144435 0.61070174 1.2324293 -0.43748897 -1.4420102
-0.20422588 0.25450823 0.7861678 0.34152383 1.653671 -0.0707429 -0.8831517 -0.9289654
00000000: 1274 a4bd 0f71 99bb bc6a b93c b502 2dbc
00000010: d28f debd c8aa 983b 4017 14bd a9b6 00bd
00000020: 0dc0 02be 30b9 bbbd cc3b 57bd 9f6d fdbd
00000030: 4820 e73b dfb5 55bd ca86 c6bb 67c4 6ebc
00000040: 972b 8a3c 13e5 9ebb 8b24 97bd bcf1 a2bd
00000050: 37f8 d3bd e552 0ebd 8a07 96bb 1627 f23d
00000060: 5b6e 06be 11e5 01be 8fae 43bd 7a89 aabb
00000070: 75e9 fbbd f832 a4bd 5be6 5b3d 0512 123c
00000080: 9cbf 433c 7c79 643d 49ff 873b c6b4 63bd
00000090: d42f 41bd 9ac4 cd3d dbd0 cf3d a8ef 593c
000000a0: b9f3 2bbd 443c 36bd 1e18 64bc f97b 12bd
000000b0: 98d9 903d e43c 88bd 8cf0 0ebe 545f 9ebd
000000c0: 8bc7 b13d ae2d 67bd 3cc9 f3bd 43c0 ad3c
000000d0: e6ce 96bd d905 d8bd ba84 71bd ba44 a73c
000000e0: 7688 3f3d dfbe 53bd ad9e 97bc 37f6 3d3d
000000f0: 1298 6e3d ef63 183d 256a cbbd c71a 8ebd
00000100: bab9 d5bb ebf8 bf3d 9652 2fbd 9c5d cabd
00000110: 774e 3fbd 69dc 04be 2eb5 f23c 639c ccbd
00000120: e2f4 d53b 1efc 1d3d a07e aebc 7bad dabc
00000130: fd04 e8bd 2908 abbc fbcf 853c 33b8 8cbd
00000140: 6c91 c1bd 209a 06bc 1780 07bd af53 dcbb
00000150: d335 01be 2cf2 3abd b89b 8ebc 72c7 9cbd
00000160: 45ea 20bd d5ed 2fbd 1b55 f3bd 57bf 09be
00000170: 50b2 d0bd 35b0 03be 7569 0bbe 7f71 ecbd
00000180: 6b61 fbbd 583f 303d 7377 98bd 2477 0f3d
00000190: 8a48 76bd 3276 98bd 9b3b b8bc 28e4 b2bd
000001a0: d874 01be f907 54bc 5e6d 82bf c8c7 453e
000001b0: fbf0 e53d 50e7 69bf bc23 53bf 28de cabe
000001c0: adcd 0fbf 9036 53bf c361 2f3e 2af5 3cc0
000001d0: b19e dfbe 8596 aabe 98aa 413e af24 c43d
000001e0: ab49 09bf ddbe 2cbd 02c6 a03e 14ef ccbe
000001f0: f12c 9dbe 7d68 f8bd bced 8cbc 6387 ed3f
00000200: 8f75 143c 7454 16bf 2a38 91c0 941e 8c3f
00000210: 42df 17bf f0cc 4740 d724 63bf ca70 2bc0
00000220: d521 7d3f 0c1f 6440 1776 fd3e 7320 d63f
00000230: 2d61 0b40 5ea4 5140 e1ee b03e 8396 25c0
00000240: c7a6 d43e e54e 593f 2cad c73f 7105 b43f
00000250: b835 5840 817d ccbd a1de f7bf 45d9 22c0
00000260: b961 013e 598a 9440 667c e2bf 7d24 b3bf
00000270: 2f7b 2ebf ac1b 1dc0 f0f4 70c0 519a 09bf
00000280: 979c 6cbe 05ae a53f d9b4 9b3e 151e 373d
00000290: 5ec9 03bf 2704 233f 2025 6fc0 c1e8 6d3f
000002a0: 2b0c 203f a50e 403f 7990 66be 2d00 92be
000002b0: b10d 14bf d746 c6bd 8a94 0dbd 869b adbe
000002c0: 3861 34be 343c c3bd 4a5d 7fbe a443 11be
000002d0: 05c1 bdbe 5ff2 b8be e61b 35be fb3c 5fbe
000002e0: 9ec4 94bd 3183 77be afe6 15be bb55 d1bd
000002f0: 11dc a93e 3059 1d3e cc01 2f3f 879c 28be
00000300: 476d d8bd 9bb7 913e a495 2b3e 26ef 543e
00000310: f45d 753c 80e8 513e 6451 433c 40a4 d5bd
00000320: 807e 02be 7b30 7ebe 78e4 d5be 7775 113e
00000330: 19db 3f3b e2d9 d1be 81a9 bdbe 6b79 c1bd
00000340: fdfe a7bd fd17 83bc 6043 23bf b51e 883d
00000350: 72c5 5abd 9eb4 0cbf a4bd 00bf cccf 1dbe
00000360: 679a a6be 9f61 1bbf b4b8 1c3e cd28 9dbf
00000370: 6cd6 99be ae19 80be cba7 22bb 9d99 093e
00000380: 308f adbe a467 a7bc 9b61 4b3e 72a3 64be
00000390: bb76 d6bd 7650 b0bd cbf4 08be f726 313f
000003a0: ad27 a3bb 1b94 7cbe 8fc7 c7bf c895 be3d
000003b0: cab9 5bbe 919e b33f bd46 27bf 049d 34bf
000003c0: 0d89 c83e 171a 923f ca8a c9be 1d8a cd3e
000003d0: f356 1c3f 3ec0 9d3f 8efe dfbe ca93 b8bf
000003e0: 9720 51be e74e 823e 4b42 493f 36dc ae3e
000003f0: 7eab d33f a7e1 90bd 3b16 62bf add0 6dbf

fc1.bias f4 [128]
0.010694096 -0.39407933 -0.15628354 -0.34221417 -0.14201523 -0.16127552 0.051114425 -0.38693112
-0.24606092 -0.13388033 -0.27383855 -0.4538559 0.014083987 -0.2550303 -0.17068456 -0.06398216
-0.1203162 0.046883054 -0.2459352 -0.030617245 -0.122512095 0.029687839 0.046793494 -0.23606752
0.37523288 0.023608178 -0.11704665 -0.136517 -0.09781344 -0.087128215 -0.616687 -0.29436716
-0.113517486 0.02090493 -0.20758349 -0.41059685 -0.17723192 -0.14743221 -0.057105042 -0.27117646
-0.0343557 0.04576791 -0.1010966 -0.044720665 -0.0663619 -0.25955516 -0.05031528 -0.5790664
-0.06289114 -0.125552 -0.08915246 -0.22019158 -0.046941422 -0.33374095 -0.07391423 -0.46913657
-0.15759328 0.05415843 -0.1319059 -0.1638295 -0.040152743 -0.028512508 -0.1292716 -0.11813226
-0.07830381 -0.18562588 -0.015797203 -0.07184584 -0.109031096 -0.012551029 -0.25942716 -0.02910082
-0.35519812 -0.22928718 -0.15783602 -0.09747495 -0.06642141 -0.035503946 -0.10675361 -0.49112615
-0.073546395 0.01569463 -0.08817096 -0.2510444 -0.107337974 -0.22075506 -0.19571593 -0.10443481
-0.14521047 -0.07172026 -0.2115042 -0.0400147 -0.032925837 -0.079800874 0.0021340414 -0.16308181
-0.38179916 -0.04155148 -0.07890327 -0.011573997 -0.10712162 -0.06265118 -0.10650024 -0.20082037
-0.028094478 -0.0028790052 -0.018118648 -0.13328278 -0.34390235 -0.19676712 -0.16512513 -0.06753985
-0.15580401 -0.104870856 -0.18761224 -0.06771648 0.01866746 0.050712302 -0.10273729 -0.14995632
-0.0020191004 -0.12412558 -0.11390933 -0.26664272 -0.20752123 -0.50648916 -0.14460662 -0.108032614
00000000: 4a36 2f3c c4c4 c9be cb08 20be b236 afbe
00000010: 716c 11be 6925 25be 5c5d 513d d61b c6be
00000020: 65f7 7bbe ed17 09be 9134 8cbe cd5f e8be
00000030: 86c0 663c 5593 82be efc7 2ebe 1409 83bd
00000040: 5768 f6bd 7208 403d 70d6 7bbe 04d1 fabc
00000050: 9fe7 fabd e933 f33c 89aa 3f3d afbb 71be
00000060: 861e c03e f065 c13c 27b6 efbd 1dcb 0bbe
00000070: 6a52 c8bd 4770 b2bd 33df 1dbf 4bb7 96be
00000080: db7b e8bd d140 ab3c c490 54be c039 d2be
00000090: 497c 35be 78f8 16be fae6 69bd a4d7 8abe
000000a0: 90b8 0cbd 2277 3b3d bc0b cfbd 042d 37bd
000000b0: bfe8 87bd 6ae4 84be 6517 4ebd b23d 14bf
000000c0: 12cd 80bd b490 00be 9195 b6bd e779 61be
000000d0: a645 40bd 18e0 aabe 5860 97bd ab32 f0be
000000e0: 2260 21be 3bd5 5d3d 5712 07be ecc2 27be
000000f0: 3477 24bd 1093 e9bc c65f 04be 54ef f1bd
00000100: bf5d a0bd b614 3ebe 2369 81bc e923 93bd
00000110: b24b dfbd d5a2 4dbc a3d3 84be d864 eebc
00000120: 87dc b5be 42ca 6abe c49f 21be f2a0 c7bd
00000130: f307 88bd 966c 11bd a3a1 dabd e374 fbbe
00000140: 7e9f 96bd 0692 803c fa92 b4bd e488 80be
00000150: 03d4 dbbd 9d0d 62be c269 48be ebe1 d5bd
00000160: 0eb2 14be 12e2 92bd 8f94 58be 74e6 23bd
00000170: 3edd 06bd a46e a3bd 46db 0b3b ebfe 26be
00000180: 2e7b c3be e231 2abd 0a98 a1bd dda0 3dbc
00000190: 9462 dbbd 434f 80bd cc1c dabd dba3 4dbe
000001a0: 6426 e6bc b1ad 3cbb 8f6d 94bc 487b 08be
000001b0: f813 b0be 527d 49be 9016 29be 5552 8abd
000001c0: 168b 1fbe 88c6 d6bd 6c1d 40be f0ae 8abd
000001d0: 80ec 983c b4b7 4f3d ee67 d2bd 268e 19be
000001e0: e252 04bb 8d35 febd 4b49 e9bd 6585 88be
000001f0: 7280 54be 46a9 01bf c213 14be 3440 ddbd

fc2.weight f4 [64, 128]
0.0020053792 -0.057504192 -0.07557776 -0.09232427 -0.040908713 0.004917794 -0.12539959 0.04722043
-0.033759546 0.04156331 -0.1009742 -0.06936817 0.005906236 -0.034747846 0.03470285 0.06850922
-0.027409982 0.05468612 -0.08247551 -0.013878908 0.044388212 -0.0236944 -0.21483727 0.0061519844
-0.13301595 0.07468686 -0.045485932 -0.006342152 -0.012647957 -0.0697685 -0.01100673 -0.052904088
-0.016428549 -0.0059513375 -0.07517132 -0.10237926 -0.09055084 -0.00016045806 0.02100794 -0.0205445
-0.05077064 -0.023275523 0.037697192 0.07628157 0.017312348 -0.10038108 0.038876962 0.014805888
-0.09020788 0.043581344 0.055586167 -0.045071978 0.08623993 -0.09125185 -0.06546145 0.021100989
0.067737445 -0.0637903 0.07536459 -0.06106552 0.035695355 0.05096651 -0.011694779 0.070205554
-0.07923469 0.030088244 0.05274755 0.002500925 -0.08338892 -0.06251605 -0.03721583 0.07843815
-0.22336948 -0.09031503 0.035716265 0.05776898 -0.0085056545 0.03430381 0.031579945 -0.07500357
0.05806879 -0.06061491 0.032097463 0.01944418 0.08627745 -0.026820574 -0.046514936 -0.025010347
0.022929214 0.07355495 -0.0612474 -0.06121716 0.0074821752 -0.061959982 0.003772378 -0.061616376
-0.017462585 -0.048449226 -0.06752276 0.02195914 0.026600482 0.046468306 0.064589195 0.0055206483
-0.027657554 0.05146028 0.017723741 -0.023520608 0.011683658 -2.1252183e-05 0.02435846 0.049330465
-0.0078946315 0.08033409 -0.06973462 -0.028947312 -0.048937522 0.062191032 -0.1079277 0.07830886
-0.06374284 0.011995229 -0.03311885 0.024940507 -0.09003423 0.0021154021 -0.019254837 0.059498128
0.007359415 0.02550598 -0.0023726025 0.47964495 -0.024953704 -0.046907708 0.04573549 0.002684282
0.05695669 -0.034760732 0.012503425 0.32626787 -0.059497446 -0.01295683 -0.08906908 -0.0466929
0.05027252 -0.02983743 0.15165795 0.036657274 0.07073939 0.042685412 0.08557891 0.051130857
0.19372281 0.0018203128 -0.06113769 0.035236165 0.013941941 0.052915014 0.23687631 0.037073046
-0.027497306 0.04453511 -0.07672302 0.03344083 0.058141265 0.07418085 -0.031173212 -0.054742478
0.030442625 0.10564356 -0.018065128 -0.053784166 0.05075325 0.008401849 -0.018394819 0.36459684
0.10223089 0.014318856 0.06329219 -0.009788799 0.009710389 0.048165828 -0.022994248 0.29405558
0.013076967 -0.038497593 0.087879956 0.06498196 0.06109127 0.02812177 0.098238334 0.0062287957
-0.061640292 0.0052768104 0.054834787 -0.03159517 -0.029152678 0.027957693 0.21068361 0.04569873
0.12601683 -0.07867069 -0.04122598 0.07630641 -0.040699743 0.025349552 -0.010813683 0.45910797
-0.03386846 0.034033775 0.051847924 0.05527633 -0.042468753 -0.06376528 -0.050640017 -0.041887052
-0.045356944 -0.020734796 0.024833415 -0.043506693 -0.06184018 0.061674356 0.085602194 0.06673152
0.19330676 -0.057114005 0.019659227 0.10343066 0.023986368 -0.06898672 -0.06837701 -0.02467191
0.042747594 0.011346539 -0.000229617 0.031244632 0.07518705 -0.01757583 0.099469505 0.040576402
0.012354259 0.03719269 0.08951331 -0.053019032 -0.030309385 0.020452263 0.036979865 -0.05444085
0.020845097 -0.050627835 -0.038722966 -0.025325585 0.038799066 0.49764767 0.058774013 -0.058030315
00000000: ae6c 033b 8489 6bbd 83c8 9abd 8214 bdbd
00000010: e58f 27bd 7225 a13b c068 00be 366a 413d
00000020: 7347 0abd 4a3e 2a3d 90cb cebd e610 8ebd
00000030: 1989 c13b c253 0ebd 9324 0e3d 904e 8c3d
00000040: e68a e0bc 8efe 5f3d ece8 a8bd 5c64 63bc
00000050: 6ad0 353d c21a c2bc 4dfe 5bbe 9696 c93b
00000060: 5535 08be 6df5 983d 754f 3abd d4d1 cfbb
00000070: 6039 4fbc cae2 8ebd 9255 34bc f5b1 58bd
00000080: 2a95 86bc 7003 c3bb 6cf3 99bd 38ac d1bd
00000090: b872 b9bd a240 28b9 d818 ac3c f04c a8bc
000000a0: e0f4 4fbd 4fac bebc 5f68 1a3d 8339 9c3d
000000b0: a0d2 8d3c 9894 cdbd 733d 1f3d 6594 723c
000000c0: e9be b8bd 5a82 323d 52ae 633d 659d 38bd
000000d0: 8f9e b03d 40e2 babd a710 86bd fbdb ac3c
000000e0: eeb9 8a3d 7da4 82bd c058 9a3d d71f 7abd
000000f0: 4b35 123d 42c2 503d 759b 3fbc eec7 8f3d
00000100: cc45 a2bd 9f7b f63c d10d 583d 8fe6 233b
00000110: cfc7 aabd 6a08 80bd a06f 18bd 2ea4 a03d
00000120: f8ba 64be 16f7 b8bd 384b 123d 2a9f 6c3d
00000130: 4d5b 0bbc 2782 0c3d f959 013d 799b 99bd
00000140: 8ad9 6d3d 5747 78bd a178 033d 6749 9f3c
00000150: 3bb2 b03d d2b6 dbbc 7286 3ebd 80e2 ccbc
00000160: 0cd6 bb3c faa3 963d 8ede 7abd d8be 7abd
00000170: 092d f53b c0c9 7dbd 003a 773b 7461 7cbd
00000180: b20d 8fbc b272 46bd 5f49 8abd a8e3 b33c
00000190: 41e9 d93c 8d55 3e3d 5747 843d 8ee6 b43b
000001a0: 1892 e2bc 04c8 523d 6131 913c 4aae c0bc
000001b0: d06c 3f3c b746 b2b7 658b c73c be0e 4a3d
000001c0: 7c58 01bc 3386 a43d 06d1 8ebd ea22 edbc
000001d0: b672 48bd 06bc 7e3d 3309 ddbd 6560 a03d
000001e0: 9b8b 82bd a387 443c a2a7 07bd 0950 cc3c
000001f0: de63 b8bd 8fa2 0a3b 52bc 9dbc 4fb4 733d
00000200: 3f27 f13b ebf1 d03c aa7d 1bbb 0694 f53e
00000210: b66b ccbc 4c22 40bd 2355 3b3d c7ea 2f3b
00000220: 6b4b 693d 4561 0ebd 2adb 4c3c 950c a73e
00000230: 98b3 73bd e248 54bc da69 b6bd 0e41 3fbd
00000240: 8fea 4d3d a06d f4bc 394c 1b3e f025 163d
00000250: d0df 903d e6d6 2e3d ff43 af3d 976e 513d
00000260: 465f 463e 9097 ee3a 846b 7abd cc53 103d
00000270: bd6c 643c 6abd 583d b48f 723e e8d9 173d
00000280: 0842 e1bc 736a 363d f520 9dbd 40f9 083d
00000290: 8925 6e3d 21ec 973d f75e ffbc a639 60bd
000002a0: d062 f93c a75b d83d 52fd 93bc c94c 5cbd
000002b0: a4e2 4f3d e9a7 093c bbb0 96bc 70ac ba3e
000002c0: 6e5e d13d a399 6a3c 569f 813d 3361 20bc
000002d0: 5318 1f3c 8849 453d 6f5e bcbc 748e 963e
000002e0: c640 563c a7af 1dbd 68fa b33d 4315 853d
000002f0: d73a 7a3d a05f e63c 2e31 c93d ed1a cc3b
00000300: 887a 7cbd 18e9 ac3b 719a 603d f069 01bd
00000310: 99d1 eebc 8807 e53c 72bd 573e 972e 3b3d
00000320: 8e0a 013e 191e a1bd 93dc 28bd 8946 9c3d
00000330: c6b4 26bd dda9 cf3c e02b 31bc 3310 eb3e
00000340: a8b9 0abd 0067 0b3d 7d5e 543d 6f69 623d
00000350: b7f3 2dbd 5f97 82bd e86b 4fbd c291 2bbd
00000360: 34c8 39bd 05dc a9bc 726f cb3c 1334 32bd
00000370: 214c 7dbd 409e 7c3d 3450 af3d 89aa 883d
00000380: 35f2 453e 60f0 69bd 630c a13c 74d3 d33d
00000390: 0f7f c43c e948 8dbd 3f09 8cbd bf1c cabc
000003a0: 1a18 2f3d d5e6 393c 58c5 70b9 bef4 ff3c
000003b0: abfb 993d 30fb 8fbc abb6 cb3d 7133 263d
000003c0: 8569 4a3c 5d57 183d c152 b73d 7c2a 59bd
000003d0: 634b f8bc 818b a73c 3378 173d 5efd 5ebd
000003e0: 56c3 aa3c 225f 4fbd f99b 1ebd 9a77 cfbc
000003f0: c5eb 1e3d adcb fe3e 05bd 703d 32b1 6dbd

fc2.bias f4 [64]
-0.14387874 0.78056484 -0.23254573 -0.17098123 0.11095791 -0.12854402 -0.13298266 -0.06951409
-0.05242136 -0.26512775 0.15822232 -0.02715669 -0.039951492 -0.09120816 -0.040259987 -0.16024226
-0.20282891 0.6998452 -0.113549665 -0.026746988 -0.14452896 -0.17716448 -0.06939212 0.25525317
0.2845481 -0.058283374 0.7457762 -0.19467342 0.08130851 0.1754946 -0.0976179 0.833469
-0.16806771 -0.063222066 -0.15419018 -0.015342158 -0.124723345 -0.06664902 -0.08591558 -0.10716836
0.6311781 0.22885856 0.7320589 -0.04505658 0.23628624 -0.12254875 -0.15256035 0.7542555
-0.17672472 -0.07994682 -0.09754584 -0.07741077 -0.027331017 -0.024914417 -0.124381274 -0.22280069
-0.21875273 -0.16296978 -0.11322557 -0.17994899 0.39139712 0.1923121 -0.07282225 -0.1286233
00000000: f354 13be 19d3 473f 7820 6ebe b415 2fbe
00000010: e73d e33d 0ba1 03be 9b2c 08be 675d 8ebd
00000020: c8b7 56bd d3be 87be 0805 223e b577 debc
00000030: 2da4 23bd 58cb babd a8e7 24bd 8c16 24be
00000040: 62b2 4fbe 0e29 333f ba8c e8bd 801c dbbc
00000050: 66ff 13be 9b6a 35be 751d 8ebd 8bb0 823e
00000060: 4ab0 913e 8cba 6ebd 30eb 3e3f 7858 47be
00000070: 1385 a63d dbb4 333e e5eb c7bd 395e 553f
00000080: f119 2cbe 927a 81bd 08e4 1dbe ad5d 7bbc
00000090: f46e ffbd 487f 88bd 82f4 afbd 167b dbbd
000000a0: e394 213f e659 6a3e 3668 3b3f 408d 38bd
000000b0: 05f5 713e d7fa fabd c838 1cbe e316 413f
000000c0: 53f7 34be 29bb a3bd 1dc6 c7bd 8a89 9ebd
000000d0: 4ce5 dfbc 5219 ccbc 9cbb febd dd25 64be
000000e0: b700 60be 8de1 26be cfe2 e7bd 8c44 38be
000000f0: 3465 c83e 77ed 443e d523 95bd d4b5 03be

fc3.weight f4 [3, 64]
0.02225037 0.7482954 -0.12784846 0.058770426 0.045543365 0.012489088 0.021537263 -0.016099513
-0.013262836 -0.026225774 0.0819195 0.005352756 0.13027503 0.08853191 -0.06239835 -0.011117402
-0.047845125 0.67600065 0.021939652 -0.006893466 0.049380686 0.015544208 0.006998121 0.07789535
0.036196668 0.06262398 0.4941803 0.02457625 0.024805676 0.12099793 0.012329798 0.77017725
-0.014843236 0.06522988 -0.0068351123 0.061969895 0.027548103 -0.048552945 0.038911425 -0.010083674
0.57030845 0.18509103 0.6757364 -0.011304661 0.07168737 -0.011334674 -0.071631394 0.779626
0.015610673 0.038662955 0.054242663 0.064817846 0.03288855 -0.11129548 0.10434372 -0.021909418
-0.06373045 0.037109982 0.024937902 -0.01074059 0.11344724 -0.021778733 0.03543254 0.06570139
0.017725507 0.77769244 0.013946888 -0.027350506 0.12043813 0.0047974656 -0.017438397 -0.046205614
0.037669998 0.033695854 -0.0054193027 0.020796645 0.0070525017 0.043485604 -0.030317593 0.07427035
-0.00280272 0.70689964 -0.044886187 0.0912167 0.09566749 -0.008143753 -0.0023832615 0.35109666
0.28140762 -0.03365241 0.48609364 0.011724155 0.014140956 0.20491973 0.05199675 0.76775825
0.06317533 0.026607934 0.05212417 -0.028514815 -0.0010202144 -0.01142526 0.034707837 0.029948048
0.5909223 -0.016252942 0.70078856 0.03844382 -0.09967132 -0.10950785 0.04658937 0.79485774
0.014690167 0.008579565 0.034716927 -0.0060074357 0.023803243 0.003287063 0.21301463 -0.06402738
-0.03542358 0.029583689 0.03142834 -0.13989304 0.15579876 0.084647216 0.053112026 0.008622571
0.020997891 0.72170585 -0.033527832 -0.014940041 0.066530816 0.057150647 0.036454607 -0.0066888467
-0.0012850413 0.019778151 0.04555383 0.05538832 -0.011225273 -0.031575236 0.028964343 0.03319625
-0.030573921 0.6942268 -0.02248627 -0.04554636 0.047640193 -0.021382555 0.116760604 0.17838614
0.14844286 -0.025419356 0.48066396 0.05970655 0.016376428 0.2012987 0.033405375 0.7677649
-0.01027984 0.0029466036 -0.0036105188 0.023711152 -0.11562854 0.075635314 0.06181722 -0.016122479
0.59478146 0.16587502 0.65475816 -0.025413703 0.14025445 -0.0028228075 -0.0201561 0.7860507
-0.013493906 -0.05259667 -0.015354931 0.062813416 -0.023171024 -0.004874149 0.17076525 -0.045096494
0.020242177 0.08777715 -0.020586807 -0.00449897 0.23959672 0.10807146 -0.02481415 0.11213205
00000000: 6846 b63c 4a90 3f3f b5ea 02be 42b9 703d
00000010: ae8b 3a3d 089f 4c3c ea6e b03c 20e3 83bc
00000020: 5e4c 59bc 6fd7 d6bc 69c5 a73d 2c66 af3b
00000030: d166 053e 3850 b53d 6a95 7fbd c425 36bc
00000040: 40f9 43bd 610e 2d3f c9ba b33c 96e2 e1bb
00000050: 6743 4a3d 22ad 7e3c 7e50 e53b 9987 9f3d
00000060: f542 143d 0041 803d 3305 fd3e 2254 c93c
00000070: 4635 cb3c c3cd f73d ec02 4a3c 562a 453f
00000080: 0b31 73bc 3e97 853d 14f9 dfbb 25d4 7d3d
00000090: 8fac e13c 74df 46bd 9661 1f3d ff35 25bc
000000a0: bcff 113f 8188 3d3e 10fd 2c3f 2f37 39bc
000000b0: d4d0 923d 12b5 39bc 7bb3 92bd 9295 473f
000000c0: e9c3 7f3c 0c5d 1e3d 8e2d 5e3d 38bf 843d
000000d0: 25b6 063d e2ee e3bd 29b2 d53d 617b b3bc
000000e0: 1c85 82bd a300 183d 924a cc3c 4df9 2fbc
000000f0: 0757 e83d 5069 b2bc b621 113d 738e 863d
00000100: 1535 913c da16 473f 7d81 643c 2b0e e0bc
00000110: 44a8 f63d 0f34 9d3b f8da 8ebc 1942 3dbd
00000120: db4b 1a3d aa04 0a3d 6894 b1bb ba5d aa3c
00000130: ac18 e73b f61d 323d 9a5c f8bc 0e1b 983d
00000140: d7ad 37bb 60f7 343f 94da 37bd d2cf ba3d
00000150: 51ed c33d 606d 05bc 7e30 1cbb f1c2 b33e
00000160: a914 903e 1cd7 09bd 44e1 f83e ac16 403c
00000170: 78af 673c 7ad6 513e 8bfa 543d ce8b 443f
00000180: 1162 813d e2f8 d93c 2780 553d e797 e9bc
00000190: b7b8 85ba 0431 3bbc ce29 0e3d 9c55 f53c
000001a0: af46 173f e424 85bc e166 333f 4477 1d3d
000001b0: 7a20 ccbd a745 e0bd 7fd4 3e3d cc7b 4b3f
000001c0: 07af 703c 4e91 0c3c 5633 0e3d 06da c4bb
000001d0: 05ff c23c c46b 573b 8220 5a3e c920 83bd
000001e0: 5118 11bd 7e59 f23c 01bb 003d 1f40 0fbe
000001f0: b689 1f3e 855b ad3d ff8b 593d af45 0d3c
00000200: c503 ac3c b7c1 383f 7b54 09bd 13c7 74bc
00000210: 4f41 883d cc16 6a3d 6d51 153d 1d2e dbbb
00000220: d56e a8ba ca05 a23c a796 3a3d ddde 623d
00000230: 35ea 37bc 0955 01bd a146 ed3c cbf8 073d
00000240: 2976 fabc d9b8 313f 2035 b8bc d28e 3abd
00000250: 5d22 433d 782a afbc 2f20 ef3d dbaa 363e
00000260: 6801 183e 413c d0bc 9619 f63e db8e 743d
00000270: dc27 863c 3f21 4e3e 13d4 083d 3e8c 443f
00000280: c66c 28bc ce1b 413b 749e 6cbb e43d c23c
00000290: a8ce ecbd b0e6 9a3d 0e34 7d3d 4a13 84bc
000002a0: 9943 183f 24db 293e 3b9e 273f 6630 d0bc
000002b0: dd9e 0f3e dafe 38bb 681e a5bc 9e3a 493f
000002c0: 8b15 5dbc 9b6f 57bd 4093 7bbc 52a4 803d
000002d0: 29d1 bdbc 53b7 9fbb 16dd 2e3e 1ab7 38bd
000002e0: ecd2 a53c 82c4 b33d aaa5 a8bc 196c 93bb
000002f0: d858 753e 9254 dd3d 0b47 cbbc 7da5 e53d

fc3.bias f4 [3]
1.0206478 1.171 1.2674406
00000000: 96a4 823f 54e3 953f 7e3b a23f
