Models/DQN/agentDQN_2008-2009_dqn_v3_200_EPS_8.pth (torch, 90039 bytes, 6 tensors)

fc1.weight f4 [128, 104]
00000000: fe7a 9ebd 2ac4 2abc ca2d 7a3c f60a 26be
00000010: 518f 2fbe 311b df3b 2677 db3d 7828 90bd
00000020: 72b9 c4bd 263a 733d 3c33 0dbe 1ec0 b7bd
00000030: 0b3e 00be c004 e5bd 1baa babd 6e1e d4bd
00000040: aa06 4fbd f579 123d 201e c8bd 3772 47be
00000050: 74d2 05be c074 96bd fd7f 40be 10ad 7d3c
00000060: dd85 0fbe ea26 1abe 6cab 97be 4738 11bd
00000070: 1f34 84bd f081 4039 2ecf 69be df63 d23d
00000080: 3109 a2bd c190 073e 548a 5bbe b5ad 213d
00000090: 678c 37bd 529f 09bd 0d75 1ebe e749 a4bd
000000a0: acf0 913c b777 dfbd 8ea3 a2bc 3a6e 9dbd
000000b0: 26a7 983d c8bd 30be d797 8ebd c4e2 a1bc
000000c0: dd09 eb3d ef36 1fbc da57 c1bd a0bc 103d
000000d0: 7fc0 d5bd f247 f53d 9d19 e6bd b512 ddbd
000000e0: a1fe 3abe bfa1 88bd d769 43be b6c2 4e3e
000000f0: bac4 233d bdde 933d bb86 0dbe 5992 adbd
00000100: 6fc1 30bd d53e 0d3e 3eb1 26be 0c3a 3cbe
00000110: d75d 40be 5dbf 3abe a3d5 7cbd ac28 e6bd
00000120: 4bb4 49be 3f26 fdbd e97e 47bd eb6d f0bc
00000130: cfd0 29be 2d2c f5bc a91f 17bd ea8b 1dbe
00000140: 46b9 d7bd c9d2 16be 017c 0fbd 64e7 3bbe
00000150: e223 48be f041 5abe 4c37 ddbd ebd2 cbbd
00000160: 9d1c aabd 29b7 4bbd 3934 f9bd 9eeb eabd
00000170: d669 37bd 22c0 d1bd 5898 94ba 881d e9bd
00000180: b94c 33be 83c7 8cbd 47a4 b3bd 0d79 36bb
00000190: 46a7 6fbc 2aa3 0dbe 9a3b 35bd db36 e2bd
000001a0: 7cf5 afbc d819 1dba ce94 be3c 9d02 babd
000001b0: 7621 2fbd cf3f bdbd 7168 37bc 99ba c2bd
000001c0: 0145 753c 9db8 abbd 3e93 88bd c2d4 e4bd
000001d0: 61be 17be f6e0 fbbd 3df7 a9bd d263 1bbe
000001e0: 91c1 80bd 6ed8 1dbe a962 14bc d9bb 08be
000001f0: 34e9 11bd 82e2 03be b551 c5bc 316f f53d
00000200: e084 d03c 8c58 bf3b 8579 fa3c 9d51 963d
00000210: ff46 a23d d9b7 913c 4369 b4bd cfe5 623c
00000220: 2ff6 f33b 2777 dbbd fd0f 143e f58f 3dbd
00000230: 4858 9cbd 7988 71bd faec 763d 9b4f 663d
00000240: e8f0 b63d e2b0 a5bc 0dc0 e4bd 0719 9f3d
00000250: 3713 35bd d3f3 8fbc a93d 083c 35b6 aabd
00000260: 7fcf fa3d 50ce 023d 5628 733c a002 afbd
00000270: 363f 93bd ae06 293d d265 0ebd dbc1 b5bd
00000280: 8e1b d0bd c8dc 09be 701b 23be 44c2 ddbc
00000290: ef03 bd3c f644 533d 0cc9 10bc 3d9d 83bd
000002a0: 2897 19bc 0336 303e 2b72 cebc d111 c7bc
000002b0: 13a9 0ebd 5220 ab3c 62e1 f7bb aeb4 06bc
000002c0: 6b6a 4a3c 916a 9bbd b009 e0bd 1217 92bd
000002d0: aa65 81bd 06a1 b7bd 8695 09be f671 46bc
000002e0: 280e ecbb b430 debd 7004 23be 3e30 e53c
000002f0: 776a abbd 9e5c 95bc 2283 ec3b 0f9f a0bd
00000300: 776b fe3b f6e9 eabd 27b3 8439 1aea 1b3c
00000310: ce0e 8cbd f164 babd 0e54 89bd cb99 cebc
00000320: 2073 46bd 4f23 253d f0df 8fbd 5d3d b0bd
00000330: e7ce d6bc 2ba4 ae3d 8447 c6bd a2b6 17be
00000340: 7d40 7fbd 4fb7 1ebd 52c2 313f 5000 a2bf
00000350: 7abc 4fbd 36ac ce3e f30e 2c3f bbde d3be
00000360: 521a 233e 9fef 163f 8dad 80bf cfc4 debf
00000370: ff6b 6bbe 8253 c1bd a181 12bf 64a6 4cbf
00000380: 8d80 ea3e bc61 b0bc 2518 1abf d879 3bbf
00000390: e0b2 acbf 6b6c 9cbe 616f 67be 683a e23f
000003a0: 7bf4 56bf adcd 5fbf a8ed 85c0 5bbb 023f
000003b0: f781 f93f 221f 133f 6073 f9bf 2044 38bf
000003c0: 392c 71bf a104 83be 7202 10c0 4608 b73f
000003d0: 748b 84be 8912 d53f 431a 11bd 2617 66bf
000003e0: 32af 293f c1b5 38bf 39fa 31bf edf1 733f
000003f0: b866 713e 7bdd 9bbe 9090 d0bf 7fc2 de3e
-0.07738303 -0.010422746 0.015269706 -0.16215119 -0.17144515 0.0068086614 0.10716085 -0.07038969
-0.096056834 0.059381627 -0.13789076 -0.0897219 -0.12523668 -0.111825466 -0.09114476 -0.103573665
-0.050543465 0.03576084 -0.09771371 -0.19477163 -0.13068563 -0.07346487 -0.18798824 0.015483156
-0.14015909 -0.15053907 -0.29622972 -0.03545406 -0.06455254 0.00018358952 -0.22832939 0.10272955
-0.07911909 0.13238813 -0.21439487 0.0394723 -0.044811632 -0.033599205 -0.15474339 -0.08021908
0.017814957 -0.10911506 -0.01985338 -0.0768704 0.07453756 -0.17259896 -0.06962555 -0.01976145
0.11476491 -0.009717687 -0.094405845 0.035336137 -0.10437106 0.11976613 -0.11235354 -0.10794584
-0.18261196 -0.066714756 -0.19083343 0.20191464 0.039982535 0.07220218 -0.13820927 -0.08475179
-0.043153223 0.137935 -0.1627855 -0.18381518 -0.18785797 -0.18237062 -0.061727177 -0.11238226
-0.19697683 -0.123608105 -0.048705015 -0.029349288 -0.1658356 -0.029928291 -0.036895428 -0.15385404
-0.10533385 -0.14728846 -0.03503037 -0.18349987 -0.19544938 -0.21314216 -0.10801563 -0.09952339
-0.08306239 -0.049735222 -0.12168164 -0.11470722 -0.044778667 -0.102417246 -0.0011336906 -0.11382586
-0.17509736 -0.06873991 -0.08771568 -0.0027843148 -0.014627283 -0.13831773 -0.044246294 -0.11045619
-0.02147936 -0.0005992926 0.023264315 -0.0908253 -0.04275652 -0.09240686 -0.011194334 -0.09508247
0.014970065 -0.083848216 -0.06668709 -0.11173393 -0.14818718 -0.12298767 -0.0829911 -0.15174797
-0.0628692 -0.15414593 -0.009056726 -0.13352908 -0.03562279 -0.12879375 -0.024086813 0.11984099
0.025453985 0.005839413 0.030575523 0.07339785 0.07923698 0.01778786 -0.088091396 0.013848736
0.007445119 -0.10716086 0.14459224 -0.046279866 -0.07634026 -0.05896804 0.060284592 0.05622826
0.08932668 -0.020225946 -0.11169443 0.077684455 -0.044207778 -0.01757232 0.008315482 -0.083355345
0.12246608 0.031935036 0.01484116 -0.085454226 -0.07189791 0.041266136 -0.034765072 -0.088748656
-0.10161506 -0.13463128 -0.15928435 -0.027070172 0.023073165 0.05157944 -0.008836996 -0.06426475
-0.009374417 0.17208104 -0.025200924 -0.024300488 -0.03482921 0.020889435 -0.0075647095 -0.008221788
0.012354474 -0.07588685 -0.10939348 -0.071333066 -0.06318219 -0.0896626 -0.13435945 -0.012112131
-0.007203836 -0.10849133 -0.15919662 0.027977105 -0.08369916 -0.01823264 0.0072177807 -0.07842838
0.0077642757 -0.11470406 0.0002531048 0.009516263 -0.06838761 -0.09101284 -0.06705485 -0.025219819
-0.048449636 0.040316876 -0.070251346 -0.08605454 -0.026221706 0.08527406 -0.09681609 -0.14815763
-0.06231736 -0.038749035 0.69437134 -1.2656345 -0.050716855 0.40365762 0.6721031 -0.41380867
0.15928009 0.5895938 -1.0052963 -1.7403811 -0.22990416 -0.09439756 -0.5722905 -0.7994139
0.458012 -0.021530978 -0.6019309 -0.73232794 -1.3492088 -0.30551466 -0.22601081 1.7674074
-0.839668 -0.8742321 -4.185261 0.5106713 1.9492787 0.5746938 -1.9488335 -0.7197895
-0.94208103 -0.2558947 -2.2501493 1.42994 -0.25887644 1.6646281 -0.035425436 -0.8987907
0.6628295 -0.72152334 -0.69522434 0.95291024 0.2357434 -0.30442414 -1.6294117 0.43507764

fc1.bias f4 [128]
00000000: 2c99 93bd 06ed 3bbd 363c 86be c4f1 d7bc
00000010: 6686 043b 2667 10be 992f 11be dedf b1bd
00000020: 5789 21be 1731 34bd d1a2 3abe f24a 0bbe
00000030: 605a 913c 4ad9 a2be d6f5 4cbd 7b45 a23c
00000040: 7ccb 7fbd ff47 f1bd 5542 0bbd 88fd 0abe
00000050: 8543 93bd de57 033b 1469 92be 11c0 b7bd
00000060: bd23 ee39 7c7e 643c 4b9a 9dbe c821 52bd
00000070: 6ccb 1cbe 0feb 15be 20b9 15be b19b bbbd
00000080: 7aaf 7cbc 84d8 75bd 29fa f8bd 42af 8ebd
00000090: ef38 5a3d ba6e c3bb a37f 33bd e54a 35be
000000a0: 5d4d b9be 4cc0 69bd e028 d9bd 4c90 2dbd
000000b0: 04c0 6ebd ecba 28bd 0823 acbc 0ddd b6bd
000000c0: a98f b4bd 67d7 0cbd 6ef4 84be 1631 3abe
000000d0: fa14 debd 120d 39be af64 3ebe 1597 c4bd
000000e0: fd5b 14be 81b4 44bd fcf5 24be d161 f7bd
000000f0: 3e4e 01be bd9d d2bd 16e2 28be 47f0 9abe
00000100: 5bf3 1fbe 7c13 22be 5f5d dfbd 4a05 57bd
00000110: b261 e7bd f43d 29be e04b 6ebc c9f4 6fbe
00000120: 9940 39be c401 41be 0f72 28bd d4bd 9ebd
00000130: 3501 3dbb 4771 32be 0ca4 4dbd 3dda 80bd
00000140: f9b3 9fbd ae21 75be 4410 babd b5c6 edbd
00000150: 6571 48bd 6770 e2bc d107 dcbe 3f45 1dbb
00000160: 05e3 15be ac75 41be 01ea debe 654f cabe
00000170: b65b 90bc eaad b0bc 64c3 38be d077 91be
00000180: 0b1c 90be 29b1 12bd 2a87 6c3d 98c3 57bd
00000190: eaeb 49bd faf8 debd ecaa aebe 2030 eebd
000001a0: 0b32 cbbd 0dd8 9abe 292f c0be b84d 38be
000001b0: 603d e4bd d694 80be 1297 93be a487 7abe
000001c0: 1dd6 8bbd ebd1 79be 29a4 e7bd 583a 1fbe
000001d0: 4fb5 e9bd 1c83 3ebe 2540 77be 4a17 13be
000001e0: 3923 2ebe 235b 72be ccdc aabd a78e 05bd
000001f0: 3d13 94bd c948 d5be 683f d3bd 3690 60be
-0.072069496 -0.04588034 -0.26217812 -0.0263604 0.002022171 -0.14101848 -0.14178313 -0.086852774
-0.15775047 -0.04399213 -0.18226172 -0.13602808 0.01774329 -0.31806403 -0.050039135 0.019808521
-0.062449917 -0.1178131 -0.033998806 -0.13573277 -0.07190613 0.0020041387 -0.28595793 -0.08972181
0.00045421525 0.013946172 -0.3078178 -0.051301748 -0.15311974 -0.14640449 -0.14621401 -0.09160555
-0.015422696 -0.06002094 -0.12157089 -0.069670215 0.053276952 -0.0059641274 -0.043822896 -0.17704351
-0.36191836 -0.057068154 -0.106034994 -0.04237394 -0.05828859 -0.041193888 -0.021012798 -0.08928881
-0.088164635 -0.03438511 -0.25967735 -0.18182787 -0.10843845 -0.18071392 -0.18593095 -0.09599129
-0.14488216 -0.048023704 -0.1610946 -0.12079204 -0.12627503 -0.102839924 -0.16492495 -0.30261442
-0.15620176 -0.15827745 -0.10906481 -0.05249528 -0.11297931 -0.1652754 -0.014544457 -0.23433222
-0.18091048 -0.1884833 -0.0411244 -0.077510506 -0.002883983 -0.17426024 -0.050205275 -0.06291626
-0.07797999 -0.23938629 -0.09085134 -0.11610166 -0.048936266 -0.027641488 -0.42974713 -0.0023997573
-0.14637382 -0.18892545 -0.43537906 -0.39513698 -0.017621856 -0.021567304 -0.18043286 -0.28411722
-0.28146395 -0.035813484 0.05774609 -0.052676767 -0.04929725 -0.10887332 -0.34114778 -0.11630273
-0.09921654 -0.3024296 -0.3753598 -0.17998397 -0.11144519 -0.25113553 -0.28826195 -0.24465805
-0.06827948 -0.24396484 -0.11310608 -0.155496 -0.11411535 -0.18604702 -0.24145563 -0.14364353
-0.17005624 -0.23667578 -0.08342895 -0.032606747 -0.07230232 -0.41657093 -0.10314828 -0.21930012

fc2.weight f4 [64, 128]
00000000: 1f1c 953c 5128 20bc e950 01bd b87e c03d
00000010: 082f 9ebc e5b0 aabd 2915 603d 29ce a43d
00000020: 4deb 9b3b 44d5 113c 05a5 6e3b ca6d a5bd
00000030: be14 593d 58cf 60bd 99f2 7abd c1aa 083d
00000040: a1fd a83d 4556 f63c a782 14bd 5e04 5b3d
00000050: cb30 ee3d dcb1 e83d bad5 94bd f02a 973c
00000060: e01c 5e3b 6816 8fbc 734e 60bd 0619 f6bd
00000070: 34e4 20bc 8087 6ebd 5320 0d3c 0ef2 0b3d
00000080: bf1c 8cbd 071b 3f3d 3197 b23d 76f1 653d
00000090: dbe7 50bd c600 443d 88b5 1dbd 8003 513d
000000a0: 4105 96bd ec70 883d 2b3f 1f3d 6827 78bc
000000b0: d494 af3c 5340 4c3d 7a62 5dbd 5c10 0c3d
000000c0: 6c40 e9bc 66a3 43bd ee57 a0bd aa3b 71bd
000000d0: 7e18 92b7 67b5 44bd d4b1 d73c 0a02 d03d
000000e0: b038 d0bc f153 21bd 6edd a7bd c9a9 9c3d
000000f0: e73d b63c 0dc9 163d 6781 98bc 69d4 103d
00000100: 1e91 b8bc 2f88 b5bc 8ae8 493d a1f4 2dbd
00000110: 12c6 1f3d a1cc 663d 949d 22bd 1b7d 533c
00000120: c865 a13d b240 a23c 96c1 5fbc 9a52 47bd
00000130: 37f1 8f3c 3cbb 9cbc 990a 803d 34fa 07bd
00000140: d3fa 3bbc 8540 dfba 2b9e 973a d475 313d
00000150: 61c6 e63c 8666 ac3d d70f 7fbd 6a38 873d
00000160: 6f98 993d e239 00bd 5243 8bbd 9197 03bd
00000170: f4d9 eebc c22d 313d 28d0 adbd 4d16 9ebd
00000180: 198f 54bd 3f74 6dbd 1a6c 2f3d a3e5 46bd
00000190: 2976 e4bc 8e06 103d edaf 79bc c28f 573d
000001a0: 48f9 61bc 61a4 99bd 07ef 3bbc 67c6 d13c
000001b0: db15 bdbd 1119 a9bc 4035 1abc 5e7e 18bd
000001c0: 9b08 16bc ea2f 08bc c5aa 463c 5f73 a9bd
000001d0: 12dc b3bd 403c edbc 9017 7fbd b612 b2bb
000001e0: ed7a dd3b 327c 27bd 6dca dd3c d78f 913d
000001f0: 7acb 0fbd a6ea fdbc ee61 1b3d a74d adbd
00000200: e2f7 02bd 337a 89bd 0aba 60bd c0e8 3bbd
00000210: 1c47 86bd 687b 123c 7257 833d 64a9 3ebd
00000220: a8bc 53bd 7915 8cbd acd5 0a3c f6b8 69bd
00000230: e034 22bb 63b1 bebd 9165 2b3d ac42 27bc
00000240: b921 19bd 2c5e 023d 2349 b13d 98b6 e7bd
00000250: fd41 003e 88b1 a5b8 3033 17be dd86 a1bd
00000260: 2230 7fbd c1fd fdbb 8975 45bc dc91 2bbd
00000270: 29c7 88bd 3e6b 82bd a350 43bb 5060 92bd
00000280: d76b d4bc 9578 f53c 5600 c0bb d842 96bc
00000290: 4c91 71bd 817d 8bbd 928d 5cbd 53c0 023d
000002a0: 33ca b6bd ea7e 75bc 7811 063c 48f1 ee3c
000002b0: 5536 f9ba f3de 68ba c2a9 8b3b 4a2c 38bd
000002c0: dfc3 e23c 141e 55bd 1f49 d7ba be34 a83d
000002d0: 324c 4f3d 0e9f 9e3c 641e 34bd 59db 81bd
000002e0: 3952 933d 8b83 343c 3307 f2bd 6a06 c83d
000002f0: d536 55bb 16f8 863d 2108 7fbd ed7d 3d3d
00000300: 907f 73bc 0cad f13d fc72 433c 46a0 5d3d
00000310: a5ad 09ba c404 07be bfc0 8cbd b876 6bbd
00000320: 23db 9dbd cc64 d53c 8bd0 083c cfea d3bd
00000330: 2271 96bd 53c3 36bc 32e7 193d 69e9 11bd
00000340: 9304 df3c 6e94 8abd 5eee b53d 4e3d f63c
00000350: 457b 8bbd 739e 29bc 4ba2 cdbd b6ca 293d
00000360: d299 f03c 9d70 20be 87c0 dabc af15 dfbd
00000370: d38f 4fbd 3b03 813d e7d1 43bd f941 103c
00000380: 0fa9 6e3d b5d3 d5bd c017 7bbd 94d5 5dbd
00000390: 4ab6 973d ebfa 0bbc cf90 bbbd 61ee f63c
000003a0: 92ca cf3c ae37 e2bd 3ba3 713d 7022 01be
000003b0: e001 e8bc 202b a53d 734e 3c3b 754e 9abd
000003c0: 67b8 8a3d c5b6 dbbd d0a6 8cba 5626 99bd
000003d0: 98e5 65ba c1e1 dc3c 88c5 a63d 0dab b8b9
000003e0: d50f 663d e386 dfbd 8273 1fb9 7dc5 a23d
000003f0: c402 05bd 8083 11be 6a8b f53c 212f 813c
0.018201886 -0.009775237 -0.031571303 0.0939917 -0.019309536 -0.08334521 0.05470768 0.080471344
0.0047582746 0.008900944 0.0036414277 -0.08077581 0.052998297 -0.05488524 -0.061266515 0.03336597
0.08251501 0.030070433 -0.036257412 0.05347096 0.116304 0.11362049 -0.072673276 0.018453091
0.0033891723 -0.017466739 -0.054762315 -0.120164916 -0.009820033 -0.05823469 0.008613664 0.03416639
-0.068414204 0.046656635 0.08720244 0.05613848 -0.051002365 0.0478523 -0.0385032 0.05102873
-0.07325221 0.06662163 0.0388786 -0.015146114 0.021433271 0.04986603 -0.054048993 0.03419529
-0.028473102 -0.04776325 -0.07829271 -0.05889479 -1.7415961e-05 -0.04802456 0.026329912 0.10156639
-0.025417656 -0.039386693 -0.08196531 0.076495714 0.022246314 0.03681283 -0.018616391 0.03535882
-0.022530135 -0.022159664 0.049294032 -0.042469624 0.039007254 0.056347493 -0.03970106 0.012908245
0.07880741 0.01980624 -0.013656994 -0.04866276 0.017571075 -0.019132249 0.06252021 -0.033197597
-0.011473375 -0.0017032778 0.0011567523 0.04332526 0.028170766 0.08417992 -0.062270965 0.06602557
0.074997775 -0.0313052 -0.0679995 -0.032126967 -0.029156663 0.04325653 -0.08486968 -0.07719097
-0.05189428 -0.05797219 0.042827703 -0.048558842 -0.027888374 0.0351625 -0.015239698 0.052627333
-0.013792343 -0.07502056 -0.011470563 0.0256073 -0.09232684 -0.020641835 -0.00941211 -0.03722989
-0.009157325 -0.008312205 0.012125676 -0.082739584 -0.087822095 -0.028959394 -0.06227833 -0.0054343594
0.0067590387 -0.040889926 0.027074063 0.071075134 -0.03510616 -0.030995678 0.03793519 -0.08462077
-0.03197468 -0.06712761 -0.05486492 -0.045876265 -0.06556532 0.008940555 0.06413163 -0.046548262
-0.05169359 -0.06840033 0.008473795 -0.057061158 -0.0024750754 -0.093111776 0.04184491 -0.010208767
-0.037385676 0.03182809 0.08656528 -0.11314124 0.12525173 -7.900881e-05 -0.1476562 -0.07887051
-0.062301762 -0.007751197 -0.012051948 -0.04188715 -0.06678612 -0.06368111 -0.0029802702 -0.071472764
-0.025930328 0.029964725 -0.005859415 -0.01834242 -0.058976457 -0.06811047 -0.05384595 0.031921696
-0.08925285 -0.014983872 0.008182876 0.029167786 -0.0019013385 -0.00088833197 0.00426218 -0.044964112
0.02768129 -0.052030638 -0.001642499 0.08213185 0.050609775 0.019362953 -0.043974295 -0.06340665
0.07193417 0.01101769 -0.118177794 0.097668484 -0.0032533903 0.065902874 -0.06226361 0.04626267
-0.014861956 0.11800584 0.01192927 0.054107927 -0.00052520103 -0.13185412 -0.06872701 -0.057486266
-0.07707813 0.02604904 0.008350502 -0.103475206 -0.07345797 -0.011154967 0.037574 -0.035622988
0.02722386 -0.06766592 0.088833556 0.03005853 -0.06810621 -0.010352719 -0.100407206 0.041453086
0.029370222 -0.15667959 -0.026703132 -0.10892808 -0.05067427 0.06299444 -0.0478076 0.008804792
0.058266696 -0.104407705 -0.061301947 -0.054158762 0.07407816 -0.00854371 -0.091584794 0.030142965
0.025365148 -0.11045776 0.05899356 -0.12610793 -0.028321207 0.08064866 0.0028733283 -0.07534496
0.06773453 -0.1072822 -0.0010730866 -0.07478015 -0.0008769869 0.026963117 0.08143145 -0.00035222658
0.056167442 -0.109143995 -0.00015206452 0.07947824 -0.03247334 -0.1421032 0.029973704 0.015769543

fc2.bias f4 [64]
00000000: 9476 cebe 50b6 83bd dd3a 83be d834 edbd
00000010: 9de1 1bbd e854 8ebe e199 87be b79f 1abe
00000020: f3f5 2940 062e 9fbe d090 97be dc26 c7be
00000030: c21a a4be 372c b7bd 431f b9be 7b49 35be
00000040: 44ad 13be 7085 37be fe4e a0be 7c7f a9bd
00000050: a690 86bd c78e 4dbe fbf7 dbbe 6f62 83be
00000060: 7811 0340 e810 ea3f 943a 8ebe b921 50be
00000070: 7e9a 15be 7011 3140 9eea 4940 fc2e 1cbe
00000080: 784a ebbe e5fd 67be 5236 d2be a0a9 c7be
00000090: d843 94be 71cf 07be 7cdf 43be 1f50 fc3f
000000a0: 6596 8dbe befe a0bd d7f7 743f f2f6 80be
000000b0: 1ffb b8bb 7e74 4abe fe14 2dbe 539b 6abe
000000c0: a457 82be 7320 5bbe 1823 1a40 77a1 02be
000000d0: 3e09 d8be 83b1 8cbe 63e7 a8be 6e96 a1be
000000e0: add5 3bbe f277 1b40 da3d 84be badc 90be
000000f0: 173c 18bf d5da ef3f 36b8 aabe adad e1be
-0.40324843 -0.06431258 -0.25630847 -0.11582345 -0.03805696 -0.27799153 -0.26484588 -0.15099989
2.6556365 -0.310898 -0.2960267 -0.38896835 -0.32051665 -0.0894398 -0.36156663 -0.17703812
-0.14421564 -0.17921996 -0.31310266 -0.08276269 -0.06570558 -0.20073996 -0.42962632 -0.25661036
2.0479412 1.8286409 -0.27779067 -0.20325364 -0.14609715 2.7666893 3.154945 -0.15252298
-0.45955253 -0.22655447 -0.41057068 -0.389966 -0.2895801 -0.13262726 -0.19128221 1.9711951
-0.27653804 -0.07861088 0.95690674 -0.25188404 -0.0056451703 -0.19771 -0.16902539 -0.22910814
-0.2545749 -0.21399097 2.408392 -0.12756906 -0.4219455 -0.2747918 -0.32989034 -0.3156008
-0.1834323 2.429196 -0.2582844 -0.282934 -0.5946669 1.8738657 -0.33343667 -0.44077817

fc3.weight f4 [3, 64]
00000000: 6bc9 34bc 9590 7dbd 52ce 92bd c482 debd
00000010: 94ec 5a3d 0578 bfbc 39ea ac3e 4142 253d
00000020: f299 993e 2daa a4bd 05e2 88bd 9904 f4bc
00000030: 5c13 cdbc fb0e 153f 61c6 b5bc cfea 113d
00000040: 608d b43c e2e3 51bd 0d64 1b3f 2bcd 4c3f
00000050: fbbf 09be 8e1c b3bd 9cfd e23c 7d94 263f
00000060: e1a0 03be 9e4b 9a3e 12de 963e 4486 173f
00000070: 5665 283f 2d0c 74bf 0f7a 61bd 01b3 00be
00000080: 08e8 1e3f 8c8c 263d 6e66 c3bc 4807 1a3f
00000090: 78a6 bf3d 0c37 11bc 27a9 ea3d 8de5 e1be
000000a0: 4bf0 8f3b 1b2b 5bbd c3ed 8c3c fabd 033d
000000b0: c190 c7bd af4f cebd 7e23 093d 576f e83d
000000c0: 3edb 733b 65a7 373c 977f 31bf c2b1 333f
000000d0: 1f13 71bd 474b c6bd 6e15 4dbd a275 2e3d
000000e0: e9da 0d3d 18af 103e 1e6b a9bd 38c1 623c
000000f0: d5be 163f 60bd e1bd f7b9 963b ea6f 6fbd
00000100: 18d4 173c ab28 63bd 40ab dfbc cbcb e9bc
00000110: de71 953c f184 2fbd 55ce 803e 42d9 cfbd
00000120: d843 9f3e cb3f 94bc da67 70bd 8d7e 94bd
00000130: cd8f 88bd e433 223f dc13 32be 9bf5 abbb
00000140: c685 c4bc 4d8a 94bc cd66 133f 4859 473f
00000150: 24d9 adba 6628 343c 6524 64be bcb6 383f
00000160: f254 47bc 0b1d c93e aa79 ae3e 36f8 163f
00000170: 8a0a 2f3f 5a1a 30bf 5c64 04bf 7aa1 203c
00000180: 48e9 143f d9e3 ebbd 1fa4 ec3c fca3 1b3f
00000190: 5cd0 8b3d 5583 5cbd 46b7 c2bc f6f1 5cbf
000001a0: 0eaa fabc 4eb7 69bd 8eab 15bd e232 143d
000001b0: df71 bbbc c667 a3bd e388 40bd d591 37bc
000001c0: 2489 983c 8b17 6cbc 26c9 cdbe eb6e 363f
000001d0: cbee 2cbd edd6 7ab9 4cf4 4b3c 4742 1ebc
000001e0: 25d7 f7bc a86c 963a b815 a33c 139e 0a3d
000001f0: e13a 043f 4a6b aabd 2424 56bd 6b46 973d
00000200: 0174 6b3d 7634 91bd 7393 04bd 7b68 13bd
00000210: 7314 4ebd 0bd2 0f3c 59bb 933e 431b 9abc
00000220: bb58 483e 690d 57bc fd0f 47bd 538c b53c
00000230: a795 a4bc 147e 213f b9d3 33bc 07cd 0d3d
00000240: 872d 23bc 49b8 66bd 9366 243f ac0e 3e3f
00000250: 2a2f 53bd 5a7b 5cbd 3984 f6bd 7427 363f
00000260: 013c 70be 735c 0b3f 76e1 833e 0769 1a3f
00000270: 2709 2f3f fe91 74bf 7afc bdbe da77 09be
00000280: e90b 373f 6b4e 1abd 7f78 6abe 18e2 163f
00000290: 72ea ad3d ef34 2ebd b4b8 61bc 14d0 87be
000002a0: 89ed b4bc 12d8 a3bc 8ff3 5ebe a5ec 053d
000002b0: 7fd1 4dbd e443 443d 4fff aebc c0ae c7bc
000002c0: 7742 ee3c 1d9b c0bc 9f88 c6be cbc3 313f
000002d0: 4add 4a39 fc46 b8bc cb1a c5bc 36ed 26bd
000002e0: 5c1f 743d f392 913c c96a 9ebb c633 db3b
000002f0: 3fb8 243f c057 69be 5df1 bbbc f9d0 96bd
-0.01103435 -0.061905462 -0.07168259 -0.10864785 0.053448275 -0.02337266 0.33772448 0.040346388
0.30000263 -0.08040271 -0.06683735 -0.029787349 -0.025033645 0.58225983 -0.022189321 0.03562432
0.02204007 -0.051242717 0.6069954 0.8000056 -0.13452141 -0.08745681 0.027708821 0.65070325
-0.12854339 0.30135816 0.294663 0.5918925 0.65779626 -0.9533108 -0.055048045 -0.12568285
0.620728 0.04066138 -0.023852553 0.6016736 0.09357923 -0.008863222 0.114580445 -0.44120446
0.004392659 -0.053507905 0.017203217 0.032163598 -0.097444065 -0.10073792 0.033481114 0.113493614
0.0037209536 0.011209344 -0.6933531 0.7019311 -0.058856126 -0.09682327 -0.050069265 0.042592652
0.034632597 0.14129293 -0.08272384 0.013840012 0.58884937 -0.110224485 0.0045998055 -0.05845634
0.009266876 -0.055458706 -0.027303338 -0.028539559 0.018242773 -0.042851392 0.2515742 -0.101488605
0.31106448 -0.018096825 -0.05869279 -0.072507 -0.06668053 0.6336043 -0.17390388 -0.0052477843
-0.02398957 -0.018132353 0.57578737 0.7787061 -0.0013263565 0.01099596 -0.22279508 0.7215383
-0.012166249 0.3927997 0.34077197 0.5897249 0.68375456 -0.6879021 -0.51715636 0.009804124
0.5816846 -0.11518068 0.028886853 0.60797095 0.06826851 -0.053836185 -0.023769032 -0.86306703
-0.030598667 -0.05705958 -0.03654056 0.036181338 -0.022881446 -0.079787776 -0.047005545 -0.011204203
0.018620081 -0.01440991 -0.40192527 0.71263 -0.04221992 -0.00023921924 0.012448382 -0.009659356
-0.030253956 0.0011476474 0.019907817 0.033842158 0.5165234 -0.08321245 -0.05228056 0.07386478
0.057483677 -0.07090084 -0.03236718 -0.035988312 -0.05031247 0.0087781055 0.28853872 -0.018811828
0.19565098 -0.013125756 -0.048599232 0.022161638 -0.020090891 0.63083005 -0.010975772 0.034619357
-0.009959585 -0.05632809 0.64219016 0.7424114 -0.05155865 -0.053828575 -0.12036938 0.7115395
-0.2346039 0.5443794 0.2575795 0.6031651 0.6837334 -0.95535266 -0.37106687 -0.13424626
0.7150255 -0.03767244 -0.22897528 0.5893874 0.084919825 -0.04253095 -0.013776947 -0.2652594
-0.022085922 -0.020000491 -0.21772598 0.032696385 -0.05024862 0.047916308 -0.021361975 -0.02437532
0.029084427 -0.023511464 -0.3877611 0.6943938 0.00019346658 -0.022494785 -0.024060627 -0.040753566
0.05960022 0.017770266 -0.004834507 0.0066895215 0.6434364 -0.2278738 -0.02294224 -0.07364077

fc3.bias f4 [3]
00000000: d7ad 06bd f279 16bf c150 a2bc
-0.03288063 -0.58779824 -0.019813897
