Models/DQN/agentDQN_2018-2020_dqn_v3_200_EPS_7.pth (torch, 90039 bytes, 6 tensors)

fc1.weight f4 [128, 104]
000000 5b c0 58 bc b9 35 78 bc 47 52 25 bd e2 e6 af bd
       -0.013229455 -0.015149527 -0.04036167 -0.08588959
000010 85 ee 89 bd b4 f0 03 be a4 88 88 bd c1 51 a0 bd
       -0.06734947 -0.1288479 -0.06666687 -0.07828093
000020 c8 b6 0e be 92 5c 0c be 54 d7 28 bd c7 cd cf bd
       -0.13936913 -0.13707188 -0.041220978 -0.10146671
000030 3d ea 08 bd 0f 3d 9a bd 50 ab 10 be eb 03 66 bd
       -0.033426512 -0.07531177 -0.1412785 -0.05615608
000040 c6 5c 45 be cf 48 37 be 4c 34 f6 bc 74 80 de bd
       -0.19273672 -0.17898868 -0.030054234 -0.10864344
000050 c2 5a 6c bd 77 ea 11 be af ac 12 be 58 87 02 3e
       -0.05770374 -0.14249597 -0.14323686 0.12746942
000060 57 ad a7 bd 0d aa 97 bd 8f cb c4 3d 63 0d 8c 3d
       -0.08187359 -0.074054815 0.09609138 0.06838491
000070 77 e0 5b bd 43 6d ab 3c 97 90 c4 3d 31 75 ba 3c
       -0.053680863 0.020926123 0.09597891 0.02276096
000080 10 c3 14 3e 09 a9 3b 3e 84 91 e2 3d 36 c2 2c 3e
       0.14527535 0.183262 0.11062911 0.1687096
000090 46 1b 01 3e 43 f9 0e 3e 94 8a 40 bc 49 15 52 3d
       0.1260806 0.13962273 -0.01175179 0.05128983
0000a0 f3 fa 4a 3d 45 9f 54 3c 0f 06 0e 3e ea f7 38 bb
       0.04955573 0.012977426 0.13869499 -0.002822394
0000b0 87 44 cd 3d f0 7b fd bd 6a 53 46 3d cd 4b 31 3d
       0.10022836 -0.12377155 0.048419394 0.04328518
0000c0 62 ac 31 3c 81 46 20 3d 01 d4 d9 3c 4d c5 85 bd
       0.010844322 0.039129738 0.02659035 -0.06531773
0000d0 3e c1 05 bd 92 3d a8 3d b5 cc 5f 3d 02 18 24 be
       -0.032654993 0.082148686 0.054638583 -0.16024783
0000e0 55 0b 36 be 13 4f f4 bd 1f e6 80 bd 42 b0 9f bd
       -0.1777776 -0.11929145 -0.06293892 -0.077972904
0000f0 c8 dd 6f 3d 1e aa cd 3d 64 a2 ef 3c 92 fa 82 3d
       0.058561116 0.10042213 0.029252239 0.06395449
000100 20 04 a3 bd 55 80 a5 3d 51 45 92 bd 9e a2 22 be
       -0.07959771 0.08081118 -0.07142127 -0.15882346
000110 25 78 28 bd 5c b4 43 bd d7 0e 8e bd 2f 46 21 be
       -0.041130204 -0.047779426 -0.06936424 -0.15749429
000120 34 06 25 bd 98 17 92 bc 21 0d a1 bd 34 48 d8 bc
       -0.04028912 -0.017833516 -0.07863832 -0.026401617
000130 ca e1 98 bc e8 6c 1d be e6 58 32 be dd 91 05 be
       -0.018662352 -0.15373576 -0.17416725 -0.13043924
000140 a9 f6 1f be 4e c3 c2 bd cd ab 38 be c3 2c 93 bd
       -0.15621437 -0.09509908 -0.18034287 -0.07186272
000150 48 64 8c bd d1 4c 38 be d0 1f b6 bd 43 4b 07 be
       -0.06855065 -0.17998053 -0.088927865 -0.13212304
000160 33 c5 b8 bd d6 bd 48 be 3e 46 fc bd 81 0b c9 bd
       -0.09021988 -0.19603667 -0.12318085 -0.09816647
000170 a9 04 2a be 81 f6 07 be 8a a5 6d bd 2e df 18 be
       -0.1660334 -0.13277628 -0.0580192 -0.14928886
000180 62 2b 00 3c 53 34 3b be 21 17 7e bd c2 44 31 3d
       0.007822843 -0.18281679 -0.062033776 0.043278463
000190 25 8b 4b bd 2b ba bb bc f3 3f c4 bd ac 7a 3c bd
       -0.049693245 -0.02291592 -0.0958251 -0.046015427
0001a0 ec 9c e6 bd 08 ac 1d bb 1d 42 a1 bd 2e 85 ec bc
       -0.11260399 -0.0024058837 -0.07873938 -0.028872099
0001b0 b8 06 df bd e6 6a a2 3c 16 7f 01 be d9 38 4f bd
       -0.108899534 0.019826364 -0.12646136 -0.050591324
0001c0 02 c7 a3 bd bc 48 8a bd 5c ef 82 bd 6a e1 a7 bc
       -0.07996942 -0.06752154 -0.063933104 -0.020493228
0001d0 05 f8 17 be 76 ae 1c bc 82 89 5b bd 3b 14 81 bd
       -0.14840706 -0.009563079 -0.053597935 -0.06302687
0001e0 52 a1 74 bd 9c 43 b0 bd ca bf ee bd 16 fe 78 bd
       -0.05972416 -0.086066455 -0.116576746 -0.06078919
0001f0 f0 c5 99 bd 07 4f 14 be b2 b1 06 bd 5b 09 36 3d
       -0.07508457 -0.14483272 -0.032884307 0.044442516
000200 b1 95 05 3d 10 8a b2 bb 59 12 90 bd 11 04 55 3d
       0.03261346 -0.0054485872 -0.070347495 0.05200583
000210 db f1 c5 3d 19 55 52 bb 02 36 46 3d 94 db c3 bd
       0.09665271 -0.003209418 0.04839135 -0.095633656
000220 58 49 25 3d a5 26 85 3d 05 b6 87 3d 0b 25 b8 bc
       0.04035315 0.065015115 0.06626514 -0.022478601
000230 b1 db aa 3d 83 85 00 3d 06 c1 a2 3d e9 0f 0d 3d
       0.08342684 0.031377327 0.079469725 0.034439
000240 3f 25 33 bd c0 0e fb bc bc e7 90 39 b3 7c 10 3e
       -0.043736693 -0.030646682 0.00027638476 0.14110069
000250 cf 5c 31 bd 5f 96 83 bb 08 5d b0 3b 0e 16 e1 3b
       -0.0433014 -0.0040157284 0.005382184 0.006869084
000260 ab 24 1f 3e 43 79 62 bd db fb 0b 3d a0 a7 11 bd
       0.15541331 -0.055291425 0.034175735 -0.03556025
000270 63 63 6f bd e7 43 4b 3d 83 8f e5 bd c6 9e 1c bd
       -0.058444392 0.049625304 -0.11209013 -0.038237356
000280 b0 76 4b bd 90 4a a0 bd d0 e9 0c bd aa 0b 22 3d
       -0.049673736 -0.07826722 -0.03440267 0.039561905
000290 94 9b 7d bc 19 20 0b be 0b 93 3f 3e b8 c4 90 3b
       -0.015478987 -0.13586463 0.18708436 0.004417982
0002a0 57 8b 2a 3d ab a8 c7 3d ff 77 45 bb ee d8 ba bd
       0.04163679 0.09748968 -0.0030131338 -0.09123407
0002b0 02 3e d3 bd c0 c3 f8 bd 30 ed 2a 3b fc 1d c3 bd
       -0.103145614 -0.12146711 0.0026081316 -0.095272034
0002c0 58 a9 a7 bd 97 19 c5 3b 82 5e 34 bd 03 5c 9f bc
       -0.08186597 0.0060150134 -0.044035442 -0.019453054
0002d0 1a 95 13 be 5f e9 17 be f9 dc f3 bc e0 c6 22 be
       -0.14412346 -0.14835118 -0.029768454 -0.15896177
0002e0 bb 9c c5 bc 85 0d be 3c e1 1c 95 bd 7a b7 e2 bd
       -0.024122586 0.023199806 -0.07280899 -0.110701516
0002f0 0c a5 f6 bc d6 ea e9 bd 87 69 d7 bc fd 17 8b bc
       -0.030107997 -0.114217445 -0.026295437 -0.016979212
000300 c4 ae 92 bd c0 c9 d9 bc 5f 14 5d 3c 68 c6 68 bd
       -0.0716224 -0.02658546 0.013493626 -0.05682984
000310 df 69 9d 3c b0 b1 f8 3b 9e 7e d2 bd a9 6c 2d bd
       0.019215522 0.0075895414 -0.102780566 -0.042339955
000320 91 95 34 bc 73 05 b2 bd 88 b3 08 3d 46 f3 83 3d
       -0.011021988 -0.086924456 0.03337434 0.06442885
000330 92 cb 0f bd d9 d2 25 bc 00 2a 11 be 3f 11 ce bd
       -0.03510625 -0.010121071 -0.14176178 -0.10061883
000340 4e 23 65 3c 8c b9 de 3b 0a 37 e8 bc 59 19 cd bd
       0.013985468 0.0067970213 -0.028346557 -0.100146
000350 57 f1 99 bd 9f 6e 30 bb 3a b6 4c 3d 0c 4d f7 bd
       -0.07516735 -0.0026921404 0.049978472 -0.120752424
000360 f6 97 1a be 24 df 6b bd 7e e0 b9 3b 1b e3 98 bd
       -0.15097031 -0.05758585 0.0056725135 -0.07465192
000370 db b8 f3 bd f4 05 dd bd 59 8c 34 be 89 0a d3 bd
       -0.11900493 -0.10792151 -0.17631663 -0.10304744
000380 ae ba 76 bd c8 58 dc bd 54 19 34 bd a0 ce 9e bd
       -0.060236625 -0.10759121 -0.043969467 -0.07754254
000390 0b d9 18 be be 52 04 be 01 2b a0 bd 97 6a 85 3d
       -0.14926545 -0.12922189 -0.07820702 0.06514471
0003a0 83 0f a5 bd 3d bc 50 bd 89 7e 91 bd 08 81 ef bc
       -0.08059599 -0.050960768 -0.07104213 -0.029236332
0003b0 a3 9f 1f 3b cd 01 8a 3d 72 2a 70 3a b7 bd 11 3d
       0.0024356626 0.06738625 0.0009161598 0.035581317
0003c0 c1 31 6f 3d 7e 16 ac bd 10 85 28 3b 02 6c d8 bc
       0.05839706 -0.084027275 0.0025714077 -0.02641869
0003d0 83 17 47 3d ee d5 c3 bd 99 4a ab 3d 1f 03 05 3e
       0.048606407 -0.09562288 0.08363838 0.12989472
0003e0 48 a0 19 3b 0b 1c 9c 3c 91 6c c0 bd 2d aa 03 bd
       0.0023441482 0.01905634 -0.093957074 -0.032144714
0003f0 c5 65 49 bd 63 61 61 3b 00 d8 cc bd e7 a7 10 3d
       -0.04916932 0.0034390322 -0.10002136 0.035316374

fc1.bias f4 [128]
000000 0f eb fd bd 94 0b 84 bc eb 05 04 be 6f f3 59 be
       -0.123983495 -0.016118802 -0.12892883 -0.21284269
000010 5e 1a 2a bd d5 b9 ff bd bb 0b 63 be ed f3 76 3c
       -0.041529052 -0.124866165 -0.22172444 0.015072805
000020 8f fe 12 3d 9b 27 2c be 47 d9 0e bd 6f e0 3a be
       0.035887297 -0.16811983 -0.03487518 -0.18249677
000030 36 e6 d8 bd f6 89 84 3d 26 2e 50 bd c8 4f f7 bd
       -0.10590784 0.064716265 -0.05082526 -0.12075764
000040 22 30 48 be fc dc d3 bd 10 b0 e1 bd 9e 8f 37 be
       -0.19549611 -0.10344884 -0.110199094 -0.1792588
000050 13 81 a4 bd f8 e9 16 bd 18 97 59 be ba 88 21 bf
       -0.080324315 -0.036844224 -0.21249044 -0.63099253
000060 17 68 80 be d7 5e 44 be e1 41 13 be a0 8b f2 bd
       -0.25079414 -0.19176804 -0.143806 -0.118430376
000070 e8 8d 0c be f3 7d 06 3d b1 2b 3b be 7e 57 05 be
       -0.13726008 0.03283496 -0.18278386 -0.13021657
000080 74 3d 83 bd 76 59 95 39 97 b2 fd bc 8f 53 b5 bd
       -0.06408206 0.00028486148 -0.030968947 -0.08853828
000090 06 a0 5b bd fc aa ec bd 98 8d 15 bd 0e de ff bd
       -0.053619407 -0.1155605 -0.036511987 -0.124935254
0000a0 7f 0b 0e bf 15 b2 8f 3d a4 d7 01 be cc f6 1a be
       -0.5548629 0.07016388 -0.12679917 -0.15133208
0000b0 d7 bf cd bd 81 97 b3 bd 6d 1e 46 be 42 ed 58 bd
       -0.10046356 -0.087691315 -0.19347544 -0.05296064
0000c0 ad af 37 be c5 d9 44 3d a7 d0 0b be 96 19 23 be
       -0.17938109 0.048059244 -0.13653813 -0.15927729
0000d0 2f 17 14 bd 3f cc 54 bf 1b ce c8 bd 1e c7 d8 bd
       -0.036154922 -0.83124155 -0.098049365 -0.105848536
0000e0 e6 6d 03 be d1 93 88 be 76 0f 12 3d 3a 2f 08 be
       -0.12834892 -0.26675275 0.035659276 -0.13299266
0000f0 cd 58 a6 bd 93 00 48 be 99 49 d7 bc 77 b1 f0 be
       -0.08122406 -0.19531469 -0.026280211 -0.47010395
000100 b2 ed 92 bd c0 2e 96 bc 34 3f 21 be 5e 24 b0 be
       -0.07174243 -0.018332839 -0.15746766 -0.34402746
000110 cb 8b 20 3b 8c e4 cb bd 27 f9 99 bd 71 34 20 bd
       0.0024497386 -0.09955701 -0.07518225 -0.039112512
000120 5b 24 1e be 5f d0 db bd 5c 99 81 bd 5c e2 51 be
       -0.15443556 -0.10733103 -0.06328079 -0.20496505
000130 3c 62 27 be 07 dd 1a bc 83 50 a8 bd b8 04 ed bd
       -0.16346067 -0.009452111 -0.082184814 -0.11573166
000140 3e ca ca bd e0 40 e9 bd da 0b c8 bb c5 54 38 3b
       -0.09901856 -0.11389327 -0.0061049284 0.0028126698
000150 b4 b8 39 bd bc b4 aa bd db bb 75 be 73 fc 27 3c
       -0.045342162 -0.083352536 -0.23997442 0.01025306
000160 5d e3 38 be 51 e6 92 bd 95 98 cb bd bf 37 0e bf
       -0.18055482 -0.071728356 -0.09941212 -0.5555381
000170 5b 34 19 be 40 b1 22 be 51 e8 bb be 2e 18 17 be
       -0.14961378 -0.15887928 -0.3670068 -0.14755318
000180 fb f1 09 3d 64 90 5a be 06 e4 d2 3d 6e 20 70 be
       0.033678036 -0.21344143 0.10297398 -0.23449871
000190 d0 e5 c0 bc e3 25 27 be 32 cd 9c be c4 06 f7 3c
       -0.023547083 -0.16323046 -0.30625302 0.030154593
0001a0 c5 43 78 be 9a 19 20 be 6f ea 58 be dd 1c 95 3c
       -0.24244602 -0.15634766 -0.2118318 0.01820224
0001b0 c8 ac be be a6 44 ee bd b3 04 ca bd fa 40 80 be
       -0.37241197 -0.116341874 -0.098641776 -0.25049573
0001c0 33 7c fa bd 36 a6 21 be 93 cc 45 be 90 5a a3 be
       -0.1223072 -0.1578606 -0.1931632 -0.3190503
0001d0 b4 b3 9d bd d3 d9 8a be 98 28 36 be f4 79 75 bd
       -0.07700291 -0.27119312 -0.17788923 -0.059930757
0001e0 b5 8e 97 bb 7c 00 68 3d cf f4 11 be f5 c9 0b be
       -0.0046251663 0.056641087 -0.14253543 -0.13651259
0001f0 94 21 1a be c5 87 1e be b9 47 97 bd 01 8e 21 be
       -0.15051872 -0.1548148 -0.07386727 -0.15776826

fc2.weight f4 [64, 128]
000000 17 ff 60 3d 04 6f ca bc 22 61 b5 bd f4 71 76 3d
       0.054930773 -0.02471114 -0.08856417 0.060167268
000010 56 7e ec bd 53 78 2b 3d 98 4d ba bc a2 e9 8a bd
       -0.11547534 0.041862797 -0.022742078 -0.06782843
000020 ea 8d 5d bd 25 57 19 3d 28 aa 11 3d a6 a5 37 bd
       -0.054090418 0.037436623 0.035562664 -0.04483571
000030 97 cf 70 bd 06 6b 2e 3d 98 91 b8 3c fa e6 9e bd
       -0.058791723 0.042582534 0.022530362 -0.07758899
000040 22 20 89 bd 72 9b 71 bd fc 9a 15 3c 5c 13 02 3d
       -0.06695582 -0.058986135 0.009131189 0.031756744
000050 ba 62 5d bb 26 99 5e 3d 59 c7 5d 3c b9 75 d8 bd
       -0.003378077 0.054345272 0.013536298 -0.10569329
000060 74 2f 18 be d5 b3 5a 3d 2a 60 5f 3d f7 e4 7e bd
       -0.14861852 0.053394157 0.05453507 -0.062230077
000070 69 ac 61 3d d0 c6 93 3d 27 67 00 bc e0 46 89 3d
       0.055096064 0.07215655 -0.007837093 0.067029715
000080 f2 8b d9 3c 24 35 29 bd f0 17 02 3c cd b5 ad 3d
       0.026555989 -0.041310444 0.007940277 0.08481941
000090 06 5c 8a bc 65 5e bb bd 8b 42 13 bd 7e 7d 3e bc
       -0.016889583 -0.09148864 -0.035952132 -0.011626599
0000a0 fa 91 0c bd 90 97 c6 3c e5 c5 88 bd 30 bc 1c ba
       -0.0343189 0.024242193 -0.066783704 -0.000597897
0000b0 f7 e2 93 3d 37 9e 6f bd 1c c0 ed bd 5c 6a f8 3c
       0.072210245 -0.058500495 -0.116089076 0.030324154
0000c0 fa b2 1b bc 05 a8 aa 3d 11 31 e6 3c 7c d2 14 3c
       -0.009503121 0.083328284 0.028099569 0.0090833865
0000d0 f4 da 20 3d 8e 60 02 bd 7a e4 0c 3d e6 b5 33 3d
       0.03927131 -0.031830363 0.03439758 0.043874644
0000e0 8a 69 ca bd 6d fd 49 bd c7 16 a3 3d 99 19 43 3c
       -0.09883411 -0.04931395 0.07963329 0.011907958
0000f0 90 6e 1b 3c 67 2e 8f 3b 32 55 ed bd 76 d7 23 bd
       0.009486809 0.0043695453 -0.11588515 -0.0400004
000100 a0 86 93 3d 84 26 89 3d 00 24 a2 bd fe 5f 6b 3c
       0.07203412 0.066967994 -0.07917023 0.014366148
000110 40 36 94 bc e3 95 8f bc fc 48 b5 bd a8 4b 00 bd
       -0.018092275 -0.017527526 -0.08851811 -0.03132215
000120 12 c7 83 3d 27 90 7b 3d f7 9a b5 bc 7f f7 6f 3d
       0.06434454 0.06141677 -0.02216862 0.05858564
000130 f6 9b f7 3c 4d b2 58 bc c3 be 62 3d 9e 5c f4 bd
       0.030225735 -0.013226104 0.055357706 -0.11931728
000140 6d 56 21 bd 25 17 03 3c ad fb ac bd 66 e3 e9 bc
       -0.039389063 0.008001124 -0.08446441 -0.028550815
000150 e4 58 75 bd 67 ad d0 3c 95 cf c3 3c 70 53 b3 bd
       -0.059899226 0.02547331 0.023902694 -0.08756149
000160 80 aa 57 bd 67 70 83 b9 e0 86 54 bb bf 34 ad bd
       -0.052652836 -0.00025070013 -0.0032429025 -0.08457326
000170 ae 49 9e 3d f2 63 c5 bb b6 47 34 bc 79 66 4f 3c
       0.07728897 -0.0060238773 -0.011003425 0.012658709
000180 be b2 b3 bd 66 d5 39 3d 58 21 25 be bf 0e f7 3c
       -0.08774327 0.04536953 -0.16126001 0.030158399
000190 8d de 6c 3c d9 9b 9e bc 2e 09 79 3c c8 b4 c7 bd
       0.014457357 -0.019361423 0.0151999425 -0.09751278
0001a0 f5 0e 5a 3d 7f ef e6 bd 69 88 d7 3c 48 92 05 bd
       0.05323692 -0.11276149 0.026310163 -0.032610208
0001b0 72 5f cf bd ca 39 90 3d 2d 5b cd bc 68 01 02 bc
       -0.101256266 0.070422724 -0.02506789 -0.007934906
0001c0 71 2a bf bc 27 21 91 bc 7b 77 14 bd 85 0a 7e ba
       -0.023335667 -0.017716004 -0.036246758 -0.00096908986
0001d0 62 ff 9e bb 6c c6 29 bd b0 f4 24 bd fc c7 10 bc
       -0.0048522213 -0.041448995 -0.040272415 -0.0088367425
0001e0 d3 0a 3e 3d 0d 10 0e 3d fd b0 ae bd 25 46 23 bd
       0.04639704 0.034683276 -0.085298516 -0.039861817
0001f0 fc f8 37 3d 5a e2 56 3d bf 37 87 3c 2f 81 99 3c
       0.044915184 0.05246196 0.016506074 0.018738357
000200 27 a5 87 3d 5c b1 80 bd 17 b5 88 3d c7 e9 96 3d
       0.06623297 -0.062838286 0.06675165 0.07368808
000210 70 a9 47 3c e4 eb 52 bd 58 dd cf bd c6 50 82 3d
       0.012186393 -0.051494494 -0.1014964 0.063630626
000220 1f ce b4 bb 52 da ff 3c 93 2d 45 bd 8d 54 33 3d
       -0.0055177356 0.031232033 -0.048139166 0.043781806
000230 48 f3 9f bd 78 b9 1a 3c 78 a1 6c bc 16 61 08 3d
       -0.07810074 0.009443633 -0.014442794 0.033295713
000240 bf 2e d2 bd 62 6e 4a 3d c1 44 28 3c fd 96 99 bc
       -0.10262822 0.049421676 0.010270298 -0.018748755
000250 9b e7 4d bd 7a 1c 37 bd e2 8a 2c bc 36 50 2d be
       -0.050269704 -0.04470489 -0.010531159 -0.1692513
000260 39 86 ce bd 54 14 47 bc 2d 43 ef bd e9 8e 5d 3d
       -0.10084195 -0.012150843 -0.11682735 0.054091368
000270 8d dc b1 3d 28 d1 12 bc 61 af ab bd 7a 6f 1d bc
       0.08684645 -0.008961 -0.0838306 -0.009609098
000280 cc a1 90 bd 6d 75 a4 3d c0 70 16 3b 42 af aa bd
       -0.0706211 0.0803021 0.0022955388 -0.08334209
000290 42 a2 41 3d 47 30 ac bd ec 25 81 bd 40 95 ac 3c
       0.04727388 -0.08407646 -0.06306061 0.021067262
0002a0 b3 d7 9d bd ae 8d 46 3d bf 55 9e bd 61 00 91 bd
       -0.07707157 0.04847496 -0.077311985 -0.070801504
0002b0 bf d1 00 3d bd 26 4f 3c 9a e8 c8 bd e9 c7 9d bd
       0.03145003 0.012643513 -0.0980999 -0.077041455
0002c0 cd f1 73 bd e8 0f 76 3c c0 91 9d bd cd 06 83 bd
       -0.05955677 0.015018441 -0.07693815 -0.063977815
0002d0 bc 74 a6 3c be 32 c8 bc 60 77 a5 bd c8 6a b0 3c
       0.020319335 -0.024438258 -0.080794096 0.021535292
0002e0 e3 8b 4c be f2 ab ad bd e0 e5 3e bb 01 b3 8d bd
       -0.19975238 -0.084800616 -0.0029128715 -0.06918908
0002f0 47 a5 68 3d 9e 7a c6 bd 5f 19 99 3c da c5 ab bd
       0.056798246 -0.09691356 0.018688856 -0.083873466
000300 d3 12 81 3b 82 ee 08 bd 80 83 32 3a 19 34 a2 bd
       0.0039390116 -0.033430584 0.0006809756 -0.07920093
000310 2e b4 32 3d c4 5a b0 bd 2e 8c b3 bd ae 3a ce 3c
       0.043628864 -0.08611062 -0.087669715 0.025174465
000320 13 f8 2f 3c 30 ea 44 bc c8 a5 c0 bc af 31 30 3d
       0.010740298 -0.012018725 -0.02351655 0.043016132
000330 e2 f1 cc bd 79 b7 38 bb cc 0c 6d 3c 6d 67 2c bd
       -0.10007073 -0.002818553 0.014468383 -0.042090822
000340 48 ff 3b bd e3 f5 cf bd ac e0 82 bc 2f 0d ed bc
       -0.045897752 -0.10154321 -0.015976273 -0.02893695
000350 52 54 ae 3d 1d cb 10 bc f7 21 0d be c7 69 bf bd
       0.085121766 -0.0088374885 -0.13782488 -0.09346347
000360 2d 4c 94 bc 6c 32 05 bd 93 15 bd bd 2d e0 e9 bd
       -0.01810273 -0.03251879 -0.092326306 -0.11419711
000370 cf dc da 3c 43 7f 5e bd 69 e6 f8 bc 21 a4 83 3d
       0.026716618 -0.054320585 -0.030383306 0.064277895
000380 16 5f 62 3d e5 26 2c 3d 02 81 bd bd f4 bd e1 bd
       0.055266462 0.04202928 -0.09253122 -0.11022559
000390 5a 3d c0 bb d6 c2 64 bb 42 10 45 3d 67 f1 5d 3d
       -0.0058666887 -0.003490617 0.048111208 0.054185297
0003a0 1d 22 1a be 86 34 b6 3c 46 0d fe bc 68 74 4c bd
       -0.15052076 0.022241842 -0.031012189 -0.0499157
0003b0 4b 58 88 bb 92 e6 b9 3c 90 a3 6a bd 13 88 a4 bc
       -0.004160916 0.022692952 -0.05728489 -0.020084416
0003c0 20 22 76 3d 2d b1 2a bd 55 65 c5 bd 66 4a b9 bd
       0.060091138 -0.041672874 -0.09638468 -0.090473935
0003d0 50 43 18 3b fb 24 15 be 7e 7d 85 bd c8 98 13 3d
       0.002323348 -0.14564888 -0.06518076 0.036034375
0003e0 5e be 97 3b 18 58 d6 3c bc 60 96 3d 9e f7 21 3c
       0.004630848 0.026165053 0.07342669 0.009885697
0003f0 46 76 4d bd e0 67 cf bc b7 df aa bd 8f 9f 57 3b
       -0.050161622 -0.025318086 -0.083434515 0.00329015

fc2.bias f4 [64]
000000 3c 8b 96 bd fd d7 36 be 8e ad cc ba 3d 21 94 3e
       -0.073507756 -0.1785583 -0.0015615688 0.2893161
000010 88 fd db bd 6f c1 0b be 78 0a 9f bd 3c bf c2 3e
       -0.107417166 -0.13648008 -0.07765669 0.38036525
000020 94 fa 05 3f 5f 3d a0 bc a6 d1 88 be 7e ba 39 be
       0.52335477 -0.019560514 -0.2672245 -0.18137547
000030 0d 00 43 bd 57 e4 68 3c 3e 19 9e 3e ea e3 8c 3e
       -0.04760747 0.014214597 0.30878633 0.27517635
000040 05 34 27 be 67 a4 f1 bd 52 95 81 bb 5b 1d 90 3d
       -0.16328438 -0.117989354 -0.003954568 0.07036849
000050 11 c8 e8 bd 6c 82 69 3e 5c 62 79 be eb 65 d6 bd
       -0.11366285 0.22803658 -0.24353927 -0.10468658
000060 0e d9 a8 bc 00 99 e0 3e 2a f1 74 bd 02 4c d0 bd
       -0.020611312 0.4386673 -0.059800304 -0.10170747
000070 f5 25 e1 ba a2 f8 d2 bd e6 5a 96 3e 8a c0 fb bd
       -0.001717745 -0.10301329 0.29366225 -0.12292583
000080 9b 9b 91 bd 0d 2f 40 be 45 84 09 bd 4f 0c 05 3f
       -0.071097575 -0.18767948 -0.033573408 0.51971906
000090 94 c1 45 be 87 a1 05 be 6f 1b f3 bd c4 90 f9 bd
       -0.19312125 -0.13049899 -0.11870467 -0.12185815
0000a0 a4 8e 93 bd d8 d9 13 be 77 61 9c bd 9c f8 96 3d
       -0.07204941 -0.1443857 -0.076357774 0.07371637
0000b0 0c 03 7b be c3 36 e6 bd 1a 08 f0 bc 33 02 df bd
       -0.24512881 -0.11240914 -0.029300738 -0.10889091
0000c0 3e 43 e1 3e 74 bb f3 bd 49 9c 97 bd 26 a5 5a bc
       0.43996614 -0.11900988 -0.07402856 -0.0133450385
0000d0 9c 1b 9a bd 73 b2 05 3e 0e af cb bd 78 3a 1c be
       -0.07524797 0.13056354 -0.099454984 -0.15256679
0000e0 48 e6 4f bd 9e 3d 9b bd 7b b2 38 be c6 1b 37 be
       -0.050756723 -0.07580112 -0.18036835 -0.17881688
0000f0 9f ae 1a be 7c 6b 37 be 2f ea a8 3d ef 65 ff bd
       -0.15105675 -0.17912096 0.08247792 -0.12470614

fc3.weight f4 [3, 64]
000000 ef 07 16 3c 9d 09 9a bb 3b 92 ed 3c e2 2a 88 3e
       0.009157165 -0.004700853 0.029000392 0.26595217
000010 fb 24 99 3c 1d dd a5 bd 97 c4 36 bd 95 5d 2b 3f
       0.018694391 -0.08098815 -0.044621076 0.6693967
000020 a2 5e 35 3f 2f 72 8d bd 42 1c 0f 3d 6b c1 fa bc
       0.70847523 -0.069065444 0.034939058 -0.030609807
000030 2f 05 76 bb 5d 0b 7c bc e5 33 24 3f 51 f1 2a 3f
       -0.003753971 -0.015383569 0.64141685 0.6677447
000040 b7 f3 00 3d b0 a4 93 3d e2 48 cc 3b f8 62 1c bd
       0.031482425 0.07209146 0.0062342742 -0.03818032
000050 51 a5 21 bc ed 8a 30 3f 62 ff 2f bd a2 d9 57 bd
       -0.009866075 0.68961984 -0.04296816 -0.052697785
000060 45 25 94 b9 d8 1b 20 3f 65 ba b9 bc 04 7d 0b bd
       -0.00028256528 0.62542486 -0.022671888 -0.03405477
000070 00 08 81 bd 0f 9b ce 3c 90 b5 31 3f e2 19 86 bd
       -0.06300354 0.025220422 0.6941767 -0.065479055
000080 c0 55 e1 3c eb 73 2e bd 35 c5 08 3c 88 1c 2f 3f
       0.02750671 -0.042591017 0.008347799 0.6840291
000090 bb 18 6d bc ce 19 11 3d ef dd 18 3d c6 46 c0 bd
       -0.014471228 0.035425 0.037321027 -0.09388499
0000a0 6d 77 f1 3c e3 bd 87 3d bf 3e 5a 3d 00 5c 06 3e
       0.029475892 0.06628015 0.053282496 0.13121033
0000b0 46 16 12 3c d0 ca b2 bc a9 e3 f2 bb 79 a2 75 bd
       0.008916443 -0.021825224 -0.007412393 -0.0599694
0000c0 b2 92 30 3f 11 d0 e5 bc fc 73 05 bd 51 5b 50 bc
       0.6897384 -0.028053315 -0.032581314 -0.012717084
0000d0 51 09 d0 bd 10 8a 1b 3f 60 be 2d 3d 99 58 1a 3d
       -0.10158027 0.6075754 0.042417884 0.03768215
0000e0 5d dd 6f 3c 4d 3d 94 3c 63 be 5f 3c 21 be ef bb
       0.014640179 0.018095637 0.013656232 -0.0073163663
0000f0 8d 8c 12 bc 6a e3 65 bc 2b 71 87 bd d3 31 f6 bd
       -0.008944643 -0.0140312705 -0.06613382 -0.12021222
000100 41 e8 d4 bc c2 49 b4 bc 1f a1 46 3d da 5b 89 3e
       -0.025989654 -0.022007827 0.0484935 0.2682789
000110 a3 80 bc 3b 14 c3 0a 3d 50 60 aa 3c a2 49 1f 3f
       0.0057526394 0.033877447 0.020797879 0.6222173
000120 75 ca 43 3f 86 7a 07 bc 63 c2 2b 3c 79 9e 0d 3b
       0.764808 -0.008268958 0.010483357 0.002160935
000130 81 f2 d7 3c 03 31 ba 3d 4d f6 3c 3f a4 bd 32 3f
       0.026360752 0.090913795 0.73813325 0.6982062
000140 f8 6b 9b 3d d4 4d 9b 3d fc 6a 7d 3b aa 16 1d 3d
       0.07588953 0.07583204 0.0038668504 0.038351692
000150 71 a1 59 bb da 03 38 3f 8c f8 b2 bc ef 78 20 bd
       -0.00332078 0.71880877 -0.021847032 -0.03917783
000160 26 44 9d bc cc 9b 1f 3f 35 ab 49 3c ff 2b 4f 3d
       -0.019197535 0.623471 0.012308885 0.050579067
000170 9b e9 88 3d 39 a0 af 3c 12 7b 3c 3f ef 13 7d 3c
       0.06685182 0.021438705 0.7362529 0.015446647
000180 7c 1e 03 bd 3a 3a ce bc 28 04 1a bd b3 c6 33 3f
       -0.032011494 -0.025174249 -0.03760162 0.70225066
000190 2f 3c c7 3c da 5c f8 bc 07 41 2a 3d 1b 51 10 bd
       0.02432069 -0.030317713 0.04156592 -0.0352336
0001a0 eb 1d 96 bc d9 40 c1 bb 33 8d c1 bd 8a 39 0e 3e
       -0.018324813 -0.005897623 -0.0945076 0.13889137
0001b0 b7 e7 4d bd 66 62 a3 3c 4a 84 05 bd 6c 24 b6 bd
       -0.05026981 0.019944381 -0.032596864 -0.08893666
0001c0 09 46 3e 3f 66 b4 f9 bc 9f 2c 0f bb 0f d3 2d bd
       0.74325615 -0.030481528 -0.0021846665 -0.04243761
0001d0 f5 90 e9 bd 13 3c 18 3f 10 69 85 3c da 34 0c bc
       -0.114046015 0.59466666 0.01628545 -0.008557523
0001e0 04 4a 78 3d 89 48 80 3a 23 d6 12 3d f5 49 a2 3d
       0.06061746 0.0009787242 0.035848748 0.079242624
0001f0 a4 37 b4 bc 54 16 56 3d 22 3b 8c 3d bf c9 ce 3c
       -0.021999188 0.052267388 0.06847216 0.025242684
000200 33 74 d0 bc 13 42 c6 bc 56 3f e8 3a da 31 93 3e
       -0.025446033 -0.024201429 0.0017719071 0.2874897
000210 20 2a 81 bd 17 90 02 bc d0 24 25 bc 89 15 30 3f
       -0.06306863 -0.007968924 -0.010079578 0.6878286
000220 38 70 25 3f 3f 7e c7 3c a2 9a d4 bc 67 a1 6a 3d
       0.6462436 0.024352191 -0.02595264 0.05728283
000230 de 9e 74 bc 16 f8 59 3e a4 09 28 3f 7c 37 3b 3f
       -0.014930455 0.21286044 0.6563971 0.7313154
000240 e5 da c5 3c 50 64 42 3d 06 0f 78 bd a5 03 a4 3d
       0.024152229 0.047458947 -0.060561202 0.08008508
000250 71 e9 aa bd 5e 55 36 3f 07 18 7e 3c 0f 71 6b bd
       -0.08345307 0.7122401 0.015508658 -0.057480868
000260 a9 93 75 bd 1f 5b 1d 3f 8a 0e 47 3c d4 c6 b8 bc
       -0.059955273 0.61467165 0.0121494625 -0.022555746
000270 9f 17 32 3d a4 84 d7 bc 81 56 30 3f ff 56 a1 3c
       0.043479558 -0.026308365 0.68881994 0.019694803
000280 10 24 51 3c 2b f7 24 bb f9 52 74 bd 9b ac 30 3f
       0.012764946 -0.0025171738 -0.05964944 0.69013375
000290 e5 dc a2 bc 1a fb bb bc a6 e4 5e 3a d9 62 93 3d
       -0.019880721 -0.022946883 0.0008502699 0.07196588
0002a0 56 f5 72 3c f1 45 3c ba 26 67 28 3c f3 88 0a 3d
       0.014829 -0.0007182053 0.010278499 0.03382201
0002b0 8e 66 d2 bc e8 db 40 3c 9d 94 8f bc 6b c1 39 3d
       -0.025683668 0.01177118 -0.017526919 0.045350473
0002c0 b9 43 3b 3f 5f cc 3c 3c 21 a1 aa bc aa 4f da bd
       0.7315021 0.011523335 -0.020828785 -0.10659726
0002d0 58 03 e4 3c 76 aa 20 3f e6 cd bb 3c 58 a7 74 bc
       0.027833626 0.627601 0.022925328 -0.014932476
0002e0 b1 c0 30 3c db 38 cf bc 82 04 32 3b 84 85 a2 bc
       0.010788129 -0.025295665 0.0027163331 -0.019839056
0002f0 1a 07 ff 3b 86 67 d2 bc 21 c2 e8 3d 1b 64 92 bc
       0.007782829 -0.02568413 0.11365152 -0.01787

fc3.bias f4 [3]
000000 0b 94 38 be 43 79 22 be b7 17 8c be
       -0.18025224 -0.1586657 -0.27361843
